drafts/draft_03/runs_lunarlander/dqn_trial04_seed42.pth (torch, 279705 bytes, 6 tensors)

net.0.weight f4 [256, 8]
0.2191817 0.33005485 -0.019206857 0.620244 -0.3264456 0.38273886 -0.6377742 -0.019104254
0.79894286 -0.13332349 0.58766305 -0.05960905 0.21386392 0.12896329 -0.007820907 0.060758352
0.13987136 0.056136 0.039388385 0.30220112 0.22687368 -0.019988991 -0.09943556 0.41025153
-0.40535885 -0.13323542 -0.08165599 -0.42509776 0.379812 -0.14654636 0.3399091 -0.35976052
0.24120982 0.13727286 0.059549153 0.56219506 -0.380092 0.34995332 0.22259842 -0.10557136
0.1364061 -0.095600136 0.6052739 0.43858838 -0.32244173 -0.30055597 0.10197849 0.030422127
0.12107544 -0.25606966 -0.21654487 -0.40145186 -0.110805094 0.5017994 0.24668476 0.20632355
0.0034299425 -0.023140917 0.9805351 -0.3532674 0.0054331818 -0.18627983 0.23886198 -0.2395279
-0.025553633 -0.27728084 0.13773204 -0.26405677 -0.52524257 -0.6710649 0.52620214 0.28556532
0.5603948 -0.20065172 -0.3445949 -0.5093905 -0.39389965 0.09350993 0.13838224 0.37887698
-0.3173123 -0.2383622 0.07047246 -0.5932309 0.1338389 0.03716866 0.12221629 -0.34468216
-0.37480283 -0.14055729 0.26887617 -0.013937622 -0.101083025 0.59156877 0.063040935 -0.6103612
0.41993347 0.0018160607 -0.23270848 -0.5066936 -0.3228946 -0.08318763 -0.35625356 -0.4405024
-0.06784997 0.013423529 -0.22683786 -0.46801326 0.009678302 -0.39383695 0.4027109 0.10785782
-0.002387123 -0.29798755 -0.20121631 -0.631377 0.117012404 -0.12660049 -0.1667266 -0.39185926
0.015766656 -0.26700094 0.13315585 -0.288198 -0.5167156 -0.5164195 -0.48655835 -0.23533873
0.19807945 -0.14302847 0.25988704 -0.00063928345 -0.54002774 0.32415974 0.15469773 -0.029956222
-0.2347903 -0.265669 -0.021333408 -0.48448274 0.1379649 -0.23564044 0.4044294 -0.21687052
-0.20224914 0.113853805 0.10022777 0.5542704 0.47040457 -0.4613355 0.14157514 -0.10548701
0.04248519 -0.11197414 0.33448204 -0.7648092 -0.25459358 0.07154135 -0.03847304 -0.3592856
0.5148021 0.18216306 0.19950525 -0.49346367 0.16018605 -0.31272 -0.3697736 0.25508973
0.034765873 -0.16888037 -0.27495253 0.03337563 0.4523554 0.35418436 -0.29535916 -0.6440981
-0.14807002 0.2723153 0.46526086 -0.5333697 -0.040562164 0.10788305 -0.47382036 -0.42886376
0.35255483 0.29797742 0.18665637 -0.13786763 -0.24611421 0.008752255 -0.5432688 -0.24925214
0.29973388 0.4030955 0.19101752 -0.15531631 -0.23624927 -0.14405738 0.20699607 0.114605
-0.21961412 -0.15514533 0.15223987 0.36144766 0.01237498 -0.32977077 -0.24906257 -0.623014
0.0023627353 0.20983312 0.17882888 0.20494115 -0.2823383 -0.5559378 0.021860056 0.5430659
0.018701918 0.0048606577 0.0075541637 -0.01995212 -1.0784379 0.13768809 0.045080885 -0.061915454
-0.087744966 0.27868792 0.21320148 0.25195926 -0.23771966 -0.57438964 -0.30248758 0.48394147
0.15055999 0.34921682 0.22282898 0.17926583 -0.41626933 -0.464008 -0.6050788 -0.088457495
0.18942642 -0.040240873 -0.08583092 -0.4545688 0.19567415 -0.59409326 -0.312316 0.06943768
-0.0439931 0.3560643 -0.13133335 -0.39667743 0.026170082 -0.26400566 -0.5610076 -0.6839292
00000000: 2b71 603e f3fc a83e b357 9dbc 50c8 1e3f
00000010: e123 a7be 59f6 c33e 2c45 23bf 8680 9cbc
00000020: 8587 4c3f f485 08be 1671 163f 9f28 74bd
00000030: 25ff 5a3e f40e 043e 4323 00bc c0dd 783d
00000040: 703a 0f3e ddee 653d b755 213d 1bba 9a3e
00000050: 9351 683e f4bf a3bc dfa4 cbbd 7d0c d23e
00000060: 328b cfbe de6e 08be 413b a7bd 6aa6 d9be
00000070: b876 c23e 4010 16be 9108 ae3e 8832 b8be
00000080: b5ff 763e 4291 0c3e d0e9 733d 04ec 0f3f
00000090: 6b9b c2be 152d b33e d7f0 633e cc35 d8bd
000000a0: 0aae 0b3e 01ca c3bd 3bf3 1a3f a88e e03e
000000b0: 1517 a5be 79e2 99be 19da d03d d337 f93c
000000c0: 66f6 f73d 901b 83be f0bd 5dbe 198b cdbe
000000d0: c8ed e2bd ed75 003f ee9a 7c3e 7b46 533e
000000e0: e3c8 603b 0592 bdbc 5904 7b3f 77df b4be
000000f0: d508 b23b 24c0 3ebe 3c98 743e cd46 75be
00000100: da55 d1bc c1f7 8dbe a109 0d3e 7332 87be
00000110: 4c76 06bf e9ca 2bbf 2fb5 063f 9e35 923e
00000120: 0976 0f3f a577 4dbe be6e b0be 6a67 02bf
00000130: 37ad c9be 2282 bf3d 13b4 0d3e 2afc c13e
00000140: c276 a2be 3815 74be dd53 903d fbdd 17bf
00000150: 110d 093e 2a3e 183d 894c fa3d 2e7a b0be
00000160: 28e6 bfbe 40ee 0fbe 23aa 893e a05a 64bc
00000170: 9e04 cfbd 0d71 173f 9b1b 813d a240 1cbf
00000180: 8501 d73e e308 ee3a 224b 6ebe acb6 01bf
00000190: 7152 a5be 475e aabd de66 b6be 8889 e1be
000001a0: edf4 8abd 5dee 5b3c 2f48 68be 6f9f efbe
000001b0: be91 1e3c ffa4 c9be 2030 ce3e 90e4 dc3d
000001c0: 4771 1cbb d391 98be a60b 4ebe eca1 21bf
000001d0: 33a4 ef3d 8fa3 01be 61ba 2abe c7a1 c8be
000001e0: 1329 813c 59b4 88be 025a 083e b08e 93be
000001f0: 7947 04bf 1134 04bf 2d1e f9be a3fc 70be
00000200: 57d5 4a3e 0e76 12be ea0f 853e 9695 27ba
00000210: 423f 0abf 44f8 a53e 1569 1e3e c066 f5bc
00000220: de6c 70be c405 88be 66c3 aebc 1f0e f8be
00000230: ac46 0d3e ba4b 71be 5f11 cf3e 4e13 5ebe
00000240: 661a 4fbe 2f2c e93d 3844 cd3d aae4 0d3f
00000250: ded8 f03e 2b34 ecbe 13f9 103e 9309 d8bd
00000260: f304 2e3d b352 e5bd 3b41 ab3e 89ca 43bf
00000270: 175a 82be 4584 923d e895 1dbd 48f4 b7be
00000280: 12ca 033f f488 3a3e 1b4b 4c3e 45a7 fcbe
00000290: d007 243e d61c a0be f752 bdbe 1f9b 823e
000002a0: a966 0e3d faee 2cbe 94c6 8cbe e2b4 083d
000002b0: 219b e73e a757 b53e 5139 97be 9de3 24bf
000002c0: ab9f 17be e96c 8b3e ac36 ee3e eb8a 08bf
000002d0: 8324 26bd caf1 dc3d 9598 f2be 0894 dbbe
000002e0: 1182 b43e 7f90 983e d922 3f3e 2c2d 0dbe
000002f0: 5d05 7cbe 9e65 0f3c aa13 0bbf f43b 7fbe
00000300: b876 993e 8962 ce3e 199a 433e 3d0b 1fbe
00000310: 54eb 71be c783 13be c7f6 533e 07b6 ea3d
00000320: 86e2 60be 6bde 1ebe c5e4 1b3e ab0f b93e
00000330: 6ec0 4a3c b7d7 a8be 420a 7fbe d87d 1fbf
00000340: 1fd8 1a3b 7ede 563e eb1e 373e 18dc 513e
00000350: a58e 90be f151 0ebf dc13 b33c 5e06 0b3f
00000360: c434 993c 2746 9f3b eb88 f73b a172 a3bc
00000370: 410a 8abf 1bfe 0c3e bca6 383d 0f9b 7dbd
00000380: a2b3 b3bd 2fb0 8e3e 7d51 5a3e ce00 813e
00000390: c86c 73be 330b 13bf a7df 9abe 2dc7 f73e
000003a0: 662c 1a3e 8ccc b23e 482d 643e 7691 373e
000003b0: 4121 d5be 7592 edbe 72e6 1abf 3429 b5bd
000003c0: 00f9 413e 9dd3 24bd 1fc8 afbd 3ebd e8be
000003d0: ce5e 483e 7f16 18bf e2e7 9fbe 5835 8e3d
000003e0: 1c32 34bd 0f4e b63e 407c 06be 4e19 cbbe
000003f0: a462 d63c c02b 87be 329e 0fbf fc15 2fbf

net.0.bias f4 [256]
0.22239205 0.051293556 -0.109384425 0.18964612 0.22061546 -0.35465804 -0.08345035 0.0005058202
-0.16686925 0.23099908 -0.1772906 -0.44480947 0.06659949 0.10264488 0.31566998 -0.25447965
0.3640401 0.16985606 0.42299828 -0.071581274 0.2260724 0.13691583 -0.013207928 0.30342406
-0.29987377 0.3380198 0.16556692 -0.010955418 0.20326874 0.14407937 0.28407636 0.3373954
-0.14084393 0.3442448 0.12983212 -0.15988685 0.17886826 0.43086737 -0.10203772 -0.3910028
0.28001305 -0.14026359 0.26756006 -0.1472031 0.23974316 0.31514043 0.01734018 -0.1260758
0.3255507 0.124684356 -0.122132346 -0.25788227 0.40097973 -0.014983508 0.1232867 0.002475667
-0.20118824 0.28793466 -0.11820409 0.23993753 0.13051634 -0.02321463 0.32366046 0.0019504651
-0.02454353 0.050695054 0.41484255 0.067038335 0.24915448 0.3418665 0.24215488 0.2611014
0.23469958 0.1205032 0.40448746 0.43768552 0.23082337 0.30107263 0.35808817 -0.43733698
0.37052786 0.3424351 0.3646341 0.017718028 -0.00069068925 0.47848508 -0.0026411267 0.24660693
0.30918324 -0.26621202 0.24251154 -0.021818342 0.3976326 -0.16225298 0.28357044 0.33516344
0.3997976 0.46569404 0.04738952 -0.29160902 0.26695597 0.13580906 0.14043021 -0.23936853
0.08422347 -0.037853777 0.45697877 0.2694362 0.28780162 0.3843808 -0.023302738 -0.081803136
-0.13381737 -0.1368644 0.36982667 0.25575718 0.34144324 -0.076924466 -0.18939085 0.005060997
0.3681703 0.2721311 0.21441065 0.22538173 -0.15935548 0.026533868 0.2199976 0.10125611
0.20078439 0.2706108 -0.21480192 0.27242815 0.13685538 0.13050978 -0.16940323 -0.21847051
0.07330139 0.10203021 -0.10643976 0.3463664 -0.2295683 -0.06973804 -0.07552325 -0.11155293
-0.010759649 -0.040678527 0.290644 -0.14367189 0.1433865 0.12132597 0.24114493 0.4524471
0.18776362 -0.13573827 -0.324844 -0.0036466692 -0.03089703 0.27502352 -0.067467205 0.31414515
0.26613042 -0.006069153 0.12437243 0.19200435 -0.18501629 0.26823398 -0.24059723 0.026187891
-0.13849404 -0.08398136 0.10672784 0.18987413 0.1970856 0.09738114 -0.016630314 0.21344906
-0.115375526 0.09258506 -0.06280999 0.43856785 0.28140897 -0.34627232 0.050201237 0.039893497
0.0678801 -0.14831789 0.19232354 -0.3952981 0.44190672 0.3341341 -0.17118903 0.035256967
0.009163162 -0.03406298 0.094405994 -0.31806722 0.12791394 -0.37691402 -0.2751823 -0.19615872
0.30159312 0.1746249 -0.23890854 0.02220155 -0.005126728 -0.42898712 0.16531916 0.06182755
-0.01184896 -0.22373645 0.033020526 -0.3215271 -0.19861609 -0.030453226 0.4253333 -0.07010989
0.41202813 0.108266726 -0.03434818 -0.3566084 0.41990012 0.45069835 0.0054103206 0.29812843
0.39692754 0.23568921 0.2251366 -0.4660843 -0.18838824 -0.120171994 0.16413988 -0.059274357
-0.060245913 -0.12422016 -0.26422182 0.28456166 0.29639837 -0.37382448 0.30375168 -0.0335347
-0.036752876 0.35118023 0.1870288 0.11337199 -0.08878137 -0.109961085 0.04715181 0.30204
0.27871582 -0.2547889 -0.2919473 -0.31119123 0.036869455 -0.017268037 -0.08401138 -0.20074771
00000000: beba 633e 3119 523d f104 e0bd 9832 423e
00000010: 05e9 613e bd95 b5be 04e8 aabd 0599 043a
00000020: c6df 2abe 068b 6c3e ab8b 35be 11be e3be
00000030: 5065 883d 7b37 d23d 7f9f a13e 284b 82be
00000040: 7763 ba3e bfee 2d3e 3b93 d83e 3499 92bd
00000050: 867f 673e aa33 0c3e 1166 58bc 665a 9b3e
00000060: 0e89 99be ee10 ad3e 608a 293e 5b7e 33bc
00000070: ae25 503e 8b89 133e 7572 913e 17bf ac3e
00000080: 6439 10be db40 b03e b6f2 043e 61b9 23be
00000090: 3e29 373e a69a dc3e 27f9 d0bd 8531 c8be
000000a0: df5d 8f3e 42a1 0fbe a2fd 883e 69bc 16be
000000b0: 3b7f 753e 165a a13e fe0c 8e3c 041a 01be
000000c0: 95ae a63e 835a ff3d 8620 fabd 2509 84be
000000d0: 374d cd3e 637d 75bc bd7d fc3d cd3e 223b
000000e0: 4a04 4ebe 2c6c 933e fc14 f2bd 2fb2 753e
000000f0: 13a6 053e 9c2c bebc d3b6 a53e c0a6 ff3a
00000100: 830f c9bc 9ea5 4f3d 3e66 d43e 654b 893d
00000110: 5a22 7f3e 2009 af3e 73f7 773e 15af 853e
00000120: 1655 703e 62ca f63d fb18 cf3e 5118 e03e
00000130: f65c 6c3e 3126 9a3e 5557 b73e a2ea dfbe
00000140: d4b5 bd3e a753 af3e 52b1 ba3e 6625 913c
00000150: 5f0f 35ba fffb f43e c116 2dbb 8786 7c3e
00000160: 444d 9e3e f14c 88be f254 783e 61bc b2bc
00000170: 8096 cb3e a525 26be 2530 913e 8b9a ab3e
00000180: 45b2 cc3e 736f ee3e 831b 423d c74d 95be
00000190: 74ae 883e 8811 0b3e f0cc 0f3e 061d 75be
000001a0: 5b7d ac3d 900c 1bbd 1ff9 e93e 8bf3 893e
000001b0: bc5a 933e 8fcd c43e 62e5 bebc 6788 a7bd
000001c0: 6c07 09be 2e26 0cbe ec59 bd3e 9bf2 823e
000001d0: a6d1 ae3e 938a 9dbd adef 41be b8d6 a53b
000001e0: d180 bc3e c454 8b3e 778e 5b3e 78ca 663e
000001f0: 152e 23be 8e5d d93c 0d47 613e 5d5f cf3d
00000200: 6c9a 4d3e 808d 8a3e 09f5 5bbe b47b 8b3e
00000210: d123 0c3e 5ba4 053e 0a78 2dbe bcb6 5fbe
00000220: 0a1f 963d 37f5 d03d 17fd d9bd f056 b13e
00000230: f413 6bbe d1d2 8ebd efab 9abd dd75 e4bd
00000240: 3d49 30bc 879e 26bd 4acf 943e b91e 13be
00000250: e9d3 123e c079 f83d b2ee 763e 25a7 e73e
00000260: 1b45 403e f9fe 0abe f451 a6be f5fc 6ebb
00000270: c51b fdbc e2cf 8c3e 3f2c 8abd a2d7 a03e
00000280: 3f42 883e bfdf c6bb f9b6 fe3d ca9c 443e
00000290: e974 3dbe f755 893e 1f5f 76be fd87 d63c
000002a0: 62d1 0dbe 6bfe abbd 2094 da3d 5d6e 423e
000002b0: cfd0 493e c36f c73d 4c3c 88bc 6492 5a3e
000002c0: 014a ecbd 3c9d bd3d 86a2 80bd f78b e03e
000002d0: d614 903e 9b4a b1be d09f 4d3d 5d67 233d
000002e0: b904 8b3d a5e0 17be 76f0 443e 8364 cabe
000002f0: 9941 e23e a013 ab3e 2d4c 2fbe 9c69 103d
00000300: 1621 163c a085 0bbd ee57 c13d b5d9 a2be
00000310: dffb 023e e0fa c0be b2e4 8cbe d5dd 48be
00000320: 6a6a 9a3e dfd0 323e 71a4 74be 06e0 b53c
00000330: 1dfe a7bb 33a4 dbbe 6d49 293e e33e 7d3d
00000340: 2422 42bc 2b1b 65be 8840 073d 339f a4be
00000350: 0462 4bbe 0b79 f9bc 49c5 d93e c695 8fbd
00000360: 5af5 d23e f2ba dd3d adb0 0cbd 6095 b6be
00000370: 26fd d63e efc1 e63e 0f49 b13b 4aa4 983e
00000380: 163a cb3e 8358 713e 358a 663e 9aa2 eebe
00000390: d9e8 40be bc1c f6bd 4914 283e abc9 72bd
000003a0: 6bc4 76bd 2467 febd 1548 87be 11b2 913e
000003b0: 87c1 973e ec65 bfbe 5785 9b3e ae5b 09bd
000003c0: 2f8a 16bd e5cd b33e 7a84 3f3e 932f e83d
000003d0: 02d3 b5bd 4733 e1bd 4222 413d fda4 9a3e
000003e0: d7b3 8e3e b173 82be 1e7a 95be 7554 9fbe
000003f0: 6d04 173d b375 8dbc 290e acbd cf90 4dbe

net.2.weight f4 [256, 256]
0.08768402 0.19547172 0.17168736 -0.056995925 0.24117444 0.609959 0.12949234 -0.18982632
0.014207817 -0.034270633 0.3218734 0.2911672 -0.1389199 0.039703548 0.3528187 0.36229903
-0.031231921 0.08818001 0.052352615 0.3962965 -0.011257815 0.1936227 -0.050505754 -0.029428078
0.14921102 -0.008413664 0.13154854 -0.3577371 0.012625702 0.03874919 0.0276214 -0.06855683
0.05926822 -0.04892919 0.019903636 0.34344468 0.14702065 0.019512104 0.037912354 0.2367449
0.11592796 0.119960055 -0.04557668 0.0073987055 0.03913677 0.10846039 0.096951745 -0.17096874
0.007919787 0.03800952 0.11936816 0.3415566 0.004332877 -0.091713734 -0.10300557 -0.33619776
0.23431022 -0.09550498 0.16953723 0.12029702 0.1815503 0.14542983 -0.007964974 -0.046186373
-0.32911056 -0.028361158 0.041737303 -0.17339204 0.031263903 -0.033829644 -0.03559308 -0.0358101
-0.089995325 0.13949047 -0.041809622 -0.06124417 -0.07178357 -0.6097068 -0.008857382 0.24009067
0.08809373 0.021988459 0.17827052 0.08433025 -0.46056464 -0.063321866 0.05125308 0.08702524
0.034343127 0.40887478 -0.13156627 -0.24813147 0.14307398 -0.3247237 -0.09503617 -0.027540928
-0.081761226 -0.061247706 0.0630117 0.3009081 0.058588684 0.1310714 0.19426341 0.30020797
0.23657049 0.55684835 -0.07362828 0.08930522 0.0794783 -0.039848544 0.15987116 0.21647218
0.12453721 -0.25824594 -0.082397796 0.11231895 -0.16221514 -0.12218474 -0.19499604 -0.057476405
0.083668925 0.1061256 0.06968059 0.09406746 0.52014816 0.23278444 -0.028216818 0.051950153
-0.1398004 0.09502255 0.17940518 0.12799858 0.02074599 0.19529131 -0.5607458 0.16803455
-0.071688585 0.16577649 -0.34349915 -0.018722989 0.1246414 -0.18623634 -0.13424775 0.28591618
0.19205587 -0.4473346 -0.007836894 -0.1002721 0.22107373 0.26742935 -0.3015626 -0.05361985
0.04789821 0.37997082 0.16552012 0.31244725 -0.055823687 -0.029212791 0.18936275 0.2331314
-0.03643251 -0.3350726 0.2812484 -0.06501343 0.091734506 -0.09752975 0.2836405 -0.28002062
0.36001047 0.07846726 -0.12825778 0.046264812 0.11394895 0.2129866 0.33239168 0.041142378
0.23836358 0.20355092 0.13847966 -0.022523087 -0.019305818 0.6566535 -0.15081495 0.13407654
0.14778185 -0.12282068 -0.055806335 0.60578 0.095453694 0.09317286 -0.53342533 -0.08411522
0.14855102 0.16212282 0.12919888 0.26661587 0.17143655 0.27002773 0.33046088 0.29896277
0.01551955 0.015711557 0.054664347 -0.10588109 -0.13874158 0.47374982 0.18906355 0.014635657
-0.11030068 0.12698963 -0.35741153 0.34568444 0.014356806 0.12294297 0.033021946 -0.08432945
0.11810916 0.09696589 -0.23371428 0.24127784 -0.027218724 0.0378888 -0.04870579 0.12201706
0.043420516 0.18830289 -0.04776684 0.45891216 0.31520832 0.18150698 0.036813203 0.21883482
0.0567391 0.036509745 0.62094736 0.084162205 0.1044472 0.42445648 -0.10772431 0.19608548
0.12375911 -0.07656268 0.08494262 0.040211737 0.06557885 0.22905704 0.12764072 0.06776536
0.064400494 0.64734405 0.492848 0.3567012 0.2437101 0.029452464 0.112302646 0.22990601
00000000: ae93 b33d bd29 483e d0ce 2f3e 8f74 69bd
00000010: 6ff6 763e 4626 1c3f a499 043e d561 42be
00000020: e7c7 683c 5d5f 0cbd 97cc a43e de13 953e
00000030: 0541 0ebe 30a0 223d a7a4 b43e 427f b93e
00000040: 16da ffbc b997 b43d b26f 563d 60e7 ca3e
00000050: b372 38bc 0745 463e 1fdf 4ebd 2713 f1bc
00000060: c6ca 183e 77d9 09bc a9b4 063e 5129 b7be
00000070: 08dc 4e3c 78b7 1e3d 4646 e23c 8667 8cbd
00000080: 3cc3 723d f969 48bd f30c a33c fbd7 af3e
00000090: 958c 163e d9d7 9f3c fc49 1b3d 416d 723e
000000a0: a36b ed3d 9ead f53d 9dae 3abd d770 f23b
000000b0: e14d 203d 7b20 de3d a38e c63d 6e12 2fbe
000000c0: ffc1 013c dfaf 1b3d 4b77 f43d 82e0 ae3e
000000d0: cffa 8d3b 69d4 bbbd 96f4 d2bd 1d22 acbe
000000e0: 05ef 6f3e 1d98 c3bd 2b9b 2d3e 495e f63d
000000f0: 52e8 393e 8feb 143e 867f 02bc ec2d 3dbd
00000100: 2e81 a8be a955 e8bc bcf4 2a3d af8d 31be
00000110: 940e 003d f490 0abd 0dca 11bd 9dad 12bd
00000120: 784f b8bd 97d6 0e3e 9140 2bbd 2bdb 7abd
00000130: 4403 93bd bf15 1cbf 8e1e 11bc 54da 753e
00000140: 7c6a b43d 2421 b43c 8c8c 363e 57b5 ac3d
00000150: 21cf ebbe e5ae 81bd c0ee 513d 4a3a b23d
00000160: 61ab 0c3d 0958 d13e 4fb9 06be 2d16 7ebe
00000170: fc81 123e 2f42 a6be 53a2 c2bd 839d e1bc
00000180: 6e72 a7bd e0de 7abd 470c 813d a010 9a3e
00000190: b0fa 6f3d 9537 063e fdec 463e dcb4 993e
000001a0: 893f 723e 9d8d 0e3f 6cca 96bd a8e5 b63d
000001b0: 85c5 a23d 3a38 23bd 44b5 233e e2aa 5d3e
000001c0: 5d0d ff3d d038 84be 2dc0 a8bd 7a07 e63d
000001d0: ba1b 26be fe3b fabd 0bad 47be 616c 6bbd
000001e0: 9d5a ab3d 6158 d93d b2b4 8e3d 71a6 c03d
000001f0: 6e28 053f 0b5f 6e3e f526 e7bc afc9 543d
00000200: d627 0fbe 2f9b c23d feb5 373e 0f12 033e
00000210: 7ff3 a93c 72fa 473e 098d 0fbf 4011 2c3e
00000220: 77d1 92bd 50c1 293e 1fdf afbe f460 99bc
00000230: fe43 ff3d bdb4 3ebe 3e78 09be 9b63 923e
00000240: 4baa 443e 0a09 e5be 5166 00bc 755b cdbd
00000250: 2761 623e 80ec 883e 6a66 9abe 7da0 5bbd
00000260: ea30 443d 898b c23e 1b7e 293e 16f9 9f3e
00000270: 61a7 64bd aa4f efbc 4fe8 413e ffb9 6e3e
00000280: 413a 15bd a38e abbe caff 8f3e c325 85bd
00000290: 4ddf bb3d adbd c7bd 5439 913e dd5e 8fbe
000002a0: 4b53 b83e 71b3 a03d 0256 03be 2c80 3d3d
000002b0: 115e e93d 2919 5a3e 3e2f aa3e e984 283d
000002c0: 9515 743e a76f 503e 9dcd 0d3e 5682 b8bc
000002d0: 3c27 9ebc 721a 283f 3c6f 1abe 5c4b 093e
000002e0: 2054 173e 6989 fbbd 2f95 64bd 6614 1b3f
000002f0: 3a7d c33d 6ad1 be3d 908e 08bf 9a44 acbd
00000300: c21d 183e 8603 263e b64c 043e e081 883e
00000310: 108d 2f3e 1341 8a3e 2b32 a93e a611 993e
00000320: b645 7e3c 86b5 803c b9e7 5f3d 2fd8 d8bd
00000330: 4612 0ebe 568f f23e e099 413e 65ca 6f3c
00000340: 53e5 e1bd 9209 023e a5fe b6be 8dfd b03e
00000350: cf38 6b3c 86c9 fb3d 0542 073d ebb4 acbd
00000360: 37e3 f13d 0d96 c63d cc52 6fbe 8a11 773e
00000370: cdf9 debc 4931 1b3d b97f 47bd 15e4 f93d
00000380: b6d9 313d 79d2 403e 29a7 43bd 89f6 ea3e
00000390: fc62 a13e f7dc 393e 71c9 163d 3c16 603e
000003a0: 4267 683d 3e8b 153d 68f6 1e3f 3c5d ac3d
000003b0: 6ae8 d53d 5c52 d93e 909e dcbd a2ca 483e
000003c0: 6b75 fd3d e5cc 9cbd 65f6 ad3d 10b5 243d
000003d0: 344e 863d ee8d 6a3e 40b4 023e 91c8 8a3d
000003e0: 68e4 833d 57b8 253f 9356 fc3e 8aa1 b63e
000003f0: 248f 793e 4b46 f13c eefe e53d 7b6c 6b3e

net.2.bias f4 [256]
-0.052125137 -0.015745299 0.019757362 -0.103108086 0.0035692456 0.18320757 0.020682165 0.1611327
0.03561406 0.03042815 0.009683294 0.0073524895 0.013093665 0.061772056 -0.081803195 -0.029108534
-0.073657334 -0.11645445 -0.010607805 0.08690754 -0.053626474 0.072593845 -0.0011118588 0.0603325
-0.06036784 0.04106188 0.08158426 -0.03570655 -0.010567412 0.032219607 -0.010390387 -0.093667366
0.019041518 -0.02649357 -0.017781438 0.036026884 -0.041216172 0.13746932 0.23581573 -0.07822435
0.04284603 0.076415285 0.13820054 0.07205558 0.09238466 0.03726916 0.13298917 -0.053027764
-0.05296936 -0.028331764 -0.065369345 -0.19723305 0.09922481 0.056171294 -0.09000336 0.02828334
0.1158201 0.03324326 -0.114559844 0.015145419 0.06273297 -0.13649952 0.013794038 0.025482174
-0.019381888 0.1590463 0.08675607 -0.03983498 -0.05816408 0.002206067 0.16621622 0.21707998
-0.079368405 -0.06871257 0.12267263 -0.058673654 -0.07488607 0.03693549 -0.049195044 0.0037804767
0.011030191 0.09188173 -0.07762053 0.13498357 0.032781444 0.13187438 0.046606436 -0.010664629
-0.09571216 -0.07385415 0.14558321 0.016892385 0.14203645 0.07583376 -0.004731071 -0.054676652
-0.068325646 -0.014837277 0.1304994 -0.06896409 0.0144531615 -0.044521004 -0.09035164 0.19583534
0.18921337 -0.025295742 0.123776354 -0.02442759 0.012812456 -0.111048646 -0.017065125 0.022985173
0.01867435 0.010733796 -0.07065432 0.021026557 -0.013925605 0.1383861 -0.008136433 -0.015699549
0.017693592 -0.03904266 -0.13140962 0.17472525 0.15787093 -0.021566447 -0.015169591 0.15704414
0.01236999 0.033399377 0.12544009 0.028002702 0.042196736 0.053806204 -0.19486046 0.073824994
-0.053338904 -0.024035683 0.12594445 -0.09116197 -0.0060145236 0.017416498 0.16255587 -0.010341522
-0.03557665 -0.06477861 0.0053921463 -0.03365405 -0.043576308 -0.023089953 -0.026738083 -0.059837416
-0.0731097 0.13448718 0.07844862 0.07959854 0.015265024 0.08155727 0.16876563 0.13814195
-0.0048549366 0.029928423 0.044136893 0.024003146 -0.02641321 0.020346235 -0.011173525 0.00028652413
0.027089456 0.0060310173 -0.01719866 -0.14461432 0.073363915 -0.0052941847 0.034012336 -0.004855681
-0.051444665 0.038542207 0.0026048175 -0.010888337 0.14695461 -0.038696982 -0.10585984 -0.06621308
0.011463837 0.0056126593 -0.061881196 0.015324162 -0.024206141 -0.02951429 -0.011721971 -0.015198715
-0.038010962 -0.062900774 0.022203784 0.16415325 0.051892802 -0.037068833 0.03403285 0.1010222
0.14485964 0.049875233 -0.057745304 -0.11689022 0.107206956 0.17132863 -0.08649681 0.099113
0.033352457 -0.044856403 -0.02241645 -0.044143155 -0.04551439 0.18128829 0.059632495 -0.00879444
0.25982952 -0.051800407 -0.10305207 0.020492991 -0.03688514 -0.1141233 -0.06580015 0.14436765
0.16797923 0.05235085 -0.03678169 -0.14822969 0.0971728 -0.061356332 -0.079492666 0.0019366101
-0.03577074 -0.039427683 -0.0999974 0.069673635 -0.014776726 -0.044675656 0.20251341 0.05491768
0.012495288 -0.022511056 0.026894191 -0.009055007 -0.030293137 0.14435834 0.035206616 0.026054863
0.036340088 -0.08569947 -0.0028912264 0.021596681 -0.010335039 -0.075943865 -0.1711869 0.019028338
00000000: 2b81 55bd 49fc 80bc 31da a13c 552a d3bd
00000010: 01ea 693b c49a 3b3e a56d a93c f8ff 243e
00000020: 0ce0 113d 7544 f93c aea6 1e3c 27ed f03b
00000030: d086 563c b204 7d3d 6f88 a7bd 0575 eebc
00000040: a8d9 96bd ac7f eebd 5ccc 2dbc 95fc b13d
00000050: 6fa7 5bbd 15ac 943d cabb 91ba 361f 773d
00000060: 4544 77bd 8030 283d a615 a73d 0841 12bd
00000070: f022 2dbc b5f8 033d 713c 2abc add4 bfbd
00000080: f5fc 9b3c 0b09 d9bc 61aa 91bc ed90 133d
00000090: 4ad2 28bd c2c4 0c3e ae79 713e 1734 a0bd
000000a0: 527f 2f3d 9e7f 9c3d 7184 0d3e e091 933d
000000b0: 2b34 bd3d 8ca7 183d 502e 083e a433 59bd
000000c0: 66f6 58bd 0418 e8bc 5de0 85bd 76f7 49be
000000d0: 6136 cb3d df13 663d ae53 b8bd 77b2 e73c
000000e0: 1733 ed3d 162a 083d 5a9e eabd 7e24 783c
000000f0: 257a 803d 88c6 0bbe 6400 623c febf d03c
00000100: c4c6 9ebc 09dd 223e 2bad b13d 012a 23bd
00000110: 753d 6ebd aa93 103b 9634 2a3e 374a 5e3e
00000120: e78b a2bd 2db9 8cbd ca3b fb3d c953 70bd
00000130: de5d 99bd ab49 173d be80 49bd e0c1 773b
00000140: f9b7 343c 7d2c bc3d 83f7 9ebd 2239 0a3e
00000150: d645 063d 140a 073e 64e6 3e3d b2ba 2ebc
00000160: bd04 c4bd d840 97bd c413 153e e661 8a3c
00000170: 0172 113e bb4e 9b3d 1a07 9bbb a0f4 5fbd
00000180: 51ee 8bbd 0d18 73bc a2a1 053e 0b3d 8dbd
00000190: f4cc 6c3c a85b 36bd 480a b9bd 0f89 483e
000001a0: 26c1 413e 0439 cfbc 757e fd3d 5f1c c8bc
000001b0: 56eb 513c 796d e3bd 29cc 8bbc 674b bc3c
000001c0: f3fa 983c cedc 2f3c 36b3 90bd e33f ac3c
000001d0: 3928 64bc 16b5 0d3e ac4e 05bc 579c 80bc
000001e0: 27f2 903c 32eb 1fbd 3e90 06be 2deb 323e
000001f0: eba8 213e 1eac b0bc e089 78bc 2ed0 203e
00000200: 80ab 4a3c c9cd 083d 5e73 003e ec65 e53c
00000210: 7cd6 2c3d e563 5c3d 8089 47be 8f31 973d
00000220: e579 5abd 7be6 c4bc 95f7 003e 20b3 babd
00000230: 7b15 c5bb 0bad 8e3c 0c75 263e 7d6f 29bc
00000240: d2b8 11bd a6aa 84bd 9ab0 b03b d4d8 09bd
00000250: 127d 32bd 2427 bdbc d309 dbbc 1418 75bd
00000260: 8aba 95bd 02b7 093e aca9 a03d 8f04 a33d
00000270: 271a 7a3c 7f07 a73d e6d0 2c3e 1575 0d3e
00000280: 2916 9fbb 742c f53c e3c8 343d 3fa2 c43c
00000290: 8460 d8bc 26ad a63c 2911 37bc 9e38 9639
000002a0: b5ea dd3c d79f c53b 34e4 8cbc c715 14be
000002b0: d23f 963d d77a adbb 8550 0b3d 681c 9fbb
000002c0: a4b7 52bd 6fde 1d3d 96b5 2a3b ff64 32bc
000002d0: 457b 163e ba80 1ebd 0bcd d8bd b99a 87bd
000002e0: d1d2 3b3c 66ea b73b 2377 7dbd 3212 7b3c
000002f0: f54b c6bc f4c7 f1bc 830d 40bc 0804 79bc
00000300: 62b1 1bbd 1fd2 80bd b6e4 b53c ca17 283e
00000310: 8c8d 543d 7dd5 17bd 0866 0b3d bae4 ce3d
00000320: 1656 143e f949 4c3d 5786 6cbd 2464 efbd
00000330: 528f db3d c670 2f3e 3d25 b1bd c2fb ca3d
00000340: 969c 083d 59bb 37bd b4a2 b7bc 74cf 34bd
00000350: 4c6d 3abd a3a3 393e 3441 743d 8e16 10bc
00000360: 6008 853e aa2c 54bd f70c d3bd ebe0 a73c
00000370: df14 17bd 7ab9 e9bd 3bc2 86bd 1dd5 133e
00000380: bf02 2c3e d86d 563d 66a8 16bd 86c9 17be
00000390: 8802 c73d c750 7bbd 0dcd a2bd dad5 fd3a
000003a0: 5784 12bd ec7e 21bd 70cb ccbd 0db1 8e3d
000003b0: 151a 72bc d2fd 36bd ad5f 4f3e 5cf1 603d
000003c0: 09b9 4c3c 1b69 b8bc 3551 dc3c 745b 14bc
000003d0: 5029 f8bc acd2 133e d034 103d 0271 d53c
000003e0: 58d9 143d 3483 afbd bb7a 3dbb 86eb b03c
000003f0: 4c54 29bc 7588 9bbd 9e4b 2fbe 51e1 9b3c

net.4.weight f4 [4, 256]
-0.19768402 -0.28486258 -0.5624099 -0.33289406 -0.3351795 0.26709884 0.3884576 0.16558678
-0.047072165 -0.07036865 -0.37216377 -0.27651784 0.44945595 -0.35340765 -0.3184729 -0.50051415
0.43867332 -0.38150656 -0.24513714 0.4695286 0.93714905 0.5532326 -0.02944165 0.5721084
-0.49759898 -0.2893419 0.22952685 -0.36042142 -0.28113687 -0.6491366 -0.02920708 -0.36765155
-0.3239773 0.4539854 -0.39512452 -0.10117734 -0.19880617 0.26990333 0.28811628 -0.46134198
0.65525585 0.3708742 0.35968032 0.51656836 0.48708454 0.9251489 0.6367753 -0.23284921
0.46344477 -0.33863372 -0.2170008 -0.28973946 0.35162687 0.5280096 -0.26562402 -0.09841993
-0.15517826 -0.47784907 -0.41173512 0.6021139 0.41114998 -0.36938766 -0.28290665 -0.5140698
0.025728548 0.25665253 0.51948065 -0.51905024 -0.39928418 0.6812432 0.41438535 0.27693382
-0.4097489 -0.28117537 -0.093259506 -0.14567055 -0.34126285 0.6807975 -0.3487874 0.5234447
-0.31309897 0.009556601 -0.32980958 0.49152744 -0.30268708 0.2731047 0.62970304 -0.37706622
-0.42259848 -0.3842888 0.2017534 0.2748083 0.17151439 0.70059425 -0.506328 -0.2401634
-0.3129828 -0.29105452 0.47125348 -0.40628344 -0.4114874 0.051590778 -0.3454957 0.23907334
0.15080388 -0.3753779 0.4979859 -0.1419262 -0.50291234 -0.4580141 -0.40343168 -0.26600897
0.5756258 -0.34629613 -0.34017798 0.5090185 0.5206714 0.4234228 -0.3119089 -0.3142691
0.02799262 -0.3869851 -0.35984355 0.1707438 0.35479045 0.04316041 -0.39425918 0.30477542
0.14520799 -0.10926091 0.41679868 0.54966605 0.35077655 -0.345723 -0.29652616 0.523598
-0.43008843 -0.35995206 0.2946766 0.6255512 -0.1644716 -0.54353905 0.221537 0.44974047
-0.40541196 -0.38355577 -0.3017964 -0.43003526 0.5274638 0.50868577 -0.24123378 -0.028985646
-0.27253923 0.1892318 0.2637605 0.45515525 -0.41298935 0.5020193 0.20343988 0.23560132
0.67468786 -0.29520383 -0.43455565 -0.34811845 -0.45995337 -0.34045967 0.42293882 0.6233952
0.452316 0.4134209 0.38663927 -0.2933794 -0.1319013 0.25328773 -0.1561191 0.65767837
-0.5580028 0.039501198 -0.47418293 0.37292156 0.18535605 -0.28929302 -0.5705632 -0.3035942
0.01997758 -0.13222852 0.009065611 0.39029694 -0.32351342 -0.30748633 -0.19881688 -0.40514553
-0.23202862 -0.393391 -0.4560157 0.22244968 0.55768806 -0.36321974 0.0028716226 0.28302452
0.20064905 -0.46530074 0.7043941 0.083648294 0.41275463 0.17757024 -0.4466605 0.4551181
0.3179562 -0.2847422 -0.025970772 -0.21349503 -0.28167588 0.1844357 0.71714664 -0.36751476
-0.05355681 -0.030151842 -0.3396046 -0.29421636 -0.5178938 -0.2958564 0.5035311 0.1538972
0.19925068 0.4580751 -0.48417497 -0.37024075 0.51759 -0.38669115 -0.2705428 -0.32596028
-0.31891188 -0.39973506 -0.30528933 0.1904599 0.7519006 -0.48768556 0.27084854 -0.005860105
0.2977394 -0.5347002 0.6339062 -0.47501758 -0.31026074 0.55114734 0.2682559 0.32820448
-0.4992005 -0.25032133 0.3965778 0.057224784 -0.1855903 -0.30814955 -0.5325974 0.7046265
00000000: ae6d 4abe 82d9 91be 18fa 0fbf 1771 aabe
00000010: a69c abbe 2ec1 883e eae3 c63e 958f 293e
00000020: bece 40bd 701d 90bd 408c bebe bf93 8dbe
00000030: 171f e63e d9f1 b4be e10e a3be b221 00bf
00000040: ca99 e03e d454 c3be 3b05 7bbe 0d66 f03e
00000050: 00e9 6f3f a7a0 0d3f 9d2f f1bc b275 123f
00000060: 4bc5 febe 9f24 94be 1609 6b3e 2889 b8be
00000070: 2cf1 8fbe d12d 26bf b043 efbc d33c bcbe
00000080: 5ae0 a5be c670 e83e c34d cabe 1136 cfbd
00000090: d893 4bbe c530 8a3e fa83 933e 0435 ecbe
000000a0: d9be 273f 39e3 bd3e 0528 b83e d33d 043f
000000b0: 2563 f93e 8fd6 6c3f b503 233f 0670 6ebe
000000c0: a248 ed3e 6661 adbe 7535 5ebe bb58 94be
000000d0: 7008 b43e a32b 073f dfff 87be 6390 c9bd
000000e0: 0de7 1ebe a2a8 f4be f2ce d2be 2324 1a3f
000000f0: 4082 d23e 6120 bdbe 24d9 90be 149a 03bf
00000100: adc4 d23c f667 833e affc 043f 7ae0 04bf
00000110: fa6e ccbe f465 2e3f 512a d43e 45ca 8d3e
00000120: 9cca d1be 38f6 8fbe d7fe bebd a92a 15be
00000130: 01ba aebe bf48 2e3f 4394 b2be 7900 063f
00000140: 824e a0be 4a93 1c3c cddc a8be 7ca9 fb3e
00000150: cdf9 9abe 61d4 8b3e 3834 213f d30e c1be
00000160: d45e d8be 80c1 c4be 7198 4e3e acb3 8c3e
00000170: 78a1 2f3e 255a 333f b69e 01bf 65ed 75be
00000180: 483f a0be 1905 95be 2348 f13e 6204 d0be
00000190: 7aae d2be da50 533d d0e4 b0be a4cf 743e
000001a0: 556c 1a3e 8831 c0be 02f8 fe3e 1a55 11be
000001b0: ddbe 00bf d380 eabe 998e cebe 5432 88be
000001c0: 365c 133f ba4d b1be cf2b aebe 094f 023f
000001d0: b94a 053f e0ca d83e 86b2 9fbe e1e7 a0be
000001e0: c750 e53c e922 c6be 6a3d b8be 76d7 2e3e
000001f0: 18a7 b53e f8c8 303d 57dc c9be 860b 9c3e
00000200: 67b1 143e 2fc4 dfbd a366 d53e eab6 0c3f
00000210: fc98 b33e 9b02 b1be 47d2 97be 850a 063f
00000220: 8d34 dcbe a34b b8be dadf 963e 2024 203f
00000230: 3e6b 28be 6025 0bbf 98da 623e 6244 e63e
00000240: 2892 cfbe 6c61 c4be 0f85 9abe 952d dcbe
00000250: de07 073f 3b39 023f fd05 77be 4e73 edbc
00000260: 438a 8bbe fbc5 413e 9e0b 873e 1c0a e93e
00000270: 5773 d3be 5684 003f 8b52 503e 7941 713e
00000280: 58b8 2c3f f524 97be 147e debe 953c b2be
00000290: 027f ebbe bb50 aebe 708b d83e d496 1f3f
000002a0: f695 e73e e7ab d33e 95f5 c53e d335 96be
000002b0: 2211 07be eeae 813e afdd 1fbe 9c5d 283f
000002c0: 46d9 0ebf 02cc 213d 1bc8 f2be 93ef be3e
000002d0: facd 3d3e 371e 94be 6e10 12bf b370 9bbe
000002e0: 06a8 a33c ea66 07be ee87 143c 00d5 c73e
000002f0: 8da3 a5be d96e 9dbe a796 4bbe 3c6f cfbe
00000300: e998 6dbe 8c6a c9be e47a e9be d9c9 633e
00000310: a5c4 0e3f f0f7 b9be d531 3c3b 97e8 903e
00000320: f276 4d3e e63b eebe 2c53 343f cc4f ab3d
00000330: 9354 d33e f9d4 353e afb0 e4be 3d05 e93e
00000340: 28cb a23e bbc9 91be a8c0 d4bc 719e 5abe
00000350: d237 90be b6dc 3c3e ec96 373f e52a bcbe
00000360: 635e 5bbd ff00 f7bc a7e0 adbe 87a3 96be
00000370: b094 04bf 7d7a 97be 6ae7 003f 3a97 1d3e
00000380: 5f08 4c3e d288 ea3e c8e5 f7be 3290 bdbe
00000390: c780 043f 62fc c5be 9684 8abe 44e4 a6be
000003a0: 6b48 a3be 13aa ccbe e24e 9cbe ec07 433e
000003b0: 8f7c 403f ecb1 f9be a9ac 8a3e 2006 c0bb
000003c0: 4c71 983e 1de2 08bf ad47 223f 8135 f3be
000003d0: 7fda 9ebe fe17 0d3f d658 893e 6b0a a83e
000003e0: 3597 ffbe 1e2a 80be 3f0c cb3e 8964 6a3d
000003f0: 620b 3ebe c7c5 9dbe 4e58 08bf 6762 343f

net.4.bias f4 [4]
0.04052569 0.006851751 0.033259884 0.08148095
00000000: 44fe 253d a784 e03b 843b 083d 7cdf a63d
