drafts/draft_03/runs_lunarlander/dqn_trial01_seed42.pth (torch, 279705 bytes, 6 tensors)

net.0.weight f4 [256, 8]
0.3918352 0.31407258 -0.033195022 0.53619295 -0.10584568 0.03212794 -0.16721848 0.18406221
0.6086068 -0.22527407 0.6943033 0.08104444 0.07213933 0.24715005 0.13744666 -0.1489361
0.2194252 0.09190519 -0.043345872 0.081698075 -0.6584528 -0.09834898 -0.18337151 0.2776407
-0.49856353 -0.10215066 -0.2371041 -0.43742266 0.36694276 -0.3783844 0.27374023 -0.5846376
0.1735464 0.06533248 -0.35502434 0.49953622 0.19659454 0.21951932 0.07622347 -0.018277528
0.120272346 -0.06151999 0.66328794 0.5007712 0.007903535 -0.09890455 0.25937048 0.2650922
-0.53449947 -0.4482583 -0.39320007 -0.43197125 -0.44839674 0.2827354 0.10867145 0.18691194
-0.0034723547 0.08697593 0.4661631 -0.54734254 0.21203408 -0.48101065 -0.004021785 -0.060583804
-0.04297662 -0.1438957 0.42596817 -0.40101787 -0.47919062 -0.26602972 0.36181384 0.07698062
0.42687201 -0.11075247 -0.5951523 -0.4886346 -0.29439577 0.3186324 0.15708739 0.2874118
-0.1942795 -0.12702966 0.4095313 -0.21721415 0.72565734 0.30466694 0.17580792 -0.9478431
0.08616541 0.10247594 0.31684425 -0.17444873 0.22867213 0.57859206 0.24834728 -0.6043384
0.35815436 0.059278667 -0.12572858 -0.5944385 -0.18965991 0.14502713 0.08477153 -0.24711213
0.08454089 -0.10689705 -0.38414222 -0.38150075 -0.47662616 -0.7299046 0.4259617 -0.054130733
-0.00026953532 -0.47284082 -0.10882318 -0.40782434 0.21364737 -0.34171027 -0.26178786 -0.3220357
0.01507424 -0.09329587 0.09184055 -0.357979 -0.42286995 -0.5640182 -0.6787639 -0.008252693
-0.028729146 -0.12962575 0.45254838 0.2931311 -1.3393985 -0.01672201 0.03799508 -0.06891072
-0.13898878 -0.6080181 0.20188944 -0.56149197 0.07116042 -0.2051943 0.39753297 -0.30764005
-0.25775793 -0.10870335 0.63888514 0.8665069 0.3893267 -0.20512414 -0.007562851 -0.23387918
0.23386523 -0.372977 0.70533407 -0.5291261 -0.26252398 0.18530157 0.008227714 -0.08122888
0.3324652 0.16216326 0.1757783 -0.55149287 0.4573538 -0.261886 -0.14606862 0.2597434
0.3533223 -0.16497429 -0.3392522 -0.12485272 0.63588274 -0.11777283 -0.017666785 -0.26898375
-0.5299038 0.23959053 0.5439108 -0.39363822 0.31694463 0.2333207 0.20927802 -0.2392411
0.11108895 0.19712165 0.29043847 -0.10801765 -0.7650218 -0.12647492 -0.105224855 -0.21420541
0.20269315 0.36952126 0.013664255 -0.027868293 -0.014524715 -0.15257594 0.23788406 0.10064465
-0.25812617 -0.12400618 0.15403685 0.26914528 -0.15687841 -0.4369048 -0.79151285 -0.12878989
-0.023548936 0.15353476 0.25287172 0.24762742 -0.5122063 -0.3321652 -0.25586012 0.36757207
0.0060221897 0.07768985 0.060986817 -0.18192834 -1.0427006 0.309439 -0.08426723 -0.007502097
-0.19552895 0.18349855 0.23487076 0.1943407 -0.5775697 -0.64318997 -0.43383867 0.37180495
0.19609895 0.38338226 0.52730143 0.2516217 0.21307299 -0.96469903 -0.54278165 -0.19612622
0.047039773 -0.11764719 -0.409795 -0.23925878 0.10722355 -0.69445163 -0.35532945 0.334716
-0.13956204 0.22940335 0.117217 -0.50272775 0.23430051 -0.32092768 -0.260852 -0.39004263
00000000: a09e c83e 1fce a03e 81f7 07bd f143 093f
00000010: 9fc5 d8bd 9698 033d 523b 2bbe ce7a 3c3e
00000020: a8cd 1b3f 3fae 66be dcbd 313f a1fa a53d
00000030: c9bd 933d e714 7d3e d1be 0c3e b482 18be
00000040: 00b1 603e ca38 bc3d 718b 31bd 5251 a73d
00000050: 5d90 28bf 316b c9bd bec5 3bbe ec26 8e3e
00000060: b843 ffbe 5d34 d1bd 6bcb 72be ddf5 dfbe
00000070: ecdf bb3e 9abb c1be ae27 8c3e cfaa 15bf
00000080: 26b6 313e 09cd 853d c0c5 b5be 36c3 ff3e
00000090: 1450 493e acc9 603e 0d1b 9c3d c1ba 95bc
000000a0: 5951 f63d 63fc 7bbd 3dcd 293f 8b32 003f
000000b0: d47d 013c 788e cabd 35cc 843e 2aba 873e
000000c0: f5d4 08bf 1d82 e5be 8551 c9be 562b ddbe
000000d0: 4294 e5be b2c2 903e 238f de3d d865 3f3e
000000e0: 7290 63bb 7020 b23d eeac ee3e a41e 0cbf
000000f0: 761f 593e 0747 f6be 2ec9 83bb b926 78bd
00000100: 4108 30bd 6559 13be 8018 da3e 3752 cdbe
00000110: 7958 f5be 0c35 88be aa3f b93e 04a8 9d3d
00000120: f88e da3e 31d2 e2bd e75b 18bf 502e fabe
00000130: 0bbb 96be c923 a33e 84db 203e a427 933e
00000140: 35f1 46be 1014 02be 16ae d13e 636d 5ebe
00000150: aec4 393f 4efd 9b3e fe06 343e d8a5 72bf
00000160: 7e77 b03d e8de d13d 6939 a23e b0a2 32be
00000170: 0729 6a3e 9c1e 143f c04e 7e3e ecb5 1abf
00000180: 0260 b73e 30ce 723d febe 00be 1f2d 18bf
00000190: 3536 42be fe81 143e b29c ad3d f60a 7dbe
000001a0: c623 ad3d d7ec dabd 4aae c4be 1154 c3be
000001b0: 5808 f4be 07db 3abf a717 da3e 30b8 5dbd
000001c0: 6b50 8db9 3118 f2be b0de debd 5ace d0be
000001d0: 60c6 5a3e a6f4 aebe 0f09 86be dde1 a4be
000001e0: f2f9 763c e811 bfbd e616 bc3d 0649 b7be
000001f0: 6982 d8be 7f63 10bf 79c3 2dbf 4e36 07bc
00000200: 6359 ebbc 9dbc 04be 6cb4 e73e 4815 963e
00000210: 6971 abbf 99fc 88bc bba0 1b3d 1021 8dbd
00000220: 1353 0ebe 13a7 1bbf 1bbc 4e3e f0bd 0fbf
00000230: 8ebc 913d 741e 52be 7189 cb3e ff82 9dbe
00000240: d9f8 83be dd9f debd fa8d 233f 65d3 5d3f
00000250: d455 c73e 100c 52be cbd1 f7bb 067e 6fbe
00000260: 5e7a 6f3e d7f6 bebe c690 343f cf74 07bf
00000270: 8b69 86be b2bf 3d3e 89cd 063c 545b a6bd
00000280: e138 aa3e 200e 263e 3aff 333e a32e 0dbf
00000290: 472a ea3e ec15 86be 0393 15be 16fd 843e
000002a0: a9e6 b43e 05ef 28be 77b2 adbe c8b2 ffbd
000002b0: 36c9 223f e232 f1bd efb9 90bc 3db8 89be
000002c0: c7a7 07bf 3857 753e bd3d 0b3f f38a c9be
000002d0: 9146 a23e 9feb 6e3e fa4c 563e 9efb 74be
000002e0: 9a82 e33d 42da 493e 5ab4 943e 5c38 ddbd
000002f0: 78d8 43bf a482 01be 2180 d7bd aa58 5bbe
00000300: cb8e 4f3e e431 bd3e 0ae0 5f3c 0c4c e4bc
00000310: 12f9 6dbc de3c 1cbe e197 733e c81e ce3d
00000320: 1d29 84be f4f6 fdbd d6bb 1d3e 69cd 893e
00000330: bca4 20be fcb1 dfbe 96a0 4abf 7fe1 03be
00000340: b3e9 c0bc 3738 1d3e 6778 813e 0b92 7d3e
00000350: f41f 03bf 8f11 aabe 1900 83be 6832 bc3e
00000360: ca55 c53b db1b 9f3d 50cd 793d 6c4b 3abe
00000370: 3777 85bf ca6e 9e3e 4c94 acbd 27d4 f5bb
00000380: be38 48be 0be7 3b3e f681 703e 4001 473e
00000390: 9cdb 13bf 19a8 24bf 1a20 debe 385d be3e
000003a0: 2ace 483e ae4a c43e 3afd 063f 8fd4 803e
000003b0: ce2f 5a3e 84f6 76bf bdf3 0abf 50d5 48be
000003c0: c7ac 403d 03f1 f0bd a6d0 d1be 4100 75be
000003d0: 0598 db3d 95c7 31bf beed b5be e55f ab3e
000003e0: 5ae9 0ebe b6e8 6a3e 770f f03d c4b2 00bf
000003f0: 79ec 6f3e a250 a4be 658e 85be abb3 c7be

net.0.bias f4 [256]
0.1949161 0.12847607 0.019813234 0.23353143 0.1856373 -0.22664559 -0.15022145 0.113086216
0.044972666 0.18351671 -0.13547966 -0.24069762 0.090598956 0.13114765 0.24021474 -0.2739731
0.20728251 0.25823614 0.18155295 -0.2638938 0.21771154 0.06343627 -0.06506139 0.23141558
-0.3824252 0.39203164 0.06398577 0.11027183 0.141385 0.082554616 0.19923204 0.36381474
-0.3749284 0.3059202 -0.23878622 -0.05350535 -0.08070957 0.42195013 -0.3027997 -0.233012
0.26249114 -0.2722947 0.2096964 -0.15775847 0.23038988 0.31357443 -0.12651923 -0.1386313
0.35377234 0.019809876 -0.05289919 -0.20244424 0.3502378 -0.0013390462 0.0018183771 -0.11799443
0.050557718 0.22638336 -0.002614757 0.32537705 0.027223298 -0.028420784 0.1803139 0.10552683
0.044519275 0.16038272 0.36538383 -0.056803294 0.3669292 0.27883846 0.16420667 0.17256472
0.16999799 0.1377277 0.34922165 0.40594402 0.18063192 0.25665006 0.4609035 -0.25300387
0.3152584 0.2261649 0.2716954 -0.08095833 0.074999504 0.33178735 -0.15502702 0.17826642
0.30570725 -0.4953705 0.07602259 -0.008957474 0.3598872 -0.11510543 0.30073243 0.25792524
0.2340787 0.40980738 0.08501067 -0.20520456 0.2885055 0.20144756 0.108881235 -0.4531278
0.057279304 -0.06907196 0.30646014 0.3235706 0.29878268 0.2943759 -0.2308437 -0.14564782
-0.18340288 -0.058307115 0.33630666 0.2593453 0.26035848 0.09726255 -0.23559429 -0.03684467
0.24542381 0.2064301 0.060873184 0.07920017 -0.34723866 -0.46089664 0.17425707 0.054163955
0.20826048 0.31156054 -0.14357269 0.182692 0.0041195164 0.08773655 -0.00011534818 -0.32714772
0.15524381 0.14639527 -0.1610335 0.235508 -0.3735131 -0.20369835 -0.038223047 -0.029403215
0.09185659 0.0359768 0.18555567 -0.23080535 0.03769165 0.06869211 0.1221884 0.39746714
0.21000597 -0.1524313 -0.15270336 0.070421614 -0.1139892 0.24587862 -0.055572808 0.1535982
0.2176111 -0.08186645 0.016082387 0.10246911 -0.025076982 0.15205215 -0.25962496 0.026794806
-0.436233 -0.24781245 -0.051159967 0.22066556 0.2703757 0.12188958 0.030755272 0.078404896
-0.24436638 0.12297262 -0.24699834 0.3922667 0.13920379 -0.41063264 0.09942313 -0.34917653
0.064228624 -0.22086701 0.035559677 0.0012188704 0.450211 0.3584561 -0.11973815 -0.4131373
0.09151533 -0.08706205 0.08963038 -0.33583796 0.18758246 -0.16545461 -0.27345434 -0.17423058
0.1599491 -0.008320722 -0.2537195 -0.28973496 -0.16086806 -0.38880855 0.11456199 0.2224177
0.0004049005 -0.0870098 -0.00050160557 -0.14524013 -0.072465286 0.065776356 0.36356378 -0.021468654
0.13165408 0.03646254 -0.0012322369 -0.27500468 0.36881676 0.34357232 0.16725898 0.28986308
0.3410712 0.1786704 0.2456169 -0.40749025 -0.5586852 -0.23271048 0.09606627 -0.344434
-0.30872107 -0.23083584 -0.05563403 0.13262683 0.11705997 -0.34288636 0.31261685 0.02846974
-0.15459697 0.37214607 0.34839702 0.06724569 0.007672936 0.0029983448 0.06028344 0.25413564
0.2226267 -0.18756942 -0.39869604 -0.27028644 0.008709453 0.08207905 -0.18354374 -0.25663173
00000000: 1698 473e 3b8f 033e 5d4f a23c dd22 6f3e
00000010: b417 3e3e c815 68be a7d3 19be bf99 e73d
00000020: 4235 383d ceeb 3b3e 2ebb 0abe 7079 76be
00000030: f28b b93d 924b 063e dafa 753e 3446 8cbe
00000040: de41 543e 8737 843e 04e9 393e 171d 87be
00000050: c6ef 5e3e e0ea 813d e83e 85bd 35f8 6c3e
00000060: 3ccd c3be 5fb8 c83e f90a 833d 32d6 e13d
00000070: 3bc7 103e 6512 a93d 7c03 4c3e ed45 ba3e
00000080: 9ef6 bfbe 93a1 9c3e 6084 74be 6d28 5bbd
00000090: 0f4b a5bd d909 d83e 9008 9bbe b39a 6ebe
000000a0: 3d65 863e 366a 8bbe a7ba 563e 708b 21be
000000b0: 53eb 6b3e d48c a03e 428e 01be 5df5 0dbe
000000c0: a621 b53e 5248 a23c d2ac 58bd 8b4d 4fbe
000000d0: 5e52 b33e ef82 afba 9c56 ee3a 10a7 f1bd
000000e0: 9c15 4f3d 0ad1 673e 585c 2bbb d297 a63e
000000f0: 6503 df3c b4d2 e8bc 35a4 383e 731e d83d
00000100: d859 363d 5e3b 243e 9713 bb3e 92aa 68bd
00000110: 25de bb3e eac3 8e3e cb25 283e ceb4 303e
00000120: f413 2e3e 7d08 0d3e 2ecd b23e e5d7 cf3e
00000130: 93f7 383e a367 833e 8bfb eb3e b989 81be
00000140: 8d69 a13e c697 673e a91b 8b3e 7bcd a5bd
00000150: 5799 993d 08e0 a93e 67bf 1ebe 798b 363e
00000160: a985 9c3e 34a1 fdbe bbb1 9b3d 5ec2 12bc
00000170: 2343 b83e 65bc ebbd 9af9 993e c70e 843e
00000180: 54b2 6f3e 46d2 d13e 131a ae3d 2521 52be
00000190: feb6 933e 4548 4e3e 20fd de3d 5e00 e8be
000001a0: b49d 6a3d 9a75 8dbd 58e8 9c3e 0cab a53e
000001b0: 0bfa 983e 70b8 963e 4a62 6cbe b424 15be
000001c0: f7cd 3bbe 71d3 6ebd 6330 ac3e e8c8 843e
000001d0: b54d 853e 9631 c73d a13f 71be 70ea 16bd
000001e0: 6150 7b3e 6a62 533e 2956 793d b333 a23d
000001f0: 44c9 b1be a5fa ebbe 7270 323e 06db 5d3d
00000200: 3c42 553e dd84 9f3e b804 13be 9d13 3b3e
00000210: 02fd 863b 38af b33d 15e7 f1b8 e87f a7be
00000220: 3cf8 1e3e a4e8 153e f7e5 24be 0229 713e
00000230: 1c3d bfbe 4d96 50be c58f 1cbd 03df f0bc
00000240: 4f1f bc3d 695c 133d 4e02 3e3e 3d58 6cbe
00000250: 8f62 1a3d 73ae 8c3d e93d fa3d d080 cb3e
00000260: ce0b 573e f316 1cbe 455e 1cbe 3539 903d
00000270: 2b73 e9bd 9bc7 7b3e 50a0 63bd d948 1d3e
00000280: 72d5 5e3e 99a9 a7bd 36bf 833c 53db d13d
00000290: 3e6e cdbc 8fb3 1b3e 90ed 84be c880 db3c
000002a0: ef59 dfbe 8cc2 7dbe 1d8d 51bd 27f6 613e
000002b0: af6e 8a3e 3ea1 f93d 7bf2 fb3c bf92 a03d
000002c0: 2e3b 7abe 12d9 fb3d 22ed 7cbe 2ed7 c83e
000002d0: 708b 0e3e 713e d2be 5b9e cb3d 44c7 b2be
000002e0: 4c8a 833d f62a 62be 06a7 113d 81c2 9f3a
000002f0: 0e82 e63e 8f87 b73e 4639 f5bd bb86 d3be
00000300: 646c bb3d 974d b2bd 2290 b73d f4f2 abbe
00000310: 9e15 403e ef6c 29be 3502 8cbe 8069 32be
00000320: b2c9 233e a353 08bc 86e7 81be 2458 94be
00000330: 99ba 24be ea11 c7be 7a9f ea3d 77c1 633e
00000340: d348 d439 3232 b2bd 2e7e 03ba d4b9 14be
00000350: ae68 94bd c1b5 863d 0825 ba3e 08df afbc
00000360: 54d0 063e bf59 153d 0283 a1ba 6acd 8cbe
00000370: 8dd5 bc3e b6e8 af3e f045 2b3e ef68 943e
00000380: e2a0 ae3e 60f5 363e ff82 7b3e 90a2 d0be
00000390: fe05 0fbf a84b 6ebe 64be c43d a759 b0be
000003a0: b010 9ebe 3b60 6cbe 82e0 63bd 54cf 073e
000003b0: 23bd ef3d cd8e afbe 510f a03e 5f39 e93c
000003c0: ab4e 1ebe ee89 be3e 1861 b23e 1cb8 893d
000003d0: 416d fb3b e17f 443b c5eb 763d 111e 823e
000003e0: 41f8 633e 3312 40be e321 ccbe fc62 8abe
000003f0: 18b2 0e3c 1019 a83d e4f2 3bbe 3c65 83be

net.2.weight f4 [256, 256]
0.09778409 -0.03724788 0.017875323 -0.21900083 0.08162592 0.25287342 -0.17352863 -0.14516154
0.010706309 0.083771795 -0.17037666 -0.058269076 0.016450606 0.03721251 -0.27458206 -0.2538159
0.083269835 -0.060481496 0.18719856 -0.104416385 -0.01378594 -0.13236037 -0.082779154 0.07038583
-0.0981716 -0.022911042 0.01915009 0.10211379 -0.05935664 -0.05403525 -0.15057531 -0.045336712
0.42795676 0.016628388 0.032445934 -0.012216065 -0.021903776 -0.02252987 -0.25758725 0.0005921649
-0.01649344 -0.019943293 -0.04030807 -0.08592343 -0.005745778 -0.021651912 -0.1018483 -0.19556792
-0.007572361 0.10839107 -0.1268757 0.0292425 0.0052885176 0.075873226 -0.5823611 -0.043715034
0.06109704 -0.018255703 0.0078496095 0.060453348 0.18048963 0.14378996 0.0059209303 0.05768883
-0.14215799 0.057499975 0.14013435 -0.051632214 -0.016101738 -0.013148077 -0.04376232 -0.13948521
-0.1526479 0.079716824 -0.093871586 -0.05334343 0.018175026 -0.09833106 0.0030108516 -0.28576782
0.13042615 -0.01837112 0.29921344 -0.25181597 -0.13880655 0.11024894 -0.030889079 -0.13614023
0.12184516 0.3543865 0.052912463 -0.05516213 0.15569124 0.08528313 -0.025322335 0.05636036
-0.0152091 -0.040354975 -0.02955821 -0.053632084 0.035446525 0.12542538 0.16651282 0.35213655
-0.07543466 0.07672382 0.010408694 0.04220605 0.03394643 -0.022893343 0.026427021 -0.027513083
-0.04833726 0.011017784 -0.0045376834 0.09070966 -0.051077317 -0.14972581 -0.16821805 0.06286589
0.124888346 0.049463533 0.0852584 -0.059586316 0.40085956 0.5455558 0.009449669 -0.037176527
-0.11164306 -0.05422038 -0.037892915 0.12179292 -0.037182063 0.08883797 -1.3680971 -0.07123628
0.1032671 0.123444885 -0.33197394 0.046234943 -0.039430182 0.14372124 -0.05937964 0.0009731495
0.14824772 0.11906252 -0.000502985 -0.10634961 0.1128307 -0.07942495 0.25348595 -0.008960989
0.16255842 0.47114882 0.033048593 -0.10732503 -0.19715278 0.020759262 -0.0203747 0.14935379
0.11025788 -0.192192 0.14063962 -0.028930651 0.031789728 -0.057744835 -0.045718446 -0.13250105
0.7133471 0.34397745 -0.51486784 -0.008290749 0.08069638 0.02468581 0.06554694 -0.20084499
-0.54624957 0.046955638 0.2175347 0.047029622 -0.041492224 -0.16899769 0.04355281 -0.073771164
0.061397366 -0.2515975 -0.14097331 -0.32890475 0.071016006 0.0786053 -0.08229329 0.51337945
0.17298974 0.067633934 0.0287009 0.058237173 0.10378875 -0.13115667 0.12638122 -0.17293406
0.008177806 0.045181982 -0.03344417 0.028442852 -0.1442546 0.1243606 -0.011052509 0.098234504
-0.6950192 0.17634006 -0.05833186 0.06490391 0.08029501 0.1251211 0.07054798 0.09005247
0.09499827 -0.08587324 0.013730593 -0.07093567 -0.08639533 0.10789187 -0.03162347 0.020339703
0.06271976 0.064080134 0.079750344 0.060607474 0.24927421 0.11674883 0.11580344 -0.09262832
-0.026323346 0.003066515 -0.53661937 -0.1287441 0.24432585 -0.020862946 -0.028067464 -0.102500826
0.2340439 0.07185677 -0.014443512 -0.15070418 -0.27855033 -0.004165612 0.0059673316 0.088652655
-0.026086543 -0.2967853 0.037632797 -0.15148714 0.14017347 0.03986833 -0.028607583 -0.12682019
00000000: 0643 c83d 3c91 18bd 456f 923c c141 60be
00000010: 7e2b a73d a078 813e 7db1 31be 3aa5 14be
00000020: 8469 2f3c 8c90 ab3d 3877 2ebe 8eab 6ebd
00000030: 6cc3 863c 256c 183d 0596 8cbe 28f4 81be
00000040: 6089 aa3d 72bb 77bd fbb0 3f3e 42d8 d5bd
00000050: 6cde 61bc 7a89 07be 1e88 a9bd 7226 903d
00000060: 310e c9bd f0af bbbc a6e0 9c3c 0921 d13d
00000070: f31f 73bd 1154 5dbd 6a30 1abe fdb2 39bd
00000080: 261d db3e 4238 883c 07e6 043d e425 48bc
00000090: 8c6f b3bc 9090 b8bc 7ae2 83be 843b 1b3a
000000a0: 401d 87bc 1e60 a3bc 131a 25bd a0f8 afbd
000000b0: 1447 bcbb 5a5f b1bc d795 d0bd f542 48be
000000c0: 9121 f8bb 23fc dd3d b4eb 01be f88d ef3c
000000d0: 4d4b ad3b 6c63 9b3d 9e15 15bf 890e 33bd
000000e0: e440 7a3d fc8c 95bc a69b 003c ee9d 773d
000000f0: 46d2 383e ad3d 133e 5d04 c23b 1f4b 6c3d
00000100: dd91 11be 1885 6b3d 617f 0f3e 4d7c 53bd
00000110: cbe7 83bc 086b 57bc 1e40 33bd 36d5 0ebe
00000120: bb4f 1cbe 9342 a33d bf3f c0bd a47e 5abd
00000130: cbe3 943c cb61 c9bd b551 453b 2950 92be
00000140: 6f8e 053e 087f 96bc 8132 993e 06ee 80be
00000150: 4e23 0ebe 32ca e13d 180b fdbc 5868 0bbe
00000160: f589 f93d 2672 b53e bdba 583d b0f1 61bd
00000170: 866d 1f3e eca8 ae3d c970 cfbc 1fda 663d
00000180: 972f 79bc 424b 25bd 0f24 f2bc 51ad 5bbd
00000190: 6030 113d 836f 003e 5682 2a3e 3e4b b43e
000001a0: 7d7d 9abd 6121 9d3d 3a89 2a3c 40e0 2c3d
000001b0: 690b 0b3d d28a bbbc 7b7d d83c 1e63 e1bc
000001c0: 4afd 45bd ef83 343c d9b0 94bb fcc5 b93d
000001d0: 7336 51bd b951 19be 5a41 2cbe d5bf 803d
000001e0: 76c5 ff3d 469a 4a3d f59b ae3d c810 74bd
000001f0: 773d cd3e 8ba9 0b3f c9d2 1a3c 6a46 18bd
00000200: 1ea5 e4bd 3016 5ebd 9a35 1bbd 916e f93d
00000210: 384c 18bd aef0 b53d ce1d afbf 54e4 91bd
00000220: b47d d33d acd0 fc3d 7df8 a9be da60 3d3d
00000230: 8b81 21bd a92b 133e 1138 73bd f51a 7f3a
00000240: 40ce 173e 0dd7 f33d c1da 03ba d3cd d9bd
00000250: c813 e73d 8ca9 a2bd e9c8 813e 1dd1 12bc
00000260: b775 263e 6b3a f13e f65d 073d 3acd dbbd
00000270: 6be2 49be 540f aa3c d8e8 a6bc 33f0 183e
00000280: e2ce e13d fbcd 44be d503 103e f9ff ecbc
00000290: f235 023d d985 6cbd 4443 3bbd 5bae 07be
000002a0: ea9d 363f d01d b03e 61ce 03bf ecd5 07bc
000002b0: 2544 a53d e539 ca3c 793d 863d 4faa 4dbe
000002c0: 03d7 0bbf 8e54 403d 6bc1 5e3e 22a2 403d
000002d0: c0f3 29bd bb0d 2dbe 6e64 323d 5615 97bd
000002e0: ce7b 7b3d 63d1 80be 4f5b 10be 3466 a8be
000002f0: d770 913d d1fb a03d 6289 a8bd d66c 033f
00000300: 3924 313e a983 8a3d 261e eb3c 1a8a 6e3d
00000310: 328f d43d ef4d 06be 146a 013e a015 31be
00000320: 34fc 053c be10 393d c1fc 08bd fc00 e93c
00000330: 7ab7 13be c5b0 fe3d 9515 35bc 2c2f c93d
00000340: c7ec 31bf 7d92 343e 63ed 6ebd 57ec 843d
00000350: b671 a43d bf1f 003e 767b 903d 6e6d b83d
00000360: 748e c23d 4fde afbd 48f6 603c b846 91bd
00000370: 09f0 b0bd 6af6 dc3d 9d87 01bd 739f a63c
00000380: 3873 803d 723c 833d 2654 a33d 8b3f 783d
00000390: bd41 7f3e 031a ef3d 5b2a ed3d ebb3 bdbd
000003a0: 0fa4 d7bc 96f7 483b e35f 09bf 7ed5 03be
000003b0: 8e30 7a3e c5e8 aabc bded e5bc f4eb d1bd
000003c0: 34a9 6f3e a429 933d 7ba4 6cbc 3252 1abe
000003d0: 269e 8ebe b07f 88bb 9b89 c33b 868f b53d
000003e0: 72b3 d5bc 3ef4 97be d924 1a3d 721f 1bbe
000003f0: a289 0f3e f94c 233d 735a eabc 27dd 01be

net.2.bias f4 [256]
0.018918673 0.05321928 0.07995032 -0.053081255 0.1037367 0.1442164 -0.009745194 0.002306814
-0.008538377 0.057417084 0.053074114 -0.021363921 -0.038649388 0.05925495 0.057274874 -0.057305142
-0.110436104 -0.05697571 0.098242044 0.021279288 -0.018147122 0.103075 0.027942931 0.034372933
-0.02538369 0.13926323 0.037706412 0.0028097809 0.038024466 0.05405698 -0.041476052 0.01870138
0.054231063 -0.10247551 0.041817065 -0.06637893 0.014296457 0.05788394 -0.03250447 -0.036982577
0.032457843 0.03987337 0.14849374 0.038369764 0.09907139 0.09045353 0.036959488 -0.11841128
-0.057024702 -0.07086594 -0.0076521183 -0.05087895 0.0760764 0.059419528 -0.08664689 0.06897927
0.14205739 0.039345883 -0.052677043 -0.049788423 0.03230533 -0.16255851 0.18922654 0.09781787
-0.18491402 0.111536324 0.091878116 0.01158655 -0.010325679 0.006780422 -0.017119598 0.12312753
-0.05386093 -0.0084881205 0.10096496 0.04511749 -0.060320154 -0.0013078257 0.0028117818 0.04744727
-0.0063182963 -0.00042397546 -0.017858127 0.13285483 0.1785561 -0.021405028 0.034038775 0.02863386
-0.03894904 -0.008330661 0.111228235 0.0667592 0.12693189 0.10141891 0.058715966 0.06590633
-0.045904316 0.029789647 0.018451318 0.009774935 0.049404934 -0.044521004 -0.05634944 0.16242175
0.15687333 -0.0026283513 0.18174115 -0.03824478 0.08175659 -0.061490342 0.006026393 0.030976746
0.08224547 0.052713912 0.06557723 0.060709886 -0.012791737 0.00021075761 -0.006168986 0.013939897
-0.06315155 0.0006002359 -0.10638074 0.10902041 0.10669141 0.07423921 0.044675723 -0.013148364
0.05059875 0.034546636 0.045626394 0.10679147 -0.000477358 0.12825015 0.005323043 0.0944742
-0.01827595 -0.021008452 0.011185709 0.010911698 -0.08588609 0.065434426 0.12566549 0.042992122
-0.009332674 -0.015385747 0.053095445 0.018544346 -0.07827763 -0.10331517 0.035336323 -0.16177788
-0.05280929 0.06267701 0.060995553 -0.03190514 0.06093923 0.111533575 0.13922778 0.075241916
0.06081114 0.121607706 0.054337434 0.046161126 0.046703506 0.054613635 -0.06345404 0.049704634
0.03947597 0.03848081 -0.01791886 -0.0021719863 0.0054280716 -0.04286385 0.13829255 0.054804515
-0.024646342 0.035285786 0.054098822 -0.07034416 0.089081615 0.04535932 -0.021081287 -0.024968777
0.0006046317 0.10652742 -0.06644715 -0.038917188 0.014953149 0.10914291 0.057431757 0.029808445
-0.09944448 -0.052444413 0.063805215 0.16591337 -0.05302944 -0.005006273 0.034133565 -0.041915152
0.09733713 0.052940816 -0.03442689 0.07865058 0.10501431 0.13031805 -0.051859148 0.06748864
-0.059922993 0.0017769011 -0.02092012 0.10041753 0.05090162 0.1364293 -0.01751786 0.007157081
0.046282038 -0.04884091 -0.054535773 0.041019566 0.039830603 -0.13126664 -0.061754536 -0.03881247
0.10077701 0.0031706851 0.02487258 -0.17536426 0.059833404 -0.019925956 -0.024814088 0.07035157
0.009792009 0.018330934 -0.042159293 -0.09766042 0.02253764 0.006331874 0.16128094 0.052165344
-0.028956294 -0.012881904 0.037248816 0.06316823 0.073153585 0.18760528 -0.04903775 0.0026331537
0.0968877 -0.035828296 -0.028020566 0.015050519 0.028999232 -0.058790997 0.042543408 0.12521523
00000000: 55fb 9a3c 76fc 593d febc a33d bb6b 59bd
00000010: e873 d43d 77ad 133e 4eaa 1fbc eb2d 173b
00000020: 8ce4 0bbc 2d2e 6b3d 3e64 593d 6403 afbc
00000030: d24e 1ebd 52b5 723d 0f99 6a3d ccb8 6abd
00000040: 532c e2bd 5d5f 69bd 2033 c93d e751 ae3c
00000050: 46a9 94bc fc18 d33d 93e8 e43c a2ca 0c3d
00000060: 75f1 cfbc 059b 0e3e 0a72 1a3d 4d24 383b
00000070: 8bbf 1b3d da6a 5d3d cbe2 29bd a333 993c
00000080: 6421 5e3d aede d1bd 5f48 2b3d adf1 87bd
00000090: b03b 6a3c b617 6d3d 6823 05bd 0b7b 17bd
000000a0: 84f2 043d 4252 233d be0e 183e 9d29 1d3d
000000b0: f1e5 ca3d b33f b93d d562 173d 9d81 f2bd
000000c0: bc92 69bd 2922 91bd 9fbe fabb 7266 50bd
000000d0: f2cd 9b3d e461 733d ed73 b1bd 0145 8d3d
000000e0: 7e77 113e 2629 213d e2c3 57bd f2ee 4bbd
000000f0: 9852 043d bd75 26be 9ac4 413e bc54 c83d
00000100: 1a5a 3dbe 286d e43d 982a bc3d 83d5 3d3c
00000110: 092d 29bc 4d2e de3b 663e 8cbc 492a fc3d
00000120: 479d 5cbd c211 0bbc b8c6 ce3d 1ecd 383d
00000130: 4412 77bd 596b abba df45 383b 1258 423d
00000140: b609 cfbb 0649 deb9 354b 92bc 190b 083e
00000150: 69d7 363e 9959 afbc 3e6c 0b3d 8f91 ea3c
00000160: 0789 1fbd 537d 08bc a1cb e33d 0cb9 883d
00000170: 6ffa 013e b8b4 cf3d 2780 703d e6f9 863d
00000180: 2a06 3cbd 6b09 f43c 3827 973c 0d27 203c
00000190: d45c 4a3d a85b 36bd acce 66bd e351 263e
000001a0: 67a3 203e 6b40 2cbb 5a1a 3a3e 8fa6 1cbd
000001b0: 0070 a73d 4cdd 7bbd 0c79 c53b f2c2 fd3c
000001c0: 5070 a83d 8bea 573d 5b4d 863d eeaa 783d
000001d0: 6f94 51bc d1fe 5c39 3525 cabb 2a64 643c
000001e0: 9a55 81bd 2659 1d3a 25de d9bd 1846 df3d
000001f0: 0781 da3d ba0a 983d e4fd 363d 3c6c 57bc
00000200: a340 4f3d c680 0d3d bee2 3a3d 7cb5 da3d
00000210: e845 fab9 0254 033e ec6c ae3b b07b c13d
00000220: 72b7 95bc eb19 acbc 4444 373c fbc6 323c
00000230: 0ce5 afbd 7c02 863d 74ae 003e 8218 303d
00000240: 12e8 18bc 8014 7cbc 9c7a 593d 50ea 973c
00000250: 0650 a0bd e796 d3bd d2bc 103d 1aa9 25be
00000260: 8e4e 58bd ce5c 803d 79d6 793d f7ae 02bd
00000270: 6a9b 793d b76b e43d ba91 0e3e 6f18 9a3d
00000280: 1a15 793d 760d f93d ee90 5e3d 7313 3d3d
00000290: 2d4c 3f3d 8cb2 5f3d 31f4 81bd 1697 4b3d
000002a0: 8eb1 213d 0e9e 1d3d 93ca 92bc e257 0ebb
000002b0: f7dd b13b 0192 2fbd 909c 0d3e b37a 603d
000002c0: 20e7 c9bc d487 103d ba96 5d3d 9910 90bd
000002d0: 6c70 b63d b2ca 393d aab2 acbc 528b ccbc
000002e0: 2680 1e3a 0c2b da3d 7215 88bd a167 1fbd
000002f0: 0dfe 743c 5186 df3d 903d 6b3d d730 f43c
00000300: 8ca9 cbbd f4cf 56bd 4fac 823d 32e5 293e
00000310: 6635 59bd a90b a4bb a3cf 0b3d 39af 2bbd
00000320: b058 c73d 78d8 583d 3603 0dbd 8e13 a13d
00000330: be11 d73d 1872 053e 426a 54bd 7c37 8a3d
00000340: d071 75bd e8e6 e83a ac60 abbc b5a7 cd3d
00000350: 387e 503d 1fb4 0b3e 9d81 8fbc f285 ea3b
00000360: 3c92 3d3d 680d 48bd e760 5fbd 2204 283d
00000370: 6a25 233d c36a 06be 53f2 7cbd d3f9 1ebd
00000380: 2d64 ce3d 45cb 4f3b 95c1 cb3c b092 33be
00000390: df13 753d c23b a3bc ea46 cbbc 7c14 903d
000003a0: aa6e 203c c12a 963c 39af 2cbd 3002 c8bd
000003b0: dba0 b83c 9c7b cf3b d526 253e 54ab 553d
000003c0: c035 edbc 9f0e 53bc 3792 183d 585e 813d
000003d0: 8cd1 953d 991b 403e cfdb 48bd fd90 2c3b
000003e0: 0f6d c63d b1c0 12bd 638b e5bc 7496 763c
000003f0: cc8f ed3c d4ce 70bd ff41 2e3d 6c38 003e

net.4.weight f4 [4, 256]
0.022181006 -0.16775745 -0.50252855 -0.24796046 -0.23633854 0.27525717 0.5462512 0.2810989
-1.0031111 0.6524747 -0.3131539 -0.47350493 0.66545874 -0.5044243 -0.34530413 0.1331929
0.48420143 -0.31629565 -0.33816645 -0.13381836 0.59011245 0.77840537 -0.38283432 -0.13074453
-0.60932416 -0.18771462 0.25195992 -0.2563668 -0.2059957 -0.47860497 -0.057695374 -0.29251933
-0.21188217 0.5623002 -0.02091972 0.76470786 -0.16745315 0.86699885 0.7771801 -0.36023152
-0.12510462 -0.079901464 0.15891741 1.0787272 0.2853964 -0.1367616 0.38969377 -0.25565255
0.60959333 -0.6103029 -0.14029513 -0.17951235 -0.183003 0.6707678 -0.32436982 -0.14691019
-0.21203741 -0.46756667 -0.37693527 0.059204582 -0.049901113 -0.4238759 -0.32154408 -0.6422898
-0.4666291 0.31942943 0.49213275 -0.49872857 -0.36515838 0.12511444 0.86021626 0.6517918
-0.38558045 -0.38032758 -0.17595334 -0.10298972 -0.23642394 0.028985532 -0.29046714 0.23787642
0.23976141 0.8846158 -0.23313124 0.2827757 -0.3915847 0.013034285 0.4223261 -0.30103353
-0.37134802 -0.31778684 0.1803981 -0.36581883 0.1452771 0.28451073 -0.4829121 -0.45594376
-0.27942696 -0.2971646 0.41944283 -0.3411919 -0.31105414 0.051590778 -0.31846768 0.23126219
0.12124683 -0.3221335 0.31189874 -0.3697403 -0.4183955 -0.048991572 -0.2985048 -0.33416146
0.81475335 -0.13766387 0.6224985 0.27647787 0.8229379 0.61002576 -0.25499487 -0.2822906
-0.3534405 -0.29604638 0.15631461 0.25484064 0.62249714 -0.43922502 -0.32824215 0.052823335
-0.2762422 -0.4778311 0.52932554 0.7700506 0.3000762 -0.48725364 -0.19405949 0.67430127
-0.37561873 -0.34468102 0.503871 0.76638144 -0.16227864 -0.35588875 0.19767664 0.52475
-0.29158142 0.01709141 -0.26820135 -0.35070363 0.4206886 0.5060732 -0.32292068 -0.14832257
-0.2908973 0.5438869 0.29362735 0.047860228 0.12918895 0.72230726 0.19300997 0.21767646
0.15517177 -0.20316526 0.68941617 -0.30772257 -0.5231017 -0.28471965 -0.018188026 -0.028887209
0.67100185 0.7327615 -0.22261962 -0.2858923 -0.15957502 0.8005029 -0.14077464 0.42145187
-0.52802086 0.039501198 -0.35981303 0.20578271 0.3850737 -0.3116377 -0.41859493 0.7768302
0.020454407 0.09937212 0.013907168 0.4763575 -0.2911475 -0.3247272 -0.07404162 -0.32466346
-0.40702665 -0.41860646 -0.37572938 0.23544939 0.36535588 -0.27449554 0.023568027 0.10376587
1.000078 -0.12269809 -0.36595747 0.1197813 0.17450473 0.18867922 -0.42948896 0.63499063
-0.033341613 -0.17306642 -0.023732677 -0.16716193 -0.2522303 0.15485148 0.5020039 -0.33342886
-0.078167796 -0.036847234 -0.2960608 -0.2213987 -0.36706272 -0.3915187 0.59087795 0.19164221
0.4971646 -0.22145511 -0.37109536 -0.4448609 0.24380568 -0.31783485 -0.34579688 -0.2328957
-0.14150283 -0.5609942 -0.3761427 -0.9984773 -0.35432795 -0.522265 0.2883396 -0.0073584574
0.17182736 -0.49742982 0.68177384 -0.41286817 -0.2316995 0.28899798 0.82134473 -0.31535733
-0.47756818 -0.20924626 0.603677 0.056016188 -0.12715952 -0.26883653 0.0035876632 0.21281505
00000000: f1b4 b53c 9cc8 2bbe b6a5 00bf 59e9 7dbe
00000010: bb02 72be 82ee 8c3e 1ed7 0b3f 32ec 8f3e
00000020: f265 80bf 9508 273f b555 a0be 3d6f f2be
00000030: 815b 2a3f f321 01bf b4cb b0be b863 083e
00000040: 40e9 f73e 81f1 a1be 2724 adbe ae07 09be
00000050: 9c11 173f 9345 473f dc02 c4be e5e1 05be
00000060: abfc 1bbf 4338 40be e400 813e 8242 83be
00000070: 89f0 52be b60b f5be fc51 6cbd 18c5 95be
00000080: a4f7 58be e8f2 0f3f d55f abbc e5c3 433f
00000090: d778 2bbe a3f3 5d3f 46f5 463f 4470 b8be
000000a0: 6d1b 00be 61a3 a3bd 3fbb 223e bc13 8a3f
000000b0: 7a1f 923e 3c0b 0cbe f185 c73e e4e4 82be
000000c0: 4f0e 1c3f d03c 1cbf 87a9 0fbe 16d2 37be
000000d0: 2365 3bbe 70b7 2b3f cd13 a6be a06f 16be
000000e0: 5620 59be e664 efbe a9fd c0be 8180 723d
000000f0: 1c65 4cbd 4306 d9be 6da1 a4be 1b6d 24bf
00000100: 02ea eebe 418c a33e d3f8 fb3e 5a59 ffbe
00000110: 0af6 babe 001e 003e 2237 5c3f d4db 263f
00000120: cd6a c5be 4cba c2be 1d2d 34be 46ec d2bd
00000130: 1e19 72be 1173 ed3c 1cb8 94be e095 733e
00000140: 0484 753e 2e76 623f f5b9 6ebe fac7 903e
00000150: ca7d c8be c18d 553c 203b d83e 1121 9abe
00000160: 5421 bebe f5b4 a2be 48ba 383e 9b4c bbbe
00000170: 85c3 143e 64ab 913e 4140 f7be 7671 e9be
00000180: 0d11 8fbe f525 98be 36c1 d63e b4b0 aebe
00000190: 7d42 9fbe da50 533d 320e a3be ffcf 6c3e
000001a0: 4250 f83d afee a4be 31b1 9f3e 9a4e bdbe
000001b0: ef37 d6be 63ab 48bd 9fd5 98be 3617 abbe
000001c0: ad93 503f c2f7 0cbe 105c 1f3f 828e 8d3e
000001d0: 0fac 523f a62a 1c3f b08e 82be 6588 90be
000001e0: 27f6 b4be 6493 97be f010 203e 797a 823e
000001f0: f95b 1f3f 1ae2 e0be 5b0f a8be 485d 583d
00000200: 9e6f 8dbe 47a6 f4be e181 073f 0922 453f
00000210: 96a3 993e 4f79 f9be 88b7 46be 029f 2c3f
00000220: 1951 c0be 087a b0be b1fd 003f 9331 443f
00000230: 5f2c 26be 0d37 b6be bf6b 4a3e 0456 063f
00000240: 294a 95be 4903 8c3c b051 89be 6d8f b3be
00000250: 7f64 d73e 038e 013f dc55 a5be dfe1 17be
00000260: 7ef0 94be 2c3c 0b3f 5356 963e 1609 443d
00000270: 1c4a 043e 21e9 383f 68a4 453e 94e6 5e3e
00000280: 59e5 1e3e 8e0a 50be 947d 303f d08d 9dbe
00000290: fee9 05bf c6c6 91be 0eff 94bc dea4 ecbc
000002a0: c7c6 2b3f 4296 3b3f 66f6 63be 7a60 92be
000002b0: a267 23be c2ed 4c3f 3a27 10be 8ac8 d73e
000002c0: 602c 07bf 02cc 213d 6a39 b8be b4b8 523e
000002d0: 6128 c53e fa8e 9fbe 1352 d6be 58de 463f
000002e0: 0090 a73c 9c83 cb3d e4da 633c 21e5 f33e
000002f0: 4911 95be a542 a6be 22a3 97bd 4a3a a6be
00000300: cc65 d0be 9653 d6be 9a5f c0be a519 713e
00000310: ed0f bb3e ae8a 8cbe bc11 c13c 3383 d43d
00000320: 8e02 803f 2349 fbbd c75e bbbe e64f f53d
00000330: 5eb1 323e 2035 413e fae5 dbbe bf8e 223f
00000340: 3791 08bd 5338 31be 086b c2bc 7f2c 2bbe
00000350: 5424 81be 6391 1e3e 5483 003f 30b7 aabe
00000360: 7016 a0bd 20ed 16bd 4895 97be 57b6 62be
00000370: a5ef bbbe 2475 c8be c743 173f db3d 443e
00000380: 5c8c fe3e 21c5 62be 3600 bebe cfc4 e3be
00000390: 32a8 793e 40bb a2be 4a0c b1be 367c 6ebe
000003a0: 1ee6 10be 519d 0fbf c795 c0be 359c 7fbf
000003b0: 796a b5be 29b3 05bf 40a1 933e 371f f1bb
000003c0: 83f3 2f3e 1faf febe bb88 2e3f 7563 d3be
000003d0: a242 6dbe 8bf7 933e a643 523f 8476 a1be
000003e0: d183 f4be a744 56be 938a 1a3f 3b71 653d
000003f0: 1b36 02be f1a4 89be 001f 6b3b 30ec 593e

net.4.bias f4 [4]
0.012775866 0.053909108 0.06212639 0.0046168054
00000000: de51 513c cccf 5c3d 3e78 7e3d 9248 973b
