drafts/draft_02/runs_lunarlander/dqn_trial08_seed42.pth (torch, 279705 bytes, 6 tensors)

net.0.weight f4 [256, 8]
00000000: e591 3d3e cded 9b3e cd34 1cbd dc00 3c3f
00000010: 52d8 0fbe c912 33be ab3e 1cbe dc9b 0a3e
00000020: 5936 473f abf8 6fbe 6e6b 533f 2988 883d
00000030: 395a fd3e a197 343e e98f ba3d 5b08 1abe
00000040: 1354 fe3e 280f 9f3d c023 0cbe 93b5 313e
00000050: b957 9fbe b580 c6be 446d 83be 347f c73e
00000060: 60f4 09bf 82eb 5fbd a7f3 89be 451f afbe
00000070: 3067 ec3e 797c 3abf a3b1 e93e 5bfa debe
00000080: 5eab 04bc 64d6 c9bc 16cb bcbe 1327 5d3f
00000090: 4195 eb3d fe78 203e 09aa bc3d 55bb a9bd
000000a0: 67ba 653d 75ab 293e 9c47 063d 93bd ff3e
000000b0: a959 57be 51d1 d4be 0420 bf3e 4c79 d2bb
000000c0: 53b1 393d ac52 a6be 3a4d c3be 6d08 f7be
000000d0: e959 583d 7ef3 1b3f 733f 5b3e d158 2d3e
000000e0: 75ad 5a3c b1a8 c73c cdbf 423f b5c6 cabe
000000f0: 9a92 b23e ae02 cabe 8504 803d d588 7bbd
00000100: fc8c 50be 905a 47be e36a 1d3f 4caa 11bf
00000110: 6d02 86be 83b7 4ebf 070c f43e dc00 3a3e
00000120: a024 e33e c320 23be 2ce6 c6be e772 04bf
00000130: 0c81 73be 74d8 953e 9db8 fc3d 6692 9a3e
00000140: 7d9c 50be 42ac 33bf e033 ca3b 2feb 20bf
00000150: 68dc 71bd bccb 943d 3cff f83d ad1e aebd
00000160: d6e2 703d 7795 cb3d a219 ab3e 1192 4cbe
00000170: cf79 92bd dc0d 3a3f d31b ad3e ef9d 42bf
00000180: 0f96 d03e 876d 743d 3c64 99be 84f4 0bbf
00000190: e81c 8dbe e6cc 813d 2698 b53c 8b5c aebd
000001a0: 5695 d0be 2333 0bbf 9724 acbe ba01 02bf
000001b0: 890c d5be db0a 10bf 9a13 093f f50f 94bd
000001c0: 57db e63c 928e 09bf f51e 48be cd62 b4be
000001d0: 6d05 283e 364d 00bf a78a 84be fb16 d5be
000001e0: 265b 293d d9f5 b13a 5ade e53d 21f8 81be
000001f0: 3887 ffbe 184b 1cbf 5363 0abf 1940 82bb
00000200: 5a5e 1d3e 83c7 75bd e60d 453f cb7d ca3e
00000210: 6011 52bf 1766 0b3d 632c 143e b38b 13bd
00000220: 5d7f a1be 87a5 17bf 93a0 443d 5d1c 19bf
00000230: 4c61 ee3d b6cb 95be 2724 1a3f 7ab1 c3be
00000240: d750 53be b15c 09be 19d5 233f a795 7b3f
00000250: 7dd0 633f c7ca 01be 22f1 973c 00d0 6f3d
00000260: f057 453e f745 b8be 9fcb e33e dce9 26bf
00000270: c45e 64be 0f88 c83e 83e9 e03d 169c fabe
00000280: b459 a63e ea5d 083e cb3f 053e df00 04bf
00000290: bb5d cb3e 6dac 9abe ee5b 74be 5312 9a3e
000002a0: 69bd a53d eec1 f6bc d768 abbb 4efd 75bc
000002b0: 16ca 8d3f 4e0e e53d eeb7 a9bd 1a4d dabe
000002c0: e71f 9abe 8a3b 853e 9fa7 5a3f c21f 92be
000002d0: d13c 7d3e 8c9d e13e 2e48 c3bd 1187 27bd
000002e0: 868e 173e 9d67 3a3e 243d 9f3e 142e 27be
000002f0: 66cf 92bd 44e5 b13d 609a 743b bec2 eabd
00000300: 2fdb 943e 56ef c63e 782d 9e3b 3f30 6d3d
00000310: e1fc 7ebd 163f 2ebe edc6 233e ca49 ac3e
00000320: 2d3c 70be 28a7 6abd ed73 813e 255e a53e
00000330: 3e70 253e 1051 12bf d133 c8be 94ac 01bf
00000340: e725 16bd e2b9 0b3e d12a 843e df8f 2a3e
00000350: 1cf7 d6be 4c2a 0bbf a0be 69bc d633 d53e
00000360: 531a 2e3a 75d1 5c3a c396 c13b 6f08 83bb
00000370: 4b6c 88bf cca2 993d 555d c5be 15e7 8dbd
00000380: 1eb7 2ebe 9e49 483e 9916 a33e 678a 893e
00000390: ecf1 9dbe 18c8 11bf 1e30 afbe 246b e33e
000003a0: 3bcd bcbd 0012 773e 7294 123f 5359 843d
000003b0: ba0c c03e 0b5d eebe 4b2a f43d e74a c1be
000003c0: e3fd d0bd 1ef0 96be e510 e4be c5dc 9dbe
000003d0: 9054 dc3d e43d 1dbf 0615 13be 9ac1 933e
000003e0: 8a8b a8bd 5cb1 6e3e c416 ffbd 5c71 c6be
000003f0: 40e8 e03d a6b6 1cbf d802 2abd b145 8ebe
0.18512686 0.30454865 -0.038136292 0.7343881 -0.14047363 -0.17487635 -0.15258281 0.13536018
0.778173 -0.23434703 0.825858 0.066665955 0.49482897 0.17635967 0.0910948 -0.1504225
0.4967352 0.07766563 -0.13685513 0.17354421 -0.31121615 -0.3877007 -0.256693 0.38964236
-0.5388851 -0.054667957 -0.26943704 -0.34203544 0.46172476 -0.7284618 0.4564334 -0.4355038
-0.008097498 -0.024638362 -0.36873692 0.8638775 0.11503077 0.15671155 0.09212119 -0.08287684
0.05608597 0.16569312 0.032783136 0.4994932 -0.21030296 -0.41565946 0.37329113 -0.006423151
0.045335125 -0.3248495 -0.38144857 -0.48248616 0.05282012 0.60918415 0.21410923 0.16928412
0.013347019 0.02437243 0.76073915 -0.39604726 0.34877473 -0.3945517 0.06250862 -0.06140979
-0.20366281 -0.1946814 0.6149122 -0.5690048 -0.26173726 -0.80748767 0.47665426 0.1816439
0.4436388 -0.15930466 -0.38847482 -0.5173783 -0.23779696 0.29266703 0.123399 0.30189818
-0.20372196 -0.7018472 0.0061707348 -0.6285886 -0.059048086 0.07265422 0.12158057 -0.08501945
0.058810078 0.099406175 0.33417994 -0.19977595 -0.071521394 0.726774 0.3381029 -0.7602224
0.40739486 0.059674766 -0.29959285 -0.54669976 -0.27561116 0.063379094 0.022167277 -0.08513745
-0.40738934 -0.54374903 -0.33621666 -0.50783885 -0.41611126 -0.56266564 0.53545535 -0.07229606
0.028180761 -0.5373317 -0.19543059 -0.3523163 0.1640832 -0.50117815 -0.25887033 -0.41619095
0.04134669 0.0013577297 0.11224051 -0.2538462 -0.4990785 -0.61052084 -0.54057807 -0.003974926
0.15368024 -0.060004722 0.7697433 0.39549097 -0.8205776 0.034032907 0.14470057 -0.0360219
-0.31542483 -0.5923695 0.048004698 -0.59808904 0.11639652 -0.29256982 0.60211414 -0.3822134
-0.20636307 -0.13414265 0.63997036 0.98275226 0.8899 -0.1267501 0.018547598 0.058547974
0.19271827 -0.3599088 0.44491288 -0.6520059 -0.22301775 0.39166304 0.10982039 -0.4894721
0.32490313 0.13317075 0.13012616 -0.5156383 0.39719948 -0.30209675 -0.23863193 0.30092105
0.08092768 -0.03012177 -0.0052310037 -0.015014006 1.1077297 0.11184369 -0.08287035 -0.4263695
-0.30102465 0.26021987 0.8541202 -0.28539854 0.24730231 0.4406551 -0.095352516 -0.040900294
0.14800462 0.18203588 0.31101334 -0.16326171 -0.07168464 0.08686307 0.003732346 -0.114629254
0.29073474 0.38854474 0.0048271976 0.05790734 -0.062252883 -0.17016253 0.15993853 0.33650047
-0.23460455 -0.05728832 0.25283757 0.3229839 0.16156098 -0.5715494 -0.39102033 -0.5065396
-0.03665724 0.13645127 0.25813916 0.16656445 -0.41985404 -0.54361415 -0.01426664 0.4164111
0.0006641496 0.00084235455 0.005907865 -0.003998808 -1.0658048 0.07501754 -0.3854777 -0.06928841
-0.17062041 0.19559333 0.31853178 0.26863405 -0.30848634 -0.56945944 -0.34216398 0.4441768
-0.09218832 0.2412796 0.5725776 0.0646235 0.3750971 -0.4655536 0.11922129 -0.37752458
-0.10204675 -0.2948007 -0.4454414 -0.30832496 0.107583165 -0.6142256 -0.14363489 0.28858644
-0.0822974 0.23309845 -0.12455514 -0.3875836 0.10981798 -0.612162 -0.04150662 -0.27787545

net.0.bias f4 [256]
00000000: 5d42 3a3e ba03 4a3e a962 fcba 194c 163e
00000010: 96f9 ac3d 149c abbe 069d 71be afa2 953d
00000020: 177e 9fbd 5280 673e 67ee 42be 2b5a aebe
00000030: 945c 65bc e9a0 3cbe b66f 853e 6690 62be
00000040: 363c 7a3e 0029 a13e cfae 923e da00 d1bd
00000050: f907 3b3e 1635 19bc 382d adbd ecc8 783e
00000060: a91e bbbe 3a3e a73e 4596 c63d 6dfc 8aba
00000070: 4c52 2e3e 7e0a 0f3e f276 573e c6dd 9a3e
00000080: 9599 43be 3ca7 b43e f137 863d ef3a a7bd
00000090: dfaf 9f3d b68c bd3e 1a6a 73be 2726 9abd
000000a0: 5a54 7d3e b7b9 26be cd9f 533e f6a3 88bd
000000b0: 366f 013e 902e c03e 0eee 30bd ce72 d1bd
000000c0: fb3d 7a3e 5fa6 9c3d f27a ba3c 6253 ebbb
000000d0: 894c ac3e 8693 dd3c 952c 5b3d 3384 1d3e
000000e0: d7cd 273d 79ab 6e3e b88c d6bd 89e9 a53e
000000f0: 62c4 943c f1b2 c7bc 4e8d 1d3e c800 14bd
00000100: d64c c8bd c3bc ff3d 0667 b03e e931 793d
00000110: 1335 973e e2ea 8d3e 8d31 a33d 1118 443e
00000120: 455b 273e b710 9e3d 87f2 0d3e 13ed bc3e
00000130: b0a2 393e 9e8e 453e 78a0 b13e ec22 8dbe
00000140: 4ebf b53e dff2 623e 1bcd a03e 9a84 7d3d
00000150: 4d05 a4bd d982 b83e 39e1 55be 71e0 e83e
00000160: 7d30 833e 3289 4abe 4641 513d f62f 86bd
00000170: 8603 b63e db69 cbbd 3070 843e a90c 363e
00000180: abca 443e 536d ca3e c98f f33d 5cf3 8fbe
00000190: 6ff9 083e 7f71 643e 0cb8 fd3d a0ca 6dbe
000001a0: 7bff d13d a0b3 81bd 12c7 b13e ebbd 393e
000001b0: ee5f 9a3e 12e3 a63e b03c 2f3d e6c4 a8bd
000001c0: 9b1b 10be 328f 9fb9 87ef ac3e 0908 773e
000001d0: b572 983e 6bf0 8e3d b614 3dbe ec62 d43c
000001e0: c991 483e 1f27 6b3e 4812 0b3e ae41 b6bd
000001f0: c88d a4be dd4f c4be be2f 093e c624 8dbd
00000200: c783 473e d4c6 5a3e 54fd 36be 14e1 7c3e
00000210: cc97 30be 30f9 0b3d df66 123b 1b41 d2be
00000220: d8c5 ae3d c550 b53d 76bc b63c ff98 763e
00000230: 502d 93be e4cf 31bd 226d a4bd 6f08 1ebe
00000240: b296 363e 4246 233e a84d fd3d f1bd 18be
00000250: 383a 453e 4baa 6bbc c24a f23d 8a44 b43e
00000260: 4b67 753e 0476 7dbe 0ee4 77be 10f4 c3bb
00000270: 9a57 fdbd 5059 653e 8e96 333d b509 9c3e
00000280: f4b0 443e 67f8 e03a a04d 9ebd feef a93d
00000290: 8ac6 9fbd 6cee a03e bbd3 50be f43f 133d
000002a0: 3a7b c3be fe45 76bd eab2 82bd 8da4 2e3e
000002b0: 8708 143e 11f1 d33d b164 173d 2ffe 3b3b
000002c0: 8ec1 0bbd 1133 053e 3deb 06be f6c5 d73e
000002d0: 2904 1b3e ecea 95be b09d 173e 8913 3d3e
000002e0: a0ab 353d 5801 89be 2340 ae3d da72 15be
000002f0: 1366 df3e 4654 963e c0d5 52bd c138 8dbe
00000300: 10ca 073e edc4 16bc 0040 b83d 9e9a 96be
00000310: c2a8 303e f401 a6be 3656 b4be 8951 fdbd
00000320: 32ea 8b3d 178c 2c3c 9655 9ebe 4f71 1dbe
00000330: d93b 47bc d898 09be ae51 483e 16bd 8a3d
00000340: 83ba 113e cd56 0ebe f4ab 173a 28d1 5fbe
00000350: 71fb 8abd 0a6a e63b 2a53 b43e 9683 eabc
00000360: 1255 873e c3c9 bcbe 412c f0bd eb4a e8be
00000370: 17d6 a93e 6abe b43e 72dd 9c3c c560 7a3e
00000380: dc28 993e 7794 bc3d c25a 5d3e 1621 05bf
00000390: b99c f6bd 4429 1bbe cd6a 4f3e fe32 92bd
000003a0: 79a6 33be 908a 82be 3ea6 e6bd ad16 183e
000003b0: d1eb a83d 56e8 78be c27f 963e 55d4 88bd
000003c0: b4f8 9bbd fe54 a03e d68f 843e b3c0 883d
000003d0: 9e9d 8a3d c8c5 33be 3486 5a3d 72bd 1f3e
000003e0: 410e 293e d781 48bd 4b6d dabd 3b6b 8fbe
000003f0: 9322 3a3c 8a09 153e 6670 36be f13f 7ebe
0.18189378 0.19727984 -0.0019255477 0.14677466 0.08446042 -0.33517516 -0.23595056 0.0730642
-0.077877216 0.22607544 -0.19036256 -0.34053168 -0.013999123 -0.18420757 0.2606179 -0.22125396
0.24437031 0.31476593 0.28648993 -0.102052405 0.1826476 -0.009351036 -0.084558904 0.24295396
-0.3654683 0.32664663 0.096966304 -0.0010603793 0.17023581 0.13968846 0.21041468 0.30247325
-0.19101556 0.3528384 0.06553639 -0.081655376 0.077972166 0.37021416 -0.23770943 -0.07526808
0.24739209 -0.16281782 0.20666428 -0.06671898 0.1264008 0.37535524 -0.043195777 -0.102269754
0.24437706 0.0764892 0.022763703 -0.007181571 0.33652142 0.027047884 0.053509314 0.15382461
0.04096779 0.23307599 -0.10476059 0.32404736 0.018160049 -0.024377318 0.15385935 -0.036133558
-0.0978028 0.12487175 0.344536 0.060838614 0.2953268 0.27718264 0.079684354 0.19149806
0.1634341 0.07718032 0.13862048 0.36899623 0.18128467 0.19292685 0.3469274 -0.27565706
0.35497516 0.2216296 0.31406483 0.061894037 -0.080088235 0.3603733 -0.20886697 0.45483735
0.2562293 -0.19778898 0.05108764 -0.065521166 0.35549563 -0.099323 0.25866842 0.17778267
0.19217937 0.39536533 0.11892659 -0.28115356 0.13376401 0.2230892 0.1238862 -0.23221827
0.10253807 -0.06333089 0.3472219 0.18138854 0.30151314 0.32595116 0.042782485 -0.082406804
-0.1407303 -0.00030433532 0.33776495 0.24124159 0.29775015 0.0697945 -0.18464932 0.025926076
0.19586863 0.22964142 0.13581192 -0.08899246 -0.3213942 -0.3834218 0.13397118 -0.068917796
0.19483863 0.2136491 -0.17870075 0.24695235 -0.17245406 0.03417319 0.0022339148 -0.41065297
0.085338295 0.08853296 0.022306662 0.24081801 -0.28745508 -0.04341115 -0.08028628 -0.15432905
0.17830923 0.1594477 0.123683274 -0.14916207 0.1926049 -0.014383863 0.11830665 0.3520854
0.23965184 -0.2475205 -0.2420809 -0.0059800223 -0.12370224 0.22397351 0.043844752 0.30476156
0.19208127 0.0017163873 -0.077296495 0.08297728 -0.0780154 0.314319 -0.20393269 0.035949662
-0.38179952 -0.060125344 -0.063817814 0.17054959 0.14456378 0.10348714 0.03696126 0.002868544
-0.034120135 0.13007762 -0.13175674 0.4214322 0.15138306 -0.29280794 0.14806247 0.18464483
0.044353127 -0.26758838 0.08508327 -0.14594594 0.43632564 0.2936117 -0.05147338 -0.27582362
0.13260674 -0.009202224 0.08996582 -0.2941484 0.17251876 -0.32423365 -0.35222024 -0.12369067
0.068317786 0.010531447 -0.30924672 -0.15375255 -0.012160265 -0.13437212 0.19562408 0.067743465
0.14231305 -0.139003 0.0005785816 -0.2185713 -0.0678624 0.007031684 0.352197 -0.028627198
0.2643209 -0.36872682 -0.11727191 -0.45369658 0.3317115 0.35301524 0.019148562 0.24450977
0.29913986 0.09208005 0.21616653 -0.5200361 -0.12041611 -0.1515246 0.20255585 -0.07138632
-0.17543973 -0.2549634 -0.11262177 0.148524 0.082481034 -0.24307379 0.29394346 -0.06681124
-0.07615796 0.31314844 0.25890988 0.066773795 0.06768344 -0.17555916 0.053350642 0.15599611
0.16509344 -0.04895195 -0.10665377 -0.28011498 0.011360782 0.1455442 -0.17816314 -0.24829079

net.2.weight f4 [256, 256]
00000000: 09e1 173e a5a5 bfbd 49dc d9bc 37ff 17be
00000010: b360 183e 8342 de3c eda8 4b3e 6735 3dbd
00000020: d563 81bc be4a d23c c822 ce3e bc62 54be
00000030: 4350 e1bd f66b 803e 2288 8ebd 366d 10be
00000040: 39da 753d 75d4 9f3c cf5e 463d 9ccf 5c3e
00000050: bcbf 773c 3f5a 12be dfd9 87bd 6201 9f3d
00000060: f0e9 3d3e 76d5 3a3d 23e1 e63c 2fd5 26be
00000070: afc3 a3bc faa5 d63d 6c30 6ebd be16 8cbd
00000080: eaf4 8cbb ef0e 293b d2c5 623d 7a04 653e
00000090: 89b5 eb3c 9b68 b6bd 5f02 f93c f270 163c
000000a0: 39f0 c73d 3966 d3bd 67a4 763b ef20 d33d
000000b0: 83d2 61bc 0138 31bd 9c5e 37bd d4da 25be
000000c0: 1aa1 f7bb 9c5d 193e 00a1 26bc d630 54bd
000000d0: 3dc5 b4ba 8397 943d 9f09 353d 052d 30be
000000e0: 032a 183e 16a5 e6bc 021d 953d f186 cbbb
000000f0: 76ee c0ba f4ef 573e ae90 093d c50c 3a3d
00000100: 5187 81bc 8465 053d 17b0 dd3d 6dc5 8ebd
00000110: 183a 663d 5d5c aebc dc25 93bc a45b d4bd
00000120: a5bf ffbd 837b a4bc db9f fcbd fa8f 85bd
00000130: b296 793d dafc 6bbe 5dd0 03bd ad07 21be
00000140: 339d 843c bcca a4bd 9fb2 473e 7831 a5bd
00000150: 3c4d 2ebf fd0f 5f3b ee8b 42bd b5bb 943d
00000160: 24c4 d83b 8855 f3bd bfe9 823c 5994 23bd
00000170: f07b 5c3d 0e7e 783d c883 94bd 734c 4abe
00000180: 81d9 fc3c fed0 7abd 248f 9cbd de93 18bc
00000190: a358 7e3d 2e00 bd3d 45af 503d fd32 bc3c
000001a0: 376d 18be 6c2f 6e3e 1d8a 1a3d 35fb 0a3e
000001b0: cdd2 893d 8fcd 1abd c12c 40bc 216a 87bc
000001c0: 5487 e3bd 8e4b 93be c09e ee3c 271d 3a3d
000001d0: 52d9 b1bc 1e1f 17be b1e1 81be bcc2 5b3d
000001e0: caa5 41ba c8cf 973c 9571 cd3d 6218 043d
000001f0: 9277 903e c329 203e 6db4 363c 3a84 1b3d
00000200: d8a1 1fbe f23e febd 2477 3abd 35b7 793d
00000210: dd3c b03d a310 133d fb3a 78bf ebc3 833e
00000220: f875 71bd c278 0c3e af74 c53d e557 0d3d
00000230: d048 cf3d d095 e0bd b01b f43b b3ec eb3d
00000240: 8146 96ba 9277 b93d 8820 e6bc 4551 6cbd
00000250: 1861 8b3d d8e9 57bd 0bd6 d7bc c6c6 443c
00000260: a003 d23d 2c53 dfbc 752f 123e 81e9 9bbe
00000270: 66f7 56bd ffda bcbb 40e9 aa3d 4938 fa3d
00000280: 8997 b8bd d875 a4be 42d9 733d 0ddd fbbc
00000290: 24b9 b53d bd49 57bd 3328 c6bd 19ce 2abe
000002a0: 6dcc 5a3e a15e e73d c3cd 7bbe 53ff 053c
000002b0: 1d3e dc3d a52b 5b3d 45f5 023d 58f4 223e
000002c0: 0b3e 61be 4e24 c53c 4579 c73d 43ae 9b3c
000002d0: c1de 7dbd c9fb 34be 8c60 3c3d 3c78 babc
000002e0: 1827 733c d3b9 9dbd 00dc d4bd ec19 74be
000002f0: 8d8a 823b 320d e43d b8e5 91bd 5d4b a33d
00000300: 105b 233e 0b18 043c 7562 e93d 95c6 51bd
00000310: 8849 423d a472 89bd 47eb 0b3e 153c acbd
00000320: 5301 9cbd fb10 10bc 2c78 c13d ed6e 523e
00000330: 46d8 043c 9ffd 2f3d 12f2 7abd 3fd1 d83c
00000340: c7b2 6ebd 3563 973d 3a50 d13d 5a45 e6bd
00000350: 4885 5c3c 5dd5 213e a6f2 8b3d 8ff3 db3d
00000360: 634d 303d 8257 da3d 8841 7c3d 3706 d33d
00000370: ed9e 58bd 5810 033e 8746 aabe 7df2 bcbb
00000380: 29e5 2d3d f596 07bd 8ddf 093b 1b43 963d
00000390: 3a4f 7e3c c0a0 c63d ce5c 123e aeb9 e3bb
000003a0: 91ea 073d 4030 d13d 8444 aebe fd95 bcbd
000003b0: b042 2d3e 5e1a 67be 2bd1 ad3c 5fcc b63d
000003c0: 9932 b53e b369 3d3d b2ed e8bd bd37 f3bd
000003d0: 2777 47be f2cb cebd 75d5 413d 89d3 fd3c
000003e0: 4bce 29be ace2 383e 67e5 42bd c90a 723c
000003f0: 4ee3 e93d 9d84 d03b 77f3 e43d 7c65 2a3e
0.14831938 -0.09357766 -0.026594298 -0.1484345 0.14880638 0.027131325 0.19888659 -0.046193507
-0.015794674 0.025670405 0.4026091 -0.20740789 -0.11001637 0.25082368 -0.06959559 -0.1410416
0.060022566 0.019510487 0.04843026 0.21563572 0.015121397 -0.14292239 -0.066333525 0.077639356
0.18546271 0.04561373 0.028183525 -0.1629226 -0.01999077 0.10480876 -0.058151647 -0.06840275
-0.004301657 0.0025796255 0.055364437 0.22364989 0.028773086 -0.08906671 0.030396638 0.009182202
0.09762616 -0.10322232 0.0037634613 0.10309016 -0.0137831 -0.0432663 -0.04476796 -0.16196758
-0.0075570466 0.14977115 -0.010170221 -0.051804386 -0.0013791692 0.07255461 0.04419863 -0.17204674
0.14859776 -0.028154891 0.072809234 -0.0062111546 -0.0014719504 0.21087629 0.033585243 0.045422334
-0.015811594 0.032567516 0.10824602 -0.0697125 0.056207746 -0.021284277 -0.017962389 -0.103690416
-0.12487725 -0.020078426 -0.123351775 -0.06521602 0.06093473 -0.23045674 -0.032181133 -0.15725584
0.01618824 -0.08046481 0.19501732 -0.08066076 -0.680866 0.003403663 -0.04749673 0.07262365
0.0066151787 -0.11881548 0.0159806 -0.039936397 0.053829134 0.06066709 -0.07251698 -0.19755726
0.030865433 -0.061234467 -0.076444894 -0.009312598 0.06209625 0.0922855 0.0509484 0.022973532
-0.14885412 0.23260278 0.03772937 0.1357239 0.0672966 -0.037793692 -0.01172942 -0.016530098
-0.11109796 -0.2876858 0.029128432 0.045437958 -0.021710072 -0.14757964 -0.253675 0.05365251
-0.000738707 0.018531695 0.1003143 0.032249816 0.28216225 0.15640931 0.011151415 0.037967898
-0.15589082 -0.124143496 -0.045523778 0.060965735 0.08605359 0.035904538 -0.96965 0.2573541
-0.058950394 0.1371794 0.09641396 0.03450765 0.1012131 -0.109660745 0.0074495897 0.11519756
-0.0011465104 0.09056009 -0.028091684 -0.057694692 0.068056285 -0.052713245 -0.02634718 0.012010282
0.10254598 -0.02726134 0.14275916 -0.30451587 -0.05248203 -0.005763411 0.0834527 0.12217767
-0.09013278 -0.32121158 0.059533365 -0.030745054 0.088732034 -0.052560557 -0.09675636 -0.16680183
0.21367045 0.11297346 -0.2459021 0.00817855 0.10754035 0.05350842 0.03197219 0.15913522
-0.21996324 0.024065163 0.09739927 0.019003993 -0.061980013 -0.17674173 0.04599051 -0.02276241
0.014840864 -0.07701459 -0.10393524 -0.23838013 0.0039838017 0.11135329 -0.071238935 0.07973359
0.15952706 0.008062373 0.11395732 -0.051214773 0.047433406 -0.06711319 0.1366397 -0.08409897
-0.0761744 -0.008793111 0.09446749 0.20550127 0.008108204 0.04296648 -0.061266012 0.026466964
-0.058275964 0.07391969 0.1022038 -0.112436965 0.013459511 0.15804048 0.06833391 0.107398145
0.04304255 0.10661222 0.061585933 0.1030392 -0.05288594 0.12799203 -0.33256933 -0.0057662115
0.042454872 -0.03310295 0.0021037788 0.07337018 0.015521819 0.096986294 0.14293215 -0.006949625
0.033182684 0.10214281 -0.34036648 -0.092082955 0.1691997 -0.22568652 0.021217903 0.089256994
0.35390165 0.04624338 -0.11373462 -0.118758656 -0.19479047 -0.10097493 0.04732271 0.030984657
-0.16582601 0.18055218 -0.047582056 0.014773079 0.11420308 0.006363465 0.1117925 0.16640276

net.2.bias f4 [256]
00000000: 60d5 3dbc 6dff 1e3d 2343 9d3d 196e 42be
00000010: dbcc f0bd b299 233e 07d3 9cbc e8b4 463d
00000020: e19a 0d3d bab4 793d b896 74bc df69 00bd
00000030: eadd 90bd bdce c83d fb1a e8bd 9b61 42bd
00000040: b0c0 cfbc 53ce 76bd 827e 833c 9ec6 fd3c
00000050: 2c36 903d b792 9f3d d54a b4bd 11ea 6e3d
00000060: 5b0c 55bb cc20 023e 6c41 a7bd 2afb 16be
00000070: dc2f 313c 7f7a 893d ba15 2dbd 1972 023d
00000080: 85a4 2a3d f91b 053c 22f2 183d 1a99 16bd
00000090: aad4 3fbb 5edc 4b3d 51cf 463e 9e07 45bc
000000a0: c6ee 523e 621f 1b3d 56cd 8b3d 0584 1e3d
000000b0: a810 b43d f925 943d bccc 2c3c b9da a63d
000000c0: 1aa0 72bc c4e2 83bc 1769 b93d 1e64 16be
000000d0: ff93 a6ba d21e 22bd 04fe 9ebd 0bd0 e73c
000000e0: ecc1 da3d f1e0 013d 715d 0dbe 3ff5 5fbd
000000f0: c412 3b3d 5933 81bd a5ae 053e 0690 943d
00000100: ba2a a0bc 923c d23d d8d3 1a3e a276 ad3c
00000110: a983 55bd 1539 a6bb 85df 8dbc 9216 353d
00000120: d51e 33bd 88d5 88bd e7cb f93d 5f19 29bd
00000130: 19f5 76bd a176 5d3d cd7d 3c3c 670a 6cbc
00000140: 99b8 373c 6f88 793c 1fd6 efbd fd02 0f3e
00000150: 571f e13d a4bb 823c 677e b83c 8255 713c
00000160: 5ccc 3dbd ea67 63bc fb40 fa3d a910 913d
00000170: 5b98 0f3e 8ef7 de3d 29a9 7c3d c067 0abd
00000180: 29af a8bd ffd8 2f3d c323 af3c f00b d5bc
00000190: 737f 6a3d a85b 36bd f649 93bb ffd8 323e
000001a0: 6b9b 293e 155e 033d d08c 473e cb1a d13d
000001b0: 2116 8f3d 3a97 83bd 94eb 4e3c 306e 3b3d
000001c0: a733 de3a af13 4d3d 0dd4 ac3d 6c22 613d
000001d0: 715a c9bc 28e9 313e 89e1 39bd b78e 073d
000001e0: 5711 433b 55a7 d9bd 8870 22bb 52ee b23d
000001f0: 22ae 153d 0774 f8bc 88d4 e73c bdc7 b33d
00000200: 493d 323d bb71 343c f24c 9f3d 320a 29bd
00000210: 19a5 3ebc 83e8 47bd 8a6b 07be a807 313d
00000220: d2b7 0ebd 536d 33bd 178c 7b3c 1e21 5ebd
00000230: 72f7 903c 5deb 4e3d e9be 0e3e 396a 2abd
00000240: ea2c 43bd bd93 eb3c 3847 193d 455d 29bc
00000250: c32d cabc 3296 c0bd 23eb 3d3d 5167 82bd
00000260: f0b2 c4bd 16a0 973d 25e2 e23d 9082 223d
00000270: 68fb de3c d3d9 863c 49e4 b13d 86e8 6b3d
00000280: c720 77bb f678 ac3c 8161 c53d c9b1 e73c
00000290: 1ad0 b43d e523 00bc 2054 72bd ffd4 523d
000002a0: 84ac cf3b 5f40 ba3c bec6 7ebd 3826 0cbe
000002b0: 1444 953d 202f d9bc ef66 d53d ae7a 473d
000002c0: 9393 993c 117d 0e3d 9e91 213d f1f7 7e3c
000002d0: fa9d 573d f295 e33c 4c05 1abd f04c 9fbd
000002e0: b88f 0c3c 8496 7a3d 6a88 8abd 23f0 26bd
000002f0: da16 32bc 3868 733c 61cb 013d c60f d13c
00000300: 6996 31bd 4024 84bd 4c4d 3b3d 82cf 2b3e
00000310: d90e 23bd da85 98bd 5451 053d e14a 1ebd
00000320: fe7d 9d3d a7db 733d fc5c 4cbd 4680 793c
00000330: 0fe5 ce3d b9ca 0a3e 8aa2 a2bd 8bc7 303d
00000340: e6a4 78bd 553c a33b ac60 abbc 8313 16be
00000350: 0401 22be c489 913d ed66 59bd d679 38bd
00000360: 9443 153e 49ae 54bd 37b0 d4bd d6b5 fb3c
00000370: 5e3f 653c d0af 19bd 287d 2a3d e399 903d
00000380: 8f2f d43d 4c88 d23b d8ba 643c 3c60 1cbd
00000390: 1650 7d3d e96a 01bd 521b 9ebd 3c78 1b3d
000003a0: 86be 31bb 259b 89bd 8837 55bd 1a1c f73b
000003b0: 5b3c 473d 6262 93bc bf91 343e 552e 813d
000003c0: 18e3 21bd 141d a13c 7066 783c cf90 253d
000003d0: caea cdbd 139e 4e3e 8860 0a3b c993 d83c
000003e0: 1beb c33d d46a 69bd 0b64 56bc d15c 803d
000003f0: 0aea 993c 0763 b0bd 88e7 3f3d 650b d53d
-0.011586517 0.03881781 0.07678821 -0.18987311 -0.11757823 0.15976599 -0.019143594 0.04851237
0.034571532 0.06096337 -0.014928512 -0.031350967 -0.07073577 0.09805057 -0.11333271 -0.047456365
-0.025360435 -0.06025536 0.016051535 0.030978497 0.070415825 0.077916555 -0.088033356 0.058328692
-0.0032508585 0.12707824 -0.08166775 -0.14744249 0.010814633 0.067128174 -0.04225705 0.031847093
0.041660804 0.008124345 0.03734029 -0.036767103 -0.0029271045 0.049770705 0.19415022 -0.012025742
0.20598897 0.037871726 0.06826274 0.038700122 0.087922394 0.07233805 0.010546859 0.08147187
-0.014808679 -0.016099341 0.090532474 -0.14686629 -0.0012708901 -0.039580174 -0.077632934 0.028297445
0.10681519 0.03170866 -0.13805176 -0.054677244 0.045672193 -0.06308622 0.13054903 0.07254033
-0.019551624 0.10265459 0.15119874 0.021174733 -0.052127514 -0.0050727227 -0.017318496 0.044210978
-0.043730576 -0.06681353 0.121970944 -0.04128396 -0.060292337 0.05406821 0.011504603 -0.014406777
0.011213445 0.015230282 -0.11710762 0.13965984 0.10992306 0.015958615 0.02252121 0.014729859
-0.04633747 -0.0138797555 0.12219425 0.07083256 0.14022963 0.10887061 0.06168476 -0.03379035
-0.08236534 0.042931553 0.021379357 -0.026006669 0.05725045 -0.044521004 -0.004494901 0.1746559
0.16563194 0.032072145 0.1948731 0.102101885 0.06986643 -0.064253286 0.012629408 0.04575938
0.001695265 0.0500676 0.08438883 0.054964468 -0.024579259 0.17374098 -0.045381103 0.033095088
0.0029764974 -0.10627619 -0.0024786312 0.08736862 0.03654302 -0.030328764 0.028299585 0.087783314
0.043515477 0.011013444 0.07778348 -0.04126949 -0.011636042 -0.048805725 -0.13224617 0.043220192
-0.034843273 -0.04380543 0.015353224 -0.0542308 0.017696116 0.05051743 0.13940014 -0.041605208
-0.047650255 0.02875697 0.037421435 -0.010337179 -0.024680024 -0.094036475 0.046366822 -0.06367362
-0.09604442 0.07403581 0.1107829 0.039675295 0.02721949 0.016461289 0.0868612 0.0575948
-0.0037708746 0.021053772 0.09637738 0.028283017 0.08828755 -0.007821058 -0.05916226 0.05147266
0.006337704 0.022735773 -0.062201254 -0.13686454 0.072883755 -0.026511729 0.10420024 0.04870098
0.018747127 0.03478724 0.039445512 0.0155620435 0.052640893 0.02778146 -0.037602708 -0.077783465
0.008579187 0.0611787 -0.067643 -0.040756356 -0.010869706 0.014856391 0.031688098 0.025520217
-0.043356333 -0.06452227 0.045728013 0.16778377 -0.03980908 -0.07447405 0.032548264 -0.03864563
0.07690047 0.05953565 -0.049893364 0.015228337 0.10102283 0.13553895 -0.07941158 0.04315905
-0.060704134 0.0049815574 -0.02092012 -0.1465588 -0.158207 0.07106355 -0.053076673 -0.045038067
0.1457656 -0.051924024 -0.10385173 0.030726355 0.013992159 -0.037521183 0.041623265 0.070606016
0.103606336 0.0064249393 0.013960563 -0.038177714 0.061843954 -0.031596098 -0.07720055 0.03795646
-0.0027121617 -0.067190446 -0.05205491 0.0075411918 0.048641544 -0.017991249 0.17633723 0.06307665
-0.039523214 0.019667186 0.015161142 0.040421303 -0.10054548 0.20177488 0.0021114666 0.026437657
0.09566327 -0.056986645 -0.013085376 0.06267703 0.018788356 -0.08612638 0.046851665 0.10402564

net.4.weight f4 [4, 256]
00000000: 268c c53d 3f3b 143d 99b3 e2be 45d6 98be
00000010: ebc6 ccbe 4deb 923e de46 0f3f 4ef9 923e
00000020: bece 40bd 497d 033f 7b67 c7be 36b7 cabe
00000030: 383f e33e 2b28 00bf b6bb babe a8ae e53e
00000040: 732d 03bf 8f21 b6be d22d 90be aa79 5a3d
00000050: e2b6 793e 20e3 123f c3b0 adbe 98c1 c1be
00000060: 9f09 bbbe 3416 86be 4d7a 643e b333 e0be
00000070: e175 89be f14d 08bf fc51 6cbd 3631 babe
00000080: b657 93be 665a ef3e 3fbf aabc 9b27 273f
00000090: 59a5 c6bd 4ae2 803f 33f3 e83e 4f3e bfbe
000000a0: af16 dabe 3c6e ba3e f866 883e 55d1 f73e
000000b0: 6eea ac3e f16b 083f 647a 4b3d a713 39be
000000c0: 70de 1a3f 89db ed3d e9e8 843f 29e6 8fbe
000000d0: 98c2 003c ebe3 bf3e f7d9 8ebe 1661 50be
000000e0: 3241 c8be d51b d9be 5fc2 d8be 6cf8 693d
000000f0: 3154 903e 2736 aabc 8378 06bf 3431 d7be
00000100: 88bf cc3c 020e a93e dca3 cc3e a8cf c4be
00000110: d568 cabe 3539 aa3e 99f3 593c ea29 f0bb
00000120: e1b1 41be fd1f 82be 976a 3abe 160d c8bd
00000130: b6a1 81be 37a2 2f3f 1623 91be 78f0 5f3f
00000140: b10d bcbb 7453 3c3d 8e65 8fbe c668 ab3e
00000150: d164 09bf 217e 103f 271d ab3e 1fc5 9bbe
00000160: 4c29 cebe f383 a8be 8834 633e 010f 66be
00000170: 4761 723e 5477 aa3e a736 abbe 5cb5 9fbe
00000180: 377e b6be 2f3e 91be 5cb7 ea3e 02c8 b7be
00000190: bbbc 92be da50 533d 8ede 8dbe e500 773e
000001a0: 36be 1d3e 11a3 84be 4df5 a23e 10ff fdbd
000001b0: c095 c3be d516 31bd 7d1b a6be 6623 8bbe
000001c0: 282d 463f 773f 36bd 41d1 4dbf 74d1 1b3f
000001d0: f5ff 8b3f 589a df3e 9943 91be 0e23 7abe
000001e0: eb31 bdbe bacb d8be a3ff 293f 8163 f53e
000001f0: d590 253f 1e7a 273d a460 b5be a54b a63e
00000200: 39de bdbe e59d 5cbe 3b19 123f 00f5 923f
00000210: d7ac 053f 8bd9 45be 64d2 babe c02f 333d
00000220: 7801 7bbe a448 babe dcc2 2f3f ca48 223f
00000230: bdbb 20bf b039 d3be fe9c 723e 7b51 ae3e
00000240: 3b0b bdbe 422e 03bf 7e9f 93be f3c8 cebe
00000250: 4a9d 173d 0234 5f3f 1890 68be fd9d c9bc
00000260: 950d 90be f903 e83e 89f1 a43e a7ba 4c3f
00000270: 95e0 183c 3f2e 543f c5e0 063f 3588 943e
00000280: ae71 d53e 8b31 9dbe a312 303f a825 9abe
00000290: 4d20 01bf b161 c6be bb92 02bd 7e6b 863e
000002a0: 8dce 053f 0369 6c3f e6cc 2e3e 0fdb 6cbe
000002b0: ef06 45be 7bcd be3f 1dee 3bbe bbe6 f43e
000002c0: 33ea fdbe 02cc 213d ae0d c9be 5dfd 543e
000002d0: 7c8c 163f 4058 a8be 5241 c6be 79e0 dfbe
000002e0: 0090 a73c 1bc3 2fbe 57b6 a8bd daf9 cbbd
000002f0: ee82 99be 703a 96be 37bf 36bd fab5 9bbe
00000300: f590 87be 4c30 d5be e108 c9be f6f2 903e
00000310: ceac c03e e9ae c6be b6ac 5f3c 1904 c03e
00000320: c97e 043f cc77 203e 4b1c cabe 3d24 1c3f
00000330: e2bc 553e 7d7d 623e 416b ebbe dc1f 3a3f
00000340: 4a22 27bd ce88 9abe 086b c2bc 53d6 26bf
00000350: 1779 94be 7f2a f73e 7e32 a33b 3fff cfbe
00000360: 8d58 dbbe 7493 eabc b550 b0be 7cb9 77be
00000370: 36d5 afbe 3d91 11be 2a5b 553f edd1 2a3f
00000380: b0fb 803e 3007 973e d447 a9be 94f5 9abe
00000390: 5eed bf3e 2174 9dbe d103 c5be 6ebd 33be
000003a0: b0dc 6ebe 722a 52bd e0fb c0be 2f12 02bf
000003b0: e2d1 c2be 93e6 08bf f6fc 9a3e 7145 a3be
000003c0: bff7 a33e 0a78 c7be 38b3 273f f93b debe
000003d0: 87cf d6be c26e 9c3e 2e74 923e bd45 bebe
000003e0: 7ecc c1be 6218 4ebe 0397 1a3f b339 5dbd
000003f0: 1ab0 a3be 54b6 9bbe 691d f7ba 6da7 553e
0.09645872 0.036189314 -0.44277647 -0.29850975 -0.39995512 0.28695145 0.5596751 0.2870583
-0.047072165 0.51363045 -0.38946137 -0.39592904 0.4438417 -0.5006129 -0.36471337 0.44859815
-0.51241225 -0.35572478 -0.28159958 0.053338684 0.2438617 0.57377815 -0.3392392 -0.37843013
-0.36530778 -0.26188815 0.22312279 -0.43789443 -0.26847747 -0.5324393 -0.057695374 -0.3636567
-0.28777856 0.46748656 -0.020843146 0.6529481 -0.09699506 1.0069058 0.45498046 -0.37352225
-0.4259543 0.36412227 0.2664106 0.48401895 0.33772606 0.53289706 0.049677268 -0.18073903
0.6049566 0.11614139 1.0383579 -0.28105286 0.007858895 0.37478575 -0.2790067 -0.20349535
-0.3911224 -0.42404047 -0.42335793 0.05712168 0.28189233 -0.020777775 -0.52527636 -0.42029727
0.024993673 0.330185 0.39968765 -0.3843968 -0.39533105 0.3324677 0.013302707 -0.0073292153
-0.18915512 -0.2541503 -0.18204723 -0.09768121 -0.25318688 0.68606895 -0.2834708 0.874763
-0.005738937 0.045978025 -0.28007168 0.33478373 -0.5366946 0.5644246 0.3342068 -0.3042383
-0.40265882 -0.3291317 0.22188008 -0.22466661 0.23669921 0.33294165 -0.33440134 -0.31193054
-0.3564317 -0.28367755 0.45843017 -0.3589478 -0.28659615 0.051590778 -0.27708858 0.24121435
0.15404591 -0.2590566 0.31827775 -0.12402165 -0.38200188 -0.043234665 -0.32442847 -0.27175444
0.7741265 -0.04449412 -0.8039742 0.60866475 1.0937487 0.43672442 -0.28371885 -0.24427435
-0.36952147 -0.4234293 0.66405696 0.47927478 0.6467412 0.040887944 -0.35425293 0.32479587
-0.37083605 -0.21544607 0.5706975 1.1481018 0.5221686 -0.19321267 -0.3648864 0.04374671
-0.24512279 -0.36383545 0.68656707 0.6339232 -0.62786466 -0.4125495 0.236927 0.3404654
-0.3692263 -0.5124246 -0.2883262 -0.40387687 0.037015237 0.8718873 -0.22711217 -0.024611467
-0.28135362 0.4531553 0.32215527 0.7997231 0.009330888 0.82883066 0.5268672 0.29010168
0.41688293 -0.3070186 0.6877844 -0.30106854 -0.5043991 -0.38746408 -0.031878214 0.26253885
0.52268296 0.92347735 0.1707035 -0.23130439 -0.19240926 1.4906458 -0.18352552 0.47832283
-0.49592742 0.039501198 -0.3926825 0.20799775 0.5880811 -0.3287983 -0.3872171 -0.43725947
0.020454407 -0.1716427 -0.082379036 -0.09959765 -0.29982704 -0.2934146 -0.04461595 -0.30412275
-0.2647778 -0.4163841 -0.39264587 0.28310364 0.3763184 -0.3880532 0.013652017 0.37503126
0.5175596 0.15670699 -0.3947471 0.60992795 0.20872834 0.22118182 -0.45980266 0.72704864
-0.040804185 -0.301825 -0.023732677 -0.6517078 -0.28998634 0.4827461 0.0049803844 -0.40624425
-0.42840996 -0.028634764 -0.34436575 -0.2419185 -0.34342355 -0.1421556 0.8334223 0.6672657
0.25192022 0.2949767 -0.33062613 -0.30265486 0.37485784 -0.30752662 -0.38479474 -0.1755273
-0.23326373 -0.05131001 -0.37692165 -0.50808996 -0.38050753 -0.5347683 0.3027112 -0.31888917
0.32024953 -0.3895877 0.6550784 -0.4340513 -0.41955206 0.30553252 0.28604263 -0.3716258
-0.37851328 -0.20126489 0.60386676 -0.054010104 -0.31970292 -0.30412543 -0.0018853369 0.20864649

net.4.bias f4 [4]
00000000: 7c16 783c 7bcb 653d c47e 853d 616d 893c
0.015142079 0.056102257 0.06518319 0.016775789
