drafts/draft_02/runs_lunarlander/dqn_trial13_seed42.pth (torch, 279705 bytes, 6 tensors)

net.0.weight f4 [256, 8]
00000000: 85e2 b73d 6212 a73e f61a 0ebe eec0 5c3f
00000010: 1bc8 adbd ea8b 9abd d64b 93bd f8c1 333e
00000020: 4eab 0b3f 7f3d 5bbe 7d5e 163f 1cc0 62be
00000030: c498 b43e bd24 a9bd 27a4 e5bc 23c6 58bc
00000040: b656 7b3e f12d 053e de77 953c 7e20 063e
00000050: 8e0b b33d 3778 0f3d 5de4 e9bd d193 e13e
00000060: 4951 91be a2cc 32be 5c50 0fbe 1933 bcbe
00000070: dfa9 c93e 2822 e1be e763 953e 7c6f 02bf
00000080: dbb0 503d 1f23 ee3d 017c 1ebe 32af 8c3e
00000090: 5977 ed3d 08f9 2a3f a6c2 8a3e 8ffb 8abd
000000a0: 28f1 863c 8887 d9be 8bf1 693e 3c2c fd3f
000000b0: e865 a93d 241b 49be 3b81 c33e 394d 8c3e
000000c0: 62e6 a63d 6e6b bebe 2ec4 13be 7d4a fdbe
000000d0: 48fb 5a3d 5f91 1c3f e9b2 193d dbbf 7e3e
000000e0: 7adc b83d 2642 85bd 45b7 fa3e bbbe f1be
000000f0: ff4f 46be 93fd 1dbf 7ca7 a0bc 3555 f9be
00000100: 9c60 a53d c398 8ebe 4cf5 1a3e 84ef 5abe
00000110: e4e1 0dbf 417d 19bf 93aa de3e 1446 913e
00000120: debc 193f b758 45be 4da9 5dbe 05a9 00bf
00000130: 5684 dcbe 280d 403e 3980 0d3e 21eb a53e
00000140: e648 fdb9 245a e8be e97a d2bc 04d0 25bf
00000150: 01b6 95bd 5540 12be c51b 333e af73 79bf
00000160: c8ce c0bd d511 8d3d f31e e03a 0b0f 91be
00000170: b78f 61bb db54 223f 6527 6c3e 0962 42bf
00000180: 7d1b dc3e 3b93 49bd 7c10 b0bd cc92 0dbf
00000190: 1048 b7be 8172 1a3d c5e7 03bf 4e12 b3be
000001a0: c42c ae3d 1a0b 58be 75a9 80be a2fe edbe
000001b0: 2233 283e 2914 b4be db63 d23e e052 b63d
000001c0: 2d45 ba3d 24b1 78be d253 4fbe 6d53 24bf
000001d0: bbaf d93d 46e3 1abe fc39 23bf d38f 9fbe
000001e0: 0adf d23d a55c 95be a3d6 fc3d 2078 d6be
000001f0: 82cb d5be df0d 2abf c317 36bf 5541 81bc
00000200: 60b6 0e3f acd6 13be 42a8 6f3e a546 8c3e
00000210: 9b74 40bf 30db 243e 9c7f 8cbd e12f eabd
00000220: 2644 a2be b166 84be c5a6 dbbb 38cc f8be
00000230: 1688 093e 578d 41be 4ee3 ab3e 374e 5cbe
00000240: d473 e9bd 8a1c 26bf e8f7 9a3e 7d42 893f
00000250: e3ab a53e e190 0abf 3108 983e bfb5 8d3b
00000260: 9459 a1bb f347 a0bd 9aec 953e a545 48bf
00000270: 22b1 78be 0f8e 543d b7ea 1cbd d77e 27bf
00000280: be46 1f3f 90e5 3c3e 5ef3 1b3e 9bc4 0cbf
00000290: f6d2 113e 96a0 e1bd 9ef6 88be f6aa 8a3e
000002a0: b94f 3d3e 0adc fa3c f2f4 5cbe 217b a83b
000002b0: b2a3 403f 02cf 083e ea45 45bf 0f30 cabd
000002c0: c2d8 f9be be02 8a3e 4b12 ba3e 5422 01bf
000002d0: d4fe 54bb 7295 6b3e 5c97 debe 209b c3be
000002e0: 93b1 7c3d 3530 9d3e a073 623e 839f b7be
000002f0: ea46 fabe 0e95 86be 295b 40be 4b16 ffbd
00000300: ffae a33c abc9 bd3e 6c34 aebc eb6f 4cbd
00000310: 4cd4 07bf 509f c7be a900 243e b474 593e
00000320: 0ac6 aabe 484c 6bbe a78e 0a3e a15d 3e3e
00000330: 5b7f fdbd e471 18bf ea8c 38bf afee f1be
00000340: 14b8 3cbc 1c41 7f3e 4a64 a33d e915 453e
00000350: 4a55 a7be d6f3 f3be 8e6c 3dbe 1a22 053f
00000360: a53d 9e3b 3831 39ba 41ac e23c eca7 03bd
00000370: b605 95bf 7c01 ff3d 8513 fe3c 3ce4 22bd
00000380: daea 16be 4157 943e 0d12 303e 2dba 903e
00000390: 8dc6 74be 9621 33bf 7cda abbe d787 e13e
000003a0: 3fc4 af3c 7aa1 be3e 710c d53d 56f3 8b3e
000003b0: 599f c4be 939c 00bf f87c 1fbf 67e5 eebe
000003c0: 2c4f 263e 4fc8 babc 6e7a 43be 22b3 23bf
000003d0: 2d27 ff3c 5584 debe 6144 96bf e122 f13d
000003e0: a66b 1cbe 3b07 b03e af08 00be 0458 d2be
000003f0: 836d 893d 5bbe ffbe 0f0c 19bf 347b 59bf
0.08978752 0.32631212 -0.13877472 0.8623189 -0.08485433 -0.07546218 -0.07192199 0.17554462
0.54558265 -0.21410178 0.5873793 -0.22143596 0.352728 -0.082589604 -0.028032375 -0.013230833
0.24544796 0.13005807 0.018245634 0.13098332 0.08742438 0.035026755 -0.1142051 0.44058087
-0.28382328 -0.17460874 -0.13995498 -0.36757734 0.39387414 -0.43971372 0.29177782 -0.5095136
0.050949913 0.116277926 -0.15476991 0.27477413 0.115950294 0.6678624 0.2710163 -0.06786262
0.016472414 -0.42486215 0.22846048 1.9779124 0.0827139 -0.1963926 0.38184533 0.27402666
0.08149411 -0.37191337 -0.14430305 -0.49470893 0.053462297 0.6115932 0.037524138 0.24877875
0.090264276 -0.065067574 0.4896795 -0.47215828 -0.19366454 -0.6171505 -0.019611113 -0.4869782
0.080750674 -0.27850923 0.15132636 -0.2138043 -0.55422807 -0.5995675 0.43489513 0.28373778
0.60053813 -0.19272123 -0.21646614 -0.50257903 -0.43069714 0.18755019 0.13818444 0.32405952
-0.00048310234 -0.45381272 -0.025693374 -0.6477053 -0.07310105 -0.14282353 0.17491062 -0.97442144
-0.094144404 0.06888167 0.0017099067 -0.2833179 -0.0034417936 0.6341073 0.23061903 -0.7593084
0.42989722 -0.049212676 -0.08596894 -0.5530212 -0.35797167 0.037706856 -0.5152553 -0.34974903
0.08504632 -0.21097985 -0.25129285 -0.46483332 0.16425756 -0.3517163 0.4109181 0.08902526
0.090952255 -0.24286324 -0.20246819 -0.641898 0.10629221 -0.1512576 -0.6376035 -0.31164417
0.102964476 -0.29172245 0.12345626 -0.41888523 -0.41756827 -0.66427416 -0.7113001 -0.015778223
0.5574703 -0.1443736 0.23404029 0.27397648 -0.75177926 0.16099238 -0.06860277 -0.114349134
-0.31692618 -0.25859597 -0.00670323 -0.48593307 0.13430819 -0.18901573 0.33571857 -0.21514212
-0.113990456 -0.648873 0.30267262 1.0723416 0.32357702 -0.5412732 0.2969375 0.0043246443
-0.0049240086 -0.07826223 0.29282075 -0.7823127 -0.24286321 0.05189329 -0.03830978 -0.6542792
0.6221732 0.18446946 0.15229556 -0.54987496 0.14240631 -0.110169575 -0.26750654 0.27083558
0.18487443 0.0306225 -0.21577814 0.0051416312 0.7524978 0.13360217 -0.77059805 -0.09872448
-0.48798186 0.26955217 0.3634208 -0.50443006 -0.0032500522 0.23006228 -0.43474853 -0.38204288
0.061692785 0.30700842 0.2211442 -0.35863885 -0.48882228 -0.26285595 -0.18784775 -0.12455424
0.019980906 0.37067923 -0.021265231 -0.04991142 -0.53058314 -0.38988733 0.16015877 0.21235925
-0.33354217 -0.22978318 0.1353098 0.18590404 -0.12377807 -0.59548783 -0.7209002 -0.47252414
-0.011518497 0.24927181 0.07978113 0.1924664 -0.32682258 -0.4764697 -0.18498442 0.5200516
0.004829126 -0.0007064524 0.027670028 -0.032142565 -1.1642368 0.12451455 0.031015167 -0.039768443
-0.14738026 0.2897282 0.17194386 0.2826704 -0.23903866 -0.69973123 -0.33565128 0.4404895
0.021455882 0.37232572 0.10402764 0.27334088 -0.38402823 -0.50238913 -0.6230006 -0.46659395
0.16241139 -0.022800593 -0.19089672 -0.6394521 0.03114661 -0.43460336 -1.1739618 0.11774231
-0.1527544 0.34380516 -0.12503313 -0.41082776 0.06710341 -0.49949917 -0.59784025 -0.8495362

net.0.bias f4 [256]
00000000: 8299 2c3e 5f3f db3d 62e5 0cbe 2586 463e
00000010: c96b 703e c6f6 47be 23f0 5cbe 07dc 013d
00000020: d7f6 ebbd 776c 583e 64a8 3abe afc6 a6be
00000030: d661 ab3d 0e8d cfbc 2c35 723e f886 86be
00000040: 24d8 ad3e d34c 493e 7b6c c63e 1cb7 b0bd
00000050: c1ab 3f3e d0d9 0a3e a4d2 d4bd 3bb7 a53e
00000060: 0c47 b5be 5d29 5d3e 2bd7 2a3e c036 0cbc
00000070: 1c05 6d3e f48d 553e d7f3 a23e 9c03 ad3e
00000080: 8439 18bd 962c a93e 0806 56be d434 c4bd
00000090: 81d0 283e 0575 de3e b6bc 37be 9220 16be
000000a0: 6417 863e 7f95 3ebe 7590 853e e357 b4bd
000000b0: e6b6 703e 459a b33e a2a2 89bd b4c7 8fbe
000000c0: e94e c83e a778 fcbc dc6b 8b3d c3c6 93be
000000d0: 3bd2 c83e c1a7 973d a6d8 1a3e 4abb 35ba
000000e0: e3b3 6dbe 3db5 8f3e 1652 acbd 35ad a33e
000000f0: fc2a 7e3d 2568 c6bc 2393 a13e 6d45 8a3d
00000100: 70cc 53bd a844 133e db65 ce3e 3906 463e
00000110: 6b04 c93e 4273 ab3e d952 513e 9589 843e
00000120: 6d5c 463e 087c 953c 491f c03e 43dd d83e
00000130: 87bb 2e3e 486c 4c3d 8784 e93e 44c0 afbe
00000140: c666 c33e 0f8d 993e 8a77 fa3e 5624 863c
00000150: d2ed afbe 634b f23e b738 55be c110 813e
00000160: 5cea b83e 9b89 71be 0ef2 6a3e 787e d4bd
00000170: ee14 c33e 00d2 5bbe 841c a53e a8cd a53e
00000180: 1bfa b33e e05d f23e 3d98 213e c16d 95be
00000190: be92 873e 825d 283e 33ef 433e 6ecf 44be
000001a0: 428d 7c3d 1f63 abbd 39fe e03e e1bb 9e3e
000001b0: 5772 913e ab7b bb3e c81f 213d 45a6 aabd
000001c0: 8b25 71bd fb02 1bbe 1877 bb3e b729 713e
000001d0: ff23 6e3e 7419 6b3d 4b35 13be 4e7c 7abd
000001e0: 4df3 cc3e e4a9 933e 9c23 9a3e 7df5 423e
000001f0: c992 8abe 27f9 f8bd 552f 583e c7a3 c23d
00000200: bab5 683e 3368 9d3e 22ff 95be 94a6 873e
00000210: a538 fd3c 40bc 4b3e e070 51b7 0fed 89be
00000220: 9e9f 493e 61f8 7c3e 6c50 f8bd 9116 943e
00000230: 8022 b4be cf2e 31be ffe3 94bd 8b92 09bd
00000240: 46b2 183e aa93 a4bb 5e8a 973e e27b 39be
00000250: 3c17 843d 3546 513e 55b5 a83e 5a21 ef3e
00000260: a32f 813e a1aa 23be 3c2d 9abe b2a1 60bc
00000270: 9043 4cbd 9459 7c3e a685 333d f0d4 ab3e
00000280: aa32 633e 8b65 d8bc 6e60 4b3e b0f9 153e
00000290: 69e9 0abe 3223 8f3e 21c2 20be fef7 4bbc
000002a0: 1d45 10bf 6866 8ebe 69e3 d6bd a2d0 8b3e
000002b0: d3ad a03e e29d 863d db43 acbc 0dec 3b3e
000002c0: fe4a dfbd 40a8 063e 16c2 08be 0e9f d53e
000002d0: 51a7 953e 56b8 bfbe c8e3 a63d b551 2e3d
000002e0: 0756 0e3e 3f33 b3be b156 2c3e 9a7f b6be
000002f0: 5694 023f eae6 b33e 1e6f b3bd 743b 5ebe
00000300: e28e da3d 4202 a23c d6f9 153e c424 8fbe
00000310: 31d1 1e3e ea43 bcbe a8b1 acbe d4e2 69be
00000320: ff80 ca3e b586 e43d 7405 58be 2f17 35bd
00000330: 7748 01bd 6852 a1be d6ab 033e ec78 4c3e
00000340: dd8d 353b 5045 25be c36a 833a 53f7 81be
00000350: efa1 47be a354 9ebd 0a3b d73e 5cae 08bb
00000360: 0db5 b33e f3cd 1f3d 4172 a8bc 0ef2 cdbe
00000370: 5e05 e53e 63af e33e 6fdd c83d 5500 993e
00000380: 6acf c03e 0633 9f3e 26bf 673e 4c60 9dbe
00000390: ccf7 80be a8e4 a2be 636f 3b3e e3de 82be
000003a0: 75e7 43be 70c0 17bd 83a8 89be 8092 993d
000003b0: 58c8 403e 1ba6 7ebe aaf7 b43e ab1b d7bd
000003c0: 5184 93bd 3b9d bc3e b1ba 6c3e 532e ecbc
000003d0: 7b90 adbe 5956 04be 966e 063d 33b9 8f3e
000003e0: bb28 583e c542 07be 38f5 89be 9e01 8dbe
000003f0: f729 543c 7d7b 753d 0da1 71bd 4ef5 5bbe
0.16855434 0.107054465 -0.13759378 0.1938711 0.23478617 -0.1952773 -0.2157598 0.031703975
-0.1152169 0.21135126 -0.18228298 -0.3257346 0.0836827 -0.025335815 0.23653096 -0.26274848
0.33953965 0.19658212 0.3875464 -0.08628675 0.18717863 0.13559651 -0.10391739 0.32366356
-0.35405767 0.2159781 0.16683643 -0.008557975 0.2314648 0.20854932 0.3182666 0.33791816
-0.037164226 0.3304183 -0.20900738 -0.09580389 0.16485788 0.43448654 -0.17943081 -0.14660862
0.2618972 -0.18611716 0.26086774 -0.088058256 0.2350727 0.35078636 -0.06720473 -0.2808205
0.39122704 -0.03081925 0.06807682 -0.2886258 0.39222893 0.074050434 0.15121707 -0.00069325103
-0.23213153 0.2806796 -0.08414094 0.31968084 0.06205271 -0.024219582 0.3155757 0.06751523
-0.05170864 0.14381659 0.40312085 0.19338311 0.39261183 0.33486372 0.2044176 0.25886217
0.19371195 0.01824762 0.3752387 0.4235631 0.17063724 0.049907953 0.45608923 -0.34326375
0.38164347 0.29990432 0.48919326 0.016374748 -0.3436113 0.4732314 -0.20822416 0.25208095
0.36116302 -0.23587649 0.22943899 -0.103756845 0.38101906 -0.21466827 0.32248318 0.32383466
0.35151753 0.47337246 0.1578073 -0.29185298 0.26479143 0.1644192 0.19134216 -0.19219753
0.06165815 -0.08368515 0.43943956 0.31002715 0.28407547 0.3661779 0.03933695 -0.08332495
-0.058873694 -0.15137856 0.366143 0.23551069 0.23255919 0.05739732 -0.14375798 -0.061153702
0.40029374 0.28840554 0.30105293 0.19038959 -0.27065113 -0.12156897 0.21111806 0.09503894
0.22725573 0.3074356 -0.29296213 0.26494277 0.0309108 0.1989603 -1.24836515e-05 -0.26938674
0.19689795 0.24704124 -0.12124714 0.28923467 -0.3518257 -0.17303012 -0.07270049 -0.03358702
0.14911756 -0.0050224857 0.29597753 -0.18113664 0.06449744 0.20436938 0.32950845 0.46705133
0.25231656 -0.15983059 -0.30112636 -0.013710426 -0.04986912 0.24643546 0.04382863 0.33560896
0.22187296 -0.026415607 0.19861004 0.1464603 -0.13565601 0.2795654 -0.15699054 -0.012449263
-0.5635546 -0.27812505 -0.10492594 0.27307612 0.31382617 0.065730825 -0.02102845 0.18351765
-0.109029755 0.1315012 -0.13355288 0.41722912 0.29229215 -0.37445325 0.081489146 0.04255839
0.13900004 -0.35000035 0.16829945 -0.35644227 0.5100759 0.3513711 -0.08761428 -0.21702367
0.10671784 0.019776467 0.14646086 -0.27957737 0.15509488 -0.36770564 -0.3372929 -0.22840434
0.3955154 0.11158506 -0.2109583 -0.044211563 -0.03156325 -0.31508183 0.12858519 0.19968003
0.0027702965 -0.16139722 0.0010026324 -0.25384006 -0.19495367 -0.07730987 0.4203723 -0.002085588
0.35099068 0.039014768 -0.020562293 -0.40223736 0.44730657 0.44469747 0.0980786 0.29883066
0.37658244 0.31093615 0.22631511 -0.3073753 -0.25189054 -0.31815076 0.1830421 -0.25560674
-0.19131263 -0.037048757 -0.26886377 0.07498646 0.18826425 -0.24868052 0.35345203 -0.10503324
-0.07202972 0.36838707 0.23118092 -0.028830683 -0.33899292 -0.12923564 0.032820307 0.28070983
0.21109287 -0.13209064 -0.269449 -0.27540296 0.012949458 0.05993222 -0.05899148 -0.21480295

net.2.weight f4 [256, 256]
00000000: 81a5 be3d ceb5 8e3d df45 7d3e a548 8cbd
00000010: 998d 323e 337f 3c3f 1861 b33e 1181 a3bd
00000020: bf30 573d 5f7e 3abd 9bdc 173f 8ce0 c73d
00000030: dc98 0fbe f99f 183c dc9b a73e 9b37 fe3e
00000040: 1808 6cbb f381 bb3d d713 243d 079d d73e
00000050: 5a75 24bb 10d3 863e 9d54 f5bd ec58 143a
00000060: 58ce 1e3e a5e2 873c eb42 f03d 81ef 0cbf
00000070: 7759 3b3d aa02 c53d 5615 c83d e6a6 cebd
00000080: 61f9 023e 96cc 43bd 99bf 4d3e 24a7 1b3e
00000090: e217 003e cb84 87bb 582e 833d e221 a6bd
000000a0: 3a2a ed3d c705 783e 1169 96bd de5a 293d
000000b0: fab4 f5bb b692 a93d 3fe0 2e3e 9276 37be
000000c0: e2cf 343d d176 073c ef7d 1a3e 6862 c93e
000000d0: b1a4 3cbc 949a 0bbd 5192 213e 255a bebe
000000e0: 2e37 a53e 288f d4bd 5913 f83d 9637 b73d
000000f0: a9f0 153e 579f 453e 1993 a9bb 3b5c dbbc
00000100: 36e0 e6be 5982 1bbd 4f01 df3c 28cc 5ebe
00000110: 9a92 d5bd 4ca0 39bd 66a8 44bd 793d 9cbd
00000120: 3c63 d0bd 7a12 d13d 77f0 91bd 38c2 a4bd
00000130: e6d6 d4bd be14 6e3e a5bf 20be f51e af3e
00000140: 99f3 fb3c 53fa 813c 3ea7 a83d 5a0b 143e
00000150: 9f4a 81bc 72c1 a0bd 4a3d a33e 4ce3 973d
00000160: a06d 1abc 1464 eb3e a23c 60be 92aa 99be
00000170: 69f6 c33d 722d dcbe db2f b6bd a0fc c6bd
00000180: 5e6a e9b9 e558 91bd 3b6a 15bc a292 ee3e
00000190: 67af 6a3d 3e1f 043e dc93 5f3e cab8 873e
000001a0: 8692 293e e612 193f 5b2d 9dbd 85b4 6d3d
000001b0: 1204 2e3e fb7e 3ebd 1357 ff3d 6e44 393e
000001c0: fd94 a63d afb2 12be d149 98bd 990a 2b3e
000001d0: 70a4 83be 34f8 1dbe cbb2 36be f1e1 2e3d
000001e0: dfb7 423d be7b b53d 4094 6b3d f746 db3d
000001f0: 8773 193f ca47 bb3e d977 70bd 47ef a23d
00000200: 441a 1d3c 4e8e 62be c37a 533e 1130 8c3d
00000210: 2ae8 3bbd c121 213e dc7a f3be a8ca 3b3e
00000220: a081 acbd 1179 bebc 9631 0cbf f722 2ebd
00000230: 2ad0 323e c809 b1be 8c08 2bbe 9667 c33e
00000240: 5dfa 243e d3e2 17bf a4bb c4bc fdc2 b3bd
00000250: 21c5 5c3e 9e4a 623e 6dfe afbe 99d9 33bd
00000260: aa29 a3bd 635e 623e 3af1 c03d b8a6 983e
00000270: b7c9 ddbd 5396 6dbd 163a 563e 6bbb 2b3e
00000280: 0a4c 82bd f89c 9ebe cbed 583e 8986 99bd
00000290: 5591 78bd d119 f4bd 6471 273e fef6 e6bd
000002a0: d7dc 353f b364 7b3e 249e ccbe b962 7a3d
000002b0: 2cae 093c 5654 333e b404 843e 43cc bb3c
000002c0: 831e a43e 29e7 613e 41bd fb3d 4d82 16bd
000002d0: c9df 83bd 63fa 353f 0208 07be 1d03 4f3e
000002e0: 1505 1c3e 3f5f d3bd d215 a8bd ded6 b33e
000002f0: 9cf9 c03d a68e 433d 98a3 e9be 5a47 83be
00000300: e679 253e 6337 803e a12a 0b3e 90ca 503e
00000310: e387 303e a19f f73e 0312 e43c 69fd d43e
00000320: 3fd5 11bd 95a1 cf3c bbaf 673d b70d c0bd
00000330: 5e2f 9ebd 08cd 2c3f 95ff 173e b87a d03d
00000340: ad4d 6bbe ddda 8e3e afad c0be b6ca 213e
00000350: d9cd 9b3e b488 4c3d 3a31 dc3c 3b7b 0dbd
00000360: 867a ee3b a0bf 193e 4012 8ebe 9c90 153e
00000370: 0605 51bd 3fd5 033d fe1b 9cba 8bb7 973d
00000380: 1779 943c c8db e73d 3a24 81bd 157f 213f
00000390: 8bb7 d83e feed 483f 2484 063c 742c 7c3e
000003a0: c409 c33d d32f 193e 2eba 343f f741 d5be
000003b0: 2166 433e 3332 213f f179 a4bd 63ff a73e
000003c0: 23f2 4c3e aba9 91bd 89f2 ff3c b10d b5bd
000003d0: 13a4 e23e bac1 873e 782a 353e eda9 9bbb
000003e0: 4bb8 523d 2e68 d83e 2274 1b3f 4f68 e43e
000003f0: b606 763e f7ff a33c 6d44 db3d 05f9 953e
0.09308911 0.0696827 0.24733685 -0.06849793 0.17436828 0.7363159 0.35035014 -0.07983602
0.052536722 -0.045530673 0.5932099 0.09759626 -0.14023155 0.009315484 0.327361 0.496518
-0.0036015566 0.09155645 0.040057983 0.4211199 -0.002509436 0.26332903 -0.11979029 0.00056590023
0.15508401 0.016587565 0.117315136 -0.55052954 0.045739617 0.09619649 0.097696945 -0.10090427
0.12790443 -0.04780253 0.2009262 0.15200478 0.1250911 -0.004135703 0.06405324 -0.081119314
0.1158032 0.24220954 -0.073442586 0.041346423 -0.0074983807 0.08279936 0.1707773 -0.17916325
0.044143565 0.008268074 0.15087102 0.3933289 -0.011513875 -0.034082964 0.15778472 -0.3717815
0.3226866 -0.103788674 0.12113065 0.08946149 0.14642586 0.19299065 -0.005175006 -0.026777377
-0.45092934 -0.037966106 0.027222304 -0.21757567 -0.10428353 -0.045318887 -0.04801216 -0.076289125
-0.101751775 0.10208602 -0.07125943 -0.08044857 -0.10392551 0.232501 -0.15698107 0.34203306
0.030755805 0.015866434 0.08235024 0.14457455 -0.015782652 -0.07849397 0.31882697 0.074164
-0.009425551 0.4597479 -0.2189813 -0.30012947 0.095684834 -0.43003422 -0.088958465 -0.09716153
-0.00044520473 -0.070970334 -0.009119566 0.46596247 0.057296183 0.12902543 0.21833748 0.2650817
0.165598 0.5979446 -0.076746665 0.058033485 0.1699374 -0.046507817 0.1246778 0.1809251
0.08133886 -0.14325975 -0.07435954 0.16703261 -0.25711393 -0.15426713 -0.17841642 0.042695943
0.047538634 0.088614926 0.05751443 0.10706895 0.59941906 0.36578208 -0.058708046 0.07955795
0.009588782 -0.22124597 0.20652299 0.068451054 -0.045875706 0.15735532 -0.47554672 0.18339026
-0.084231615 -0.023251088 -0.5476316 -0.042513814 0.17462221 -0.34577775 -0.16702479 0.38164967
0.16111131 -0.5933048 -0.024015255 -0.087774254 0.21559574 0.22098777 -0.343738 -0.04390869
-0.07966931 0.22106318 0.0942101 0.29814696 -0.1082949 -0.05800469 0.20920596 0.16770713
-0.063621596 -0.30979133 0.21184461 -0.07496364 -0.060685474 -0.119189866 0.16351849 -0.11277579
0.710401 0.24550132 -0.39964402 0.061129306 0.008403342 0.1751264 0.25784838 0.022924548
0.3205453 0.22060837 0.12291957 -0.03674536 -0.06439168 0.71085185 -0.13186648 0.20216031
0.15236314 -0.10320901 -0.08207287 0.35124868 0.09422609 0.047743462 -0.45632625 -0.25640374
0.16159782 0.25042257 0.1359048 0.20389771 0.17239337 0.48363975 0.02784062 0.41599587
-0.035603758 0.025345603 0.056564074 -0.09377616 -0.07723878 0.6750035 0.1484359 0.10179657
-0.2297885 0.27901354 -0.3763251 0.15799984 0.30430487 0.049935058 0.026878942 -0.03454135
0.0072777895 0.15014505 -0.277483 0.14605945 -0.05103018 0.03218579 -0.0011910198 0.07408055
0.018124146 0.11321217 -0.06305738 0.63084537 0.42327532 0.7848815 0.008210216 0.24626333
0.09523347 0.1495965 0.7059659 -0.4165189 0.19081928 0.6296722 -0.08031071 0.32812032
0.20014243 -0.0711244 0.03124358 -0.08840502 0.44265804 0.2651499 0.17691982 -0.0047504813
0.051445287 0.42266983 0.6072408 0.4461083 0.24025998 0.020019514 0.107064106 0.2929155

net.2.bias f4 [256]
00000000: cc05 89bd 9166 9a3c 1ab5 813d 798a a1bd
00000010: fc48 123c 5ebb 293e b40e 343d 4c01 1d3e
00000020: 8c2a 1c3d 5a0e 05bc 3f3c 223d c9a6 023d
00000030: 646c 2a3d 4352 6d3d b964 9f3c 4551 a33b
00000040: 7b46 50bd b4a4 7bbd f86f 133c d8f4 d33d
00000050: d1b4 6bbd 7110 dd3d 9617 44bb a279 813d
00000060: 1242 21bd 529d 49bc 84d5 ab3d d876 62bc
00000070: 4072 033c 2913 083e 7dde 20bd 8971 c0bd
00000080: 4c84 293d 053f 3d3d 3d5c c0bc 9b2f 27ba
00000090: da07 99bd 7c81 0f3e f0b0 673e e217 2ebd
000000a0: aea0 2a3d a86a c13d 2426 b13d 3ff2 c23d
000000b0: 7a24 d03d 1b33 a23d ee41 eb3d f09f b63b
000000c0: af75 8dbd 26f2 c5bd ed34 c4bd 6206 0abe
000000d0: e20b 05be fa65 ac3d 6274 1cbe a3ee b63d
000000e0: 1cfe 063e 13cf 4e3d 84b5 87bd 0cb2 73bc
000000f0: ba8e a33d afa2 9ebd 7fac f73b 54d0 243d
00000100: 70f2 a0bc 29bd 2a3e 8d2b 393e 9855 3c3a
00000110: 28ce c6bb 8b1f 3ebc 25ff 1f3e 1083 413e
00000120: e874 8cbd 74d6 23be 8d43 113e dca5 80bd
00000130: fda9 73bd 56e4 1f3d 2ab5 223c 4844 b73d
00000140: 06e9 b63c 2cac 12bd dd26 d7bd e9c6 f93d
00000150: 7ba4 c33c 18e1 fe3d ddae b63b 0c91 b13c
00000160: d413 7bbd cfb0 11bd 07c0 083e 13ae a7bb
00000170: c806 5f3c 59c7 ea3c cd68 5e3d a7d9 74bd
00000180: 25f1 80bd 6fb4 d33b 45ce 403d b681 febc
00000190: c075 6f3d a85b 36bd e3bd 72bd d9d7 443e
000001a0: 1c3c 393e 67fc 733a 7a6b 1a3e 4231 2fbe
000001b0: a373 4d3d 5b57 90bd 9dbf 8c3c d246 5abd
000001c0: 4021 fcbb 5fb3 ad3c f33b 83bd a93a a63d
000001d0: 0c73 893c 0a67 cd3d 3310 55bc 138d f43c
000001e0: e6c3 e03c a156 1abc 929b 0fbe 68f1 2b3e
000001f0: ff42 543e ad7d c4bc 09a8 de3c 8401 b43d
00000200: c45b 5ebc 04fd 463d 1cf3 ec3d 461e 9e3d
00000210: b0c7 2fbe 0740 483d a0a6 42be 57cc e63d
00000220: 5c2f dbbc 040e 8ebc 8b49 f03d 814c 80bc
00000230: 5847 7b3d 78ff c03c c71b 243e 80f7 483d
00000240: b07c ffbc 73ea 95bc d8a8 5b3d 259d 5dbb
00000250: 554a d3bc 2940 41bd 174e f93c 39cf 72bd
00000260: 4d87 bcbd 6349 073e 3908 c63d b10f 0cbd
00000270: c40d f23c 3cf3 ad3d 8720 293e 69ab 023e
00000280: 42ed e63d deff 3d3d de36 25be 7c61 e93c
00000290: cbc5 0fbc 4dfc 393d 6c3b 8b3d 4b6d 773c
000002a0: 3cfb b13d 4f67 79bd 37cb 19bd e19c 9fbd
000002b0: 2cc6 ca3d 85f7 5e3d 9383 673d aa11 233e
000002c0: 439b 543c 9f5e 1c3d d677 123d ec61 6bbd
000002d0: 2df3 163e a00f 7bbd a993 3abd 7a97 17bd
000002e0: 8bde e33d 66ed 163d 643b 7bbd c2e2 74bd
000002f0: 6c85 7dbc 1e2d 1eba 68a6 2fbb 8a08 ca3c
00000300: 73fa 70bd 8f23 febc 9186 0d3d 3b00 443e
00000310: 9c6c 90be f60e f4bc 1fce 793d c2e8 963d
00000320: 788a f93d 3cdf 44be b40c 78bd 85fd 69be
00000330: 0505 233e 39c8 1c3e f6fb 61bd d023 b43d
00000340: 6ac0 a33c 3395 5aba 739d 2abd 7048 29bd
00000350: 16ce ccbd 9faf 2c3e c86a cebd a5f0 d23c
00000360: 1473 343e 538f 4dbd 4672 85bd 1988 b3bc
00000370: 6649 6a3c 195a 9bbd d185 3a3d 94c3 1a3e
00000380: 44f5 173e bb0c e33d 04ef a33b 7316 cbbd
00000390: 0229 bb3d 2cb0 9abd d0b2 0dbe c249 88bc
000003a0: 01fc 28bc cdde b1bd 1746 07be ac16 eb3d
000003b0: 09f5 5abd 5219 aabc 0514 413e 0555 303c
000003c0: e0e8 3e3c 9a57 23bc e25e 333c f3ad 243d
000003d0: 9cdd 8f3c 6d09 493e eb97 063e 3324 523d
000003e0: c925 8b3d 33f4 afbd 86e9 bc3a bc8b aa3c
000003f0: 2766 41bd 516e 66bd 7f3e ef3d 4a50 d43d
-0.06690559 0.018847736 0.063333705 -0.0788774 0.008928534 0.16575381 0.043959334 0.15332526
0.038126513 -0.008121097 0.039608236 0.03189734 0.041607276 0.05793978 0.019457208 0.0049840533
-0.050848465 -0.06143637 0.008998863 0.103494346 -0.057545487 0.107941516 -0.0029921285 0.06322028
-0.03936965 -0.0123055745 0.08390334 -0.01382228 0.008022845 0.13288559 -0.03927468 -0.09396655
0.041385934 0.04620268 -0.023481483 -0.0006377638 -0.07472201 0.14014238 0.2262609 -0.042503245
0.041657142 0.09444171 0.08649853 0.09518861 0.10163207 0.07919904 0.114871845 0.0055732653
-0.06907212 -0.09665327 -0.09580407 -0.13478997 -0.12992814 0.08417888 -0.15278772 0.08932235
0.13182873 0.05049045 -0.06626418 -0.014873993 0.07986207 -0.07745873 0.007558405 0.04023774
-0.019646853 0.16673721 0.1808302 0.00071843853 -0.006067056 -0.0116042 0.15624674 0.18897653
-0.068582356 -0.15999776 0.14185925 -0.06281635 -0.059488285 0.039036117 0.009930888 0.089485705
0.022327911 -0.035808727 -0.105054595 0.12196142 0.023882141 0.12445277 0.0055750445 0.021675609
-0.061298206 -0.03556901 0.13354503 -0.005117187 0.013612457 0.02865951 0.054299165 -0.059777882
-0.06295995 0.0064607183 0.047071714 -0.03106771 0.058461905 -0.044521004 -0.05926312 0.19222964
0.18089336 0.0009307325 0.15080062 -0.17108634 0.050159108 -0.07047912 0.017181212 -0.053290196
-0.0076943934 0.021203695 -0.06407919 0.08116657 0.016778491 0.10029419 -0.0130043505 0.029852426
0.027437162 -0.009420068 -0.14024189 0.16791308 0.20728682 -0.023985708 0.027179735 0.087893516
-0.013571683 0.04858114 0.11569807 0.07720618 -0.17166018 0.048889186 -0.19008875 0.112694435
-0.026755981 -0.017340668 0.11732777 -0.01566148 0.061347336 0.023559317 0.16026221 0.04906416
-0.031187385 -0.01830027 0.05362782 -0.003381559 -0.02579228 -0.04718033 0.030432744 -0.059279654
-0.09205494 0.13211589 0.09669537 -0.034194652 0.02954758 0.08493659 0.16516314 0.127607
0.11275722 0.046386592 -0.16134211 0.028488867 -0.008775185 0.04540663 0.06798443 0.015101741
0.08690497 -0.06088954 -0.037547316 -0.07793594 0.099010795 0.05443527 0.056521963 0.15924707
0.01297647 0.038176175 0.035758816 -0.057466432 0.14741202 -0.061294198 -0.045550976 -0.037009694
0.11126431 0.036847495 -0.061335936 -0.059786566 -0.015473705 -0.00060339447 -0.0026802067 0.024662275
-0.058832597 -0.031022815 0.03455216 0.19140713 -0.28207862 -0.02979229 0.060987588 0.07368614
0.12184614 -0.19225782 -0.06055899 -0.22850616 0.15919884 0.15310754 -0.05517193 0.08795893
0.019989211 -0.00083382725 -0.04165406 -0.041328847 -0.10000245 0.16863869 -0.10078961 0.025749514
0.17622024 -0.050185513 -0.065159366 -0.021915482 0.014299726 -0.07585544 0.045537774 0.1511367
0.14839655 0.110864125 0.005002858 -0.09916391 0.09138681 -0.07553133 -0.13837743 -0.016636733
-0.010313989 -0.08685074 -0.13210331 0.11478934 -0.05345634 -0.020764027 0.18855293 0.010762458
0.011652201 -0.009969616 0.010947915 0.040204953 0.017561726 0.19632502 0.1314389 0.051304054
0.06794316 -0.08591499 0.0014412857 0.020818584 -0.04721656 -0.05625755 0.11681842 0.103668764

net.4.weight f4 [4, 256]
00000000: 8816 96be 6f3c 9fbe bcdf 2dbf 89c9 d4be
00000010: 0ffa e0be 5fea 963e 8520 2a3f c2fb 3e3e
00000020: bece 40bd 2611 2dbf 9236 eebe b082 97be
00000030: e7d9 d43e 446e d7bc baf5 a4be 0f5e f63e
00000040: 05b5 1b3f 8b51 d4be 7532 b9be 8448 f23e
00000050: 6f5a 643f 834b db3e db02 f1bc 3929 303f
00000060: 50d9 29bf 3cab 01bf 3acb 753e 0925 efbe
00000070: c7b1 a1be 920d 0fbf fc51 6cbd 8960 e8be
00000080: 6ec4 e6be f7eb d73e cec8 09bf 44df 263d
00000090: 1b83 9bbe bb3c 983e 221f aa3e 2d4e 1fbf
000000a0: 7a4e 463f 33d5 883e dca7 983e 0c19 063f
000000b0: e9fa f63e 1062 1e3f 4bc2 013f ced0 4ebe
000000c0: 0e11 8dbf e0b1 51bf d7c3 85be 1f49 97be
000000d0: 0caf 47bf 62f9 d33e 9c92 07bf fa9f c2bd
000000e0: 9c42 bbbe 8665 19bf 4abf f5be 242a 933f
000000f0: 4cb0 383e 705f 16bf 8c3a eabe b08e 31bf
00000100: 7be8 d03c 1c3b 8e3e d67d f93e fa12 27bf
00000110: 0738 ebbe 3724 163f 936f fb3e 8cab a43e
00000120: f163 f1be 1399 05bf 6228 02be 8066 8dbe
00000130: 3dbf d5be 2eba 173f 09f2 b9be 6094 f23e
00000140: c30b dabe 6248 28bf bbd0 dfbe b4c4 083f
00000150: ae78 a7be d004 9c3e e815 343f f437 e5be
00000160: 921e 04bf 2b17 e3be 882a 643e ea8f a93d
00000170: 566e 2c3f a067 843f 76bd 01bf e859 c1be
00000180: eeae d1be 94ad b4be 9ae4 083f 1a21 f6be
00000190: 7e83 09bf da50 533d 45f8 b4be 6062 843e
000001a0: 3b54 253e 6b10 c4be 249e 183f 60fe a4be
000001b0: e8a6 1abf b93c eabe a202 06bf 0da3 c7be
000001c0: 3857 9e3f 5fc4 f4be 4c96 13bf b173 e23e
000001d0: 8d6f 733f e272 e63e 3eb4 cebe 2764 c8be
000001e0: e245 293e 0b30 e4be efb6 02bf ce28 463e
000001f0: 3b3e f13e 8ec7 303d 6e84 e5be bd02 083f
00000200: e749 c0bd 7b51 e2bd 427b 153f 2868 ee3e
00000210: f24b 053f dca7 d5be 8e5c f7be c753 0e3f
00000220: bb89 03bf 2cd9 ddbe 2622 b23e b18c 0f3f
00000230: 2ec4 74be 7f3d 21bf 20e4 7c3e b1e8 f33e
00000240: 870b 10bf 1455 d4be 2b03 a3be 33a0 05bf
00000250: bd82 0a3d cc9b fb3e 0f55 86be bdc8 f6bc
00000260: ea7f d1be cf5f 463e 9be4 943e 860c 00bf
00000270: 4ede 263c 941c 943e a043 633e 65de 803e
00000280: d285 083f 0e84 b2be c509 8ebf 3f8c 07bf
00000290: 86ba 1fbf 1bf0 d4be 3b85 d13e 110a 503f
000002a0: 09ef 163f 1ed6 74bd 5d6b ac3e 5fe0 95be
000002b0: b96f 3ebe 5246 393e 8705 10be afc4 0c3f
000002c0: 3fbb 22bf 02cc 213d a055 09bf b8b6 87be
000002d0: 0e7e fc3e 7fba f4be ad9c 11bf 299b f2be
000002e0: fbf2 463f 0a35 2dbe c529 0a3c b3d2 c63e
000002f0: 8e87 dfbe 9e28 a7be 20fe 93be 32bb 09bf
00000300: 9240 cebe 425a 0fbf 6731 02bf 508b 7f3e
00000310: a86e 943e 5209 ecbe b560 bb3b cc9f 023f
00000320: fe59 0a3f 2c39 97be 3d2b 27bd 9b98 60bd
00000330: a3dd de3e 70e5 583e a875 10bf a361 eb3e
00000340: 4eab bb3e f3fa 2cbe 319b 76be fca2 d4be
00000350: 34f9 b2be 8bf5 4b3e ba10 b33c aaff d7be
00000360: c072 1fbe 228c 00bd ceb9 debe 90c8 e6be
00000370: dccd 04bf 9fe8 93be 02d9 033f dd10 ec3e
00000380: 2970 693e 2198 f93e c854 0cbf a263 b9be
00000390: ab23 eb3e 6600 02bf d156 d1be 3f41 d3be
000003a0: 9abb cbbe e358 fcbe 82a2 b3be 3a42 e93e
000003b0: 4d48 24bc 000b 36bf 83f2 993e bcf0 f2be
000003c0: 15d2 863e 0688 2ebf 80ef 0e3f 2eb9 26bf
000003d0: 6c15 97be 5331 b63e 3a2e 893e 651b c63e
000003e0: 4536 11bf 36d9 b2be 938c b73e 6b70 643d
000003f0: b000 94be 99bf b4be 09dc 57be 0492 5f3f
-0.29314065 -0.31100795 -0.67919517 -0.4156001 -0.4394078 0.29475686 0.6645587 0.18650725
-0.047072165 -0.6760429 -0.4652601 -0.29591894 0.41572496 -0.026297696 -0.32218724 0.48118636
0.6082309 -0.41468462 -0.36171308 0.4732095 0.8920049 0.42831048 -0.029420307 0.688129
-0.6634722 -0.5065191 0.24003306 -0.46707943 -0.31580946 -0.5588008 -0.057695374 -0.4538615
-0.4507174 0.42172214 -0.5382203 0.040740266 -0.30373463 0.29733834 0.33226877 -0.6222866
0.77463496 0.26725158 0.29815567 0.5238197 0.48238304 0.6186838 0.5068709 -0.2019684
-1.102083 -0.8191204 -0.26125976 -0.29547974 -0.78001475 0.414012 -0.52958083 -0.09503169
-0.36574256 -0.5992054 -0.47997504 1.1497235 0.18036002 -0.58739376 -0.45747793 -0.6935835
0.02550148 0.27779472 0.48728818 -0.6526333 -0.45941183 0.5864901 0.49108562 0.3216213
-0.47146562 -0.521867 -0.12710717 -0.27617264 -0.41747466 0.5926846 -0.3631747 0.47378826
-0.42587098 -0.6573545 -0.43713936 0.53425145 -0.3270926 0.30472422 0.70345926 -0.4476925
-0.51609147 -0.44353613 0.2228185 0.082794026 0.6735586 1.0344124 -0.5067972 -0.37763906
-0.40953773 -0.3528868 0.5347382 -0.4807213 -0.53716266 0.051590778 -0.35345665 0.25856304
0.16145413 -0.38293776 0.59616303 -0.32225323 -0.6041093 -0.45749453 -0.5234777 -0.38991585
1.2370367 -0.4780607 -0.5765121 0.4422889 0.9509209 0.45009524 -0.4037189 -0.3913891
0.16530564 -0.44567904 -0.51060385 0.19351503 0.4711779 0.04315906 -0.44827598 0.5312918
-0.09389096 -0.110506974 0.583912 0.4656384 0.5206901 -0.4172963 -0.483128 0.55596584
-0.51382035 -0.43329751 0.34791678 0.56074053 -0.23902962 -0.6298446 0.24696398 0.47638467
-0.5626759 -0.4147116 -0.31838354 -0.5219757 0.033816088 0.491423 -0.2623677 -0.030125016
-0.40917903 0.19372486 0.29080662 -0.5001911 0.0101848375 0.28928053 0.22193766 0.25169674
0.53329194 -0.34866375 -1.1096731 -0.52948374 -0.6239399 -0.41589436 0.4092196 0.8126536
0.5895849 -0.05977451 0.33675662 -0.29272744 -0.18597306 0.18093231 -0.14064609 0.54987615
-0.63566965 0.039501198 -0.5364628 -0.2650659 0.49314922 -0.47798535 -0.56879693 -0.47384003
0.7771451 -0.16914764 0.00843281 0.38832626 -0.43658108 -0.32648176 -0.2890482 -0.5380126
-0.40283638 -0.559971 -0.5085663 0.24955487 0.28990674 -0.4610086 0.0057183155 0.5102508
0.5404357 -0.29535806 -0.04081272 -0.054833036 0.4352847 0.21181273 -0.5642953 0.45972928
0.36654133 -0.16892605 -0.24082638 -0.41530597 -0.34955752 0.19917886 0.021858562 -0.42187244
-0.15571117 -0.03138364 -0.43501133 -0.45074892 -0.51876616 -0.28888413 0.51503 0.46106616
0.22796692 0.48748878 -0.54816866 -0.36208826 0.4592565 -0.5078186 -0.40886548 -0.41260716
-0.39791566 -0.49286565 -0.3508492 0.4555834 -0.0100270035 -0.71110535 0.30067834 -0.4744929
0.26332155 -0.68176305 0.558342 -0.6512631 -0.2950853 0.35584506 0.2679308 0.38692775
-0.56723434 -0.34931344 0.35849437 0.055771273 -0.28906775 -0.35302427 -0.2108003 0.8733218

net.4.bias f4 [4]
00000000: 6a2f f83c 03b6 683d 5c66 4c3d ed42 013b
0.030296046 0.056814205 0.049902305 0.0019723729
