drafts/draft_02/runs_lunarlander/dqn_best_gif_seed999.pth (torch, 279729 bytes, 6 tensors)

net.0.weight f4 [256, 8]
000000 e2 5f 0b 3d 0d bd 4e 3e 2b fd d7 bc 8e 51 28 3f
       0.034026988 0.20189305 -0.026365837 0.6574944
000010 d0 30 81 be 7f 9c a7 3e 82 9d 2a 3f 66 fd c9 be
       -0.25232553 0.32736585 0.6664659 -0.3945114
000020 8b 54 84 3c 30 3d f8 3e 5b a3 05 be 64 29 93 be
       0.016153594 0.48484182 -0.13050596 -0.28742516
000030 b3 cf 43 be c4 f9 8c be 10 58 09 3f c9 3c 05 bf
       -0.191222 -0.27534306 0.5365 -0.52045876
000040 4f 08 4d 3e ff 05 88 3d c7 e6 3d 3e 06 cf 84 be
       0.200227 0.06641769 0.18545066 -0.25939196
000050 68 49 25 bf c3 b8 bc 3e f8 9d 71 3e 88 d0 8b 3e
       -0.64565134 0.36859712 0.23595417 0.27307534
000060 1e ee 1f 3f 30 24 ce 3d 09 ee 9c 3e 9f c3 0b be
       0.62472713 0.10065496 0.30650356 -0.13648842
000070 78 b5 81 bf 3d 59 3a bf 51 a0 eb 3d 86 c1 b4 bd
       -1.0133505 -0.72792417 0.11505187 -0.08825974
000080 39 63 1b 3d 02 f7 0a be f6 d3 77 3f c7 c1 dd be
       0.037936423 -0.13570789 0.968078 -0.43311903
000090 b8 34 b7 be 92 57 c1 bd a2 2c c0 be 6c 1a 23 3e
       -0.3578241 -0.09440531 -0.37534052 0.15928048
0000a0 c1 c8 0d 3d 34 1d 07 3f f1 ff 45 3e e4 04 bf 3e
       0.034615282 0.52778935 0.19335915 0.3730842
0000b0 0a c3 8c 3e c4 18 9b 3f 7d 11 a9 bc 04 54 21 3e
       0.27492553 1.2116933 -0.020638222 0.15754706
0000c0 41 73 b4 3d 74 e8 1d 3e ed b1 1e be 10 07 b6 bd
       0.088110454 0.15420705 -0.15497561 -0.08888066
0000d0 2c 6a 23 bf 46 61 92 bf 13 f3 df bf 5a 74 ec bc
       -0.6383388 -1.1435935 -1.7496055 -0.028864074
0000e0 dd ef 61 3e d6 5c 11 3f 4e 52 07 bf da 0c 51 be
       0.22064157 0.5678228 -0.5285996 -0.20415059
0000f0 5d 33 8d be 4a dc 57 bf ef 97 44 bf 17 44 01 3f
       -0.2757825 -0.8432051 -0.7679433 0.5049452
000100 b0 35 9f 3e fd 7e 68 3d 7d 7d 9b bd 05 c4 de 3e
       0.31095648 0.05676173 -0.07592294 0.43508926
000110 29 8b b3 3e fe a5 5a 3e c9 0a 89 3d 1a 95 e6 3e
       0.35067108 0.21352383 0.0669151 0.4503563
000120 9e 59 ce bd 4f ea 2d 3d 06 c4 8b be 89 6e c1 bd
       -0.10075687 0.042459782 -0.27297992 -0.09444911
000130 1a 11 9c 3e ed a1 49 bf d3 ac 62 bf 03 74 15 3f
       0.30481797 -0.78762704 -0.8854496 0.58380145
000140 68 90 16 bf 52 c7 85 be a3 48 ae 3d 9d e3 89 be
       -0.58814096 -0.26128632 0.08509948 -0.26931468
000150 c4 70 29 bf d1 d3 f3 bd 46 06 53 3e 4a 12 3d 3f
       -0.6618769 -0.11905635 0.20607862 0.7385603
000160 31 09 68 bb 15 57 34 bb 3f fc 25 3f 32 15 1d bf
       -0.003540587 -0.0027517725 0.6483802 -0.61360466
000170 c8 53 81 bc 53 5b 93 bd 44 89 a7 bb 28 ca 4b bf
       -0.01578702 -0.07195153 -0.005112799 -0.7960534
000180 be 16 23 bc c2 49 f2 be 69 68 9f be 9b 7c 90 be
       -0.009954153 -0.47321898 -0.31134346 -0.28220066
000190 a5 da 5f 3f 5b 97 58 3e c5 7b 08 3f 72 f1 1a be
       0.87443 0.21151488 0.5331386 -0.15131167
0001a0 f8 d3 fb 3d 9a f2 6a be 05 69 48 be 4d cf 54 be
       0.12296289 -0.22944108 -0.19571312 -0.20782204
0001b0 5e 17 96 bf ec 7f 86 be 1f 90 04 be 92 cd 77 3e
       -1.1725881 -0.26269472 -0.12945603 0.24199513
0001c0 da 91 ec 3d af 46 f0 bb cc e3 b7 bd 1a f6 35 bf
       0.115512565 -0.007332645 -0.08978996 -0.71078646
0001d0 64 fb 8a be 36 01 b5 3e af 1b 89 3e 39 d8 9a bf
       -0.2714492 0.35352486 0.26778933 -1.2097236
0001e0 67 92 b2 be 29 6d 16 be 2d 01 06 3f df ea 2a 3d
       -0.3487732 -0.14690079 0.52345544 0.041727897
0001f0 7c 24 72 bf 67 52 54 be d5 36 c5 bd 06 c7 e7 3e
       -0.9458692 -0.20734559 -0.09629599 0.4526903
000200 29 a0 66 be 78 e7 92 3d 83 f9 d3 3e 0d b2 4d bf
       -0.22522034 0.071730554 0.414013 -0.8034981
000210 9e b2 fc 3e 92 e4 08 3e 79 af e7 be 8e 28 ce bf
       0.49355024 0.13368443 -0.45251063 -1.6106126
000220 b5 46 9e be 1f 2d 66 be e2 a5 2b 3e 39 0d 3b bf
       -0.3091332 -0.2247815 0.16762498 -0.7306705
000230 28 ae 94 b9 01 f0 b6 3e 53 c2 32 3e 8d 04 84 bf
       -0.00028358516 0.35729983 0.17456941 -1.0313889
000240 16 be 10 3f b5 25 35 bf 85 65 90 3f a5 dd 58 bb
       0.5654005 -0.7076066 1.1280981 -0.0033091095
000250 2e 07 9f bf ad a6 d6 3e 91 26 aa bc a2 57 2c 3f
       -1.2424066 0.4192404 -0.020770343 0.6732122
000260 70 8e 8c ba 74 a9 d9 3e 6c f4 26 be d2 3e c4 be
       -0.0010723602 0.42512095 -0.16304177 -0.38329178
000270 11 b5 ef be 67 bf 64 bf fd 6f 80 be c2 5b c3 3c
       -0.4681783 -0.89354557 -0.2508544 0.023847464
000280 f4 93 68 3e d2 21 9e 3d 82 98 24 bf c0 92 f7 bd
       0.2271269 0.077212945 -0.6429521 -0.12088537
000290 0b 30 ff 3e 68 44 36 3d c2 9a 1c 3f a0 97 78 3e
       0.4984134 0.04449883 0.6117364 0.2427659
0002a0 d0 3b db be b5 dd 3d bd cc f2 b8 bd 15 11 12 3f
       -0.4281907 -0.046354014 -0.09030685 0.57057315
0002b0 f7 d8 ba be 55 eb a6 bd fb b9 67 bf c0 51 a4 bf
       -0.36493656 -0.08150355 -0.9051816 -1.2837448
0002c0 68 ef 38 3f 7f f1 2c bd 43 28 4d 3e a3 43 a5 3f
       0.72240305 -0.042222496 0.2003489 1.2911266
0002d0 97 33 36 3b 9b 66 ee 3d c2 8b 2d bf 07 11 28 3f
       0.0027801746 0.11640664 -0.6779138 0.6565098
0002e0 30 50 51 be 24 eb 49 be 2b 32 65 3f 9d 5c e9 3e
       -0.20440745 -0.19718605 0.89529675 0.4557847
0002f0 ea f9 08 be e3 af 8b be 0d 98 81 be 95 36 8d 3e
       -0.13376585 -0.27282628 -0.25311318 0.27580705
000300 8d 7a cc be 5b e8 e4 3d 83 0a f7 bd 0b f2 3c bf
       -0.3993725 0.11177131 -0.12062552 -0.7380683
000310 32 2c 92 be 4e c5 3c 3e 3e 88 14 3c 62 d1 91 3e
       -0.28549343 0.18434641 0.009065686 0.2848006
000320 29 f0 85 bd 20 ee 0a bf dd 6c b6 bd 64 23 fd be
       -0.065399475 -0.542696 -0.08907483 -0.49441063
000330 ce b0 19 3f 00 43 79 3f d7 47 ca bc 8d af 81 3e
       0.6003541 0.9736786 -0.024692459 0.25329247
000340 89 c7 4c 3e d7 dd 24 3e 82 47 7b be ac 68 00 be
       0.19997992 0.1610025 -0.24538997 -0.12539929
000350 76 12 8c be 9e f2 c4 3e f4 9e 23 3f 59 e0 6a be
       -0.27357835 0.38466352 0.6391442 -0.22937144
000360 9c 02 f1 bd 63 22 5b 3d e9 9d 9f 3e 84 2d 6f 3f
       -0.11768076 0.05349959 0.31175163 0.93428826
000370 8b 48 85 be 1c af c9 3d ec 9f 0d 3f 53 9c 93 bf
       -0.26031908 0.098478526 0.55322146 -1.1532081
000380 32 d9 a2 be 18 35 24 3e cc 44 a0 be 93 e2 62 be
       -0.31806332 0.16035879 -0.31302488 -0.22156744
000390 41 8f b3 3e 47 b6 fe 3c e2 ea 3b 3f e5 25 94 bf
       0.35070232 0.031092776 0.7340528 -1.1574064
0003a0 68 d1 6c 3e de 0d 0c 3e 08 3b 8a 3e 05 44 d5 be
       0.23126757 0.13677165 0.26998162 -0.41653457
0003b0 83 de a5 3e a6 4b 15 bd 47 03 3d 39 76 5d 20 bd
       0.32396325 -0.036449097 0.00018025665 -0.03915163
0003c0 dd e6 ce be dd 54 6a bf 16 b0 08 3f d8 11 ed 3f
       -0.4041051 -0.9153574 0.53393686 1.852107
0003d0 09 2a 50 bf 35 17 1a bf a2 db cf 3a 87 01 fb be
       -0.8131414 -0.6019166 0.0015858302 -0.49024603
0003e0 48 ae 87 3d e5 c6 0c be 98 56 84 bc 75 ae 35 3d
       0.066250384 -0.13747747 -0.016154572 0.04435583
0003f0 5c f8 97 bf 06 fe 20 be d1 78 5d 3e 18 f9 72 be
       -1.1872668 -0.15721902 0.21628119 -0.23727834

net.0.bias f4 [256]
000000 36 c6 e1 3e c3 66 9c 3e 22 d2 74 3d 45 0a 48 3e
       0.44096535 0.3054715 0.05977071 0.19535168
000010 45 f9 5d 3e 70 f4 67 3e 82 23 24 bd e1 af 6f 3e
       0.2167712 0.2265184 -0.040072925 0.23406936
000020 1b e4 e5 3e 61 35 90 bd cc 44 96 3e c7 83 9a 3b
       0.44900593 -0.07041431 0.29349363 0.004715416
000030 4d 29 a2 3d 54 0e d3 3e e1 37 09 be 07 61 86 3e
       0.07918034 0.4122187 -0.13400222 0.262459
000040 c7 25 c1 3e 46 d9 aa 3d ac 47 35 3e 81 c2 37 3e
       0.37724134 0.08342223 0.17703122 0.17945291
000050 13 8a 64 3e e0 93 22 3f df e0 1b bf 62 b7 8b 3e
       0.22318296 0.6350689 -0.6089 0.27288347
000060 31 c7 35 3e 66 8e 65 be 0b f4 af 3e 6e 89 6d 3e
       0.17751767 -0.22417602 0.34365878 0.23196957
000070 2d 37 8f bc dd 6b ef 3e 23 a7 41 bf f7 83 7a 3e
       -0.017482365 0.4676198 -0.75645655 0.24464403
000080 d3 b5 41 3d 2e 1a 99 3e 03 c4 12 3f 08 f9 6b be
       0.04729254 0.29902786 0.5733034 -0.23044217
000090 15 83 99 3e 15 a8 ef 3e 39 25 ae 3c 08 fd 61 be
       0.2998282 0.46807924 0.021257984 -0.2206918
0000a0 5c bd 04 3e 9e ed 5f be 1a cb 8d be 5e 18 57 3e
       0.1296286 -0.21867988 -0.27694017 0.21005389
0000b0 dd ac 91 3e 00 04 2e 3d 5f da c8 3e 3d 7d b1 3e
       0.28452197 0.042484283 0.39229104 0.34665862
0000c0 0e 02 d3 3e 6c 69 e7 3e 04 ab 5f 3e 9c 47 b3 be
       0.41212505 0.45197618 0.21842581 -0.3501557
0000d0 83 79 b4 3e 4b 93 35 3e 96 f0 bb 3e 71 2f a3 3d
       0.35248956 0.17731969 0.3670699 0.07968033
0000e0 1b 0b db 3e 10 4e 9f 3d 40 ae 1c bc f4 a6 93 be
       0.4278191 0.07778561 -0.009563029 -0.28838313
0000f0 f3 56 52 3e c9 19 ca 3d 29 4d 39 3e 00 a9 48 be
       0.20540981 0.098681994 0.1809584 -0.19595718
000100 5c 3a 86 3e 1b 25 3d 3e f1 2f cd 3c 5b 32 b0 be
       0.262164 0.18471186 0.025047274 -0.34413418
000110 c6 07 21 be b0 04 7d 3e 0d 40 71 be eb f2 a1 3e
       -0.15725622 0.2470882 -0.2355959 0.31630644
000120 05 c0 ab 3e 06 86 38 3f 6f 58 d0 bd 97 14 cc 3d
       0.33544937 0.72079504 -0.10173117 0.09964865
000130 76 aa f0 bd c2 62 9b 3c d3 13 12 3e 68 d5 da 3d
       -0.11751263 0.01896799 0.14265375 0.10685235
000140 e2 0f a3 3e f3 82 cd bd aa 4c 9c 3e 2f b6 05 bf
       0.31848055 -0.10034742 0.3052724 -0.52231115
000150 95 89 a1 be 95 f9 eb 3d a2 2c ab 3e 80 88 2b 3e
       -0.3155028 0.11522213 0.3343249 0.1675129
000160 98 53 f5 3e b7 6d 6c bf 62 17 72 3e d7 5f 72 3a
       0.4791534 -0.9235491 0.23641732 0.00092458486
000170 7d 58 32 3e ba 49 1d be 38 c2 1d be a8 d6 0a 3f
       0.17416568 -0.15360156 -0.1540612 0.5423379
000180 9c 57 a9 bd 20 d1 85 be 03 b3 1c bc f9 c3 49 3e
       -0.08268663 -0.26136112 -0.009564164 0.19703664
000190 dc 70 e4 3e 48 84 cb be 0e 7a c9 3e 0c 0e bc 3e
       0.44617355 -0.3974936 0.39350933 0.36729467
0001a0 1b b9 07 3f 57 2c 4c 3d d6 33 45 ba 4c 21 dd 3e
       0.53016824 0.049846973 -0.0007522678 0.43189466
0001b0 ca 47 bd 3e 4c 57 ca be d9 48 eb 3e ba 5b 79 3e
       0.36968833 -0.39519727 0.45954016 0.24351397
0001c0 85 6f f5 3e 53 1b 4e 3e b0 dd e0 be 02 5a 88 be
       0.47936645 0.20127611 -0.43919134 -0.2663117
0001d0 a4 c8 33 3e 68 64 d1 3d 4c 0e 65 3e 69 e6 4d be
       0.17557007 0.10224229 0.22368735 -0.20107426
0001e0 9c bf fe 3e 73 a0 ef bd fd d6 c7 be 99 d9 84 3e
       0.4975556 -0.11700525 -0.3903121 0.25947264
0001f0 a3 eb 59 bc 1f cb be 3e 11 0f a5 3c bc 29 dd 3d
       -0.013300809 0.37264344 0.020148786 0.10798976
000200 ad 6f 91 bc 05 c7 06 3f 19 5a 89 3e 08 43 03 3f
       -0.017753446 0.5264743 0.26826552 0.51274157
000210 ee 0e 80 3e 0a 5a 39 3e 76 c7 bc 3a 46 43 ff 3e
       0.2501139 0.18100753 0.0014402706 0.49856013
000220 e4 7f b2 3e 4d c9 a7 3e 3b f8 91 3d 06 fc 62 3e
       0.34863198 0.32770768 0.07127424 0.22166452
000230 f2 ec a0 3d 26 ad 5e 3b 4a 31 e7 3e 3b 29 44 3e
       0.07857694 0.0033977716 0.45154792 0.19156353
000240 a5 36 a8 3e 66 f0 d4 be 56 27 4e bf 2e 54 da 3e
       0.3285419 -0.4158966 -0.8052877 0.4264235
000250 22 23 d1 be 70 10 21 3f 9b c5 9f bd 76 bd a7 3e
       -0.40847117 0.62915707 -0.07801362 0.32761735
000260 6d a3 b2 be f6 e9 61 bd 1b 68 14 3e 89 df 7b be
       -0.3489031 -0.055154763 0.14492838 -0.2459699
000270 16 ec a7 3e d2 e3 e5 3e 88 11 cd 3e e2 16 06 3f
       0.32797307 0.44900376 0.40052438 0.52378666
000280 2d 54 e6 3d d2 a5 c8 3e be 3d 28 bc d1 95 e9 3d
       0.11246524 0.3918901 -0.010268627 0.11405528
000290 ac cf 1c 3f a9 bb e8 3e 78 4e 84 be e5 b4 59 3e
       0.6125438 0.45455673 -0.25841117 0.21260412
0002a0 15 57 a1 be 51 b4 e1 3e ac 0b b0 3e db ca 8e be
       -0.3151175 0.44082883 0.34383905 -0.2788914
0002b0 06 ee 94 be 72 76 05 bf 3a 1c bb 3e 7f 23 68 3d
       -0.29087847 -0.5213386 0.36544973 0.056674477
0002c0 03 de 81 be e6 e4 5f 3e 8c 69 b3 3c 79 60 19 3e
       -0.25364694 0.21864662 0.021900915 0.14978208
0002d0 09 91 e7 bd 33 3d d4 3e 44 3b eb be 8b 72 32 3e
       -0.1130696 0.4145294 -0.45943654 0.17426507
0002e0 a3 fb d4 3c 88 00 07 3e 9c 9e a2 3e 2c 7e a7 3e
       0.025998896 0.13183796 0.31761634 0.3271345
0002f0 b8 8b aa bd 0f d9 1d bd e2 58 e3 be 02 6e c6 3e
       -0.083274305 -0.03853708 -0.4440375 0.38755804
000300 4f c9 d4 3e fd ec 37 3e 90 83 43 3e cc 5e d2 bd
       0.41559836 0.17961498 0.19093156 -0.10271987
000310 f8 3f 5d bc 2b 29 bf 3e 0f 29 e6 3e 20 e2 2d 3b
       -0.013504021 0.37336096 0.449532 0.0026532486
000320 29 e9 cb 3c 0c 04 db 3e d8 36 bf bd 4b 1d cd be
       0.024891453 0.42776525 -0.093366325 -0.4006141
000330 8e 5f 94 3e ae 32 78 be 6f b1 c2 3d dc ef 4f bd
       0.28979152 -0.24238083 0.09506499 -0.050765857
000340 6b 6b 57 3e 56 20 21 be 4b 4f a1 3e fc 21 ac 3e
       0.2103707 -0.15734991 0.31505808 0.33619678
000350 f3 6c e2 3e 9b 81 f8 3d 21 4f 48 3d 71 a9 c9 be
       0.44223747 0.12134095 0.04890359 -0.39387086
000360 21 07 05 3f 1f 3f 65 3e c1 8b 98 3e 4c 66 22 3e
       0.51964 0.2238736 0.29794124 0.15859336
000370 ba f5 91 3e 4e 28 91 be 9f 1d c9 3e 71 10 43 3d
       0.28507787 -0.28351063 0.39280412 0.0476231
000380 ce ab 15 3e 2c 40 f3 bc eb c1 fd 3e 40 08 ce 3d
       0.1461632 -0.029693685 0.4956201 0.10060167
000390 a8 db e3 3e 30 51 cc 3e db 22 57 be 30 32 b7 bc
       0.44503522 0.3990569 -0.2100939 -0.022362798
0003a0 d7 54 87 bd 09 b4 90 be 77 41 c1 be 4e 4e 09 3e
       -0.06607979 -0.28262356 -0.37745258 0.13408777
0003b0 b0 5f d5 3e 4b cf de 3b f2 93 b6 be 66 f2 a5 3e
       0.41674566 0.0067996136 -0.35659748 0.32411498
0003c0 07 d1 af 3d eb a1 aa 3e d1 e3 59 3d 32 20 99 be
       0.08584791 0.3332666 0.05319578 -0.29907376
0003d0 92 d3 08 be 65 bb ba 3e 8c 88 60 3d e0 61 54 be
       -0.13361958 0.36471096 0.05481772 -0.20740461
0003e0 79 f7 0e be ac 58 d4 3e 8f 35 07 3c 37 30 34 3d
       -0.13961591 0.414739 0.008252515 0.043991294
0003f0 58 95 e1 3e a7 68 e6 3c 88 64 cd 3e 4d dc 2e 3d
       0.44059253 0.028126074 0.40115762 0.042690564

net.2.weight f4 [256, 256]
000000 63 79 b9 3e 9c d3 c9 bd 4f 2a 9e bd 52 35 63 bd
       0.36225423 -0.098548144 -0.077229135 -0.055470772
000010 a8 39 55 bd 62 35 b6 bb 39 6e a8 3b 48 c2 55 be
       -0.05205694 -0.005560563 0.0051400927 -0.20874894
000020 66 46 3c 3e 42 1f c8 3d f3 b5 a3 be 5d be 82 be
       0.1838623 0.09771587 -0.31974754 -0.2553586
000030 2d 56 25 3e 79 a9 15 be 6c 1e 67 3f 54 46 12 3e
       0.16146155 -0.1461543 0.90280795 0.1428464
000040 16 6e 07 3e 2c cd 66 3f 75 3b 12 3e 7a 0c 1d be
       0.13225588 0.9015682 0.14280494 -0.1533679
000050 36 90 87 be 10 a7 60 be 72 f9 d5 bf 3f 28 60 be
       -0.26477212 -0.2193873 -1.671675 -0.21890353
000060 d7 36 01 3e 36 02 77 3e 83 4f 05 bd 05 7e b9 3e
       0.12618576 0.24121937 -0.03254653 0.36228958
000070 a0 a1 20 bd b1 25 cb bc 13 b6 1b 40 18 68 df be
       -0.039216638 -0.024798246 2.432988 -0.43634105
000080 6d 05 8f 3e fd 51 db bd 36 fc 49 3e 15 80 0f 3f
       0.27933827 -0.107089974 0.19725117 0.5605481
000090 02 c6 34 3c 5f 8e 85 3e b6 e3 0e 3f 23 c9 72 bf
       0.011033537 0.26085183 0.5581621 -0.9483816
0000a0 02 a0 82 3e d9 e3 ef 3e 69 eb 4f 3e 2d d5 a0 be
       0.255127 0.4685352 0.20304646 -0.3141264
0000b0 ec 57 82 3c 36 2c 01 c0 bb 94 d9 3d 29 53 31 bf
       0.015911065 -2.0183234 0.10624071 -0.6926752
0000c0 ad 5b 97 be 84 df 4e be 56 01 bc 3d c1 27 23 3f
       -0.2956213 -0.20202452 0.09179942 0.63732535
0000d0 6c a5 b5 3e ff 85 af bc 07 67 5d be ca 3b 4a be
       0.3547777 -0.021426199 -0.21621333 -0.1974937
0000e0 ca 53 0b be 12 9f b2 3e aa 45 1c 3f 76 a4 c2 bd
       -0.13606182 0.34886986 0.610438 -0.09504025
0000f0 04 09 66 3c af ca af bd f1 d1 ee be 2e 02 90 3e
       0.014040235 -0.08583581 -0.46644548 0.28126663
000100 23 e3 12 bc 77 94 6d 3e 3e 67 2b be fa 28 fa 3d
       -0.008965286 0.23201166 -0.16738603 0.12214847
000110 58 f2 71 be e5 12 e0 3d 7f 07 45 3e dc 80 94 3e
       -0.23627603 0.10941104 0.19241141 0.29004562
000120 c3 46 81 bd ee 63 da be 90 84 66 3e 5e e3 07 bc
       -0.06312325 -0.42654365 0.22511506 -0.008293955
000130 89 5a 00 3f fd f7 c5 be ff fb ca 3e 7d 44 71 bf
       0.50138146 -0.38665763 0.39645383 -0.9424513
000140 fe 5c 84 be da de 12 3f f8 b1 41 3e 27 0d d0 3b
       -0.25852197 0.57371294 0.18915546 0.006349224
000150 9b 38 2f 3f b0 d1 21 be 55 4c 81 bd 0c 1b a9 3e
       0.6844575 -0.15802646 -0.06313387 0.33028448
000160 a6 4c c0 bd 23 14 d4 3f ff 21 cc be 23 f2 a7 bd
       -0.093896195 1.6568645 -0.39869687 -0.08200481
000170 62 be 17 be ba 4c 17 bf ba cd 5a 3f 3a 5a 4b be
       -0.14818719 -0.5910145 0.85470164 -0.19858637
000180 8e 5e 19 3e c2 d4 01 3f 81 22 18 3e 10 be 95 3e
       0.14977476 0.5071527 0.14856912 0.2924657
000190 55 88 82 3e f4 5e f9 be 6e 87 d3 be 97 68 0c 3f
       0.25494638 -0.48705256 -0.41314262 0.5484709
0001a0 3d b7 b9 3d 77 d0 56 3f d4 84 63 3d 4a 13 0a be
       0.09068153 0.8391184 0.055546597 -0.1348392
0001b0 b3 ee 0b be 93 71 9f be bf 1d a0 be 49 97 b0 3e
       -0.13665275 -0.31141338 -0.31272694 0.3449042
0001c0 dd 67 8c be 05 c8 06 3f a5 b2 8f 3e da d5 f1 bd
       -0.2742299 0.52648956 0.28065982 -0.11808367
0001d0 42 6f 30 be 7f e6 23 3e bb a2 d4 3c a2 49 8a bf
       -0.17229941 0.16005896 0.025956502 -1.0803721
0001e0 20 4b d6 be f0 1d a0 bd e2 c8 7f 3e 02 b2 13 bf
       -0.4185419 -0.0781821 0.24978974 -0.57693493
0001f0 d7 4d 0e 3f 1e 46 af bd 6a 74 cb be d1 39 07 bf
       0.55587524 -0.08558296 -0.39737254 -0.52822596
000200 ee 15 00 3f 9f 27 70 be 34 df c4 bd 77 61 93 3e
       0.5003346 -0.23452614 -0.09612885 0.28785297
000210 ec f3 14 3d f1 f5 f6 3e 83 cd b0 bf 88 e8 75 be
       0.036365435 0.48234513 -1.3812717 -0.24014485
000220 2b ae 4c 3e 9c 29 a5 3e 60 21 64 3d 77 28 97 3d
       0.19988315 0.32258308 0.05569589 0.07380765
000230 a8 a4 81 bd 7a 15 3c bd 9e 74 50 3e 4d 7a a5 be
       -0.06330234 -0.04591892 0.20356986 -0.3231987
000240 da 76 40 be 5c f2 82 be a7 9c 95 3f 3e e5 71 3d
       -0.18795338 -0.2557553 1.1688432 0.059056513
000250 c7 f4 31 3f 8d 88 3b bf 7e 6c 6a bd e6 2f 12 3c
       0.69514126 -0.73255235 -0.057232372 0.008922553
000260 7b 67 fa be 50 fe 37 3e c6 bd 04 3f ce ea a6 3e
       -0.48907074 0.17968106 0.5185207 0.32601017
000270 43 17 8e bd 2f 0f 42 be 16 52 d7 bd bb fe 03 3e
       -0.069380306 -0.18951105 -0.105137035 0.1289014
000280 c3 aa a0 3e 88 17 30 3c cf e9 13 3f 93 a3 b6 be
       0.3138028 0.010747798 0.5777864 -0.35671672
000290 2e 34 52 be c6 f4 1a be bc 89 94 3f 44 5a 85 3d
       -0.20527717 -0.15132436 1.1604533 0.065113574
0002a0 e0 49 0b 3f b0 ce d7 bd d9 16 da be af 9c c0 3e
       0.544096 -0.105374694 -0.42595556 0.3761954
0002b0 b8 55 18 be 2d f0 3c be 4c fb 9a be 74 82 05 be
       -0.14876449 -0.18450995 -0.3026985 -0.13038045
0002c0 97 da 9a 3e ae 1c 96 3e 9f e1 c2 3e e0 9f 3e 3e
       0.30244896 0.29318756 0.3806276 0.18615675
0002d0 1e c4 2c 3f 54 f0 05 3d b2 d1 8c 3f 56 34 15 bf
       0.6748675 0.032699898 1.1001494 -0.58282983
0002e0 b6 3e d5 bf 35 81 d1 3e 72 b3 86 bd d4 1e a4 3e
       -1.6659763 0.4091889 -0.06577195 0.3205477
0002f0 a9 eb 48 be d6 0c c3 bf 30 54 f3 bf 9b 1c a8 3e
       -0.19621147 -1.5238292 -1.9010067 0.32834324
000300 1d 68 52 bd 2a ed f7 3b d3 9f e0 bb 42 b7 1a 3e
       -0.05136882 0.007566114 -0.00685499 0.1510897
000310 5c 93 51 3e 04 63 05 3f 5d c9 38 be 12 b2 f1 bd
       0.2046637 0.5210421 -0.18045564 -0.11801542
000320 af 61 c4 3e 7a 97 97 be 74 72 84 3e 81 a0 61 bf
       0.38355777 -0.29607755 0.2586857 -0.88135535
000330 d0 de aa 3e de 2a 03 bb 85 04 71 3e cc 08 6f 3e
       0.33373117 -0.0020014565 0.2353688 0.233432
000340 61 dd 2c 3f 46 99 e9 ba 1f ab 89 be 78 c6 55 be
       0.675253 -0.0017822168 -0.26888368 -0.20876491
000350 f7 04 ef bd f5 e2 11 3c 95 b8 3c 3e 62 8c e4 3e
       -0.11670869 0.008904208 0.18429787 0.44638354
000360 d6 2f a4 be a8 6b 16 be a9 c6 d3 39 4b 61 eb 3e
       -0.32067746 -0.14689505 0.0004039307 0.45972666
000370 47 1c 74 3d 2c 7d af be 40 e6 91 bd 8e fa f5 3e
       0.05959728 -0.34275186 -0.07123995 0.4804272
000380 12 b6 90 be e2 89 ad 3e d1 42 d4 bd 32 16 82 bd
       -0.2826391 0.3389426 -0.10364307 -0.0635189
000390 76 ef 47 bd 34 b8 09 be 2c b8 c2 3e 94 5a 7c be
       -0.048812352 -0.13449174 0.38031137 -0.24643928
0003a0 03 47 c2 3d 0f ae ea 3e 0f 71 de 3e b4 a9 6f be
       0.09486201 0.4583592 0.43445632 -0.2340458
0003b0 6e 00 b5 bd 88 ef 8f bd ac 2a 82 3f de bc 37 bf
       -0.088379726 -0.07028109 1.0169272 -0.71772563
0003c0 0a ff 14 be e2 3f d5 3e 55 fd b8 be c3 4b ba be
       -0.14550415 0.416503 -0.36130777 -0.36385927
0003d0 7b 54 06 3f 4a 40 f2 be 42 35 f0 3e e0 94 19 3f
       0.52472657 -0.47314674 0.46915632 0.5999279
0003e0 98 70 03 3f 67 44 29 3e 45 12 36 bf 99 90 8f 3e
       0.5134368 0.1653 -0.7112163 0.28040007
0003f0 ba 21 7b be 34 e8 0c 3f c3 88 23 3d 10 2f a2 3e
       -0.24524584 0.55041814 0.039925348 0.3167653

net.2.bias f4 [256]
000000 0f 83 83 be 2a fa a9 3d d1 90 18 be 08 86 cf bd
       -0.25685927 0.08299668 -0.14898993 -0.10132986
000010 20 94 2c 3d 50 48 d2 bd 81 79 4f be 38 13 79 bd
       0.04213345 -0.10267699 -0.20261194 -0.060809344
000020 27 22 cc bd ad c3 98 bd b7 46 33 3d 05 f1 f4 bd
       -0.099674515 -0.07459197 0.04376861 -0.11960033
000030 2d 11 0c bd 86 cd 86 bd 85 aa 08 3e f2 4b af bd
       -0.034196068 -0.06582169 0.13346298 -0.08559407
000040 b8 e7 8c 3d 46 44 8c bb e4 b8 c5 ba fe d4 c3 3d
       0.06880134 -0.0042805998 -0.0015085009 0.095621094
000050 2a 04 22 bc 2d 6e 4e 3e aa 6f 4d bb 15 34 96 3d
       -0.009888688 0.20159216 -0.0031347075 0.073341526
000060 89 ab 93 be 67 51 ed 3b 47 96 e9 3c 33 96 24 bd
       -0.28841808 0.00724237 0.02851404 -0.040182304
000070 05 b0 44 be e4 56 22 be ce d6 0a 3d e6 75 23 be
       -0.19207771 -0.15853459 0.03389626 -0.15962943
000080 82 3b 97 3b eb c6 cc 3d 8e 19 59 bc 89 21 ae bd
       0.004615248 0.09998878 -0.013250722 -0.0850249
000090 cb de 8b 3c 54 72 af 3d 66 2d 25 3e 7e f7 82 bd
       0.01707401 0.08566728 0.161306 -0.06394862
0000a0 60 b8 b7 3d 68 84 4a 3d 18 26 23 be f2 84 c2 3d
       0.089707136 0.04944268 -0.159325 0.094980136
0000b0 a8 fa b4 3a fe 89 fe bc f1 bb e2 bb c5 50 8d bc
       0.0013807612 -0.03107166 -0.006919377 -0.017250428
0000c0 3b b7 0a 3e df 56 24 3e 87 4d d7 bd 28 99 ec 3d
       0.1354646 0.16048764 -0.10512834 0.1155265
0000d0 77 e4 98 bd 34 86 16 3d 29 da 14 bd 4c 97 c3 3b
       -0.07465451 0.03674908 -0.036340866 0.0059689637
0000e0 73 c1 ea bd 35 29 05 bd 94 73 cb bd 48 30 cb bc
       -0.11462679 -0.03251 -0.09934154 -0.024803296
0000f0 94 c9 d1 bd 02 d5 1b 3e c3 5b 0e be ee 01 81 bd
       -0.10243526 0.15217975 -0.13902192 -0.06299196
000100 72 99 29 3e 19 bb 12 3e e3 d9 bb 3d 1a b6 e7 3b
       0.16562441 0.14329185 0.09172418 0.0070712687
000110 7c 78 1c be 85 dd 8c 3c 7f 94 93 bd 02 cd d4 3d
       -0.15280336 0.017195472 -0.07206058 0.10390665
000120 df 28 a4 3b 33 4b e7 bc 65 5a 54 be a9 37 af bd
       0.005009755 -0.0282341 -0.20737608 -0.08555538
000130 fb 75 1f 3e 85 05 b3 ba 01 a1 33 be 80 e7 73 3b
       0.1557235 -0.0013658261 -0.17541887 0.0037216842
000140 ee 4c 95 be ce fe 07 3e f7 f9 57 bd c0 84 8d 3d
       -0.29160255 0.13280794 -0.05272862 0.06910086
000150 75 4e 59 bd 43 ec 98 3e 43 4e e9 bc 9d d0 43 bd
       -0.053053338 0.29867753 -0.0284797 -0.04780637
000160 b2 7b e7 3d e1 29 62 3e 69 88 a9 3d 82 08 93 3d
       0.1130289 0.22086288 0.08277971 0.07179357
000170 d2 a9 50 3d 9d 89 ac 3d 97 0b 2b 3d 28 1a b6 bc
       0.050943203 0.08424685 0.0417591 -0.02222927
000180 47 04 01 3e db 7f 2f 3c 6c b0 ba 3c df 06 35 be
       0.12599288 0.010711635 0.022789203 -0.17678402
000190 f4 dc 86 3e 05 74 b0 bd f7 47 58 3e 1a 46 00 3e
       0.2634045 -0.08615879 0.21121202 0.12526742
0001a0 8c 5b 1f be f5 7e 4f bc ee f3 9d 3d e4 3c 8f bc
       -0.15562266 -0.012664546 0.077125415 -0.01748509
0001b0 b5 4b 7a 3e 55 5a dd bd 4d a4 7d be 96 19 22 3e
       0.24442942 -0.10808245 -0.24769707 0.15830073
0001c0 c9 41 c5 3d d2 9f 38 3e 96 51 5e 3d 73 11 c1 3d
       0.09631688 0.18029717 0.054277025 0.09427156
0001d0 5d 28 c4 3d dd c6 94 3e b4 da 7f bd 18 05 60 3c
       0.09578011 0.2905797 -0.06246443 0.013673089
0001e0 6b 63 7b be 1c 4e 01 3e bf 0b 87 bd f5 65 8d bc
       -0.24549644 0.12627453 -0.06594037 -0.017260531
0001f0 f3 6b e3 3d 0a 4b f0 bd 70 29 bf 3d f2 2c 13 bd
       0.11104574 -0.117330626 0.093340755 -0.035931535
000200 99 46 f4 3d 7f 62 89 3b 94 45 9b 3d 2a b8 91 bd
       0.11927528 0.00419265 0.0758163 -0.07115205
000210 97 68 58 3c bb 3a 48 bc 83 18 d5 bd 54 64 11 be
       0.01320853 -0.012221034 -0.10405066 -0.14198428
000220 38 a3 59 bc f4 5e 8b be 4b 1c ae 3d 54 b4 9d 3d
       -0.013283543 -0.2722088 0.0850149 0.077004105
000230 64 68 72 3d 8a b2 8e bd 08 50 39 3d f6 16 b6 3d
       0.059181586 -0.069676474 0.04524234 0.08891098
000240 cb 95 11 bd ef 98 61 3d 39 2b 69 be 6b 4d 41 3e
       -0.035543244 0.05507749 -0.22770394 0.18877189
000250 fd 3b 45 bd ea 0d 72 bc 0a e1 a0 3e 8a 7c c7 bd
       -0.048152912 -0.014773825 0.3142169 -0.09740551
000260 f6 7d bb 3d 85 ca 51 bd b3 65 62 3e a0 01 70 3d
       0.091548845 -0.05121853 0.22109108 0.0585953
000270 2a 6e 14 be b5 63 c4 bd 8e 74 84 be 12 54 f2 bd
       -0.14495149 -0.0958933 -0.25870174 -0.118324414
000280 89 9c 3c 3e 04 eb 70 ba 83 39 96 3e cc a6 b6 bd
       0.18419088 -0.00091902935 0.29340753 -0.08918533
000290 8b f0 bd bd 1d a0 e9 bd 03 7c 81 3e 0f fc 96 3c
       -0.092743956 -0.11407492 0.25289926 0.018430738
0002a0 b9 92 45 3d 05 ed b0 3d 06 7c e7 3d 3a 78 49 be
       0.04823563 0.08638958 0.113029525 -0.19674769
0002b0 b7 87 1a bd f5 8d 2c bd c6 21 e1 3c b1 05 0b 3e
       -0.037727084 -0.04212757 0.027481925 0.1357639
0002c0 58 03 8d be 26 ac 8c bd 60 6b 19 bd 8b 74 27 3d
       -0.27541614 -0.06868772 -0.037455916 0.04088263
0002d0 94 9e a2 3d 05 3f 79 3d 4b 3d 3c be 76 ce 0e be
       0.079404026 0.060851116 -0.18382756 -0.13945946
0002e0 c0 25 ff 3c 61 79 85 3d 81 e3 04 3e 5a ef b4 be
       0.03114593 0.06517292 0.12977411 -0.3533886
0002f0 cb 99 61 3e 49 a0 55 3d 10 b9 07 3e 71 10 1d be
       0.22031324 0.052154813 0.1325419 -0.15338303
000300 5f b8 2d 3d c5 82 4a be 45 3a 6c 3d 06 e0 f8 bc
       0.042412158 -0.19776447 0.057672758 -0.03038026
000310 76 78 a3 bd 11 14 7c 3e e7 cb 2b 3c f3 1b cd 3d
       -0.079819605 0.2461703 0.010485626 0.100150965
000320 82 ed 1f 3e 41 cd 0c be fb fc 88 be 4a 68 99 bc
       0.15617946 -0.13750173 -0.2675551 -0.018726487
000330 d9 e6 30 bd 1b cf b6 bd 5e 46 36 be 33 a1 85 3c
       -0.043188903 -0.08926221 -0.1780028 0.016312217
000340 0f 9d 01 3e 83 72 bf bd a1 7e 39 3e 4e b3 57 bd
       0.1265757 -0.09348013 0.18114711 -0.052661233
000350 16 7f 06 be fa ff 35 3e fe a3 45 3d f3 0a 87 bd
       -0.13134417 0.17773429 0.0482521 -0.06593885
000360 09 8f d3 bc ae 24 08 3e 22 1a 49 be 10 40 b8 bd
       -0.02582504 0.13295242 -0.19638875 -0.08996594
000370 30 61 17 3e c9 38 ac 3c 1f 21 29 3c b9 8e 32 3d
       0.14783168 0.021023171 0.010322838 0.043593142
000380 37 d2 94 bd a9 09 58 bb c1 60 c2 3d 05 42 82 bd
       -0.07266658 -0.0032964742 0.094911106 -0.063602485
000390 28 1a a3 3d 98 03 5d 3e 1f a4 a7 bb 26 32 a9 3e
       0.07963973 0.21583402 -0.0051160003 0.33046073
0003a0 68 96 2c 3e c7 b6 cf bd 6c 6e 3b 3e d8 6b 39 be
       0.1685425 -0.10142284 0.18303841 -0.18107545
0003b0 3b 59 3f 3e 65 c8 3d be 28 e7 ed 3d 52 22 a1 bc
       0.18686382 -0.18533476 0.11616355 -0.019669686
0003c0 10 8f 30 bd f4 1c da bc 42 f8 85 bd c8 e8 3c bd
       -0.043105185 -0.026625134 -0.06541492 -0.046120435
0003d0 07 47 05 3b 8d 93 85 be b0 2f 36 3d 10 24 83 3d
       0.0020336525 -0.26089135 0.044479072 0.06403363
0003e0 7a 65 3f 3c e2 58 83 3d fa 8c 59 3e 8a 66 71 3d
       0.011681909 0.064134374 0.21245185 0.05893568
0003f0 1d a2 62 3d 8a 5c 2c be b8 c1 18 be bb a2 94 bd
       0.055330385 -0.16832176 -0.14917648 -0.07257601

net.4.weight f4 [4, 256]
000000 0c 72 9f bf 01 e5 b6 3e 5d cf f5 bd cc c7 98 bf
       -1.2456679 0.3572159 -0.12002442 -1.1935973
000010 55 de 34 bf 7b 9c b9 3f 1a ce 83 bf 8c 9f 68 3d
       -0.7065175 1.4500879 -1.0297272 0.05679278
000020 54 f8 cc bf c9 45 38 bf 2e 06 1b bf 4d bc 28 bf
       -1.6013284 -0.71981484 -0.60556304 -0.65912324
000030 d1 d2 0b 3d 07 c2 94 3f c0 a0 3d 3f e5 a6 88 bf
       0.034136597 1.1621712 0.7407341 -1.0675932
000040 25 86 65 3f c2 36 24 bf 2f c0 07 bf bc ef d5 3e
       0.89657813 -0.64146054 -0.53027624 0.41784465
000050 7c 56 00 bf c1 b4 7a be c5 73 29 bf 6e 1d fa 3e
       -0.50131965 -0.24483015 -0.66192275 0.48850578
000060 2e 32 50 bf 58 b4 fa 3e 79 47 05 bf 5e 57 01 bf
       -0.8132657 0.48965716 -0.52062184 -0.50523937
000070 6e 35 f2 bf 42 f8 8b bf f1 5d ff 3f ec 3b b8 be
       -1.8922555 -1.0935137 1.9950544 -0.35983217
000080 53 67 37 bf f9 a3 73 3f 1f 2a 33 bf 2e 8d c7 be
       -0.71642035 0.9517208 -0.69986147 -0.389749
000090 eb d3 74 3f 4d bf 01 bf ba 95 c5 3f 54 07 70 3d
       0.9563586 -0.50682527 1.5436318 0.05860074
0000a0 e1 9c 96 be fa f8 0f bf 25 e8 fd be 7e f6 2c bf
       -0.29416564 -0.56239283 -0.49591175 -0.6756362
0000b0 83 78 24 3d d8 fa b9 3c ab fe fd ba 53 53 3a bf
       0.04015399 0.02270262 -0.0019378265 -0.7278339
0000c0 6e c8 69 3f da b9 30 3f 19 7f 6a bf 8d 3c fe 3e
       0.91321456 0.69033587 -0.91600186 0.49655572
0000d0 05 ef ce 3e fd e6 b8 3e 40 92 54 bf 07 eb 52 3d
       0.40416732 0.3611373 -0.8303566 0.05149367
0000e0 ad d0 cb be 24 be 8e 3f 0c f7 77 bf 15 1c 62 3f
       -0.39807644 1.1151776 -0.9686134 0.883241
0000f0 18 1b 93 3f d7 63 be 3d b2 d1 02 bf ba 3c 4c bd
       1.1492643 0.09296387 -0.5110122 -0.0498626
000100 c2 c7 39 3e 04 f8 55 3f 58 65 f7 3e 14 e2 e2 3e
       0.18142608 0.83581567 0.48319507 0.4431311
000110 fa 75 bb bf 24 15 f0 3e 63 4a b5 3f 46 9e 7d 3f
       -1.4645379 0.4689113 1.4163326 0.9906963
000120 b2 91 1b 3f 28 dc e3 be 42 f1 d8 bf 20 b5 8f bf
       0.6076919 -0.44503903 -1.6948626 -1.122715
000130 43 bc 36 3f d5 e6 85 3e ec 67 4a bf 88 fa 36 3f
       0.71381015 0.26152673 -0.7906482 0.7147603
000140 5a 55 66 bf bd 8a e5 3e 1d 7b 3c bf e3 2a b1 3f
       -0.89973986 0.4483241 -0.73625356 1.3841213
000150 44 7f d4 3c 1f ac 82 3d 08 21 b9 3f c9 d6 0b 3d
       0.025939591 0.06380486 1.4463205 0.034140382
000160 bd 72 4b 3f f0 77 76 be a4 f9 09 3f 26 05 39 bf
       0.7947195 -0.2406919 0.53896546 -0.7227348
000170 d9 a9 0d bf 78 28 3a 3f e0 4f 0f 3c 3b cf fd be
       -0.5533729 0.72718 0.008747071 -0.49572167
000180 f9 8e e8 3e 9f 6b 05 3d a7 52 1d 3f a2 03 89 3f
       0.4542158 0.03257334 0.6145424 1.0704234
000190 cc 3e 36 3f 24 1d 52 bf ee ba 09 3f 76 24 28 bf
       0.7118957 -0.82075715 0.5380086 -0.65680635
0001a0 15 56 b1 be 59 ed 4e bf 6d 19 ed 3e 42 fd 57 3f
       -0.34635988 -0.80830914 0.4630846 0.84370816
0001b0 d9 40 ff be b4 dc 3c bf 71 35 ba bf b6 66 68 3f
       -0.49854162 -0.73774266 -1.4547559 0.90781724
0001c0 b5 ae 47 3f 93 f4 18 bf 8d 41 0b bf c5 b8 06 3f
       0.78000957 -0.5974819 -0.543969 0.52625686
0001d0 67 fb bd be dc fa dd 3e c6 bb 05 bf 48 b6 39 3d
       -0.37105867 0.43355453 -0.52239645 0.045339853
0001e0 27 42 40 bf 1a 5f a5 3b 6a 25 39 bf 1f bb 11 bf
       -0.7510094 0.0050467374 -0.72322714 -0.5692615
0001f0 a8 69 00 3f 58 27 4f bf eb 39 f7 3e 42 68 0f 3f
       0.5016122 -0.8091941 0.48286375 0.5601846
000200 59 ce 56 3f fe 6f 30 3d 88 21 b0 3e 28 27 bd 3f
       0.8390861 0.043075554 0.34400582 1.4777575
000210 f5 27 27 bf 2e a1 1b bf 8a 19 17 3f 83 03 14 bf
       -0.65295345 -0.60792816 0.59023345 -0.5781786
000220 18 99 0e bf 53 71 07 3f fb d3 96 3e e3 90 29 3f
       -0.5570235 0.52907294 0.29458603 0.66236705
000230 95 20 1d bf 67 38 30 bf 88 5f 28 be 56 64 01 3f
       -0.6137784 -0.68836063 -0.16442692 0.50543725
000240 32 d2 41 3d 74 54 1e bf 22 fd a4 bf 97 c3 ed 3e
       0.0473196 -0.61847615 -1.288975 0.46438286
000250 6d b7 30 bf c9 05 f4 3c 60 3c 16 bd c6 e2 1c 3f
       -0.69029886 0.029787915 -0.03667867 0.6128353
000260 69 b5 7e 3e c8 85 38 bf 5b 1e 8f be 3a 17 f5 be
       0.2487389 -0.72079134 -0.27952847 -0.47869283
000270 ab e1 2e bf 15 a1 d9 3e 30 84 93 bf 74 0f 9e bf
       -0.6831309 0.42505708 -1.1524715 -1.2348466
000280 ff d1 e3 3e e3 26 e7 be 32 f4 16 3f db 5c 37 bf
       0.44496152 -0.45146856 0.5896636 -0.7162606
000290 76 96 13 3f e1 82 d4 be 05 49 88 3e 34 eb 8e 3c
       0.5765146 -0.41506103 0.2661821 0.017446138
0002a0 e0 10 40 bf fb 10 b4 bd c9 3c 72 be 78 9c e9 be
       -0.7502575 -0.08792301 -0.23656 -0.4562719
0002b0 6b b8 a8 bc 7e f2 3c 3c 91 51 b2 3b 6f c6 35 3f
       -0.02059575 0.011532424 0.0054418524 0.7100591
0002c0 98 b2 ac bf e8 4b 15 3f e0 8e f4 bc da 4b 29 bd
       -1.3492002 0.5831895 -0.029853284 -0.041332103
0002d0 71 e0 f4 3f 13 60 55 bf 27 7d dc bf 22 8a f0 bf
       1.9130994 -0.8334972 -1.7225693 -1.8792155
0002e0 60 d7 2a bf 1a 4f 77 bb 1c a2 0d 3f dc 05 a7 bf
       -0.66734886 -0.0037736357 0.55325484 -1.3048663
0002f0 fc 88 45 3f a5 43 10 bf ba be 90 3f 23 0a 51 bf
       0.77162147 -0.5635322 1.1308205 -0.8165609
000300 fa 45 40 bf 38 ba 86 bf 55 bd d8 be c6 3c 21 3d
       -0.75106776 -1.052558 -0.4233195 0.0393646
000310 6e 9c fa be b8 54 53 3f e2 28 48 3f 04 68 7c 3f
       -0.4894747 0.82551146 0.7818738 0.98596215
000320 d0 ed 72 3f a8 8a 19 bf ec d8 e2 bf 2b 3b 1a bf
       0.94894123 -0.599772 -1.7722449 -0.60246533
000330 1a 91 86 bf 8d 54 13 bf a5 07 4f bf 90 ee df be
       -1.0513031 -0.5755089 -0.8087104 -0.43736696
000340 70 34 52 bf d4 b2 d0 3f 48 7c 92 3e 7d 56 4f bd
       -0.82111263 1.6304574 0.28610444 -0.05061959
000350 9d 8e a7 bf 55 37 ef 3e 9f 6b 08 bf 22 36 2e bf
       -1.3090397 0.46721902 -0.53289217 -0.6805135
000360 1b 7a 2e bf b3 c3 ed 3e 31 8c ac bf 93 bd 0a bf
       -0.6815507 0.4643837 -1.3480283 -0.5419552
000370 96 34 3e 3f 0c 6b c2 be 9a 89 09 bf 74 0d 1b 3d
       0.7429899 -0.37972295 -0.5372559 0.037854627
000380 6e a7 9e 3c 10 75 92 3f a9 89 10 bf 96 71 20 bd
       0.019366946 1.1441975 -0.5646005 -0.039170824
000390 c5 83 84 be 15 6e 99 3e 39 aa 8a 3f 10 f0 12 bf
       -0.25881782 0.29966798 1.0833198 -0.57397556
0003a0 9f 98 4a 3e e3 d4 93 bf ac 58 f8 3e 4e b7 eb bf
       0.19784783 -1.1549343 0.4850515 -1.8415315
0003b0 4a b6 19 3f a9 e9 c7 bf 32 cd 34 3e 64 8a 46 bf
       0.60043776 -1.5618182 0.17656401 -0.7755492
0003c0 b6 ab d9 3e 04 a5 66 3d de 37 82 bd 65 5c 37 bf
       0.42513818 0.056309715 -0.06358312 -0.7162536
0003d0 1d 16 af bc e7 c1 b2 bf 8a 30 8f 3d bf 3a 52 3d
       -0.02137285 -1.3965424 0.0699168 0.051325556
0003e0 b4 94 7c 3f 9f a8 94 be 05 4b 8c 3f 2b 93 c3 3e
       0.986644 -0.29034898 1.0960394 0.38198218
0003f0 cd 62 46 3e d2 5f 17 bf 92 af 9a bf 12 c6 f8 3e
       0.19373627 -0.59130585 -1.208483 0.48588616

net.4.bias f4 [4]
000000 e4 f0 a5 3c 59 7a 87 3d 8e ef 52 3e 0e 26 ed 3c
       0.020256467 0.06615133 0.20599195 0.02894881
