drafts/draft_02/runs_lunarlander/dqn_trial11_seed42.pth (torch, 279705 bytes, 6 tensors)

net.0.weight f4 [256, 8]
0	0x3d07d500	0.033162117
1	0x3eb703c6	0.35745066
2	0x3c9d2558	0.019182846
3	0x3f19f367	0.6013703
4	0xbd35813d	-0.044312704
5	0xbdb0ab3a	-0.08626409
6	0xbe3aa6ca	-0.18227687
7	0x3e53bb16	0.20676836
8	0x3ec12a80	0.37727737
9	0xbe839ed7	-0.25707123
10	0x3f11b514	0.5691693
11	0xbde6ab87	-0.11263185
12	0xbd1140e0	-0.03546226
13	0x3e081811	0.1329043
14	0x3e46f9e3	0.19431262
15	0x3d023f5b	0.0317987
16	0x3e7be220	0.24597979
17	0xbe14fddd	-0.14549966
18	0xbeaf2366	-0.34206694
19	0x3e6044c4	0.21901232
20	0xbe86273a	-0.26201802
21	0xbe4369db	-0.1908335
22	0x3df17b04	0.117910415
23	0x3effff49	0.49999455
24	0xbf102686	-0.5630878
25	0xbe60b2c1	-0.21943189
26	0xbea67d5e	-0.32517523
27	0xbec62c54	-0.38705695
28	0x3ec40825	0.38287464
29	0xbdf86c4e	-0.121300325
30	0x3eacf8bc	0.3378352
31	0xbeb13f01	-0.3461838
32	0x3ceb3b51	0.028714808
33	0x3e12bff4	0.14331037
34	0xbdbb4781	-0.09144498
35	0x3ebfeccd	0.37485352
36	0x3deeb61e	0.1165583
37	0x3f0b706e	0.5446843
38	0x3ec89c36	0.3918168
39	0xbe0e526c	-0.13898629
40	0x3d12658f	0.035741385
41	0xbea1dc28	-0.31613278
42	0x3d8fdffb	0.07025143
43	0x3fd5d575	1.6705767
44	0xbe1e75bf	-0.15474604
45	0xbdcd0edb	-0.10012599
46	0x3eeef2f0	0.46669722
47	0x3ed098e4	0.40741646
48	0x3df2654d	0.11835728
49	0xbe2ea36a	-0.17054525
50	0xbe629a36	-0.2212914
51	0xbee69b9b	-0.45040593
52	0xbe9ba2b1	-0.3039756
53	0x3eaa1087	0.33215734
54	0x3e912033	0.2834488
55	0x3dc65140	0.09683466
56	0x3dd4568a	0.103680685
57	0xbd59679c	-0.053077325
58	0x3ea4c671	0.3218265
59	0xbee15198	-0.44007564
60	0xbe8e62db	-0.27809796
61	0xbf38e568	-0.72225046
62	0xbed2015e	-0.41016668
63	0xbeebe101	-0.46070102
64	0xbcd751d9	-0.026284145
65	0xbecfa341	-0.4055424
66	0xbd2d594e	-0.042321496
67	0xbe708f6a	-0.23492208
68	0xbedbf2ec	-0.42958772
69	0xbf3d8cba	-0.74042857
70	0x3ec9db16	0.39424962
71	0x3e9efca2	0.3105212
72	0x3f033002	0.5124513
73	0xbe5e8f57	-0.21734367
74	0xbea59ff7	-0.32348606
75	0xbf04dca4	-0.5189917
76	0xbe8b6e8e	-0.27232784
77	0x3d37421d	0.044740785
78	0x3e4084d8	0.18800676
79	0x3ea87fb8	0.32909942
80	0xbe4e92dd	-0.20173211
81	0xbee60900	-0.4492874
82	0x3cf68931	0.030094715
83	0xbf1be817	-0.60901016
84	0x3e8ccf1d	0.27501765
85	0x3aad6cdf	0.0013231299
86	0x3e6aca5e	0.2292876
87	0x39faf817	0.00047868557
88	0x3e6dd60c	0.23226184
89	0xbdfe9cdf	-0.124322645
90	0x3e749979	0.2388667
91	0xbe0765a9	-0.13222374
92	0xbe0c28b7	-0.13687406
93	0x3f374e0e	0.71603477
94	0xbe9db59c	-0.3080262
95	0xbf6ad807	-0.9173588
96	0x3eb6b9a7	0.35688516
97	0x3d048a5c	0.032358512
98	0xbe30d00e	-0.17266867
99	0xbf0e7b2c	-0.55656695
100	0xbe68260b	-0.22670762
101	0x3d2315ad	0.039815594
102	0xbf146f7f	-0.5798263
103	0xbf1be6e9	-0.60899216
104	0x3e2176e5	0.15768011
105	0xbe0f8a57	-0.14017616
106	0xbe9fde77	-0.31224415
107	0xbf243dd5	-0.6415685
108	0x3d6bbc52	0.057552643
109	0xbe784aa4	-0.24247223
110	0x3ebf6303	0.37380227
111	0x3d7abfc0	0.061218023
112	0x3d91ff3e	0.07128762
113	0xbeb58619	-0.3545387
114	0xbe2acf09	-0.1668054
115	0xbf299a6d	-0.6625126
116	0x3dc4a9fb	0.09602734
117	0xbc30d3c0	-0.010792673
118	0xbe81208a	-0.25220138
119	0xbeefc258	-0.4682796
120	0x3d49436d	0.049136568
121	0xbe6b77ca	-0.22994915
122	0x3d8bd873	0.06828394
123	0xbed607cf	-0.41802832
124	0xbe96f395	-0.29482713
125	0xbf028f73	-0.51000136
126	0xbf90afa0	-1.1303596
127	0x3e8b62f5	0.27223936
128	0x3ea6dd1e	0.32590574
129	0x3df0169f	0.11723065
130	0x3ee6fc98	0.4511459
131	0x3ee3e275	0.4450871
132	0xbf426a5a	-0.7594353
133	0x3de65d03	0.11248209
134	0x3cb37478	0.021906123
135	0xbd60ee20	-0.054914594
136	0xbf7fe28a	-0.99955046
137	0xbe16a099	-0.147097
138	0xbeec5597	-0.4615905
139	0xbdec5aa2	-0.11540724
140	0x3e7f3930	0.24924159
141	0xbe692506	-0.2276803
142	0x3e9018fa	0.28144056
143	0xbe76f5fb	-0.24117272
144	0x3d4638f3	0.048394155
145	0x3c23efcc	0.0100059025
146	0x3e27afec	0.16375703
147	0x3e9c89a5	0.30573764
148	0x3f62726f	0.8845586
149	0xbe811505	-0.2521135
150	0x3ec789b2	0.3897224
151	0xbe560289	-0.20899405
152	0x3ea34d8f	0.3189511
153	0xbdaa5421	-0.083168276
154	0x3e8bd432	0.2731033
155	0xbf4214b4	-0.7581284
156	0xbdc1689a	-0.09443779
157	0xbd6b09f0	-0.057382524
158	0xbca666d6	-0.020312708
159	0xbe5d3ca1	-0.2160516
160	0x3ecc530d	0.39907113
161	0x3e24bebd	0.16088386
162	0x3e189590	0.14900804
163	0xbeffe492	-0.49979073
164	0x3e2fa2ae	0.17151901
165	0xbe748587	-0.23879062
166	0xbe9596e3	-0.2921668
167	0x3ebc1abd	0.3673915
168	0x3dafc481	0.08582402
169	0xbea3373c	-0.31878078
170	0xbe38d262	-0.18049005
171	0xbdc71a25	-0.097217835
172	0x3f01e420	0.50738716
173	0x3ebe5b7c	0.37179172
174	0x3dafd340	0.085852146
175	0xbf252b0a	-0.645188
176	0xbeedf9cd	-0.46479645
177	0x3ea3e4de	0.3201055
178	0x3e5982ac	0.21241254
179	0xbedd63b7	-0.4324014
180	0xbd01b252	-0.0316642
181	0x3e8927ab	0.26788077
182	0xbec914c0	-0.39273643
183	0xbe879428	-0.26480222
184	0x3e660f32	0.22466734
185	0x3e92fec3	0.28709993
186	0x3e690df4	0.22759229
187	0xbe36a065	-0.17834623
188	0xbde98d38	-0.114038885
189	0xbde7a59f	-0.113108866
190	0xbe7b40b4	-0.24536401
191	0xbf312d7b	-0.6921002
192	0x3e265c9c	0.16246265
193	0x3e9cb6f8	0.30608344
194	0x3c0a5d01	0.008445025
195	0x3e1c3c39	0.15257348
196	0x3e82e02e	0.2556166
197	0xbc95b018	-0.018272445
198	0x3d4cb94a	0.049981393
199	0x3f00b212	0.50271714
200	0xbe060226	-0.13086757
201	0xbe8e2832	-0.27765042
202	0x3e60aee8	0.21941721
203	0x3e1edfef	0.15515111
204	0xbd9f0095	-0.07763783
205	0xbf193ba5	-0.59856635
206	0xbf98df44	-1.1943135
207	0xbf40b749	-0.7527967
208	0x3d4f9761	0.050681476
209	0x3e5664fb	0.20936958
210	0x3db6e44d	0.08930264
211	0x3e833215	0.25624147
212	0xbec6c1a7	-0.3881962
213	0xbefc4e35	-0.49278417
214	0xbe83361b	-0.25627217
215	0x3f0f2786	0.5591968
216	0xbc9d1356	-0.01917426
217	0x3c892e62	0.01674575
218	0x3bc7af8c	0.006093925
219	0xbcc4fe99	-0.024047183
220	0xbf96e759	-1.1789352
221	0x3dad659c	0.08466646
222	0xbeb560e8	-0.35425496
223	0xbedd74ad	-0.4325308
224	0xbd981dc9	-0.07427556
225	0x3e80b0fa	0.25135022
226	0x3d5b2f27	0.053511765
227	0x3ec7ed4f	0.3904824
228	0xbe33d33a	-0.17561045
229	0xbf1c777b	-0.6111981
230	0xbebc4bb6	-0.36776513
231	0x3f08c7d0	0.5342989
232	0x3cfce4cc	0.030870818
233	0x3ebd3ae5	0.36958995
234	0x3d9d7999	0.076892085
235	0x3e88fc84	0.26755154
236	0xbe9ebb88	-0.3100245
237	0xbf1bc5b3	-0.6084854
238	0xbf96482c	-1.1740775
239	0xbefa87e8	-0.48931813
240	0x3dd2e544	0.10297635
241	0xbe23a7a3	-0.15981917
242	0xbe2546d9	-0.16140307
243	0xbf61876d	-0.8809727
244	0x3eb7b59e	0.3588075
245	0xbea3c15d	-0.31983462
246	0xbfa63438	-1.2984686
247	0xbd5712c8	-0.052508146
248	0xbdbf5193	-0.09341731
249	0x3eb32cde	0.34995168
250	0xbdb3aea2	-0.08773543
251	0xbed03501	-0.4066544
252	0x3d6276b4	0.055288985
253	0xbed75feb	-0.42065367
254	0xbf369eac	-0.71335864
255	0xbf494e7e	-0.78635395

net.0.bias f4 [256]
0	0x3e9bd81d	0.3043832
1	0x3e8745cd	0.2642044
2	0x3db010a5	0.08596925
3	0x3e1d7f78	0.15380657
4	0x3e91431d	0.28371516
5	0xbe9a7241	-0.30165294
6	0xbe040fbc	-0.12896627
7	0xbcdac619	-0.026705788
8	0xbcf78250	-0.030213505
9	0x3e5183b6	0.204604
10	0xbd3c8be9	-0.046031866
11	0xbe2be85c	-0.16787857
12	0x3dd13b05	0.10216335
13	0x3df5d757	0.120039634
14	0x3eb64060	0.3559599
15	0xbe83a770	-0.25713682
16	0x3eb47d87	0.3525202
17	0x3cfd8f0f	0.030952005
18	0x3e507c46	0.20359907
19	0x3da7d210	0.08194363
20	0x3e7a5dec	0.24449891
21	0x3d4fd588	0.05074075
22	0xbdf678c0	-0.1203475
23	0x3eb0a5e1	0.34501556
24	0xbea156ff	-0.31511685
25	0x3e74b38c	0.23896617
26	0x3e4887df	0.1958308
27	0xbcf1e9c7	-0.029530419
28	0x3e8b1c91	0.27170232
29	0x3e26fb88	0.16306889
30	0x3e98d2e3	0.29848394
31	0x3ead4cc4	0.3384763
32	0xbdadaf57	-0.08480709
33	0x3ea28578	0.31742454
34	0xbe417004	-0.18890387
35	0xbe28a1b4	-0.16467935
36	0x3d01c479	0.03168151
37	0x3edda047	0.43286344
38	0x3d3509f7	0.044198956
39	0xbeef86ca	-0.46782523
40	0x3e9318a6	0.28729743
41	0xbe12c759	-0.14333858
42	0x3e8ff3e5	0.28115764
43	0xbdb88c18	-0.09011096
44	0x3e7ef8a2	0.24899533
45	0x3ea913de	0.3302297
46	0xbcbdf348	-0.023187295
47	0xbe57e09d	-0.21081777
48	0x3eb091a0	0.34486103
49	0x3dfccc80	0.12343693
50	0x3d279308	0.040911704
51	0xbe8517d8	-0.25994754
52	0x3ecc56cc	0.3990997
53	0x3dfaf860	0.12254405
54	0xbb023a78	-0.0019871276
55	0xbe2f64ec	-0.17128342
56	0x3cbc291b	0.02296882
57	0x3e88ce4c	0.26719892
58	0xbdbc2eda	-0.09188624
59	0x3e9cde49	0.3063834
60	0x3d765b42	0.060145624
61	0x3d6cb861	0.057793025
62	0x3e88c0ee	0.26709694
63	0x3da71fa2	0.0816033
64	0xbe153603	-0.14571385
65	0x3e2e6bfa	0.17033377
66	0x3ed2f2f3	0.4120098
67	0x3e0350ec	0.12823838
68	0x3e9b5dd5	0.30345026
69	0x3ea7dac4	0.32784092
70	0x3e5102f0	0.20411277
71	0x3e6b7363	0.22993235
72	0x3e6c1a9b	0.23057024
73	0xbd079f7d	-0.033111084
74	0x3ed8736d	0.42275563
75	0x3edc695b	0.4304913
76	0x3e5944d1	0.21217658
77	0x3e6e444b	0.23268239
78	0x3e976ef8	0.2957685
79	0xbe7ed4f9	-0.2488593
80	0x3ec9c3fc	0.39407337
81	0x3e993122	0.29920298
82	0x3e6d17cd	0.2315361
83	0xbbc34b0e	-0.005959875
84	0xbec1ac63	-0.37826833
85	0x3eff1a86	0.49824923
86	0xbe77e0b8	-0.24206817
87	0x3eb04d67	0.34434053
88	0x3ebb7c68	0.36618352
89	0xbe986954	-0.2976786
90	0x3d18359a	0.037160493
91	0xbe266fed	-0.16253634
92	0x3eb2ce63	0.34923086
93	0xbe8c6543	-0.27421007
94	0x3ea59abd	0.32344618
95	0x3ebaf615	0.3651587
96	0x3ea785a1	0.32719138
97	0x3eeeb96b	0.46625838
98	0x3ec9ef10	0.39440203
99	0xbedce1ed	-0.43141118
100	0x3e083323	0.13300757
101	0x3e232542	0.15932181
102	0x3e5fda18	0.2186054
103	0xbe446928	-0.19180739
104	0x3d5fd913	0.054650377
105	0xbd5f1348	-0.054461747
106	0x3eea2fdf	0.45739648
107	0x3ec30cd6	0.3809573
108	0x3ed6546b	0.4186128
109	0x3eb98b53	0.36239108
110	0xbdff10cf	-0.12454378
111	0xbda81964	-0.08207968
112	0xbe29b3e4	-0.16572529
113	0xbe28f234	-0.16498643
114	0x3ebec9f8	0.37263465
115	0x3e7d7aa7	0.2475382
116	0x3e8aef45	0.27135673
117	0x3ab8960f	0.0014082807
118	0xbe0ba1ba	-0.13635913
119	0xbe31a125	-0.17346628
120	0x3ed1cd46	0.40976924
121	0x3ea672f6	0.32509583
122	0x3e956051	0.29175046
123	0x3de0c73a	0.109754995
124	0xbd82e9dd	-0.06392262
125	0xbe542748	-0.2071811
126	0x3e4f070c	0.20217532
127	0x3dcd4acc	0.10024032
128	0x3e66a0c9	0.22522272
129	0x3ebeeecc	0.37291563
130	0xbe2c07ce	-0.16799852
131	0x3e91ff37	0.28515026
132	0xbd5ffd10	-0.0546847
133	0x3e6857ee	0.22689793
134	0xba072177	-0.0005154828
135	0xbe83a0a1	-0.25708488
136	0x3e7acd1f	0.2449231
137	0x3eaa8ee2	0.33312136
138	0xbe095c5c	-0.13414139
139	0x3e1e1a7e	0.15439793
140	0x3d447ced	0.0479707
141	0xbf01eb3a	-0.5074955
142	0xbe03c16a	-0.1286675
143	0xbd7b0228	-0.061281353
144	0x3dcf64d4	0.10126653
145	0xbdecdf19	-0.1156599
146	0x3e8973bf	0.2684612
147	0xbe43298c	-0.19058818
148	0x3e13bb58	0.14426935
149	0xbce84dd5	-0.028357426
150	0x3e23cdd2	0.15996483
151	0x3ee2c67f	0.44292066
152	0x3e649cd8	0.22325456
153	0xbe614ccf	-0.22001956
154	0xbed43567	-0.41446993
155	0x3c71b77a	0.014753217
156	0xbde73418	-0.11289233
157	0x3e81e386	0.253689
158	0xbde87285	-0.11349968
159	0x3eb8f803	0.36126718
160	0x3e4c1f9c	0.19933933
161	0xba5a888e	-0.0008336388
162	0x3e3eba23	0.18625693
163	0x3dd4a090	0.10382187
164	0xbded87b0	-0.11598146
165	0x3ea7b5ef	0.32755992
166	0xbe8cbc49	-0.274874
167	0x3a7ce802	0.0009647609
168	0xbe420966	-0.18948898
169	0xbe80a482	-0.2512551
170	0xbda78064	-0.081787854
171	0x3e85cd48	0.2613318
172	0x3e16431f	0.14674042
173	0x3e15734b	0.14594762
174	0x3dbcd914	0.09221092
175	0x3d94cc54	0.07265535
176	0xbc4718a5	-0.012151872
177	0x3d71e2aa	0.059054054
178	0xbe217d23	-0.15770392
179	0x3ee4d0e0	0.4469061
180	0x3ea042b2	0.31300884
181	0xbeb1cc0b	-0.34725985
182	0x3dd5f74b	0.10447558
183	0x3d800913	0.06251731
184	0xbe5f311d	-0.21796079
185	0xbe875741	-0.26433757
186	0x3e55087a	0.20804015
187	0xbebc4483	-0.3677102
188	0x3f0b838f	0.5449762
189	0x3eb0bebd	0.34520522
190	0xbebb82de	-0.3662328
191	0xbe4634b9	-0.1935605
192	0xbdee2fca	-0.11630209
193	0xbe27f902	-0.16403583
194	0x3e2f91f0	0.17145514
195	0xbe86182b	-0.26190314
196	0x3e5fde4d	0.21862145
197	0xbe79370d	-0.24337406
198	0x3cbf44b2	0.023348186
199	0xbe96c829	-0.29449585
200	0x3ed9c08d	0.42529717
201	0xbe6feeef	-0.2343099
202	0xbe66fd3e	-0.22557542
203	0xbcb93347	-0.022607459
204	0xbe119f1f	-0.14220856
205	0xbee03361	-0.437892
206	0x3e6f3fde	0.23364207
207	0x3e6145f7	0.21999346
208	0xbe1c059d	-0.15236516
209	0xbe404320	-0.18775606
210	0xb9795bef	-0.00023780738
211	0xbeabf8d7	-0.33588287
212	0xbe23f814	-0.16012603
213	0x3db01f27	0.08599692
214	0x3ed58a34	0.41707003
215	0xbd9681e8	-0.073489964
216	0x3ea7c656	0.32768506
217	0xbe834e88	-0.25645852
218	0xbd13c657	-0.036077823
219	0xbe955238	-0.2916429
220	0x3ed4505f	0.41467568
221	0x3ee6a5c6	0.4504835
222	0x3e68e98b	0.2274534
223	0x3e968cfa	0.29404432
224	0x3ec272c5	0.37978187
225	0x3e8c63bb	0.27419838
226	0x3e498bdc	0.19682258
227	0x3dfa8afc	0.122335404
228	0xbe716fc7	-0.23577796
229	0xbddb4502	-0.107065216
230	0x3e3f7d86	0.18700227
231	0xbd6ff3d7	-0.058582153
232	0x3d77829d	0.060427297
233	0x3d43e918	0.047829717
234	0x3a034b52	0.0005008477
235	0x3e5dd0e6	0.2166172
236	0x3e91aef8	0.28453803
237	0xbe9b663b	-0.30351433
238	0x3e9301af	0.28712222
239	0xbd183edc	-0.037169322
240	0xbda53956	-0.080675766
241	0x3ea4dfcd	0.32201996
242	0x3ecfcdad	0.40586606
243	0x3d8af9da	0.06785937
244	0xbe85d8ba	-0.26141912
245	0xbc237dc3	-0.009978714
246	0x3bf9eb43	0.0076269223
247	0x3e170054	0.14746219
248	0x3e9744c9	0.29544666
249	0xbe849f01	-0.2590256
250	0xbe76b342	-0.24091819
251	0xbe9dfc17	-0.30856392
252	0x3d23bcc5	0.039974947
253	0xbbc16f39	-0.0059031514
254	0xbe812583	-0.25223932
255	0xbe863145	-0.26209465

net.2.weight f4 [256, 256]
0	0x3e4fc04b	0.20288198
1	0xbe626da9	-0.22112145
2	0x3d084e8d	0.033278037
3	0xbe15f48d	-0.1464407
4	0x3e047300	0.12934494
5	0x3ed39ce9	0.4133065
6	0x3e8e2d7a	0.2776907
7	0xbe05f0e0	-0.13080168
8	0x3d95ea45	0.07320074
9	0x3dce0514	0.10059562
10	0x3ead91de	0.3390035
11	0xbe7fa53c	-0.24965376
12	0xbe3996a7	-0.18123876
13	0x3dfa95b9	0.122355886
14	0x3c1b6781	0.0094851265
15	0x3e5752c5	0.21027668
16	0xbd3ce04d	-0.046112347
17	0x3d965fd1	0.07342494
18	0x3cebe44d	0.028795386
19	0x3d8f8be4	0.07009104
20	0x3c330dcc	0.010928582
21	0xbdd1f364	-0.10251501
22	0xbe58e454	-0.2118085
23	0xbe31b0f8	-0.17352664
24	0x3ce2fa21	0.027707161
25	0xbea23c25	-0.31686512
26	0x3dafb714	0.08579841
27	0xbccbc33e	-0.024873372
28	0xbd2d4cc1	-0.042309526
29	0xbe280db9	-0.16411485
30	0x3cb8df83	0.022567516
31	0xbe84550e	-0.25846142
32	0x3dba3a7f	0.090931885
33	0xbd51bec5	-0.051207323
34	0x3e691d9b	0.227652
35	0x3ee7d1e1	0.45277312
36	0x3db2336b	0.087012134
37	0xbde83f67	-0.11340218
38	0xbcc11f10	-0.023574382
39	0xbcb587e2	-0.02215952
40	0xbe5efc83	-0.21776013
41	0x3dc2ecba	0.09517808
42	0xbe6cc199	-0.23120727
43	0x3e2d10d9	0.16900958
44	0xbddd6a9e	-0.10811351
45	0x3df7d9c4	0.12102082
46	0x3e3ccd45	0.18437679
47	0x3d2485a3	0.04016651
48	0xbc9db825	-0.019252846
49	0xbdbe74e5	-0.092996396
50	0xbe1a691d	-0.1507916
51	0x3db6a1b2	0.0891756
52	0xbcf86d81	-0.030325653
53	0xbc34b2ec	-0.011028986
54	0xbfe6be96	-1.8026912
55	0xbddf7d36	-0.10912554
56	0x3e2e47e9	0.17019619
57	0xbe02cb08	-0.12772763
58	0x3b362010	0.0027790107
59	0xbcac32b2	-0.021020267
60	0x3df07777	0.11741536
61	0x3d7fbaf6	0.06243416
62	0x3d6b7ce9	0.05749217
63	0xbde089d6	-0.1096379
64	0x3e36e812	0.17861965
65	0x3d68d0c1	0.05683971
66	0x3c816df1	0.015799494
67	0xbb43afa1	-0.0029859322
68	0xbc744068	-0.014907934
69	0x3ad15cc3	0.001597308
70	0xbe2b5530	-0.16731715
71	0x3d6b3f83	0.057433616
72	0xbd84c721	-0.06483293
73	0x3d120228	0.035646588
74	0xbd548f1e	-0.0518943
75	0xbe3080e8	-0.17236674
76	0x3c87af41	0.01656306
77	0xbf231071	-0.6369696
78	0xbe485553	-0.19563799
79	0x3eb1e10c	0.3474201
80	0xbd8a92a1	-0.067662485
81	0xbb0cda8a	-0.0021492564
82	0x3cc59309	0.024117963
83	0x3cb3ef3c	0.021964662
84	0x3b894110	0.0041886643
85	0xbe47178d	-0.19442578
86	0x3f0125a6	0.5044807
87	0x3e4bdfb0	0.19909549
88	0x3d2f56ef	0.042807516
89	0x3e7a11fa	0.2442092
90	0x3e83ec8e	0.25766414
91	0x3e7071ae	0.23480865
92	0x3d20b150	0.0392316
93	0x3ed0ffd1	0.40820172
94	0xbd99e734	-0.075148016
95	0xbddb93c3	-0.10721543
96	0xbe02fcef	-0.12791799
97	0xbd6883e3	-0.056766402
98	0xbce51239	-0.02796279
99	0x3f68977a	0.90856135
100	0xbdf0bf89	-0.117552824
101	0xbdd305ae	-0.10303818
102	0xbcbe876d	-0.023257935
103	0x3ed3f944	0.41401112
104	0xbdb567d2	-0.08857693
105	0x3f463d3d	0.7743719
106	0x3b4c74c8	0.0031197537
107	0x3cc853af	0.024453966
108	0x3dc61e0f	0.09673702
109	0xbdbcc4f6	-0.09217255
110	0xbd891c01	-0.066947944
111	0xbd263978	-0.04058215
112	0xbdbc1949	-0.0918451
113	0xbdfa5a92	-0.12224306
114	0xbe1837b2	-0.14864996
115	0xbd0440bb	-0.032288294
116	0xbe3813f7	-0.17976366
117	0xbe3b33cc	-0.18281478
118	0xbd9b4325	-0.07581166
119	0x3de587ec	0.11207566
120	0xbc42a478	-0.011880033
121	0x3dad2494	0.08454242
122	0x3db82995	0.08992306
123	0xbdfecac8	-0.12441021
124	0x3efa57c4	0.48895085
125	0x3e2dfd11	0.16991068
126	0x3d78bcb7	0.060726847
127	0xbcd4a0e1	-0.02595562
128	0xbd9c4b3d	-0.07631538
129	0xbe6873d8	-0.22700441
130	0xbcb01ace	-0.021497156
131	0x3dc4e14c	0.096132845
132	0x3eadd52a	0.33951694
133	0x3d9fcd6c	0.07802853
134	0xbf3fc709	-0.7491308
135	0x3e3ec185	0.1862851
136	0x3df376c6	0.118878886
137	0xbd06a5ae	-0.03287285
138	0x3dcbf254	0.0995833
139	0x3daa1570	0.0830487
140	0x3d090811	0.03345496
141	0xbec5f8f7	-0.38666508
142	0xbdf51868	-0.11967546
143	0x3e78cedf	0.24297665
144	0x3ea66a01	0.3250275
145	0xbd7c3088	-0.06156972
146	0x3d6b0790	0.05738026
147	0x3e6cfc50	0.23143125
148	0x3d9a538a	0.07535465
149	0x3f06e2e8	0.5268998
150	0xbdb990c4	-0.09060815
151	0xbde62feb	-0.112396084
152	0x3db2e702	0.087354675
153	0xbd113e42	-0.035459764
154	0x3ebe2980	0.37141037
155	0xbcff0957	-0.031132383
156	0x3e188d5c	0.14897674
157	0xbec25133	-0.37952575
158	0x3cbd92c8	0.02314128
159	0x3dcbc2b3	0.09949245
160	0xbcce1f3e	-0.025161382
161	0xbd237d18	-0.03991422
162	0x3d93b75c	0.072127074
163	0x3d132df1	0.035932485
164	0x3ec96d16	0.39341038
165	0x3bbb2a32	0.005711817
166	0xbf444c41	-0.76678854
167	0xbe6b2db7	-0.22966658
168	0x3e8d0e0a	0.27549773
169	0x3e5dcc8f	0.21660064
170	0xbf09ace3	-0.5377943
171	0x3d07dc95	0.033169348
172	0xbcb41722	-0.021983687
173	0xbadaa109	-0.0016680072
174	0xbdf70d07	-0.12063032
175	0x3cffd676	0.031230193
176	0xbe9348f6	-0.28766602
177	0xbde03003	-0.109466575
178	0x3e9e8169	0.30958107
179	0xbe614f04	-0.22002798
180	0xbc580083	-0.013183716
181	0x3db5db44	0.08879712
182	0xbdd20b00	-0.10256004
183	0xbc3457f4	-0.011007298
184	0xbf0b44c3	-0.544018
185	0x3c7c3366	0.015393114
186	0xbe614886	-0.22000322
187	0xbe6571be	-0.2240667
188	0xbda03a8e	-0.078236684
189	0x3e2a7d67	0.166494
190	0xbeb92c51	-0.36166623
191	0x3e70e915	0.23526414
192	0x3de0a3c7	0.10968738
193	0x3e5fecd6	0.2186769
194	0xbe0fde9e	-0.14049765
195	0x3e957751	0.29192594
196	0x3d5a54b0	0.05330342
197	0x3e83f6ea	0.25774318
198	0xbecf23f9	-0.40457132
199	0x3f032dc3	0.512417
200	0xbd669a90	-0.056299746
201	0xbe457218	-0.19281805
202	0x3e2890f8	0.16461551
203	0xbe31adb3	-0.17351417
204	0x3daa39a3	0.083117746
205	0xbe421a25	-0.18955286
206	0x3cff3659	0.031153845
207	0x3dfbb475	0.12290279
208	0xbeb3ab5f	-0.35091683
209	0x3d450a81	0.04810572
210	0xbe6e667a	-0.23281279
211	0xbe21a043	-0.15783791
212	0x3e860c4e	0.26181263
213	0x3dbac564	0.091196805
214	0x3d4a4534	0.049382403
215	0xbcc997b5	-0.024608472
216	0xbcbe3f13	-0.023223436
217	0x3f48ea78	0.7848277
218	0xbce34859	-0.027744459
219	0x3d61f580	0.055165768
220	0x3ce3965c	0.027781658
221	0x3dd912e4	0.10599306
222	0xbccb8b68	-0.024846748
223	0xbe9976d3	-0.29973468
224	0x3c35656d	0.011071545
225	0xbc091587	-0.008366949
226	0x3dac9898	0.084275424
227	0xbddd6e55	-0.1081206
228	0x3d8d6ec3	0.06905892
229	0x3f4237b6	0.7586626
230	0xbc0a4f76	-0.0084417965
231	0x3c3e49b2	0.01161425
232	0xbdbd2f20	-0.09237504
233	0x3dbed180	0.09317303
234	0xbb9b5a70	-0.0047410056
235	0xbef0b31d	-0.47011653
236	0x3b60ed57	0.0034321153
237	0x3f47491f	0.7784595
238	0xbeccb982	-0.3998528
239	0x3e4c32ca	0.1994125
240	0xbc8ed861	-0.017437162
241	0xbe7da17c	-0.24768633
242	0xbe1a49ab	-0.15067165
243	0xbe71eec1	-0.23626234
244	0x3df13452	0.117775574
245	0x3d9a478f	0.0753318
246	0x3e28dd7b	0.16490738
247	0xbd94f760	-0.072737455
248	0xbd8077ed	-0.06272874
249	0xbd9a6a28	-0.07539779
250	0x3edf922f	0.43666217
251	0x3e95dc00	0.2926941
252	0xbd6475ee	-0.05577653
253	0xbde231ba	-0.11044641
254	0x3e931c55	0.28732553
255	0x3eae3936	0.34028023

net.2.bias f4 [256]
0	0xbdcd8f35	-0.1003708
1	0xbc0f3a05	-0.00874186
2	0x3e0bb722	0.13644078
3	0xbdb02397	-0.08600538
4	0xbca3aa64	-0.01997871
5	0x3e0a52fc	0.13508219
6	0xbd1bfc2d	-0.03808229
7	0x3e01ad76	0.12663826
8	0x3d1c2a8c	0.038126513
9	0x3e1a6859	0.15078868
10	0x3d80ec38	0.06295055
11	0x3af98968	0.0019038143
12	0xbda6197a	-0.08110328
13	0x3d776bf5	0.06040569
14	0xbd6890b4	-0.056778625
15	0xbc4ec737	-0.012620739
16	0xbd3ed9cb	-0.046594422
17	0xbd47f1ad	-0.048814464
18	0x3d138702	0.036017425
19	0x3dbd0df0	0.09231174
20	0xbd861a83	-0.065480255
21	0x3ce0054d	0.027346278
22	0xbd61f697	-0.055166807
23	0xbd3a083b	-0.045418005
24	0xbbd2692e	-0.00642123
25	0x3e0d9276	0.13825402
26	0x3da2c3d2	0.07947506
27	0x3c89aad3	0.016805088
28	0x3d13329e	0.035936944
29	0x3d1fd442	0.039020784
30	0xbd36fc56	-0.04467424
31	0xbdadf5c7	-0.08494144
32	0x3d9ec018	0.07751483
33	0xbd93c4b2	-0.07215251
34	0xbe0a91cd	-0.13532181
35	0xbda871bb	-0.08224817
36	0xbd24033a	-0.04004214
37	0x3e04a409	0.129532
38	0x3e808031	0.25097802
39	0xbd262cb5	-0.04056998
40	0x3dd47a1f	0.10374855
41	0x3d91a925	0.0711234
42	0x3e063c55	0.13108952
43	0x3dcbb085	0.09945778
44	0x3dc602ed	0.09668527
45	0x3e2fa740	0.17153645
46	0x3e1186f3	0.14211635
47	0x3d29b3cf	0.041431244
48	0xbda8b709	-0.08238036
49	0xbe2c3f69	-0.16821064
50	0x3db949f5	0.09047309
51	0xbde43356	-0.11142604
52	0x3e1d8c23	0.15385489
53	0xbc12b385	-0.008953934
54	0xbe365779	-0.17806806
55	0x3d4eda68	0.050501257
56	0x3e5d4bf6	0.21611008
57	0xbdc939c6	-0.098254725
58	0xbd68a62f	-0.05679911
59	0xbd4dd2ee	-0.050249986
60	0x3d90ca23	0.070698045
61	0xbd42d002	-0.047561653
62	0x3d92b2c3	0.07163002
63	0x3d3077bf	0.04308295
64	0xbc9ee172	-0.01939461
65	0x3e0fbd20	0.14036989
66	0x3e1544aa	0.14576975
67	0x3d6733c1	0.05644584
68	0x3bf26ac6	0.0073979823
69	0x3da5682b	0.08076509
70	0x3dc1ec50	0.09468901
71	0x3e20935f	0.15681218
72	0xbdad4f93	-0.08462443
73	0xbe164714	-0.14675552
74	0x3e2122ea	0.15735975
75	0xbe16f6e5	-0.1474262
76	0xbd33edc7	-0.043927934
77	0xbb0b3bff	-0.0021245477
78	0x3c9372d8	0.017999098
79	0x3d2c77be	0.042106383
80	0x3dfda5a4	0.12385109
81	0xbd9d7dae	-0.07689987
82	0xbdce0a15	-0.10060517
83	0x3e1d5e86	0.15368089
84	0xbb34d79e	-0.0027594338
85	0x3dffcbf1	0.124900706
86	0x3d366d7c	0.044538006
87	0x3c773746	0.015088862
88	0xbd7652f7	-0.060137715
89	0xbc83f88a	-0.016109724
90	0x3dd823ea	0.10553725
91	0xba0a422e	-0.0005274144
92	0x3dfd7633	0.1237606
93	0xbc95db37	-0.018293006
94	0x3c57bd32	0.013167666
95	0xbe267a6e	-0.1625764
96	0xbd522094	-0.0513006
97	0x3c8d9612	0.017283473
98	0x3dc8e96b	0.09810146
99	0xbc91faa5	-0.017819712
100	0x3d4cf743	0.050040495
101	0xbd365ba8	-0.044521004
102	0xbce86954	-0.028370537
103	0x3e232fd2	0.15936211
104	0x3e196562	0.1498008
105	0xbddfad11	-0.10921682
106	0x3e32bafa	0.17454138
107	0x3d96b7fe	0.073593125
108	0x3dd2c785	0.102919616
109	0x3d30c1b3	0.043153476
110	0x3d0024d8	0.031285137
111	0x3d78e942	0.060769327
112	0x3c6ac955	0.014330228
113	0x3bdbb034	0.0067043547
114	0x3cd02ebb	0.025412908
115	0xbdf703f9	-0.120613046
116	0xbdc0ad49	-0.094080515
117	0x3e00a2d1	0.1256211
118	0xbc8c604a	-0.017135758
119	0xbdca3e6a	-0.09875186
120	0xbd49f336	-0.04930421
121	0x3c59c74a	0.013292143
122	0x3ce2abe1	0.027669849
123	0x3e0ea5ee	0.13930485
124	0x3e25d920	0.16196108
125	0x3b91479c	0.0044335853
126	0x3c96d515	0.018412152
127	0x3dce6b70	0.10079086
128	0x3d161f3d	0.036650885
129	0x3b7991d3	0.0038081303
130	0x3debed09	0.1151982
131	0x39fdedd7	0.00048433125
132	0x3d263c48	0.040584832
133	0x3d322440	0.043491602
134	0xbe4b7b6e	-0.19871303
135	0x3e377ea3	0.17919402
136	0x3badfb59	0.005309504
137	0xbc82b312	-0.015954528
138	0x3dc02a35	0.0938305
139	0x3c9fec42	0.019521836
140	0x3df1dd61	0.11809803
141	0x3b0dc95b	0.002163491
142	0x3e01a26b	0.12659614
143	0xbc8130cf	-0.015770344
144	0xbd8c613a	-0.06854482
145	0xbc80fa55	-0.015744368
146	0x3d0f064d	0.03491812
147	0x3aa38a86	0.0012477196
148	0xbd9846c6	-0.07435374
149	0xbda3b8c0	-0.07994223
150	0x3d35df42	0.04440237
151	0xbd724c61	-0.05915487
152	0xbe399a6e	-0.18125317
153	0x3e06d20c	0.13166064
154	0xbd7c5055	-0.061600048
155	0x3ca7befe	0.020476814
156	0x3df327f8	0.11872858
157	0x3be74fc5	0.00705907
158	0x3e0e7362	0.13911203
159	0x3dbdb2a8	0.092625916
160	0x3dc72668	0.09724122
161	0x3d606f18	0.054793447
162	0x3c520e53	0.012820798
163	0x3d440417	0.047855463
164	0x3cc5ff1b	0.024169495
165	0x3d90d555	0.0707194
166	0xbc878bb9	-0.016546117
167	0x3ca2bc0e	0.019865062
168	0x3e35ea88	0.17765248
169	0x3d69ac5b	0.057049137
170	0xbcc2f0b6	-0.02379642
171	0x3de7c63d	0.11317108
172	0x3e0f3886	0.13986406
173	0x3c39cd16	0.0113404
174	0xbd2f36f1	-0.042777006
175	0xbc0b6c02	-0.008509638
176	0x3d348a66	0.0440773
177	0x3d1eae6b	0.038740557
178	0x3d3de5ec	0.04636185
179	0x3d53d36c	0.0517153
180	0x3dc1de1e	0.094661936
181	0x3ce1d103	0.027565485
182	0xbd5f6632	-0.05454082
183	0x3dc9dd61	0.09856678
184	0x3da7ac34	0.08187142
185	0x3dbff26f	0.093724124
186	0x3d0ba1c6	0.034089826
187	0xbd9818b4	-0.07426587
188	0x3be9acdd	0.0071312026
189	0x3c031c09	0.00800229
190	0x3b111cc8	0.00221424
191	0x3d088edb	0.033339363
192	0xbdeadbb4	-0.11467686
193	0xbd0e9fda	-0.034820415
194	0x3d3368c9	0.043801103
195	0x3e400d09	0.18754973
196	0xbe2dac75	-0.16960318
197	0xbd1fdcab	-0.039028805
198	0x3d7a28f8	0.061074227
199	0x3e0d975e	0.13827273
200	0x3e0b4519	0.13600577
201	0xbd88331b	-0.066503726
202	0xbd8d9ffc	-0.0691528
203	0x3db05358	0.086096466
204	0x3e2ea5e1	0.17055465
205	0x3df41d1b	0.11919614
206	0xbd22eb63	-0.039775264
207	0x3e0b68cc	0.13614196
208	0x3d68ec9b	0.05686627
209	0xbcdf42b4	-0.027253486
210	0x3d52201f	0.051300164
211	0xbcea59f9	-0.028607355
212	0x3cd0903a	0.025459398
213	0x3e058969	0.13040699
214	0xbd99f5d0	-0.07517588
215	0x3c9fb9f8	0.019497856
216	0x3ceaa1ac	0.028641544
217	0xbd51fd69	-0.05126706
218	0xbd86f6a7	-0.06590014
219	0x3d5d8302	0.054080017
220	0xbc13f9ab	-0.009031693
221	0xbe244ea7	-0.16045628
222	0x3dc9928f	0.09842407
223	0x3e1fa87e	0.15591618
224	0x3ddc77b9	0.10765023
225	0x3dd37f65	0.10327033
226	0x3c1bce81	0.009509684
227	0xbd8f9538	-0.07010883
228	0x3e2853ed	0.16438265
229	0xbbd1745d	-0.0063920454
230	0xbccbb587	-0.024866832
231	0x3c932b49	0.017964976
232	0xbc5b0601	-0.013368131
233	0xbd4648a3	-0.048409116
234	0xbdfc33bd	-0.12314556
235	0xbd29aa03	-0.0414219
236	0xbda5a7d7	-0.080886535
237	0x3c0a864f	0.008454873
238	0x3e15855d	0.14601655
239	0x3d5122cb	0.05105857
240	0xbd48cdb1	-0.049024288
241	0x3cb3c2a1	0.021943392
242	0x3cb4ded3	0.022078907
243	0x3d57bc42	0.05266977
244	0x3c407485	0.01174653
245	0x3e3cea06	0.18448648
246	0xbd8383f7	-0.06421655
247	0x3db6c406	0.08924107
248	0x3d99d0f7	0.0751056
249	0xbd7c4d86	-0.06159737
250	0x3ca488c9	0.020084755
251	0xbd84e4e4	-0.0648897
252	0xbc7893ce	-0.015171958
253	0xbd9e3c7b	-0.077263795
254	0x3e33eaf5	0.17570098
255	0x3c19e7ae	0.009393616

net.4.weight f4 [4, 256]
0	0xbd593e92	-0.053038187
1	0xbea7c44d	-0.32766953
2	0xbf3be585	-0.73397094
3	0xbec7df40	-0.39037514
4	0xbed42b43	-0.41439256
5	0x3e9ee548	0.31034303
6	0x3f8cb608	1.0993052
7	0x3e52cd02	0.20586017
8	0xbd40cebe	-0.047072165
9	0x3ee96b8a	0.45589858
10	0xbedef421	-0.4354563
11	0xbeb80d50	-0.35947657
12	0x3ee2bceb	0.44284758
13	0xbeca50ec	-0.39514863
14	0xbeeba0a1	-0.46020988
15	0x3ed52dc9	0.41636494
16	0x3ec5fd85	0.38669983
17	0xbedd340f	-0.4320378
18	0xbea0c9b3	-0.31403884
19	0x3ede40e8	0.43408895
20	0x3ef771ef	0.48329112
21	0x3f02207e	0.5083083
22	0xbece22fc	-0.40261066
23	0x3f847f8e	1.0351427
24	0xbefbc584	-0.4917413
25	0xbe84f412	-0.2596746
26	0x3ecd3f4b	0.4008735
27	0xbedda3f6	-0.43289155
28	0xbe9e3ce5	-0.30905834
29	0xbee3edd5	-0.4451739
30	0xbd7c6a79	-0.061624978
31	0xbf4682e4	-0.77543473
32	0xbeda6a8b	-0.4265941
33	0x3ee5f2b8	0.44911742
34	0xbf834b29	-1.0257312
35	0x3ed7c811	0.42144826
36	0xbe9b1ccd	-0.3029541
37	0x3ee2f3c3	0.443266
38	0x3e4b1fa2	0.19836286
39	0xbef9ece9	-0.4881356
40	0x3f014afb	0.50505036
41	0x3e3f49c6	0.18680486
42	0x3f3b8398	0.7324767
43	0x3f0c2d6c	0.5475681
44	0x3eee4299	0.46535185
45	0x3ec4902e	0.3839125
46	0x3f008cf0	0.50215054
47	0xbe7d96e4	-0.24764591
48	0x3f297e80	0.6620865
49	0xbece68a4	-0.4031421
50	0x3f18399e	0.59462917
51	0x3eebfa0c	0.46089208
52	0xbe144e10	-0.14482903
53	0x3ee5c030	0.4487319
54	0xbf70e0ea	-0.9409319
55	0xbedf6444	-0.43631184
56	0xbe98b92c	-0.29828775
57	0xbf97d24f	-1.1861056
58	0xbf02cac4	-0.51090646
59	0x3d6d2d5d	0.05790459
60	0xbd415171	-0.04719681
61	0x3ea5d939	0.3239229
62	0xbeb2decd	-0.34935609
63	0xbf1822ce	-0.5942811
64	0x3cd25e22	0.025679652
65	0x3e9d5b8d	0.3073391
66	0x3f064eaa	0.5246378
67	0xbf54d469	-0.8313661
68	0xbee880d0	-0.45410776
69	0x3f230b2e	0.63688934
70	0x3ec31208	0.38099694
71	0x3eba1da3	0.36350736
72	0xbf02f5af	-0.51156133
73	0xbf809cc0	-1.0047836
74	0xbd491853	-0.049095463
75	0xbf2b29e7	-0.6686081
76	0xbe916eef	-0.28404948
77	0x3f366afb	0.7125699
78	0xbeb9b128	-0.36267972
79	0x3e4f7a0d	0.20261402
80	0x3ef7fac8	0.48433518
81	0xbf317e7d	-0.6933363
82	0xbed1cc0a	-0.40975982
83	0x3efe7745	0.4970037
84	0xbee18354	-0.44045508
85	0x3f0c0bdd	0.547056
86	0x3f2d161f	0.6761188
87	0xbedf0b07	-0.435631
88	0xbef9f5db	-0.48820385
89	0xbed57c28	-0.41696286
90	0x3e772e3b	0.2413873
91	0xbcc5463e	-0.024081346
92	0x3e53ef5d	0.20696779
93	0x3f8ecec5	1.1156851
94	0xbef5dbe3	-0.48019323
95	0xbf8c0431	-1.0938779
96	0xbeccdfd7	-0.40014526
97	0xbecd901b	-0.40149006
98	0x3f82429e	1.017658
99	0xbee7fb28	-0.45308805
100	0xbeda3afe	-0.42623132
101	0x3d5350da	0.051590778
102	0xbebbc551	-0.36673978
103	0x3e7cc66c	0.24685067
104	0x3e354fd0	0.17706227
105	0xbeb77579	-0.35831812
106	0x3eb767ad	0.35821286
107	0xbcf2e747	-0.029651297
108	0xbf54ffca	-0.83202803
109	0xbf09144b	-0.5354659
110	0xbedd3761	-0.43206313
111	0xbedd6740	-0.43242836
112	0x3eaa2fe7	0.33239672
113	0xbecadd52	-0.3962198
114	0xbe2ef15f	-0.17084263
115	0xbf448874	-0.7677071
116	0x3f256691	0.6460963
117	0x3ec218b2	0.37909466
118	0xbeab3602	-0.33439642
119	0xbea3d7e5	-0.32000652
120	0xbdd2f47c	-0.10300538
121	0xbee6aa4d	-0.45051804
122	0x3be8a9be	0.007100313
123	0x3e595e34	0.21227342
124	0x3f0ec7bc	0.5577352
125	0xbed86b96	-0.42269582
126	0xbef9ef67	-0.48815462
127	0x3eb9e6a2	0.3630877
128	0xbeb7a032	-0.35864407
129	0xbea18d23	-0.3155299
130	0x3efe049b	0.4961289
131	0x3f2ccf04	0.6750338
132	0x3e9871ed	0.29774418
133	0x3c6a39aa	0.014295975
134	0xbf414e27	-0.75509876
135	0x3edf6552	0.4363199
136	0xbeea5630	-0.4576888
137	0xbee68754	-0.45025122
138	0x3eafafcd	0.34313813
139	0x3ec9a27f	0.39381787
140	0x3f2bb91a	0.6707932
141	0xbeca2dac	-0.3948797
142	0x3e87b2c1	0.26503566
143	0x3ecef456	0.4042079
144	0xbf53d188	-0.82741594
145	0x3c8cd16b	0.017189702
146	0xbeb38743	-0.35064134
147	0xbee96dc5	-0.4559156
148	0x3ed28b0e	0.41121715
149	0x3ef8ea2e	0.48616165
150	0xbe843bc7	-0.25826856
151	0xbcff8fb1	-0.031196447
152	0xbf22f5d4	-0.63656354
153	0x3f16e902	0.5894929
154	0x3e55dcf9	0.20885076
155	0x3f6b72c4	0.91971993
156	0x3edfd99a	0.43720704
157	0x3f1bff11	0.60936075
158	0x3e843126	0.25818747
159	0x3e8b19f4	0.27168238
160	0x3e1fa925	0.15591867
161	0xbebdc639	-0.37065294
162	0x3ea40c38	0.32040572
163	0xbee3d874	-0.44501078
164	0xbf1a3c8b	-0.6024863
165	0xbee861fe	-0.45387262
166	0x3efc1092	0.49231392
167	0x3f7852ff	0.9700164
168	0x3f5c8be8	0.8615098
169	0x3ebdf9fc	0.37104785
170	0x3ec41e1c	0.38304222
171	0x3eb3dd48	0.35129762
172	0xbe0dbe7c	-0.13842195
173	0x3efea65a	0.4973629
174	0xbecc195d	-0.398631
175	0x3efba20c	0.4914707
176	0xbf4864d3	-0.78278846
177	0x3d21cc02	0.039501198
178	0xbefc9197	-0.49329826
179	0x3e8fd838	0.2809465
180	0x3f48aaab	0.7838542
181	0xbf24a95b	-0.64320916
182	0xbf0490ac	-0.5178325
183	0x3f14aa0f	0.5807199
184	0x3ecbc369	0.39797524
185	0xbe45cddf	-0.19316815
186	0x3ed74401	0.4204407
187	0xbe1553d2	-0.14582756
188	0xbec6ce26	-0.38829154
189	0xbeb6d5a1	-0.3570986
190	0xbe9eca03	-0.31013498
191	0xbed62271	-0.41823152
192	0xbe776c09	-0.24162306
193	0xbee983e0	-0.45608425
194	0xbf09fcf5	-0.53901607
195	0x3ecbd918	0.39814067
196	0x3be87b60	0.0070947856
197	0xbed1f79d	-0.41009226
198	0x3ed52098	0.4162643
199	0x3e65e733	0.22451477
200	0x3f06e2d6	0.52689874
201	0x3e9c96b8	0.3058374
202	0x3ed74a78	0.42049003
203	0x3ed22f61	0.41051772
204	0x3ee3a411	0.4446111
205	0x3e6e342d	0.23262091
206	0xbefcdaa2	-0.49385554
207	0x3eb4adfb	0.35288987
208	0x3f0e266d	0.55527383
209	0x3ecfcddb	0.40586743
210	0x3f21f243	0.6326029
211	0xbec19c47	-0.37814543
212	0xbebe9db9	-0.37229708
213	0x3e52f93d	0.2060289
214	0x3f3188cc	0.6934936
215	0xbedc92b1	-0.43080667
216	0xbe9e9b20	-0.30977726
217	0xbcea9374	-0.028634764
218	0xbed70301	-0.4199448
219	0xbec360ee	-0.3815989
220	0xbf0ed5ea	-0.55795157
221	0xbe89d657	-0.2692134
222	0x3effc690	0.4995618
223	0x3f1ddfb8	0.6166949
224	0x3e688895	0.22708352
225	0x3f1990dc	0.5998666
226	0xbf006646	-0.50156057
227	0xbeb5e191	-0.35523656
228	0x3eceffd4	0.40429556
229	0xbedc8946	-0.4307348
230	0xbee6f2fd	-0.4510726
231	0xbed1d6b3	-0.40984115
232	0xbe942dee	-0.28941292
233	0xbf039ed2	-0.51414216
234	0xbed182da	-0.40920144
235	0xbefa22e2	-0.48854738
236	0xbe9ca76b	-0.3059648
237	0xbf060f40	-0.5236702
238	0x3ea31dd9	0.3185871
239	0xbc8ffcca	-0.017576594
240	0x3eec5262	0.46156603
241	0xbf021684	-0.50815606
242	0x3ee220f9	0.4416578
243	0xbf025443	-0.50909823
244	0xbef7867e	-0.48344797
245	0x3efa818c	0.4892696
246	0x3f36bf9f	0.7138614
247	0x3ecff072	0.40613133
248	0xbf17e069	-0.593268
249	0xbeb9915c	-0.36243713
250	0x3f059de6	0.5219406
251	0xbee6bf9e	-0.45068067
252	0xbe6c4a56	-0.23075232
253	0xbebe3f91	-0.37157872
254	0xbe3e21b0	-0.18567538
255	0x3f88d134	1.0688844

net.4.bias f4 [4]
0	0xbc7561a3	-0.014976892
1	0x3d9f62e3	0.07782533
2	0x3d334fd3	0.0437773
3	0xbcfb0d93	-0.030646121
