drafts/draft_02/runs_lunarlander/dqn_trial06_seed42.pth (torch, 279705 bytes, 6 tensors)

net.0.weight f4 [256, 8]
00000000: cb20 cb3c 39ce cf3d 5719 9b3b 805d b93f
00000010: 07cf 3cbe 5ce4 8d3d 12a9 62bc ae83 9c3d
00000020: 8901 453f 9bb0 fbbd 6e01 213f 8dcd 5c3c
00000030: 92eb 093e a258 3c3e e582 413e 877b 1e3c
00000040: 6937 043f b737 13be 621e 0fbf f437 bb3e
00000050: fd47 8c3d 402b a9bd e796 a7bd 026b 2f3e
00000060: 8e16 86be fe72 43be d02d 12be 8a08 e4be
00000070: c45b d03e ea19 a0be 6f67 af3e fb9b 29be
00000080: 25bc 923d fea0 273e 7949 89bd ebdc 943e
00000090: 78cb 8a3d 0a3c 0b3f ae63 93bd 84d4 2abf
000000a0: cf16 a23d f69b bcbe 7692 a33e 7f35 b43e
000000b0: aa3b eebe 3fc0 8abe e01c 1e3e 953a 95be
000000c0: 7732 b83d 7314 76be 0c73 fcbd 4531 07bf
000000d0: 11e0 2a3c 32ab 083f 2142 9e3d 5a9f 4c3e
000000e0: 2846 9fbd 23ae 69bd 604a 563e b813 c2be
000000f0: fb55 a1be 8de3 4ebf 9dc1 35be b537 c0be
00000100: 1d9e b1bd e1be efbd 51a0 8e3e f7af 3fbd
00000110: 4670 f1be ec8b 10bf 41a0 ca3e 870f 833e
00000120: 3e81 023f 1ef1 95be ee4f b4be 9830 0dbf
00000130: abe4 9fbe b42b 133e a390 313e 90f5 b63e
00000140: 0137 c8be bce9 10be c663 3f3d c1f0 f4be
00000150: 1356 5c3d 51d8 913d 5dfe a03e a8d4 20bf
00000160: adea e33d a8bb 0cbe 5cc5 273e b5dc 55be
00000170: f5c9 923e 5bfb 053f 316c 23bf c88d 83be
00000180: a40f 003f 4487 f8bd 85e7 803d bbcc ffbe
00000190: 344e 9fbe 540b bc3b 6c78 f4be 1318 babe
000001a0: b652 1c3d a749 30bd d729 85be 1318 05bf
000001b0: 1c87 61bc 3852 babe 43ba be3e 77fa d33d
000001c0: f968 2e3d 4e23 22be 65ad 2cbe ad51 25bf
000001d0: c48e 843d a868 afbd 27f1 9fbe 4e4a c2be
000001e0: 2852 af3d 30a3 6abe defa b53c a303 b0be
000001f0: 53c5 83be f846 17bf 37e6 3cbf 286b f6bc
00000200: dee0 513e ded9 18be 1d13 903e ae7e 073e
00000210: 5685 5ebf c771 353e 646b 22bd 71b5 4f3d
00000220: 54a5 bebe b100 8cbe 31b7 5d3d 68df bebe
00000230: 0e03 703e be09 b2be 8b49 b63e 1665 41be
00000240: 9126 65bd 32d3 903d 4fb5 863d 4b2e ce3e
00000250: 930e 043f dfd8 12bf d3ca 6b3e 0b5c a6be
00000260: 1fc3 8abc 4a47 46be d77b 3f3c 5c24 3fbf
00000270: a80e 02be d539 363e e443 933d 7c71 1cbf
00000280: f745 063f 0467 3b3e a30e 2e3e 1a73 08bf
00000290: c11d 8f3e ccf0 a9bd 5825 45be 613d 923e
000002a0: 995d 56bd a0c1 3dbe 9e05 c7bd 8c70 d3bd
000002b0: d2e2 d33e bd2a a93e 384d 9abe 8318 0bbf
000002c0: fbb2 f1be 7302 a53e 84bc 093f b832 eabe
000002d0: db54 35be 6bf4 e03e d861 febb 09f3 b63a
000002e0: 79c3 853e d5d5 a53e d48f 343e b67a 4abe
000002f0: 1006 4bbe e612 3abe 98f7 eabd d96e 26be
00000300: be36 ba3e 0d7d ce3e eceb 8d3b a3d3 23bc
00000310: 4563 0abf 3122 7abe c427 13bd c852 3b3e
00000320: aa4d b3be acc9 bd3c 3eca e43c d8fc 9d3e
00000330: d8ca 333e 8f6b c3be 92ca 24bf 3473 5ebe
00000340: 20b2 b03c 9f29 823e 5d94 b93d 39a1 9b3e
00000350: fd8b b2be 841e f3be 84af 72bd c15b fc3e
00000360: ea52 583c 2d4a afbb 0a37 833c b399 9d3b
00000370: 4463 8dbf 121b 0f3e aa45 3abf 2ee5 a6bd
00000380: 6b3a d3bd 8839 8e3e e436 043e 374f ac3e
00000390: b4f2 99be 223f 1cbf f67e a6be 3496 ef3e
000003a0: d319 093e 7911 c33e 01bb 373c 9682 763e
000003b0: a4bc ffbe 909d f6be 7886 2ebf a262 d8be
000003c0: c561 dd3d a87f 1c3d c351 f13b 749f 66bf
000003d0: e843 a63e 3e90 c4be 499f 8ebf d51e 8d3d
000003e0: 23b4 85bd ae92 b53e 7144 96bd 6830 c0be
000003f0: 9c56 d23d afb9 cbbe 7dcb a0be 271e 3abf
0.02479591 0.10146756 0.0047332454 1.4481659 -0.1843835 0.06928322 -0.013834255 0.076423034
0.7695547 -0.12289544 0.62892807 0.0134767415 0.13468769 0.18393186 0.18897589 0.009673006
0.5164705 -0.14376722 -0.55905735 0.36566126 0.06849668 -0.082602024 -0.08183079 0.17130664
-0.26189083 -0.19086835 -0.14275289 -0.44537765 0.40695012 -0.3126977 0.342586 -0.16563408
0.07164792 0.16370007 -0.06703467 0.29074797 0.0677709 0.5438849 -0.07196747 -0.66730523
0.07914507 -0.3683774 0.31947678 0.35197064 -0.46529895 -0.27099797 0.15440702 -0.29146257
0.089940004 -0.24031238 -0.12326631 -0.52809554 0.010429398 0.53386223 0.07727457 0.19982663
-0.07777053 -0.057050835 0.2092681 -0.3790567 -0.3151091 -0.80815965 -0.17749639 -0.375425
-0.08672736 -0.11706329 0.27856687 -0.046798673 -0.4715597 -0.56463504 0.3957539 0.25597784
0.5097846 -0.2928552 -0.35217232 -0.55152273 -0.31229147 0.1437214 0.17340331 0.35734224
-0.39104465 -0.14151663 0.04672601 -0.4783993 0.053793024 0.07121337 0.31444064 -0.6282449
0.11128745 -0.1374346 0.1638388 -0.20884974 0.28669706 0.52336663 -0.6383696 -0.25694108
0.50023866 -0.12135175 0.06294159 -0.49960884 -0.31114352 0.005738655 -0.47748125 -0.36346492
0.038164817 -0.04303899 -0.26008484 -0.5198986 -0.013765123 -0.36390853 0.3725148 0.10350507
0.04258058 -0.1583378 -0.1686302 -0.6457775 0.06472543 -0.085648835 -0.31238672 -0.37947315
0.08560592 -0.22913814 0.02221435 -0.34377775 -0.25736484 -0.59092665 -0.7378878 -0.030080393
0.20495936 -0.1492686 0.28139582 0.13231918 -0.86922204 0.17719184 -0.039653197 0.050710145
-0.3723551 -0.27344278 0.054129783 -0.3727982 0.23438665 -0.34773058 0.35602984 -0.18886217
-0.055944983 0.07071532 0.065775506 0.40269694 0.5158474 -0.5736217 0.2302659 -0.32492098
-0.016938744 -0.19363132 0.011687241 -0.74664855 -0.12700903 0.17795499 0.071906835 -0.61110663
0.5245051 0.18301016 0.16997771 -0.5330063 0.27952388 -0.082978815 -0.19252527 0.28562453
-0.052335355 -0.18530893 -0.09717868 -0.10324201 0.41383988 0.3304042 -0.30137038 -0.54334277
-0.47206864 0.3222843 0.53803277 -0.4574182 -0.17708151 0.43936476 -0.0077631287 0.0013957928
0.26125696 0.32389703 0.17632991 -0.19773373 -0.19826531 -0.18171272 -0.11473006 -0.16253223
0.3636989 0.4032978 0.0043311026 -0.009999189 -0.54057723 -0.24427105 -0.035926595 0.18293297
-0.3502019 0.023167454 0.027928468 0.30856967 0.17557847 -0.38167998 -0.643716 -0.21723634
0.021569312 0.2542238 0.09061501 0.3039644 -0.34872428 -0.4748422 -0.059249416 0.49288753
0.013203362 -0.0053494186 0.016017456 0.004809582 -1.1045918 0.1397517 -0.7276255 -0.08149181
-0.10313877 0.27778268 0.12911564 0.33654186 -0.3006798 -0.61033833 -0.32518739 0.46794283
0.13388757 0.38099268 0.011214019 0.24073252 -0.4994861 -0.48167086 -0.68173933 -0.4226275
0.10809664 0.03820768 0.007364483 -0.90087056 0.32473683 -0.38391298 -1.114236 0.06890646
-0.06528499 0.3546347 -0.07337273 -0.3753693 0.10270426 -0.39790103 -0.3140525 -0.7270226

net.0.bias f4 [256]
00000000: 4639 853d 226b 0f3c 2741 4dbe 85fa 863e
00000010: a89b 6e3e c16f b9be fae7 84be fb40 50be
00000020: 25f7 e1bc 72b6 763e e4b3 82bc 00c3 b4be
00000030: 29e6 ed3d 46c5 df3d c80e 873e 54b9 a1be
00000040: 875a c23e 012e 803e 5cda a93e b504 56be
00000050: 6484 823e f6bb e23d 01da 9c3d 9430 b03e
00000060: d7dc ccbe 7ae5 953e f8a1 563e 791b fb3b
00000070: 6ddf 713e 6fc5 0c3e 912a 573e a5b4 b33e
00000080: 3125 38bd 7876 c03e 59a9 cd3c d228 55be
00000090: 02da f8bc dd1b e53e e16c 243a de91 a5be
000000a0: 4b02 943e cebb fdbd 6a57 993e c877 ffbd
000000b0: c619 683e 8eab 963e 4022 83bc 16e3 ecbd
000000c0: 1108 bc3e 6aad e93d 4758 32bd 42c0 98be
000000d0: 4e7c d73e 4e60 b93d e8ab 873e 8a61 59be
000000e0: 37db 2dbe deaf 9b3e cccb ecbd c7e4 a03e
000000f0: 7d7f 093d 8ab9 55bc 1857 ba3e c95d fb3d
00000100: e76d fb3d d3e9 613e a176 fc3e 229b 19be
00000110: 5049 af3e 9c35 c63e b191 723e e98f 6f3e
00000120: 8a13 873e 5add 503e d4df ed3e 897a e53e
00000130: e7cc 8a3e 6dfc b83a 5f3b f23e 0a7c debe
00000140: beb2 cb3e 8426 ad3e 3a2d a33e 5072 92bc
00000150: c860 8cbe f1a5 053f 9272 25be 3676 b53e
00000160: 7c6a 9c3e bea3 a7be ad89 6a3e 6f52 52be
00000170: 0013 a03e 3c71 a6be e729 b13e 6d45 dc3e
00000180: 81f5 cb3e fe35 023f 5519 953e cb33 90be
00000190: 680f fb3e b968 643e 2c77 4c3e 46f0 45be
000001a0: 3154 953d 88a9 00bd 9ff6 013f 2069 ae3e
000001b0: 1777 ea3e a5f6 d23e 1081 5bbd 49c6 633d
000001c0: c3a0 49be 8406 10be 8bcc c23e c59f 993e
000001d0: b102 9f3e a7f9 813e 6b60 1dbe bc71 84bd
000001e0: 7740 0a3f 355d 623e d934 733e c351 3cbc
000001f0: 596a c3bd b3e1 6abc 0f34 a03e 3424 673d
00000200: 82d9 103e 3e12 a33e b6af 08be 78e7 8a3e
00000210: 08b6 0dbe 630c 583e f772 c8bd 2efa 8ebe
00000220: cde9 993e fe81 6c3e 55ab 20be 26c9 f63e
00000230: 4505 fd3b 9117 d3be 959a d6bd a119 bdbe
00000240: 4469 7a3d 50a4 98bd 6d1f b93e 5ef5 35be
00000250: 17c8 1f3e 1094 043e 089b 483e 64e9 fb3e
00000260: 7496 7f3e 4d16 14be 823c b1be 0c87 9ebc
00000270: 060a b9bd 3132 9c3e 991b c0bb f428 b93e
00000280: fd03 a63e d013 83bc 406c 2d3e ab7f 373e
00000290: 7ec6 7bbe 3a1d fb3e a456 3fbe 91fc 1b3e
000002a0: a5b1 68be f830 c5be b4c9 21bd bed4 883e
000002b0: af56 ab3e fbea 993c 5f39 63bc e5bf 503e
000002c0: d652 59bd e9c6 d23d 3530 f7bd 8cfe 1c3f
000002d0: 4fa5 c33e 759b cdbe fde7 65bd 9e70 df3b
000002e0: 2916 133e db1c 28be 1187 5b3e 645c 5bbe
000002f0: 4cf4 093f 8bd3 c53e e821 70be 8090 8bbe
00000300: b07e 77bd f8b3 f93c 4b15 613e c143 5ebe
00000310: c486 2b3e 785c b8be 9c79 1dbe 6d58 98be
00000320: 3b6d 103f ee43 183d e11c 4cbe 738b 96bd
00000330: 2650 82bd aec4 cbbe 3a3a 313e bad7 683e
00000340: 003c 903e 57f6 80bd b9df 853a a3e0 efbe
00000350: bc72 93be 1a6c 94bc c988 e63e 1b47 85bd
00000360: 785e 8f3e bdf3 353e 768b 0dbd b8fa 9cbe
00000370: afbd 033f 0506 fb3e f842 713d 1206 963e
00000380: 862a ee3e a8e0 6e3e 892a 733e 7d68 9dbe
00000390: 635c 97be cfb0 3abe c59e 6b3e c6e3 72be
000003a0: fbe9 8abd d4c3 aa3c 5843 9fbe 3ec8 d83d
000003b0: 5125 a03e ae9b bcbe c980 be3e 0786 e1bd
000003c0: 7cfc ffbd c2d5 c23e 3f75 c63e efe4 cabc
000003d0: c59f 28be bf18 b6bd 8a0e 143e 4735 4b3e
000003e0: b2f6 943e f673 9dbe 0d3e a2be 7b28 a1be
000003f0: 5159 1c3a df01 063c a4f2 cfbd b4bd 53be
0.06505065 0.00875357 -0.20044385 0.26363006 0.23301566 -0.36218074 -0.25958234 -0.20337288
-0.027583668 0.24093035 -0.01595492 -0.35305023 0.11616165 0.10926299 0.26378465 -0.31586707
0.37959692 0.25035098 0.33174407 -0.20900233 0.2549163 0.11071007 0.076587684 0.34412062
-0.40012237 0.2927664 0.20960224 0.007663187 0.23620386 0.1374719 0.21012332 0.35098758
-0.044957343 0.37590384 0.025105165 -0.20816353 -0.030377392 0.4474782 0.0006272328 -0.3233785
0.28908 -0.123893365 0.29949504 -0.12474018 0.22666082 0.2942776 -0.016007543 -0.11566751
0.36724904 0.11410029 -0.04354122 -0.2983418 0.42087024 0.09051572 0.26498342 -0.21228614
-0.16978155 0.30407614 -0.11562309 0.31424543 0.033568848 -0.013044724 0.36394572 0.122737475
0.122768216 0.22061853 0.49309257 -0.15000585 0.3423562 0.38712776 0.2368839 0.23394741
0.26382095 0.20396939 0.4645983 0.4482005 0.27109453 0.0014113315 0.47310922 -0.4345401
0.39784807 0.33818448 0.31870443 -0.017876774 -0.27417588 0.5220633 -0.16156986 0.3544175
0.3054999 -0.32742113 0.22904082 -0.20539258 0.31264496 -0.32508266 0.3460228 0.43021718
0.39835742 0.50863636 0.2912089 -0.28164515 0.49035192 0.22305574 0.19967335 -0.19329938
0.07291449 -0.031411678 0.5076694 0.3406458 0.45793983 0.412038 -0.05358988 0.05560902
-0.19690232 -0.14064986 0.3804668 0.30004707 0.3105674 0.25385782 -0.15368812 -0.064670056
0.54004616 0.22105868 0.23750629 -0.011494103 -0.095417686 -0.014336037 0.31289718 0.05643101
0.14145473 0.31849855 -0.13348278 0.27129722 -0.1383897 0.21098475 -0.09787553 -0.27925247
0.30061188 0.23096463 -0.15690358 0.4820034 0.0077215754 -0.41228917 -0.10478703 -0.36933616
0.061135545 -0.07453215 0.36156788 -0.17769381 0.15603672 0.12947106 0.1959039 0.492015
0.24959737 -0.14461632 -0.34616476 -0.019351505 -0.09035115 0.30507043 -0.005862665 0.36164057
0.32424918 -0.016000658 0.16935825 0.17919795 -0.24587438 0.49045736 -0.18685395 0.15233065
-0.22724016 -0.38513923 -0.039499 0.2672481 0.33464572 0.018788805 -0.013868659 0.20385702
-0.053057514 0.10291845 -0.12069742 0.6132591 0.38212058 -0.40157667 -0.056129444 0.006818845
0.14363922 -0.16417257 0.21438242 -0.21421963 0.5388839 0.38637957 -0.23450434 -0.27258682
-0.060423553 0.030481324 0.21980779 -0.21705534 0.16750628 -0.36008048 -0.15378422 -0.29754964
0.5641667 0.037174158 -0.19932891 -0.073508166 -0.06362943 -0.39798492 0.17307368 0.22738543
0.28170776 -0.062969856 0.0010213769 -0.46851072 -0.28798473 -0.018117953 0.45026234 -0.06507703
0.2800176 0.1776876 -0.03455683 -0.30660033 0.5146131 0.4902803 0.058901757 0.29301506
0.46516818 0.23327887 0.23746695 -0.3074378 -0.29562673 -0.1823151 0.23009785 -0.23719701
-0.067829095 0.020845331 -0.31106067 0.10585068 0.3127847 -0.36837524 0.3720763 -0.11011892
-0.124993294 0.3805371 0.38761327 -0.024767367 -0.16467197 -0.08891439 0.14458671 0.19844542
0.29094464 -0.30752534 -0.31687966 -0.31476197 0.0005964237 0.008179157 -0.10153702 -0.20677835

net.2.weight f4 [256, 256]
00000000: 949a 623e 1ef6 613e 117f 17bf 449e 82bd
00000010: cb02 e23d 1f82 093f 7087 a03e 1f8a 31be
00000020: 8456 113e 3ca5 213d 95a6 c83e 23f3 863e
00000030: bed1 c8bd 484e 0c3e 7def a13e 466b e23e
00000040: c381 d83c 9670 1c3e 6df6 79bd 1479 153f
00000050: df40 2dbd 9aee 8c3e 2fcd 5cbe 81e7 1dbd
00000060: 1ddd f5bc 8f56 c8ba 4845 243e d7d3 12bf
00000070: 5ae3 063d 6535 8bbb 7ff2 ba3d fa06 c6bd
00000080: 2c1f 713e f2b5 cfbd ec1c f1bc 377f f13e
00000090: af98 633e a0e1 9bbc c227 923d d5e6 1c3e
000000a0: dbd3 333e 126b 563e cf98 cbbd 86d6 313e
000000b0: 3498 97bb 324e 613e 48d0 0b3d 66e8 6dbe
000000c0: 1448 fe39 4990 f4bc aeba af3e 7111 aa3e
000000d0: 8d1e aebb dbc7 66bc faf8 923d 6b2f b5be
000000e0: 9633 d73e 0000 02be c70e 713e 7ef4 223e
000000f0: 91a0 493e 20b6 d73d fb7a 10bd 8f36 2cbd
00000100: 903d ffbd 2c27 d43c bd17 5d3d 8e9b c8be
00000110: 5eab c93c 7f28 0cbd c780 bcbd c89d 18ba
00000120: 4921 cdbd 6e61 353e 0a33 2abd 4723 c6bd
00000130: f854 c0bd a29f 45bf a70f eabc 5b4e 9a3e
00000140: b05a 4a3e a824 f33c f543 76bd 4fde 073e
00000150: eff1 04bf 5dcc 84bd edd2 a43e 5c35 6f3d
00000160: 15ea 283e 11e8 a33e 5628 af3d 5833 123e
00000170: c060 16bd 73f0 193f 6a26 8cbd 2503 b8bd
00000180: 52b7 1ebd f1c5 8dbd 534d 2a3e dc89 cd3e
00000190: dd73 5c3c 2dab 563e 9bdf 643e 60a1 b13e
000001a0: b5f7 423e 0033 113f 46e4 c7bd 097d be3d
000001b0: 58e4 4c3c fa61 26bd 2191 ea3d 7af7 9fbd
000001c0: f639 9a3e 8d4c 07be d5d0 cbbd b733 ed3d
000001d0: a3a4 5ebe b1c0 98bd 58db 9fbd 3e7f 95bd
000001e0: c485 c73d e067 133e c038 2c3e 25f4 853e
000001f0: f726 0a3f a246 be3e 2616 8dbc 2609 e13c
00000200: ef96 8abd 8ffd 6bbe 12a6 f43d b516 5a3e
00000210: e92d 493e 19d0 6b3e 7514 153f 7d7e 733e
00000220: 573d 163e ca08 e03d 0616 aebe 2164 53bd
00000230: f46a 54be a70f 7e3e a6e6 16be 4483 133f
00000240: 6231 5b3e 4757 1fbf d94f 733c 6c8d 72be
00000250: 83da 533e 7d9a c63e cc8f 64be 157e 96bd
00000260: fc37 13bd 0df3 8d3e eefe c33d 875c 843e
00000270: 5a0c 7dbd 9c83 cfbc 2873 9e3d 6c9b 833e
00000280: 7996 f03c 2c7a 90be 8048 b3bd 9f5f bbbd
00000290: 3693 8f3e aae8 85bd a4ba 553d 40eb 12be
000002a0: 7540 f63e 5450 803e 21e9 84be 0d28 913d
000002b0: bf1d 963d 9394 5e3e 4df6 9d3e b92c 093e
000002c0: 2cf8 51bf 970f 693e 76a0 6b3e 3ab6 19bc
000002d0: e373 fbbc e3dd 153f 1f89 f9bd 918d 2c3e
000002e0: 60e0 1d3e 35f3 3bbe 16bc f7bd ab64 e8be
000002f0: 9c63 033c b022 b03d eab0 f2be 69e9 f03b
00000300: 10e6 333e e75f 493e e4ba 1c3e c935 afbc
00000310: c2f0 5e3e 08af c73e e860 ab3d 158e ec3e
00000320: c385 f83a 348f 313e d117 e33d 7c13 043d
00000330: 987b e0bd c079 0d3f 873c 6a3e c204 5c3e
00000340: 1c09 ba3d 2063 8c3e 6932 fdbe f8a1 b33e
00000350: f064 76bd 0ff2 0b3e 636c 2e3c 0a43 e1bd
00000360: 2d6b d0bd 5bd9 253e b69b 5bbe 64ce 693e
00000370: ebde b23b d050 953c 7712 5c3e b0f4 ef3d
00000380: 668a a13c f277 683e 5aad d7bc 708b e23e
00000390: f828 cf3e 9ed1 e1be 236c 78bc b961 6f3e
000003a0: fef1 f7bd 1662 493e 216e dd3e 3004 cdbe
000003b0: 2b27 503e 8621 0e3f 3441 10be 2ec5 023f
000003c0: cd71 c63e 3d57 c3bd c4ba ffbd 0f5a 74bd
000003d0: 1224 ca3c 5904 9b3e 6cc5 0e3e aed6 03be
000003e0: 8198 ae3d 6845 0e3f 2de8 213f 86ca ed3e
000003f0: a5ef 913e 9592 1e3d d6c5 693e 454f b13e
0.2212928 0.22066543 -0.5917826 -0.06377843 0.11035689 0.53714174 0.3135333 -0.17337845
0.1419316 0.03946422 0.39189592 0.26357374 -0.0980563 0.13701737 0.31628028 0.44222468
0.026429063 0.15277323 -0.061026026 0.58387876 -0.042298194 0.2752579 -0.21562646 -0.038550857
-0.030012662 -0.0015284586 0.16042054 -0.5735449 0.032931663 -0.0042483085 0.09128284 -0.096692994
0.23547047 -0.10142125 -0.029432736 0.4716737 0.22226213 -0.019028485 0.071364895 0.1532243
0.17561285 0.20939282 -0.09941255 0.1736699 -0.0046262983 0.22002485 0.03413418 -0.23233184
0.00048500358 -0.029853957 0.34322113 0.33216432 -0.0053137005 -0.014085735 0.07176395 -0.3538774
0.42031544 -0.12695312 0.23540793 0.15913579 0.19690157 0.105327845 -0.035273533 -0.04204422
-0.12462914 0.025897585 0.053977717 -0.3918118 0.024617847 -0.034218308 -0.0920425 -0.0005821851
-0.10016114 0.17712948 -0.04155258 -0.09674697 -0.093912065 -0.77196705 -0.028571917 0.30137905
0.19761157 0.029680565 -0.060123403 0.13268398 -0.5193166 -0.06484292 0.32192174 0.058400497
0.16495545 0.3201299 0.08552615 0.14277399 -0.03671336 0.6013252 -0.068432644 -0.08984975
-0.038749047 -0.0692252 0.1663106 0.4014424 0.013455358 0.20963736 0.22350924 0.34693432
0.19039805 0.56718445 -0.097603366 0.09301192 0.012505613 -0.04062078 0.114534624 -0.07810874
0.30122346 -0.13212796 -0.09951941 0.115821294 -0.21742491 -0.07458628 -0.078055084 -0.0729966
0.09742311 0.14395094 0.16818523 0.2616283 0.53965706 0.37163264 -0.017222475 0.027470183
-0.067670695 -0.23045944 0.11945738 0.21297725 0.1964642 0.23028602 0.5823434 0.2377872
0.14671837 0.109391764 -0.34001178 -0.051609162 -0.20743924 0.24810658 -0.14736423 0.5762217
0.21405557 -0.6224255 0.01485058 -0.2368676 0.20688824 0.3878974 -0.22320479 -0.07348267
-0.035942063 0.27724496 0.09570108 0.25851843 -0.061779357 -0.02533131 0.07736808 0.25704515
0.029368626 -0.2821821 -0.08754063 -0.09149098 0.28042 -0.06538518 0.052179947 -0.14347553
0.48096052 0.25061285 -0.25959113 0.07087717 0.07329892 0.21736364 0.30851975 0.13395967
-0.82019305 0.22759853 0.2301043 -0.009381825 -0.030694908 0.585417 -0.12184357 0.16850878
0.15417624 -0.18354495 -0.120964214 -0.45389304 0.008019354 0.08600366 -0.474006 0.0073520434
0.1756823 0.1966549 0.15305668 -0.021387951 0.2177153 0.39000726 0.08368093 0.4620215
0.0018960763 0.17339784 0.11088527 0.032245144 -0.10961074 0.552639 0.22874652 0.2148619
0.09083769 0.27419376 -0.49452522 0.3508451 -0.060154855 0.13666557 0.010645959 -0.10999115
-0.10176692 0.16196196 -0.21446118 0.22832638 0.005458703 0.018227011 0.21491419 0.11716592
0.019719314 0.22702006 -0.026327778 0.44247007 0.40460944 -0.44105238 -0.015162501 0.23377122
-0.12106703 0.19666323 0.43248084 -0.40042257 0.20327441 0.555199 -0.14087373 0.5108212
0.38758698 -0.09538124 -0.124867946 -0.0596562 0.024675403 0.30276754 0.13942498 -0.12874863
0.085251816 0.55574656 0.632449 0.46443576 0.28503147 0.03871401 0.22829375 0.3463079

net.2.bias f4 [256]
00000000: 5611 3fbd c69a ce3c 87f9 9f3c bd7f b3bd
00000010: fef4 7a38 844b 473e 1d54 543d e7ec 3c3e
00000020: 5a23 113d 1046 fc3c 1126 293c f90d d4ba
00000030: 11a2 193c 73ca 213c d2fa 723c ed73 79bd
00000040: b756 81bd d0ae b0bd 4c70 9b3c 34fc a53d
00000050: 44c6 82bd bbca d43b 086f 4abd b4d8 923d
00000060: 13c5 6cbd 81c9 803d ddb0 dc3d e8d3 a1bc
00000070: 0d6a 983b 194e c0bb 6f22 24be 6219 84bd
00000080: a022 d43c 3e92 58bc 248b 1dbb 77e2 4fbd
00000090: e786 71bd 12c0 273e 6624 a5bd 1ea9 37bd
000000a0: b324 6b3d 30ae 0d3e f8c3 383e dcaa 993d
000000b0: bb1e 163e 6afe 423e d937 d33d d766 43be
000000c0: 2f8e 6ebc 1fe0 87bd e3b7 f73c 306d 7cbd
000000d0: c070 723d 51cd c83d 108a 96bd fb34 a23c
000000e0: c516 903d 1d4e e93c 2560 c7bd c80c 3abd
000000f0: a50c a93d 010c a9bd 3408 c03d 43e4 643b
00000100: d825 9dbc 8167 293e bf97 3e3e 18c3 3fbd
00000110: 09ee 03bd a99a 093e effa 373e 4f8a 623e
00000120: b815 6bbd 1765 aabd 26ce 3d3d e9d3 8cbd
00000130: 17a2 a1bd b65c 333e d9fa b0bc ada4 21bc
00000140: abe8 113e 9c2b ac3c b703 65be 2d32 2e3e
00000150: 2e2e e0bc cbf5 e13d 19c0 0b3e 9cc4 163b
00000160: b4c8 a7bd 9f5a 15bd 9cf2 2a3e 0068 afbc
00000170: 22a3 3a3e a261 8f3d 61e6 afbb a999 6bbd
00000180: d982 94bd c16c 3b3c c3a2 b83d 8eb4 22bd
00000190: d377 803d a85b 36bd d485 79bd 9819 653e
000001a0: 704b 5b3e 7743 eebc 7468 773e ed9f 38bd
000001b0: 8855 0d3c 8576 78be 8694 9ebc e568 2fbe
000001c0: fd06 913d e39c 27be 51c4 283b 1e45 1fbd
000001d0: cb66 65bd 29a9 453e 163e 4a3d 6635 c9bc
000001e0: fd72 9c3c 5251 2fbd 1c66 353c dad3 4d3e
000001f0: 7285 223e 0ee3 e53c 5c66 37ba 6a0c 2a3e
00000200: 52e7 0ebc 435d 43bc 798c 383e 0eb3 b53b
00000210: 10b8 b43d 0c9b 423c f782 89bd 195a 7f3e
00000220: c8a5 b6bc c562 1ebd d06f 1b3e db25 913d
00000230: 7362 213e 156f 9e3c b82a 3f3e 2cdf 9cbc
00000240: 1b57 aebc d6e2 ddbd 54c5 953c e2e3 36bd
00000250: 60bf b33c 08dc a1bd 40a0 9b3c 3684 9fbd
00000260: a291 d6bd 40e9 bd3d 111f 933d a846 083e
00000270: e11d ff3c 1162 123d 32a3 4b3e cdcb 213e
00000280: 3710 0c3e 8c8f d63c a8c7 2e3d bfa3 dc3c
00000290: ea03 c1bc 7a15 133c 9162 96bc d166 683c
000002a0: 248c 1dbd 5b10 a5bd bdb5 b1bd 73e8 8abd
000002b0: be94 223d 448a 403e b710 093d 2fec 4e3c
000002c0: ff1b 01bd df75 583e d7a2 56bb 8163 ea3d
000002d0: 0a3e 393e 26d6 0cbc 0a59 acbd 00df 3d3e
000002e0: a251 b7ba fefe c03c 0320 76bd d18d 63bd
000002f0: 6b17 b1bc 87d0 c0bb 996f 2ebc 5a2b 3ebc
00000300: 525f 1ebd cdff 87bd 795a bf3c 650d 5c3e
00000310: a870 59be 64ba 4bbd bf1e a83d d1f9 8bbb
00000320: cc5a e43d c954 01bd 10fe 0c3d dd2f e53c
00000330: f3a6 253e 26d2 3f3e c5cd b7bd 7258 4b3e
00000340: ff5d 26be e2c7 dcbc 2f22 ebbd 513c aa3a
00000350: 97d7 273e 4923 4b3e 8d0b 8bbd e4ce 37bc
00000360: 8afa 9a3d d3c7 47bd 5e57 b6bd 722f 913b
00000370: e833 39bc 3db4 aebd b3c6 713d 8c00 ef3d
00000380: 3138 353e 4a2c da3d 7aee 31bd 61b2 a2bd
00000390: 8beb f33d 4ca8 47bd 3b02 97bd ebb6 98bc
000003a0: 5130 213e 0614 a0bc 6cd8 bfbd 7bf4 8cbc
000003b0: a5e5 55bd 86cb 49bd 17ef 283e 6719 913d
000003c0: bd72 6a3d c154 febc 125f 6a3d b151 183c
000003d0: fc86 35bc ca0c 7e3e 30f4 763d 82e6 81bc
000003e0: e8b2 0a3d 69ef 7cbd 7ea3 0cbd 9c91 393c
000003f0: 87d0 3dbc 4eec a0bd 2f99 db3d 6790 9b3d
-0.046647392 0.025220286 0.019528164 -0.087645985 5.983281e-05 0.194624 0.05183803 0.18449746
0.035434105 0.030795127 0.010324017 -0.0016178481 0.009377019 0.009874928 0.014830308 -0.06090157
-0.06315368 -0.08627093 0.018974446 0.081047446 -0.063854724 0.006493894 -0.049422294 0.07170239
-0.057805132 0.06288434 0.107759215 -0.019754365 0.004651314 -0.005868685 -0.1602876 -0.06450154
0.025895417 -0.013218461 -0.0024039233 -0.050753083 -0.058966544 0.16381863 -0.08063583 -0.044839017
0.057408046 0.13835979 0.18043506 0.07503292 0.1466016 0.19042364 0.103133865 -0.19082199
-0.014560266 -0.066345446 0.030239051 -0.061627567 0.059189558 0.09804786 -0.07350552 0.019800654
0.07035593 0.02847963 -0.09735135 -0.045422345 0.08254365 -0.08254243 0.093765646 0.0034926094
-0.019183084 0.1654339 0.18612574 -0.046816915 -0.03220943 0.13437904 0.17966817 0.22123073
-0.05739376 -0.083200626 0.046339177 -0.06876356 -0.07892244 0.17515835 -0.021603988 -0.009865922
0.14248912 0.021016888 -0.22364698 0.17011328 -0.02736577 0.110332094 0.13647498 0.0023005372
-0.08192578 -0.036463376 0.1669411 -0.021411896 0.18226293 0.07001044 -0.0053680395 -0.05751959
-0.0725152 0.011439503 0.09015419 -0.03972297 0.06272855 -0.044521004 -0.060918644 0.22373044
0.21415496 -0.029084904 0.2416094 -0.045074392 0.008626349 -0.24263962 -0.01935793 -0.17129858
0.07081411 -0.16368441 0.002575178 -0.038884275 -0.056006234 0.1930281 0.049375616 -0.024561595
0.0190978 -0.042802162 0.011071708 0.20100346 0.15871218 0.02806237 -0.0006996149 0.16606298
-0.008722143 -0.011924091 0.18022336 0.0055450266 0.0882417 0.011877786 -0.06714433 0.24936713
-0.022295848 -0.038668413 0.15179372 0.070872985 0.15760212 0.019340077 0.1866864 -0.019149385
-0.02128177 -0.10834281 0.01828257 -0.04465092 0.02194184 -0.07903296 0.018997312 -0.07788889
-0.10476996 0.092730045 0.0718366 0.13308203 0.031142177 0.035738055 0.19886473 0.158004
0.1367806 0.026191495 0.042670876 0.026933549 -0.023561437 0.008977288 -0.018357547 0.01418467
-0.038463727 -0.0805976 -0.08677242 -0.067826174 0.039692633 0.18802744 0.033463206 0.012629553
-0.03152084 0.21138714 -0.0032750869 0.1144476 0.18090072 -0.008595979 -0.0841542 0.18542099
-0.001398612 0.02355909 -0.060089123 -0.05555517 -0.021617612 -0.0058842334 -0.010646724 -0.0116070155
-0.038665123 -0.06640587 0.02335857 0.21489485 -0.21234381 -0.049738303 0.08208989 -0.004271724
0.11150131 -0.031574998 0.03442198 0.027976925 0.16176967 0.18732509 -0.08974794 0.19857958
-0.16246794 -0.02695078 -0.114811294 0.0012987946 0.16390835 0.19837679 -0.067893125 -0.01121876
0.07567318 -0.04877455 -0.08903383 0.0044307048 -0.011303879 -0.085304715 0.059027385 0.11670026
0.17697217 0.10652979 -0.04344032 -0.07944179 0.11910161 -0.048744485 -0.07373472 -0.01864191
0.15741087 -0.019540798 -0.09367451 -0.017206421 -0.05222096 -0.04926636 0.16497456 0.07084923
0.05723833 -0.031046273 0.057219572 0.0092968205 -0.011079546 0.24809566 0.06029147 -0.015856985
0.033862025 -0.061751757 -0.034335606 0.01132622 -0.011585361 -0.078575715 0.10722577 0.07595902

net.4.weight f4 [4, 256]
00000000: 8295 86be 60a7 94be 8674 06bf 3fb9 bbbe
00000010: fb01 d0be bde7 973e b0a8 1f3f b5f9 4f3e
00000020: 39a9 46bd dc74 cb3e 0451 d6be edf9 b4be
00000030: e1ac c33e de0b d3be 7e6b debe 9f91 2a3f
00000040: 4718 0d3f ddf9 c1be 6b0d 99be f551 ec3e
00000050: 3219 0d3f eb1a f43e 7d73 bbbe 53bb 473f
00000060: 01b6 f8be 7b74 90be 2a97 953e 6a36 c4be
00000070: aad1 87be 5a4c f2be 88a6 55be 87b8 a3be
00000080: d6f8 cbbe a32d e43e 561e 05bf be84 d03e
00000090: 70af 4dbe f389 9a3e b834 05bf b8a8 eabe
000000a0: 9039 483f f2d3 f53e ecb4 8e3e 6e6d d93e
000000b0: 51c6 c93e 5426 953e aa16 053f 8fbf 0bbf
000000c0: db76 e03e 7c2f d0be 0c39 e13e 30fe df3e
000000d0: e2ad b3be 08ad 983e 5fc9 9cbe f3a9 4abe
000000e0: e4c9 77be 953c fabe f3a5 e4be 6dbf 663d
000000f0: 2381 2c3e ef17 bcbe f7c4 8ebe 2c8b 07bf
00000100: 481b d03c 90aa c33e 71cb 843e dd49 fbbe
00000110: 91aa dabe 136f 6b3e 0ee8 8d3e 0be5 893e
00000120: 0845 c9be 323d a6be 5d88 15be 0693 4dbe
00000130: 2a11 b0be 3d4c 9c3e f2a3 a8be 4ee8 ff3e
00000140: 44f6 d13e 3a41 113f 82e0 62bf 3507 f33e
00000150: aa53 ccbe aa6d 183f b40a 143e a83c d9be
00000160: 02c0 d4be aefe c0be 4597 733e 570d 07bc
00000170: aab3 483e 73e4 203f 1624 01bf e022 afbe
00000180: 851c bfbe 0fec acbe 6da5 313f f52d e0be
00000190: 65cf a8be da50 533d 65fe b2be ef62 833e
000001a0: c12f 3f3e 37dd b3be 72b3 a63e 01f2 0a3e
000001b0: 4ed8 f7be 88f4 04bf 82dc e3be 51f3 21bf
000001c0: ad2b 563f 15ee 3bbf 91c6 1fbc b86c 88be
000001d0: f5ec fc3e 55f1 ad3e 17fc a6be aed2 a7be
000001e0: 5945 ea3e 8f1d cbbe 7638 d23d 0e80 4e3e
000001f0: b75f d63e 49ca a5be 82e5 dcbe 0b11 a63e
00000200: 21b1 d7be 5736 cfbe ff47 4f3e 8ea0 173f
00000210: ec8b a43e fc2e 45be 2986 5abe 105f ab3e
00000220: 080e d6be 68c1 e1be 3d5c 9f3e 6162 b53e
00000230: 65ae 0c3f 016a dcbe 9c3e 833e 6c48 e03e
00000240: 50fe a8be e0e3 debe f031 a0be 3899 e4be
00000250: ef9c 65bc 097e 0b3f 6360 84be cad6 33bf
00000260: f613 b8be 1613 e13e b754 013f b5a0 9d3e
00000270: 2a4c 173c 2bf7 d33e cce2 793e d6eb 883e
00000280: ab76 263e d76a b8be a333 b13e 1047 debe
00000290: 30c5 e8be c635 cebe 8676 ce3e 213e 0c3f
000002a0: 24c0 f83e 5e4e d5be 2627 d53e ca12 7fbe
000002b0: 29c9 6ebe 2c71 cc3d 6db5 5ebe ccf4 f63e
000002c0: 55c5 f6be 9e49 a83e ee78 eabe 971a 8c3e
000002d0: c666 e93e 7527 a4be 97f6 e6be 8304 023e
000002e0: 0c73 ed3e 9408 5bbe 55ad 863b fcfe c23e
000002f0: 6d8a bdbe 4b64 b5be dc2c 9cbe 81c5 e2be
00000300: d5a6 44be 43ab d9be b0f6 f6be d95b 893e
00000310: a0a4 02bf 91cb c8be c3b9 d23e 15a9 44be
00000320: 44a7 e53e a1c8 9abe b841 ca3e 55ed f73e
00000330: 11ba bd3e 7e8f 583e 5a22 f7be f05a 993e
00000340: e556 49be 0ae6 d43e 8ad3 993c 4d4a 36be
00000350: a469 f63e 5fdd 513e 973b 5a3c 2565 c1be
00000360: 20df 8abe 3bf8 dabc c80d d3be a4b1 aabe
00000370: 8410 ebbe 505d 5abe b762 083f 70aa 043f
00000380: d731 613e ee7f 1d3f 1b3e f5be 077a b2be
00000390: 2259 e63e 0f58 d8be 4624 bbbe 7555 a1be
000003a0: 0ba2 f93e 2a34 c2be fa0e adbe 44b3 06bf
000003b0: 71d8 b7be 7d6d f6be fcb2 fa3e bb14 94be
000003c0: 58e3 e33e bff2 edbe 7c41 043f 6041 f2be
000003d0: e88c dabe 73d3 a63e 9e38 cb3e 950f 2ebe
000003e0: 474c dabe cab0 92be 1bca d03e a8f5 90be
000003f0: 88b2 88be c754 a2be 0849 28be c636 643f
-0.2628594 -0.29033947 -0.5252155 -0.3666477 -0.4062651 0.2966899 0.6236677 0.203101
-0.048501227 0.39737594 -0.41858685 -0.35346928 0.38217834 -0.4121999 -0.43441385 0.6662845
0.5511517 -0.37885943 -0.2989305 0.46156278 0.5511657 0.47676787 -0.36611548 0.7802021
-0.48576358 -0.28213868 0.29216892 -0.38322765 -0.26527148 -0.47323877 -0.20864308 -0.3197672
-0.39838284 0.44566068 -0.51999414 0.40726274 -0.20086455 0.30183372 -0.5203357 -0.45831847
0.78212833 0.48013264 0.27872407 0.424663 0.39409116 0.29130805 0.5198771 -0.5458917
0.4384068 -0.40661228 0.43988836 0.43748617 -0.350936 0.29819512 -0.30622384 -0.19791393
-0.24198109 -0.48874345 -0.4465786 0.0563349 0.16846137 -0.3673701 -0.27884647 -0.52946734
0.025403634 0.38216066 0.25936463 -0.4907979 -0.42708257 0.2299159 0.27716106 0.26932558
-0.3931048 -0.32468563 -0.146028 -0.20075616 -0.34388095 0.30526915 -0.3293758 0.49981922
0.41008198 0.5674015 -0.8862382 0.47466436 -0.3990758 0.59542334 0.14457208 -0.4242909
-0.4155274 -0.37694305 0.23788173 -0.008242927 0.19599786 0.62848586 -0.5044569 -0.34206295
-0.37326446 -0.33773848 0.69393045 -0.43785062 -0.3297073 0.051590778 -0.34959713 0.25661418
0.1867056 -0.3512971 0.3255878 0.1356888 -0.48407215 -0.51935625 -0.44504172 -0.63261896
0.83660394 -0.7341016 -0.009751932 -0.26645446 0.49399534 0.33973184 -0.32614204 -0.32777923
0.45756033 -0.3967099 0.10264675 0.20166036 0.418699 -0.32380894 -0.4314385 0.32434878
-0.42127326 -0.40471146 0.20242308 0.5922936 0.32138002 -0.19256204 -0.2134024 0.33470964
-0.4180758 -0.4409287 0.3112506 0.3542662 0.54953605 -0.43049625 0.25633705 0.43805254
-0.33006525 -0.4353323 -0.312881 -0.44648147 -0.014014467 0.5448919 -0.25854787 -0.7024962
-0.3595273 0.43959874 0.5051989 0.30786672 0.0092344675 0.41399512 0.24402922 0.2674243
0.16256206 -0.36019012 0.34609708 -0.4341359 -0.45462942 -0.402754 0.403248 0.547823
0.48584092 -0.41661352 0.4163143 -0.24909511 -0.23318924 0.09982523 -0.21748896 0.4823364
-0.48197427 0.32868665 -0.45795387 0.27364036 0.45586222 -0.32061353 -0.45110008 0.12697034
0.46376836 -0.21389991 0.0041100183 0.38085163 -0.37019673 -0.3542808 -0.30502975 -0.4429131
-0.19204266 -0.42513475 -0.48235083 0.26827887 -0.5103245 -0.3921781 0.4115735 -0.19205125
0.44854176 -0.30231193 0.39503264 0.48423257 0.3705602 0.21148488 -0.48268396 0.29952192
-0.19662054 0.41581756 0.018777627 -0.17801781 0.48127472 0.20494603 0.013319871 -0.3777248
-0.27123356 -0.026729694 -0.41221452 -0.33338654 -0.45911038 -0.21324658 0.53275627 0.51822567
0.21991669 0.6152333 -0.47898945 -0.34858724 0.44989878 -0.42254683 -0.36551112 -0.3151051
0.4875644 -0.37930423 -0.3380049 -0.5261729 -0.3590732 -0.48130408 0.4896468 -0.28922066
0.44509387 -0.46474263 0.5166242 -0.47315502 -0.42685628 0.32583198 0.39691633 -0.16998132
-0.4263632 -0.28650504 0.40779194 -0.2831242 -0.2669871 -0.31705305 -0.16434109 0.8914608

net.4.bias f4 [4]
00000000: cfab 3f3c 87bb a23d b73f 573d 37a0 563c
0.011698677 0.07945924 0.052550998 0.013099722
