drafts/draft_02/runs_lunarlander/ppo_seed999.pth (torch, 281157 bytes, 7 tensors)

trunk.0.weight f4 [256, 8]
0	0x3e9f2536	0.31083077
1	0x3ec72ce1	0.38901427
2	0xbeb71364	-0.3575698
3	0x3f3bdf98	0.7338805
4	0x3e337a6d	0.1752717
5	0x3f31f307	0.69511455
6	0x3e5fff15	0.2187465
7	0xbe9d9933	-0.30780944
8	0xbf82e600	-1.022644
9	0x3fd3f46a	1.6558964
10	0xbf455577	-0.77083534
11	0xbcd1586f	-0.025554864
12	0xbe153932	-0.145726
13	0xbd963713	-0.07334723
14	0x3e85c4d0	0.2612672
15	0xbef8e726	-0.48613852
16	0x3f1fc0c8	0.62403536
17	0xbf3c4b24	-0.73552155
18	0xbdf18d7f	-0.11794566
19	0xbee030b1	-0.4378715
20	0xbf54abf2	-0.8307487
21	0x3edd6fbb	0.43249306
22	0x3e853c99	0.26022795
23	0x3ee905f3	0.4551235
24	0x3f19a611	0.6001902
25	0xbed5c8ff	-0.4175491
26	0xbe5e4f39	-0.21709909
27	0xbf43f6be	-0.76548374
28	0xbf8b5584	-1.0885472
29	0x3e1f9257	0.15583168
30	0x3dc488bd	0.09596393
31	0xbe80164f	-0.2501702
32	0x3f82ca37	1.0217961
33	0xbe93ec4c	-0.28891218
34	0x3eac8269	0.33693245
35	0x3e298df3	0.16558056
36	0xbf4af292	-0.7927638
37	0x3d3111d6	0.0432299
38	0xbe0154ed	-0.12630053
39	0x3f149149	0.5803419
40	0xbef22b57	-0.4729869
41	0x3ff05046	1.8774498
42	0xbf0734ac	-0.52814746
43	0x3e93d5a0	0.2887392
44	0x3f7843a0	0.9697819
45	0x3e779412	0.24177578
46	0x3d4b0c51	0.049572293
47	0xbe33b904	-0.17551047
48	0xbf5b8c96	-0.8576139
49	0x3ed46c8c	0.41489065
50	0x3f13d647	0.57748836
51	0x3e81e8f5	0.25373045
52	0xbf8e8b35	-1.1136233
53	0xbf32afdc	-0.6979959
54	0x3e738bd8	0.23783815
55	0x3e298eec	0.16558427
56	0x3eacf5d4	0.33781302
57	0x401c8880	2.4458313
58	0xbf0da183	-0.5532457
59	0xbf00e2eb	-0.5034625
60	0x3d66aff3	0.056320142
61	0xbee4ba54	-0.44673407
62	0xbe9e5859	-0.3092678
63	0x3ecd3137	0.4007661
64	0xbf7e3dc2	-0.99312985
65	0xbdcf249e	-0.10114406
66	0xbf027e81	-0.5097428
67	0x3f72ef19	0.94896084
68	0x3f8e4445	1.1114584
69	0xbd363a14	-0.04448898
70	0xbe0801cb	-0.13281934
71	0x3ed70ac6	0.42000407
72	0xbfa342d4	-1.2754769
73	0x3e06f016	0.13177523
74	0x3e9e24e7	0.3088753
75	0x3eb67818	0.356385
76	0x3e0e57bd	0.13900657
77	0xbe3e26fc	-0.18569559
78	0x3cb6e421	0.022325577
79	0x3f28f66c	0.6600101
80	0xbf660192	-0.89846146
81	0xbfa92fd2	-1.3217719
82	0x3f327d4d	0.69722444
83	0x3cd27810	0.025692016
84	0xbf7f169c	-0.99643874
85	0x3d6e1ef2	0.05813498
86	0x3e312cc7	0.17302237
87	0x3d36ab22	0.0445968
88	0x3ea06987	0.3133051
89	0xbfed264d	-1.8527313
90	0x3f43db57	0.7650656
91	0xbf0753f9	-0.5286251
92	0x3d08f3b8	0.033435553
93	0xbd063329	-0.032763634
94	0xbe58032f	-0.21094964
95	0xbe7bcaa2	-0.24589017
96	0x3d0cd7ee	0.034385614
97	0xbf3db32f	-0.7410154
98	0xbee738e6	-0.45160598
99	0xbd9f4e18	-0.07778567
100	0x3f1219c4	0.57070565
101	0x3e457193	0.19281606
102	0x3e276540	0.16347218
103	0x3ee17040	0.44030952
104	0x3ea22d2f	0.31675097
105	0xbf61545a	-0.88019335
106	0xbdfbd8fe	-0.12297247
107	0xbe45ae3f	-0.19304751
108	0xbf2f91b7	-0.6858172
109	0x3e711ebc	0.2354688
110	0x3e5f5aa0	0.21811914
111	0x3e7b6759	0.24551143
112	0x3ef62865	0.48077694
113	0xbf66a1f8	-0.90090895
114	0xbee4cd3c	-0.4468783
115	0xbe5c22ac	-0.21497601
116	0x3f11da49	0.569737
117	0x3f934739	1.150611
118	0xbd9dfd5c	-0.0771434
119	0xbdcf0188	-0.10107714
120	0xbe1d746b	-0.15376441
121	0xbebf1f63	-0.37328634
122	0x3f7120d6	0.9419073
123	0xbec8b20f	-0.39198348
124	0xbfa18f0e	-1.2621782
125	0xbecf0492	-0.40433174
126	0xbe6a59d6	-0.22885832
127	0xbd81dd26	-0.06341009
128	0x3f1e6887	0.61878246
129	0xbeb217aa	-0.3478368
130	0x3f0b663b	0.54452866
131	0xbf4fb072	-0.8112861
132	0x3e629693	0.22127752
133	0x3e3a2c3b	0.18180935
134	0xbe48f5cb	-0.19625013
135	0xbf314ff6	-0.69262636
136	0xbf2705f5	-0.65243465
137	0xbed0f385	-0.4081079
138	0x3dd398b0	0.10331857
139	0xbec484fb	-0.38382706
140	0x3f5c2b3b	0.86003464
141	0x3f4d6190	0.80226994
142	0x3e01e6fa	0.12685767
143	0xbe1f18f8	-0.15536869
144	0x3fc649e5	1.5491301
145	0xbf43c926	-0.76478803
146	0x3efd6d11	0.49497274
147	0x3ecccbcd	0.39999238
148	0xbf1e437c	-0.61821723
149	0x3f2aab43	0.66667575
150	0xbda29732	-0.079389945
151	0xbda83e1c	-0.082149714
152	0x3f7afe40	0.98044205
153	0x3e282507	0.16420375
154	0xbc67f412	-0.014157312
155	0xbf7f9526	-0.9983696
156	0xbeb145b8	-0.34623504
157	0xbeefb4b5	-0.46817556
158	0x3e202d5c	0.15642303
159	0xbecfd6b4	-0.40593493
160	0xbd3ecd21	-0.046582345
161	0xbe692dcc	-0.22771376
162	0xbe802c31	-0.25033715
163	0xbe7b4450	-0.24537778
164	0x3f3f23c2	0.7466394
165	0xbd59b886	-0.05315449
166	0x3e0f8305	0.14014824
167	0x3ee5587a	0.44794065
168	0xbe0be292	-0.13660648
169	0x3c8d79f6	0.01727007
170	0x3ede2da1	0.43394187
171	0x3f457c4e	0.771428
172	0xbfdcb352	-1.7242224
173	0x3f2f7104	0.68531823
174	0x3cfab3d0	0.03060332
175	0xbe819520	-0.25309086
176	0x3e25bd31	0.16185452
177	0x3f0352d8	0.51298285
178	0xbe9d78fa	-0.3075636
179	0x3f87a589	1.0597392
180	0xbe8a4dd9	-0.27012518
181	0x3e4064ee	0.18788502
182	0xbd910d73	-0.07082643
183	0x3ea6c66f	0.32573268
184	0xbf2fb133	-0.6862976
185	0xbea1a2d5	-0.31569543
186	0x3f8ee25f	1.1162833
187	0x3ee3fd1a	0.4452904
188	0xbf2ae1a8	-0.66750574
189	0xbea7a953	-0.32746372
190	0x3d4737a7	0.04863706
191	0xbe2827ca	-0.16421428
192	0xbf8243a9	-1.0176898
193	0xbf8af1d8	-1.0855055
194	0x3dfa5aa0	0.122243166
195	0xbebadd9d	-0.36497203
196	0xbf4514ab	-0.7698466
197	0x3f156a1b	0.5836503
198	0xb998dcbf	-0.00029156168
199	0x3eaecc6e	0.34140342
200	0xbeb81f4b	-0.35961375
201	0xbe17f60b	-0.14839952
202	0xbedd55ab	-0.43229422
203	0xbe9b7091	-0.3035932
204	0x3f9d609b	1.2295107
205	0x3f1ae5c3	0.6050684
206	0xbe360aec	-0.17777604
207	0x3ed4d6f7	0.41570255
208	0x3f1ff10a	0.6247717
209	0x3d98bb1b	0.074575625
210	0xbf93f053	-1.1557716
211	0x3e567e72	0.20946673
212	0xbf4a79cf	-0.79092115
213	0x3f1925b9	0.59823185
214	0x3e899e6c	0.2687868
215	0xbeb8e8cc	-0.3611511
216	0xbe7e81b8	-0.24854171
217	0x3ebbba01	0.36665347
218	0x3fa48b98	1.2855101
219	0x3f29ad50	0.6628008
220	0xbea44595	-0.32084337
221	0x3dce0a75	0.10060588
222	0xbe4ca3d8	-0.19984376
223	0x3ebbfcd7	0.3671634
224	0xbe5d2eaa	-0.21599832
225	0x3d525946	0.05135467
226	0xbf03acdb	-0.5143563
227	0xbf549251	-0.8303576
228	0x3f483457	0.78204864
229	0xbf34ece5	-0.7067397
230	0x3eb365c9	0.35038593
231	0xbef880ce	-0.4853577
232	0x3f640987	0.8907704
233	0x3df48f15	0.11941353
234	0x3f27d3b8	0.6555743
235	0xbeafd1b4	-0.34339678
236	0xbed6121f	-0.418107
237	0xbce17394	-0.027520932
238	0xbda73814	-0.08164993
239	0x3d2b71a2	0.041856416
240	0xbf918122	-1.1367533
241	0xbd016b83	-0.03159667
242	0xbed78e3a	-0.42100698
243	0x3f22155a	0.6331383
244	0x3ecf068f	0.4043469
245	0xbe181684	-0.14852339
246	0x3db1033e	0.086431965
247	0xbe76295e	-0.24039218
248	0xbf727f53	-0.9472553
249	0xbe308208	-0.17237103
250	0xbcaf108c	-0.021370195
251	0x3f12fd1e	0.57417476
252	0xbedbf7d9	-0.4296253
253	0x3f3257c5	0.69665176
254	0x3e4a402c	0.19751042
255	0xbd8bdf1e	-0.068296656

trunk.0.bias f4 [256]
0	0x3f0e77dd	0.55651647
1	0x3eb888e4	0.3604194
2	0xbe8151b5	-0.2525765
3	0xbd12fc44	-0.03588511
4	0x3d4629ff	0.048379894
5	0x3cda8a62	0.026677314
6	0xbe8bb7ae	-0.27288574
7	0x3ddc8da8	0.10769206
8	0x3d862a7c	0.06551072
9	0xbea69f9b	-0.32543644
10	0xbc581cba	-0.013190443
11	0xbe8caf61	-0.27477553
12	0xbd116e55	-0.03550561
13	0x3e3ef706	0.1864892
14	0xbecfd939	-0.40595415
15	0x3ea3f975	0.32026258
16	0x3e3f3fad	0.18676634
17	0xbe596d1d	-0.2123303
18	0xbc9c832a	-0.019105513
19	0xbdfa2195	-0.122134365
20	0x3e43e496	0.19130167
21	0x3e764f25	0.24053629
22	0xbf02f9e4	-0.5116255
23	0x3e86e44b	0.2634605
24	0xbdd610ce	-0.10452424
25	0xbec3dec3	-0.3825589
26	0x3eb16372	0.34646183
27	0x3df38949	0.118914194
28	0xbd3d91ee	-0.046281748
29	0x3f000cbb	0.50019425
30	0xbe55d286	-0.2088109
31	0x3ebec024	0.37255967
32	0x3e269799	0.16268767
33	0x3e5929ed	0.212074
34	0x3ee15987	0.44013616
35	0xbf46484d	-0.7745407
36	0x3ecdfef3	0.40233573
37	0x3ee124b7	0.43973324
38	0xbeb9eeb0	-0.36314917
39	0xbefedb15	-0.4977652
40	0xbef5fb0a	-0.4804309
41	0xbef40152	-0.47657257
42	0xbe58449c	-0.21119922
43	0xbe3650d3	-0.1780427
44	0x3d1e6cdc	0.038678035
45	0xbe8c4557	-0.27396652
46	0x3f08d5b4	0.53451085
47	0xbe082d0b	-0.13298433
48	0x3f1874ce	0.5955323
49	0x3ee130de	0.43982595
50	0xbcf057a7	-0.02933867
51	0xbebadac4	-0.3649503
52	0x3cc37d3b	0.023863425
53	0x3eb30d74	0.349712
54	0x3e55dbfa	0.20884696
55	0xbe96dd1f	-0.29465577
56	0x3f02cd1f	0.5109424
57	0xbe3851c8	-0.17999947
58	0xbdd34379	-0.10315604
59	0xbe2f3438	-0.17109764
60	0xbe480d9d	-0.19536443
61	0xbdbde33f	-0.092718594
62	0x3e8f6ea6	0.28014106
63	0x3dab5f1c	0.0836775
64	0x3cc25d61	0.023726167
65	0xbe6004cf	-0.21876834
66	0xbe1d6021	-0.15368702
67	0xbed0ccf6	-0.40781373
68	0xbf1e0043	-0.6171915
69	0x3e637241	0.22211553
70	0xbcde65b8	-0.027148113
71	0x3eda219f	0.42603776
72	0x3ea7d18d	0.32777062
73	0x3f0dcdad	0.5539196
74	0xbe122604	-0.14272314
75	0xbc49d67f	-0.012319206
76	0xbed7f137	-0.4217622
77	0x3ea43aa0	0.32075977
78	0xbe51a116	-0.20471606
79	0x3e936e10	0.2879491
80	0x3e133bf9	0.14378347
81	0xbec9e42e	-0.394319
82	0x3c6f2c67	0.014597989
83	0xbe0a8fba	-0.1353139
84	0xbd35ca97	-0.044382658
85	0x3b83d42b	0.004023095
86	0x3ebba270	0.36647367
87	0xbe2751af	-0.16339754
88	0x3f0bd231	0.546176
89	0xbef4bb4f	-0.47799155
90	0xbe685eb3	-0.22692375
91	0xbeb46fe7	-0.35241625
92	0x3dd2f73a	0.10301061
93	0xbebe4d55	-0.37168375
94	0xbee0504f	-0.4381127
95	0x3ee4ab28	0.44661832
96	0xbe34ec5d	-0.1766829
97	0xbe31c342	-0.17359641
98	0xbe8015cd	-0.25016633
99	0x3d32b254	0.0436271
100	0x3f190402	0.5977174
101	0x3dd13922	0.10215975
102	0x3e8c0796	0.27349538
103	0x3e7f2088	0.24914753
104	0x3f1b9318	0.6077132
105	0xbe2966a8	-0.16543067
106	0xbbcb8dc9	-0.0062119705
107	0x3e0b4ec7	0.1360427
108	0x3e3545b7	0.17702375
109	0xbedef598	-0.43546748
110	0x3eec0df9	0.4610441
111	0xbd9dc264	-0.07703093
112	0x3edceb8c	0.43148458
113	0xbd246373	-0.040133905
114	0xbe343f3e	-0.1760225
115	0xbed0350e	-0.40665478
116	0xbdb34e5b	-0.087551795
117	0xbe92f081	-0.28699115
118	0x3e91539f	0.2838411
119	0x3e624dfc	0.22100061
120	0x3ee3b855	0.44476572
121	0xbed7e16d	-0.42164174
122	0xbdf02c39	-0.11727185
123	0x3edca338	0.43093276
124	0xbee838ec	-0.45355928
125	0x3f083255	0.532018
126	0xbd996f98	-0.07491988
127	0xbecf8410	-0.40530443
128	0xbeef63f5	-0.4675595
129	0x3f0f7c49	0.5604902
130	0x3e27c3e2	0.16383317
131	0x3e8d0bd7	0.27548096
132	0x3eb4cf9c	0.35314643
133	0x3e9911b8	0.2989633
134	0x3eab9e62	0.33519274
135	0x3ee1c4ca	0.4409545
136	0xbe14e4fe	-0.14540479
137	0xbdb18b9f	-0.08669209
138	0x3d36a2dd	0.044588912
139	0x3df572b9	0.11984772
140	0xbe964a46	-0.2935354
141	0xbea9d342	-0.3316899
142	0x3ed37931	0.413034
143	0x3d4103fa	0.047122933
144	0x3e7aab45	0.24479397
145	0xbee019b5	-0.43769613
146	0x3e5c3e14	0.21508056
147	0xbe373fc2	-0.17895415
148	0xbe9ec033	-0.3100601
149	0x3da80d0f	0.08205616
150	0x3d9eefec	0.07760605
151	0x3e84c5d9	0.25932196
152	0xbda41a7c	-0.08012864
153	0xbf16ce7e	-0.5890883
154	0xbeb5f829	-0.35540894
155	0xbe2c124d	-0.16803856
156	0x3e7b5f52	0.2454808
157	0x3ef834e7	0.4847786
158	0x3ea9ffe1	0.33203033
159	0x3e1e55e3	0.1546245
160	0xbee2dec7	-0.4431059
161	0xbe9c0ce1	-0.30478576
162	0x3d275f0e	0.040862136
163	0x3e83ead0	0.25765085
164	0x3d5cc2df	0.05389678
165	0x3ec1eb5f	0.37874886
166	0x3ca0f99e	0.019650277
167	0x3d38f2b5	0.04515334
168	0xbf200e29	-0.62521607
169	0x3f29e4fb	0.6636502
170	0x3f0fd898	0.5618987
171	0x3e0eb4db	0.13936178
172	0xbe0fabb8	-0.14030349
173	0xbec5cb9a	-0.38631898
174	0x3ec9148e	0.39273494
175	0x3e33b118	0.17548025
176	0xbe707a23	-0.23484091
177	0x3e3f25d7	0.18666779
178	0xbc81c93e	-0.01584303
179	0x3e74ca56	0.2390531
180	0xbe4a454b	-0.19752996
181	0x3eb17e19	0.34666517
182	0xbebaeff2	-0.3651119
183	0xbeecd730	-0.46257925
184	0x3e4ccf56	0.20000967
185	0x3e150e07	0.14556132
186	0xbe2165cc	-0.15761489
187	0x3ee1734c	0.44033277
188	0x3ec91af7	0.39278385
189	0x3db1b8df	0.086778395
190	0xbe98b1d9	-0.29823187
191	0xbded8d08	-0.11599165
192	0x3eadf3b6	0.33975
193	0xbc5cd7cd	-0.013479185
194	0xbe08ea8d	-0.13370724
195	0xbd85e24f	-0.065373056
196	0xbef706dd	-0.48247424
197	0x3f0aa2c4	0.5415461
198	0x3f12f159	0.5739952
199	0xbe3c47f8	-0.18386829
200	0xbeb9a7eb	-0.36260924
201	0x3eb2bbb6	0.34908837
202	0xbe63c870	-0.2224443
203	0xbed228d3	-0.4104677
204	0x3ec52efb	0.38512406
205	0xbda860f0	-0.08221614
206	0xbe81a2e6	-0.25319594
207	0xbeca2012	-0.39477593
208	0x3e8e621a	0.2780922
209	0xbe1e4ad2	-0.15458229
210	0x3e725662	0.23665765
211	0x3ea57a4e	0.32319874
212	0x3f14b144	0.58082986
213	0xbf07e527	-0.53084034
214	0xbc370a5b	-0.0111719025
215	0xbd90fa4f	-0.070789926
216	0x3f227ce6	0.6347183
217	0x3e8c111e	0.2735681
218	0x3eb3ecd6	0.3514163
219	0x3e0a809e	0.13525626
220	0xbdd767b6	-0.10517828
221	0xbed01521	-0.4064112
222	0x3f1589c6	0.5841335
223	0xbf128dbc	-0.5724752
224	0xbe50849d	-0.20363088
225	0x3cfcf390	0.030877858
226	0x3ef3e12d	0.47632733
227	0x3e59a8f5	0.21255858
228	0x3e8291e6	0.25501937
229	0xbe9b6a3c	-0.30354488
230	0x3de1e292	0.11029543
231	0xbe995fad	-0.29955807
232	0xbe2d3c89	-0.16917624
233	0xbeb16231	-0.34645227
234	0xbf00ff33	-0.50389403
235	0x3e6ca9bf	0.23111628
236	0x3f1105c8	0.56649446
237	0x3e589254	0.2114957
238	0xbf0be4c1	-0.54645926
239	0x3f0b18d7	0.5433478
240	0xbe6a6645	-0.22890575
241	0x3e448829	0.19192566
242	0x3d94d1d6	0.072665855
243	0xbedf9e60	-0.43675518
244	0x3ea19a60	0.3156309
245	0x3ef61783	0.48064813
246	0x3c45e0f5	0.01207756
247	0xbed39371	-0.41323426
248	0x3dd587ab	0.10426267
249	0x3ebaa51d	0.36454096
250	0xbe66abb1	-0.22526433
251	0x3e7f75db	0.24947302
252	0x3f0ba574	0.54549336
253	0xbe90945d	-0.28238192
254	0x3e813433	0.25235137
255	0xbdd56ab0	-0.1042074

trunk.2.weight f4 [256, 256]
0	0x3e377124	0.17914253
1	0x3ed39525	0.41324726
2	0xbd7454fb	-0.059651356
3	0x3ee154bc	0.4400996
4	0xbe3c0514	-0.18361312
5	0x3eb9c47a	0.36282712
6	0xbeafe8d0	-0.3435731
7	0x3e794ae0	0.24344969
8	0xbe45ab68	-0.19303668
9	0xbebaa6d0	-0.36455393
10	0xbebbcc6a	-0.36679393
11	0xbe8791c6	-0.26478404
12	0x3d972aa3	0.07381179
13	0xbb0bf983	-0.0021358437
14	0x3e48bb83	0.1960278
15	0xbe7a5e56	-0.24450049
16	0x3db339a4	0.087512285
17	0xbcd70318	-0.026246592
18	0xbea08856	-0.31354016
19	0x3ea00f6f	0.31261775
20	0x3e52c0f6	0.20581421
21	0xbea8c669	-0.32963875
22	0x3ca429c3	0.020039445
23	0xbf17cce2	-0.59297
24	0xbdcd8c06	-0.10036473
25	0x3c0f2a50	0.008738115
26	0x3ee7311f	0.45154664
27	0xbebd8f34	-0.37023318
28	0x3ef28b69	0.47371987
29	0x3d791400	0.06081009
30	0xbdc1142f	-0.09427678
31	0xbe342557	-0.17592369
32	0x3ebf06a8	0.37309766
33	0xbdf18f1a	-0.117948726
34	0x3e6a77b4	0.22897226
35	0xbe483efc	-0.19555277
36	0x3d96fa9c	0.07372019
37	0x3d49fd66	0.049313925
38	0xbe191a23	-0.14951377
39	0xbe33abe7	-0.17546044
40	0xbe68945e	-0.22712848
41	0xbe30a85d	-0.17251725
42	0xbed90003	-0.4238282
43	0xbdcb046b	-0.09912952
44	0xbd1d742a	-0.03844086
45	0xbe3bf978	-0.18356884
46	0x3d8e16b7	0.06937926
47	0xbe0128ac	-0.12613171
48	0x3e5fc602	0.21852878
49	0x3d644c20	0.05573666
50	0xbc56796f	-0.013090475
51	0xbdda5a3d	-0.10661743
52	0xbf1cdc4c	-0.61273646
53	0x3dff48e4	0.12465075
54	0x3dba6f50	0.091032624
55	0x3db65482	0.08902837
56	0xbe1b049b	-0.15138476
57	0xbccca319	-0.024980115
58	0x3e2f1571	0.17098023
59	0x3cb36fd7	0.021903915
60	0xbe4d2a37	-0.20035635
61	0xbe7d9534	-0.24763948
62	0x3dcc92cf	0.09988939
63	0x3e870ae3	0.26375493
64	0x3e2234cd	0.15840454
65	0xbecc31ef	-0.39881846
66	0x3d215955	0.039391834
67	0x3d93ddc9	0.072200365
68	0x3d417d51	0.04723865
69	0xbe28eba1	-0.16496135
70	0xbe1b1398	-0.15144193
71	0xbe35591a	-0.17709771
72	0x3e6c3423	0.23066764
73	0xbe8fb027	-0.2806408
74	0x3ee33c45	0.4438192
75	0xbd098c33	-0.03358097
76	0xbd1e099b	-0.03858338
77	0xbeaf9f77	-0.3430135
78	0xbe5bf254	-0.2147916
79	0xbe8a78f0	-0.27045393
80	0x3cc3a3cd	0.023881817
81	0xbe96fd48	-0.29490113
82	0xbdbd9676	-0.09257214
83	0x3e20607b	0.15661804
84	0x3e1de203	0.15418248
85	0x3d95bd72	0.073115245
86	0x3ead80dc	0.33887374
87	0x3e3fe820	0.18740892
88	0x3eab5a1a	0.3346718
89	0xbdc02443	-0.093819164
90	0xbe39c54f	-0.18141674
91	0xbf10f59f	-0.5662479
92	0xbe716a0f	-0.23575614
93	0xbc83a29b	-0.016068747
94	0xbc0d7d7b	-0.008635874
95	0xbd07d54e	-0.033162408
96	0x3efcc892	0.49371773
97	0x3edd05a6	0.43168372
98	0xbe1e4262	-0.1545501
99	0xbd73873e	-0.05945515
100	0xbdef5819	-0.11686725
101	0x3dd92b1e	0.10603927
102	0xbeb6e8c8	-0.35724473
103	0xbde1640e	-0.11005412
104	0x3e66d459	0.22541942
105	0xbdcbefc5	-0.09957842
106	0x3e8837df	0.26605126
107	0xbe3bb0c9	-0.18329157
108	0xbe980c90	-0.29697084
109	0xbd4a0b16	-0.04932698
110	0x3d06bc90	0.03289467
111	0xbd933f9e	-0.071898684
112	0xbdf7a815	-0.12092606
113	0xbe918acf	-0.28426215
114	0xbde6d13f	-0.11270379
115	0x3df00b45	0.117208995
116	0xbeb04459	-0.34427145
117	0xbe117961	-0.14206459
118	0x3db31daf	0.08745896
119	0xbdfd5991	-0.12370599
120	0x3d450388	0.04809907
121	0x3ec3d1ea	0.3824609
122	0x3ef25588	0.4733088
123	0x3de4f8d4	0.11180273
124	0xbbca3296	-0.006170581
125	0x3dd7568f	0.105145566
126	0xbdb09f5e	-0.08624147
127	0xbe1af79e	-0.15133521
128	0xbcf1bf13	-0.029510057
129	0x3e93f824	0.28900254
130	0x3e2ef5ab	0.17085902
131	0xbd858067	-0.065186314
132	0x3e9a5ba5	0.30148044
133	0xbe054ad1	-0.13016821
134	0xbdfe3334	-0.1241211
135	0x3df323ac	0.11872038
136	0x3dcabb02	0.0989895
137	0xbdb99443	-0.09061482
138	0xbe0d0cd4	-0.13774425
139	0xbe89b1c8	-0.2689345
140	0xbd414763	-0.04718722
141	0xbd196eb8	-0.037459105
142	0xbdbd7f32	-0.09252776
143	0xbf1bf6f4	-0.60923696
144	0x3d3a4c35	0.045482833
145	0xbe4fefba	-0.20306292
146	0xbd755a34	-0.059900478
147	0xbdc24505	-0.09485821
148	0x3dd184c8	0.10230404
149	0xbea2cea6	-0.31798285
150	0xbf10ad17	-0.56514114
151	0x3e8efcbe	0.27927202
152	0x3f6f0c34	0.93377995
153	0xbe0d1b1b	-0.13779871
154	0xbdfe0a85	-0.1240435
155	0xbf001f0d	-0.5004738
156	0x3e22cc80	0.15898323
157	0x3de6de54	0.112728745
158	0x3e70ce50	0.23516202
159	0xbe25c94c	-0.1619007
160	0xbe3adfb7	-0.18249403
161	0xbeb56283	-0.3542672
162	0x3e5c3c95	0.21507485
163	0x3e278f31	0.16363217
164	0xbe7ae910	-0.24502969
165	0xbcf7bbfb	-0.030241003
166	0x3da0a61a	0.07844181
167	0xbc94aca0	-0.01814872
168	0xbec56c6f	-0.3855929
169	0x3e057898	0.13034284
170	0x3c2b00c4	0.010437194
171	0x3de75fd4	0.11297575
172	0x3d386eb6	0.045027457
173	0x3e045868	0.1292435
174	0xbd789e44	-0.06069781
175	0x3ea3e47f	0.32010266
176	0xbe9109e0	-0.28327847
177	0x3edcf287	0.43153784
178	0x3e2731ff	0.16327666
179	0x3d91ca93	0.07118716
180	0x3c89cf5b	0.016822508
181	0x3ec19a44	0.37813008
182	0xbd29eda6	-0.041486405
183	0xbe8b1ac8	-0.2716887
184	0xbeca35ac	-0.39494073
185	0x3e6e49c0	0.23270321
186	0xbe758ebd	-0.23980232
187	0xbe082e06	-0.13298807
188	0x3e3ed171	0.18634583
189	0x3e809c18	0.2511909
190	0xbd8def26	-0.069303796
191	0xbda8d9b5	-0.08244649
192	0x3da4ed9b	0.08053132
193	0x3ec8517a	0.39124662
194	0xbe56ea63	-0.20987849
195	0xbef1ac5d	-0.47201815
196	0xbc10daf7	-0.008841268
197	0xbbe92545	-0.0071150386
198	0x3b767065	0.0037603613
199	0x3d86cf1c	0.06582472
200	0x3dadca3b	0.08485838
201	0xbe52e551	-0.2059529
202	0x3e399627	0.18123685
203	0xbe715514	-0.23567611
204	0x3e84d748	0.25945497
205	0x3e03efa1	0.1288438
206	0xbe2c14f5	-0.1680487
207	0xbb4817f0	-0.0030531846
208	0xbcfdf8c6	-0.031002413
209	0xbde4879e	-0.111586794
210	0x3efa0849	0.48834446
211	0x3d4ee5fa	0.05051229
212	0x3d07a128	0.033112675
213	0xbd73b4c2	-0.059498556
214	0xbe016d54	-0.12639362
215	0x3effcf20	0.4996271
216	0x3d9fa46c	0.07795033
217	0x3e7b5468	0.24543917
218	0x3e6a43ae	0.2287738
219	0x3e4f9d82	0.20274928
220	0xbdc48014	-0.095947415
221	0x3d9584f6	0.07300751
222	0x3e3bc9e4	0.18338734
223	0xbe0fc16f	-0.14038633
224	0x3dbe755d	0.09299729
225	0xbe82df08	-0.25560784
226	0xbc737b3d	-0.014860925
227	0x3d93dee5	0.07220248
228	0xbd9a9f80	-0.075499535
229	0xbec75735	-0.3893372
230	0xbd297a7a	-0.04137657
231	0x3dac4741	0.08412028
232	0x3eb50b06	0.35359973
233	0x3e411f69	0.18859638
234	0x39b2244f	0.00033977858
235	0x3e8a6a82	0.27034384
236	0x3dfa9ef7	0.122373514
237	0x3e99072a	0.29888278
238	0xbd9b4a13	-0.07582488
239	0xbe905312	-0.28188378
240	0xbde07521	-0.109598406
241	0xbdd9a1dd	-0.10626576
242	0x3e47dcf7	0.19517885
243	0x3d0f96b3	0.035055827
244	0xbe4c2d79	-0.19939221
245	0xbd552ed1	-0.0520466
246	0x3d4fb9dd	0.050714362
247	0x3cb9eea8	0.022696808
248	0x3e589be8	0.21153224
249	0x3e9fbbba	0.31197912
250	0xbf2d9ac4	-0.6781428
251	0xbd85cd40	-0.06533289
252	0x3e48e083	0.19616894
253	0x3e44fcd9	0.19237079
254	0x3c7a6801	0.0152835855
255	0xbe1e6abd	-0.15470405

trunk.2.bias f4 [256]
0	0x3d1376e5	0.03600206
1	0xbdeb3a28	-0.11485702
2	0x3d816c86	0.06319527
3	0xbd8d2306	-0.06891446
4	0x3c89755b	0.016779592
5	0x3df347af	0.11878907
6	0xbcc356ef	-0.023845164
7	0xbd70cf68	-0.058791548
8	0xbda77d14	-0.08178154
9	0xbe8090ce	-0.25110477
10	0x3cd71757	0.026256246
11	0xbd3e3558	-0.04643759
12	0x3da614b4	0.081094176
13	0x3e8b0d46	0.27158564
14	0x3d3b57b6	0.045737945
15	0x3e4eb198	0.20184934
16	0xbe186a52	-0.14884308
17	0x3e14f3c3	0.14546113
18	0xbdadbbcf	-0.08483087
19	0x3cce76fd	0.025203222
20	0x3e06e411	0.13172938
21	0x3cb74031	0.022369476
22	0xbda88bbe	-0.08229779
23	0x3d1fbce9	0.03899852
24	0xbe343b3a	-0.17600718
25	0x3cb429a5	0.021992514
26	0xbd017375	-0.03160425
27	0xbdb18da1	-0.08669592
28	0x3b1f783f	0.0024333147
29	0x3993f208	0.00028218352
30	0x3c11b1d9	0.0088925
31	0x3d106ee8	0.03526202
32	0x3d81cf1c	0.06338331
33	0x3de9d772	0.11418046
34	0x3e016e29	0.12639679
35	0x3e5c44fa	0.21510687
36	0x3dee1e84	0.11626914
37	0x3d97303f	0.07382249
38	0x3e5b512d	0.21417685
39	0x3daef0c0	0.08542013
40	0xbd612ab7	-0.054972377
41	0xbc18615d	-0.009300557
42	0x3e3a4e35	0.18193896
43	0xbdf2b749	-0.11851365
44	0xbdb8ee5a	-0.09029837
45	0x3dea75e7	0.11448269
46	0x3e1c36de	0.15255305
47	0xbb9aaf1b	-0.004720581
48	0x3d3791ca	0.04481677
49	0xbd0ee95e	-0.034890525
50	0xbe4eef74	-0.20208532
51	0x3e1a7775	0.15084632
52	0x3e85f3e2	0.2616263
53	0xbda65e47	-0.08123451
54	0x3e1d804c	0.15380973
55	0x3df0a70b	0.11750611
56	0xbd865c2a	-0.06560548
57	0xbda38334	-0.079840094
58	0x3d78e096	0.060761057
59	0xbddee9c0	-0.10884428
60	0xbe1ab61c	-0.15108532
61	0xbdbd20a1	-0.09234739
62	0xbc65e2d6	-0.014031133
63	0xbde6f8ad	-0.112779
64	0x3c773756	0.015088877
65	0x3e2fbc25	0.17161615
66	0xbd8b0fea	-0.06790145
67	0x3e3a1545	0.18172176
68	0xbe2bb1ab	-0.16766994
69	0x3cdf2a66	0.027241897
70	0xbe09ec3e	-0.13469025
71	0xbe8d3210	-0.27577257
72	0x3dacfab1	0.08446253
73	0xbd305bc5	-0.04305627
74	0xbe5e47ed	-0.21707125
75	0xbd7c1f3b	-0.06155322
76	0x3d8787cc	0.06617698
77	0xbd0084f5	-0.031376798
78	0xbcefac97	-0.029257102
79	0x3d268cdd	0.04066168
80	0x3dbe9acb	0.09306868
81	0xbe06b929	-0.1315657
82	0xbdeb490d	-0.11488543
83	0xbda70019	-0.081543155
84	0xbe3d7e42	-0.18505195
85	0x3e27d087	0.1638814
86	0xbe8a5ecd	-0.27025452
87	0xbcc1cb2e	-0.023656454
88	0xbcee033b	-0.029054275
89	0xbd7483ef	-0.059696134
90	0x3e218e0d	0.15776844
91	0x3c90c4ce	0.017671969
92	0x3de26003	0.11053469
93	0xbd973e0d	-0.07384882
94	0x3be38f2b	0.006944557
95	0x3dfee63b	0.12446257
96	0xbb3ea0c2	-0.0029087518
97	0x3d8168c1	0.06318808
98	0x3d3c9179	0.04603717
99	0x3e5791b2	0.21051672
100	0x3e78ef29	0.24309982
101	0xbd3f9024	-0.046768323
102	0xbcf95334	-0.030435182
103	0xbd74b130	-0.05973929
104	0xbe9472d7	-0.28993866
105	0x3dd9d16f	0.106356494
106	0x3ded8271	0.11597145
107	0x3d225758	0.03963408
108	0x3d0bf6d6	0.034170948
109	0xbec56487	-0.3855326
110	0xbe18efcf	-0.1493523
111	0x3d4d9bed	0.05019753
112	0x3d8a2bdf	0.06746649
113	0xbd8a5b85	-0.06755737
114	0x3e0c86b8	0.13723266
115	0xbdda619b	-0.10663148
116	0x3e755040	0.23956394
117	0xbd533c1a	-0.05157099
118	0xbe24c5a5	-0.1609102
119	0x3ce41010	0.02783969
120	0x3e38af45	0.1803561
121	0x3dcbd4bc	0.09952685
122	0xbd891d77	-0.06695073
123	0x3e0aca1c	0.13553661
124	0x3a47dbfc	0.0007624028
125	0x3bd29575	0.006426508
126	0x3d97943f	0.074013226
127	0xbcef72ee	-0.029229607
128	0xbc8d17c3	-0.017223245
129	0x3e5e3608	0.21700299
130	0x3c48673c	0.012231644
131	0x3c3ddc79	0.011588209
132	0x3d1b9869	0.037987147
133	0x3e7d11d4	0.24713832
134	0xbdba7830	-0.09104955
135	0xbe1ae5c3	-0.1512671
136	0x3dce3bc4	0.10069993
137	0xbe69b739	-0.228238
138	0x3d3f0796	0.046638094
139	0x3c998c77	0.018743737
140	0xbe880ec6	-0.2657377
141	0x3d2a7862	0.041618712
142	0x3d2c37ff	0.04204559
143	0xbe009897	-0.12558208
144	0x3da22383	0.079169296
145	0x3e086849	0.13321032
146	0x3e6e55c2	0.23274902
147	0x3ea5eac2	0.32405668
148	0xbe121db6	-0.14269146
149	0x3d75df7c	0.060027584
150	0xbc2fc492	-0.010728018
151	0x3ddeb0fa	0.10873599
152	0xbdc430c4	-0.09579614
153	0xbd674693	-0.05646379
154	0xbd1c3aa8	-0.038141876
155	0x3d561ef8	0.052275628
156	0xbc4b5e42	-0.0124126095
157	0xbe472c3b	-0.19450466
158	0xbd6b9eb1	-0.057524387
159	0x3d4579ab	0.048211735
160	0x3d5232aa	0.05131785
161	0x3e217e6c	0.15770882
162	0x3e957b64	0.29195702
163	0xbcec78d0	-0.028866202
164	0xbde30ca0	-0.110863924
165	0xbd872148	-0.06598145
166	0x3bd179cf	0.0063926945
167	0x3d4e4255	0.050356228
168	0x3e848f3b	0.25890526
169	0x3b87284e	0.0041246777
170	0xbdb6954c	-0.08915195
171	0x3e6ea598	0.23305357
172	0xbd7d9430	-0.0619089
173	0xbd711df8	-0.05886647
174	0x3d85321c	0.06503698
175	0x3dba7408	0.091041625
176	0x3dbe0151	0.09277595
177	0xbd2d4b4e	-0.042308144
178	0x3e1c763d	0.1527948
179	0x3dc46cd7	0.09591072
180	0x3d3bf80c	0.045890853
181	0x3ceb4505	0.028719435
182	0x3d28d3d9	0.04121766
183	0x3e1c727a	0.15278044
184	0xbe5bd026	-0.21466121
185	0xbd2817d3	-0.041038346
186	0x3d4dc4e1	0.050236586
187	0xbe4a2384	-0.1974011
188	0xbda041f1	-0.07825077
189	0xbe5a0faf	-0.21295045
190	0xbcc70935	-0.024296382
191	0x3e8a963e	0.2706775
192	0xbe08394c	-0.13303107
193	0xbd80588a	-0.062668875
194	0xbd651b78	-0.0559344
195	0xbc50936e	-0.0127304625
196	0x3e847fb6	0.25878686
197	0x3e21e8d5	0.15811475
198	0x3e003862	0.12521508
199	0xbdecb2b4	-0.115575224
200	0x3aa13ca9	0.0012301403
201	0x3e0c920d	0.13727589
202	0xbdcff7bd	-0.10154674
203	0x3d283fae	0.041076355
204	0xbe37d013	-0.17950468
205	0xbda42732	-0.080152884
206	0x3dfa298d	0.122149564
207	0x3b84f43f	0.0040574367
208	0x3de93479	0.113869615
209	0x3e057eb5	0.13036616
210	0xbc802b57	-0.015645666
211	0xbe6f9e57	-0.23400246
212	0xba2c424c	-0.00065711583
213	0xbde9bbba	-0.11412759
214	0x3e4fc623	0.20290427
215	0xbe3e8beb	-0.18608062
216	0x3d554879	0.05207107
217	0x3d87b257	0.066258125
218	0x3e4f51be	0.20246026
219	0xbe4b8398	-0.19874418
220	0x3d14ceac	0.03632991
221	0x3d56ab5f	0.052409526
222	0x3e061b93	0.13096456
223	0xbdb3efdc	-0.08785984
224	0xbea8174c	-0.32830274
225	0xbe55949d	-0.20857473
226	0xbe7e0c23	-0.24809317
227	0x3b34f5b2	0.0027612266
228	0xbcdb4015	-0.026763955
229	0x3e025b68	0.12730181
230	0x3dab0153	0.08349862
231	0xbd2360f6	-0.03988739
232	0xbd969b12	-0.07353796
233	0xbcbd89e9	-0.02313705
234	0x3cedc79e	0.029025849
235	0x3d87f55e	0.06638597
236	0xbcf43434	-0.029810049
237	0x3dad7f70	0.084715724
238	0x3e33d649	0.17562212
239	0xbc88902f	-0.016670315
240	0xbd104787	-0.035224464
241	0xbc2bb238	-0.010479502
242	0xbe53d6ae	-0.20687363
243	0xbdac6aab	-0.08418783
244	0xbd82b09a	-0.0638134
245	0xbddba681	-0.107251175
246	0xbe75bafc	-0.2399711
247	0xbd9eb75b	-0.07749816
248	0xbd359d9c	-0.04433976
249	0xbd996b72	-0.07491197
250	0x3d874d4f	0.06606542
251	0x3e20fc32	0.15721205
252	0x3d9af1ce	0.07565652
253	0xbdc53060	-0.096283674
254	0xbdbc5149	-0.091951914
255	0xbdd05e69	-0.10174257

pi.weight f4 [4, 256]
0	0xbbba887b	-0.0056925393
1	0x3d47f51c	0.04881774
2	0xbd906ecd	-0.070523836
3	0xbdc849d2	-0.09779705
4	0x3e0f2811	0.13980128
5	0xbd8bf91d	-0.06834624
6	0xbd9f2e31	-0.07772482
7	0x3dc52725	0.09626607
8	0xbdfb512c	-0.12271342
9	0xbd0ed968	-0.034875304
10	0x3da59743	0.080854915
11	0xb9d37906	-0.00040335226
12	0x3c040c16	0.008059522
13	0x3d417949	0.047234807
14	0xbd7fe32c	-0.062472507
15	0xbccb3f86	-0.024810564
16	0x3c8343b2	0.01602349
17	0xbc8015e5	-0.01563544
18	0xbdaa4c47	-0.0831533
19	0xbd24c462	-0.040226348
20	0x3d23b7b4	0.039970115
21	0x3d59aaeb	0.053141516
22	0xbd900b62	-0.07033421
23	0x3d18091f	0.037118074
24	0xbb70ba68	-0.00367322
25	0x3b997a77	0.0046837884
26	0xbd40e837	-0.047096457
27	0xbde5f9f3	-0.11229315
28	0x3d31d254	0.043413475
29	0xbcbde96c	-0.023182593
30	0x3daa8505	0.08326153
31	0xbd8d07b0	-0.06886232
32	0xbd10ef7c	-0.03538464
33	0x3ddcabd4	0.10774961
34	0xbd93addf	-0.07210898
35	0xba68b079	-0.0008876394
36	0x3c61c2f9	0.013779395
37	0xbdcebe39	-0.10094876
38	0x3bc0d28c	0.005884474
39	0x3c0b05e1	0.008485288
40	0x3d58503f	0.052810904
41	0xbc6b34e9	-0.0143558765
42	0x3d52988b	0.051415008
43	0xbd56cee4	-0.0524434
44	0xbc9d569f	-0.019206343
45	0xbc6ea213	-0.014565009
46	0xbb8dd0f4	-0.0043278877
47	0x3d377e75	0.044798333
48	0x391481c0	0.00014162716
49	0xbd6422f3	-0.055697393
50	0x3ce8d296	0.028420728
51	0x3c2ce200	0.0105519295
52	0x3c398350	0.011322811
53	0x3d6c3e6a	0.05767671
54	0x3d2d892a	0.042367138
55	0xbd562042	-0.052276857
56	0x3d76f8e4	0.060295954
57	0x3df45768	0.11930734
58	0x3d7fb7b2	0.062431045
59	0x3d0bff29	0.034178887
60	0x3c5490f0	0.012974009
61	0xbc9edbf7	-0.019391997
62	0xbd84b33b	-0.06479498
63	0xbcef63ec	-0.029222451
64	0x3d99b830	0.07505834
65	0x3da261c2	0.07928802
66	0xbd8a9348	-0.06766373
67	0x3e1493f1	0.1450956
68	0xbbbbd2eb	-0.0057319305
69	0x3d5b0bd7	0.05347809
70	0x3da92b89	0.08260257
71	0xbd6b1f00	-0.05740261
72	0x3d6c2ded	0.057660986
73	0xbd9a30eb	-0.075288616
74	0xbc9dc5cb	-0.019259354
75	0xbd90aa12	-0.07063688
76	0x3d2c2a82	0.042032726
77	0x3e092ed4	0.1339677
78	0xbe5a1a00	-0.2129898
79	0xbddf74d1	-0.10910953
80	0xbe37bec6	-0.17943868
81	0xbd4e524d	-0.050371457
82	0xbce942d8	-0.028474256
83	0xbcc803bd	-0.024415845
84	0xbdc06de0	-0.09395957
85	0x3d0f8068	0.035034567
86	0x3dc3cb84	0.09560302
87	0xbdaa71f1	-0.08322514
88	0x3d480926	0.04883685
89	0xbcbdbdc0	-0.023161769
90	0x3d8ee349	0.06976945
91	0xbd46801b	-0.048462015
92	0xbda34c3a	-0.079735234
93	0x3ca07703	0.019588
94	0x3dd01f80	0.10162258
95	0xba89e9f8	-0.0010521999
96	0xbdcab1a5	-0.09897164
97	0xbc8c450e	-0.017122772
98	0xbcbdf320	-0.02318722
99	0x3e1c6af8	0.1527518
100	0x3d9ac41c	0.07556936
101	0xbd650810	-0.055915892
102	0x3d1b2437	0.037876334
103	0xbd073896	-0.03301295
104	0x3daf2325	0.08551625
105	0xbbc8cd91	-0.006128021
106	0x3dce7407	0.10080724
107	0x3cc7edff	0.024405478
108	0xbd91178e	-0.07084571
109	0x3c84633a	0.016160596
110	0xbdf24443	-0.11829426
111	0x3d6a7a51	0.057245556
112	0x3d7d7a8f	0.06188446
113	0x3dfe0ff1	0.12405384
114	0xbdde3287	-0.10849481
115	0xbcc5ed3b	-0.024160972
116	0x3d862503	0.06550028
117	0xbd2481d8	-0.04016289
118	0xbd3a3ff0	-0.04547113
119	0x3c809f62	0.015701
120	0x3b2b9c57	0.0026185715
121	0x3cae2da5	0.021262
122	0xbcd1f396	-0.025628846
123	0xbdee2300	-0.116277695
124	0xbb4d35cb	-0.003131258
125	0xbd1b7f7c	-0.037963375
126	0x3ddfbc0b	0.10924538
127	0x3c5abf8a	0.0133513305
128	0xbd332202	-0.043733604
129	0x3da7b793	0.08189311
130	0x3d980046	0.07421927
131	0x3d2988cd	0.04139023
132	0xbe339a34	-0.17539293
133	0x3d167e76	0.036741696
134	0x3d01072d	0.031500984
135	0xbc01acf8	-0.007914774
136	0xbb559700	-0.0032591224
137	0x3e461154	0.19342548
138	0x3c9489c1	0.018132092
139	0xbdfd001d	-0.12353537
140	0xbe02c32b	-0.12769763
141	0x3c8be825	0.017078469
142	0xbdc501f5	-0.09619514
143	0x3b2237c7	0.0024752484
144	0x3deef9e4	0.116687566
145	0xbe348cac	-0.17631787
146	0x3d92ab37	0.07161563
147	0x3bc78c25	0.0060897046
148	0xbd87c784	-0.066298515
149	0x3c5783bd	0.013153967
150	0xbca8ceb1	-0.02060637
151	0x3dcdfc00	0.10057831
152	0x3bd43511	0.0064760526
153	0x3de32d93	0.11092677
154	0xbceadf8a	-0.028671045
155	0xbe19ccb3	-0.15019493
156	0xbd739840	-0.05947137
157	0xbc94e10b	-0.018173715
158	0x3d6a2cd2	0.05717165
159	0xbdb67375	-0.089087404
160	0xbca2fa75	-0.019894818
161	0xbd364661	-0.044500712
162	0x3d92ef02	0.07174493
163	0xbd6a60bc	-0.05722116
164	0x3c8e0600	0.017336845
165	0x3c5f4dfd	0.013629434
166	0xbd58070a	-0.052741088
167	0x3d129766	0.035788916
168	0x39d3a038	0.00040364428
169	0xbd23ea51	-0.040018383
170	0x3d1b4b0f	0.03791338
171	0xbcfb84fa	-0.030703057
172	0x3d01a5c3	0.031652223
173	0xbdf550b3	-0.11978283
174	0x3d75c419	0.060001466
175	0x3c84c8f1	0.016209098
176	0x3c5a723a	0.013332898
177	0xbd8706c6	-0.06593089
178	0x3d58a26e	0.05288928
179	0xbdbc0463	-0.09180524
180	0xbcc67eab	-0.024230322
181	0xbddd4b42	-0.1080537
182	0xbdaed388	-0.0853644
183	0xbdd8462b	-0.105602585
184	0x3c66b745	0.014081781
185	0xbd0f1432	-0.03493137
186	0x3dfd0b7f	0.12355708
187	0x3ce9a2a0	0.028519928
188	0x3aee5dee	0.0018185952
189	0x3b118e28	0.0022209976
190	0xbe3b9760	-0.18319464
191	0xbc93d6ad	-0.018046701
192	0xbd615ecf	-0.055022057
193	0x3e1bd052	0.15216187
194	0x3d39541b	0.045246225
195	0x3d85dc3c	0.06536147
196	0x3dd21664	0.10258177
197	0x3d674d01	0.05646992
198	0xbbd04af8	-0.006356593
199	0x3cca5ab9	0.024701463
200	0x3b47672b	0.0030426483
201	0x3cc7c112	0.024384055
202	0xbd8db4a9	-0.06919224
203	0xbcdac0fd	-0.026703352
204	0xbe095221	-0.13410236
205	0x3da319a7	0.07963877
206	0xbdb9c94d	-0.09071598
207	0x3cf67d3e	0.030089017
208	0xbcaeda66	-0.021344375
209	0x3d0fa116	0.035065733
210	0x3db06705	0.086133994
211	0xbd1bd9a5	-0.03804936
212	0xbde5b262	-0.112156644
213	0x3e12baf0	0.14329123
214	0x3de3ff43	0.11132672
215	0xbb488344	-0.0030595819
216	0xbd67713c	-0.056504473
217	0xbd7513af	-0.059833225
218	0x3d1cfa4b	0.038324635
219	0x3c05b880	0.008161664
220	0xbb97366a	-0.004614641
221	0x3c6d434d	0.014481378
222	0x3c81cea7	0.01584561
223	0x3c12d6a7	0.00896231
224	0x3b749aae	0.0037323642
225	0xbc3eb6b0	-0.011640236
226	0x3d631765	0.055442233
227	0xbda6f187	-0.081515364
228	0xbd042b2d	-0.032267738
229	0x3dc8d247	0.09805732
230	0xbca1c0a5	-0.01974518
231	0x3cb6eb9f	0.02232915
232	0xbdf87a7d	-0.12132738
233	0x3b7680ab	0.0037613313
234	0xbd2226d8	-0.039587826
235	0xbc688573	-0.014191973
236	0x3c1cc3d3	0.0095681725
237	0x3da95d23	0.082697175
238	0xbd96f601	-0.0737114
239	0xbd139f76	-0.036040746
240	0x3d89301c	0.06698629
241	0x3ceb589b	0.028728774
242	0xbd46b9cc	-0.048517033
243	0xbd809ae5	-0.06279544
244	0xbdf6303b	-0.12020918
245	0xbd9f8ce2	-0.07790543
246	0x3e07496c	0.13211602
247	0x3d8aa700	0.06770134
248	0x3d8e46c8	0.06947094
249	0xbd36451e	-0.04449951
250	0x3e0d9e00	0.13829803
251	0xbe412417	-0.18861423
252	0xbcad37b6	-0.02114473
253	0xbd4a4ec9	-0.04939154
254	0xbc0cffba	-0.008605892
255	0xbda54eea	-0.08071692

pi.bias f4 [4]
0	0x3cf1db23	0.029523438
1	0xbd818381	-0.063239105
2	0x3dceb116	0.1009237
3	0xbd951192	-0.07278742

v.weight f4 [1, 256]
0	0xbf75a8b6	-0.9596056
1	0x3ff54004	1.9160161
2	0x3fd22ed4	1.6420541
3	0x3f5926bf	0.84824747
4	0xc0133df9	-2.3006575
5	0x3fa2a9e4	1.2708097
6	0x3fb3854e	1.4025056
7	0xbf6db7e0	-0.92858696
8	0xbfb4d1d3	-1.4126533
9	0x3fd447fc	1.6584468
10	0x3f8073d6	1.003535
11	0x3f3fc969	0.749167
12	0x3fb33088	1.3999186
13	0xbec50f41	-0.384882
14	0x3f823280	1.0171661
15	0xbfec3d44	-1.8456197
16	0xbf8cef16	-1.1010463
17	0xbf3ddcfe	-0.7416533
18	0xbf8a908d	-1.0825363
19	0x40221c23	2.5329673
20	0x3f5776b4	0.841655
21	0xbf5abce5	-0.8544448
22	0x3fc9d754	1.5768838
23	0xbfb6c5e2	-1.4279139
24	0x3f38aac5	0.72135574
25	0x3ff49f98	1.9111204
26	0x3fc47dc3	1.535088
27	0x3ffc48ad	1.9709679
28	0xbf66a8c0	-0.9010124
29	0x3fc38da4	1.52776
30	0xbf5f2b5c	-0.87175536
31	0xbfe06159	-1.7529708
32	0x3fbae68e	1.460161
33	0xbff964ec	-1.9483924
34	0xc006be08	-2.1053486
35	0xbf66cde5	-0.9015792
36	0xbf45191f	-0.76991457
37	0x3fe0b4ef	1.7555217
38	0xbf6e916d	-0.9319065
39	0x3f24b961	0.64345366
40	0x3f9949c7	1.197564
41	0xbf655361	-0.8958035
42	0x3f5caff2	0.8620597
43	0xbfc7a9b7	-1.5598668
44	0x3f736175	0.9507058
45	0x3ff4d231	1.9126645
46	0xbf3dd59a	-0.74154055
47	0xc0059d7a	-2.0877366
48	0x3ffd8ef3	1.980925
49	0xc0004dd1	-2.0047495
50	0xbf7f5f6d	-0.99754983
51	0xbf5915d0	-0.8479891
52	0xbecefb07	-0.40425894
53	0x3f2d5d90	0.6772089
54	0xbfc53ff4	-1.5410142
55	0x3ee7a04b	0.4523948
56	0x3fe5236d	1.7901436
57	0x3f5b0ae0	0.8556347
58	0xbf6e4bff	-0.9308471
59	0xbfa9ed6e	-1.3275583
60	0xbffc7840	-1.9724197
61	0xbfaeb57a	-1.3649132
62	0x3f8a0e8e	1.0785692
63	0x3fa33fcb	1.2753843
64	0x3f9b76eb	1.2145666
65	0x3f50b854	0.8153126
66	0x3f87a310	1.0596638
67	0x3fe3e744	1.7804952
68	0x3f715a24	0.9427817
69	0xbf577b00	-0.8417206
70	0x3fcbfb33	1.5936035
71	0x3f767fe8	0.9628892
72	0x401eb6f2	2.479916
73	0x3fb970db	1.4487566
74	0x3fe48852	1.7854102
75	0xbf9f20e5	-1.2431914
76	0x3f739259	0.95145184
77	0x3f79e4ef	0.9761495
78	0xc002b8de	-2.0425334
79	0xbfb45920	-1.4089699
80	0xbfb48daa	-1.4105732
81	0xbf96ce94	-1.1781793
82	0x3f6d9191	0.9280024
83	0x3f893d8f	1.0721911
84	0x3f90d9b6	1.131644
85	0xbfe1cf40	-1.7641373
86	0x3fe51096	1.7895687
87	0x3f1568d5	0.58363086
88	0xbfdc276a	-1.7199528
89	0xbf998781	-1.1994478
90	0xbf84bdaa	-1.0370381
91	0x3f6bb389	0.92070824
92	0x4020777a	2.5072923
93	0x3fb00f29	1.3754627
94	0xc009430a	-2.1447167
95	0x3f91ba08	1.1384897
96	0xbfdaf119	-1.7104827
97	0x402c0477	2.6877725
98	0xbf5b9f63	-0.8579008
99	0x3fd7b281	1.685135
100	0x3f43cd92	0.7648555
101	0xbffb20ee	-1.9619424
102	0xbf81dbab	-1.0145162
103	0x3fbe1b45	1.4852072
104	0xbff9e907	-1.9524239
105	0x3f8af07f	1.0854644
106	0xbf6a73cd	-0.9158295
107	0x3f5996ae	0.84995544
108	0x40276b8d	2.6159394
109	0x4004b94a	2.0738091
110	0xbfee9c41	-1.8641435
111	0x3f80395f	1.0017508
112	0x3f58a933	0.8463318
113	0xbf947686	-1.159867
114	0xbf52aad2	-0.822919
115	0xbf8ff2d8	-1.1245985
116	0xbf3695dc	-0.7132242
117	0xc0015e61	-2.0213854
118	0xbf9f3678	-1.2438498
119	0x3fe179b4	1.7615266
120	0xbfe9e286	-1.8272254
121	0x4008fad5	2.1403096
122	0xbf682383	-0.90679187
123	0x3f90d360	1.1314507
124	0x3f8cecb0	1.1009731
125	0xbfaeb5d3	-1.3649238
126	0xbf53ce94	-0.8273709
127	0x3f929ad1	1.1453496
128	0xbfafb536	-1.3727176
129	0xbf5b20d0	-0.8559694
130	0x3f367571	0.7127295
131	0x3ff254f7	1.8932179
132	0x4025b4f1	2.5891688
133	0xbf67ba9c	-0.9051912
134	0xbf903fd6	-1.1269481
135	0xbf9ab4ba	-1.2086403
136	0x3fa2c4d3	1.2716316
137	0x3fa87aa9	1.3162433
138	0x3fc530ec	1.5405555
139	0x3fe2ccd1	1.7718755
140	0xbfded772	-1.7409499
141	0xc0009548	-2.0091114
142	0xbfadeefe	-1.358856
143	0xbf5b0dd2	-0.85567963
144	0xbfe30ada	-1.7737687
145	0xbf8c9814	-1.098391
146	0xbec85306	-0.39125842
147	0x3f8d1049	1.1020595
148	0x3f460a6b	0.77359647
149	0xbf74ea0f	-0.95669645
150	0xbfd86bd0	-1.6907902
151	0xbefed84c	-0.49774396
152	0xbf948b8f	-1.160509
153	0x3fa025cb	1.2511533
154	0xc01a9119	-2.415106
155	0x3fbea47a	1.4893944
156	0xc01e5a41	-2.4742587
157	0x3fd7190c	1.6804519
158	0x3f1c99c6	0.6117214
159	0xc01ece16	-2.4813285
160	0xc0167f72	-2.3515286
161	0xbf21cff2	-0.63207924
162	0xbf76d297	-0.96415085
163	0xbf697d61	-0.9120694
164	0x3f081468	0.5315614
165	0xc00e2977	-2.2212808
166	0x3f7d86ab	0.9903361
167	0x3ffbc301	1.9668885
168	0xbf88ef37	-1.0698003
169	0xbfdc0eab	-1.7191976
170	0xbf348b59	-0.7052513
171	0xbfa020ac	-1.2509971
172	0x3fdc03d6	1.7188671
173	0xbf7f75e1	-0.99789244
174	0xbf20d1e6	-0.6282028
175	0xbf465391	-0.7747126
176	0x3fb2557d	1.3932339
177	0xbfc80625	-1.5626875
178	0x3f2b549c	0.6692598
179	0x3ff3cf99	1.9047729
180	0x3ffae63f	1.9601516
181	0xbf5b80e6	-0.8574356
182	0xbf84b2cd	-1.0367066
183	0xbfba7eb5	-1.4569918
184	0x3f7449e1	0.9542523
185	0xbffe62e3	-1.9873928
186	0x3fcc2aff	1.5950621
187	0x3fe29584	1.7701879
188	0x3f6fe5ac	0.93709826
189	0x3fcd9414	1.6060815
190	0xc000aa28	-2.0103855
191	0xbfeda992	-1.8567374
192	0xbf9a142f	-1.203741
193	0xbfd3d220	-1.65485
194	0xbf4eddfa	-0.8080746
195	0x3ff4e663	1.9132808
196	0xbfeaf9f0	-1.8357525
197	0xbfa396fb	-1.278045
198	0xbfa64c9b	-1.2992128
199	0x3f98fd6a	1.1952336
200	0xbfe7a7a8	-1.809804
201	0x3fc5f377	1.5464925
202	0x3fdee93b	1.7414926
203	0x40197f8e	2.3984103
204	0xbfa3e366	-1.2803771
205	0xbfd4066d	-1.6564461
206	0xbfb79ee9	-1.434537
207	0xbfd6011b	-1.6719087
208	0x3fb585b6	1.418143
209	0xbf4c119c	-0.7971437
210	0x3fa63b87	1.2986916
211	0x3faaf79b	1.3356813
212	0x3f63ccb6	0.8898424
213	0x3fbff649	1.4997035
214	0x3f95b9eb	1.1697363
215	0x3fc2fd99	1.5233642
216	0x3fa1cb3f	1.2640151
217	0x401c42eb	2.4415843
218	0xbff5abed	-1.9193093
219	0x3fba7dd2	1.4569647
220	0xbfec0783	-1.8439792
221	0xbf904d54	-1.1273599
222	0x3f5c1fb2	0.85985863
223	0xbff2a1f0	-1.8955669
224	0x3eceb88b	0.4037517
225	0xbffe0b7e	-1.9847257
226	0x3f748cfd	0.9552763
227	0x3f974508	1.1817942
228	0xbfee8e61	-1.86372
229	0xbf782b07	-0.96940655
230	0x401577a7	2.335428
231	0xbfd3ad5a	-1.6537278
232	0x3f250d38	0.64473295
233	0xbf76080b	-0.9610602
234	0x401ffede	2.4999309
235	0x3f83ecfa	1.0306695
236	0x3fe06bbe	1.753288
237	0x3fea79f0	1.8318462
238	0x3f59c2b1	0.850627
239	0xbffd24c3	-1.9776844
240	0xc014c5f0	-2.3245811
241	0xbf4df34b	-0.8044936
242	0x3fa8c994	1.3186517
243	0x3f5a23d5	0.85210925
244	0xbfb0d4d8	-1.3814955
245	0x3f4ac34f	0.7920427
246	0x3fc32874	1.524672
247	0x3fcf3323	1.6187481
248	0x3f3e2e1a	0.74289095
249	0x3fb8eb67	1.4446839
250	0xbfea40b8	-1.8301
251	0xbfb0bd1a	-1.3807709
252	0xbf9a8d80	-1.2074432
253	0x3fbe6631	1.4874936
254	0xbf8bad3d	-1.0912243
255	0x3f87debf	1.0614852
