drafts/draft_rk/runs_lunarlander/dqn_trial02_seed42.pth (torch, 279705 bytes, 6 tensors)

net.0.weight f4 [256, 8]
00000000: a432 e73d dd91 873e 74f5 413e a9ab 913f
00000010: ffcc 4bbe a5c5 fb3c 7b4c 0fbe 44b5 f03c
00000020: 8cb7 bc3f 1e13 54be 4485 553f 43a1 28bd
00000030: 46b2 863c f63c 113d 8db8 0abe d5eb 3dbe
00000040: 4d75 0e3f 54b9 fbbe c1c4 f13d 020f b83f
00000050: 7549 5ebf 7fd7 723d 2da6 06bf 7655 e03d
00000060: f019 61bf 98f6 87be 191d a7be 8285 2fbf
00000070: 4327 863e fb5e 723e fff3 303e ad92 e8bd
00000080: 7e43 8d3d fa73 df3d 9edb b1be 510d bb3f
00000090: b560 043d 50d4 2e3f 4302 343e 57d2 49be
000000a0: 3bab 0c3f b4f6 09bf bfab bebd c699 963f
000000b0: cc54 f8bd 4392 74be 8262 ac3e 483d 943e
000000c0: d9f5 f63e 9fb9 6fbc 25d5 87be b9ff 8dbf
000000d0: c7c3 9bbf c913 653e 4231 053f b6bb 9cbe
000000e0: 33ce ccbb 0a9b da39 545d 1240 a24e 263e
000000f0: a7e6 10bb ae02 bfbd b221 7539 8875 c9b9
00000100: 099f 8a3d a121 efbe 3256 5c3f 0968 40be
00000110: 92a6 26bf b22b 8cbf cb3b bf3e 5c20 4dbf
00000120: 2a3f 1c3d 8222 cabc 0ac2 cabe 6c5d 0cbf
00000130: 289e f4be 7635 063f 9694 c33d 9411 42bf
00000140: cf5e b5bd 4005 87bf 4d09 a43e 4f54 3ebf
00000150: b535 7a3f d6ec 923f f69a 8e3d 1d11 b7bf
00000160: 97c1 64be 6216 493d 232c ddbd 078c bc3d
00000170: 3da8 08bd db65 4a3f e79c 5bbf e1d3 8cbf
00000180: 18f4 813e 30e4 0dbd 246a 9dbe 0575 42bf
00000190: 3dd7 8cbe a883 07bd be39 d5bd 04ba 71bf
000001a0: 96a8 84be 5c3c 26bf 1618 aabe 2141 68bf
000001b0: 67b0 223f 2ab3 1bbf 006f 35be 642e 1dbf
000001c0: 989b a83e cd0a 11bf 50d4 61bf 0386 abbf
000001d0: 7d32 ac3f 74d8 6abe 7178 09bf 3ff7 c73c
000001e0: d681 1cbf bd81 debf b71d 85be 251e 36bf
000001f0: 62ed b4bf e2fb a3bf cec3 aebf 154e aebe
00000200: eaa0 ff3d b21a 0ebe 34ae 963e 1b96 873e
00000210: 6019 10bf c791 70bd 95a5 01be 09b6 c1bc
00000220: 155e da3e 1373 1fbf 6113 e8be 2947 35bf
00000230: d2f6 ec3e 7db1 983e 5091 d13c c66e c2be
00000240: bdd5 9fba e76f 51bb 0efe a93f 3b69 7540
00000250: d66a d13b 3e63 16bd 25d7 6bba 0b93 d7ba
00000260: d3d5 50be 6b2e 2d3e 153b 0f3f c57c e1be
00000270: 0c80 a5bf 59a1 7e3e 8325 6a3e 0e7c 3cbf
00000280: 2220 30bc c9bd 0dbb d65a 26be 02b8 91bf
00000290: 8570 883e e961 5c3c 41a3 9fbe 37ad b13e
000002a0: 5286 b03a 5bde df39 7445 f5ba 96f0 353a
000002b0: f6f2 1740 ce66 41bd f01b 8b3d 1cf1 72bf
000002c0: 7b73 6dbf 19a0 973d 6b35 a6be 8e12 15bd
000002d0: ecf2 04c0 74e2 f6be 3ff7 29bf 1b13 95bf
000002e0: f4e0 68bd 8ac1 c1bd 015f 923e f9a7 e5be
000002f0: a9ea 6cbf 9cc6 263e 1e15 48bd 8b32 07bf
00000300: 6914 5e3f 5fcd 783e 0745 ccbc 23a1 34bd
00000310: 5db7 ca3f 6895 c4bd 2491 0abf a49f 363e
00000320: f93f 45be f521 85bf a5b2 913f 33f6 1dbf
00000330: bc51 46bd c8ad 83be 9f3d e0bd 5682 b2be
00000340: 4ba8 4abb 3e07 e2be 5146 753f 0bdf 9bbe
00000350: 2c5c 463c fe1b b5be d843 11bf 0fe4 0b3e
00000360: f284 343e 967e 973d 1e3a 48be 1c01 c13e
00000370: 0b06 c1bf d91a 6abf 2311 a23d ad4f 37be
00000380: 376a 45bf 8ca3 63bd a81b ad3e f45e 2f3e
00000390: 0939 1a3f 79ab febd 30b4 ddbd ad24 ad3d
000003a0: 2aa9 f7bd 3470 7b3d 3ef7 caba dc81 b43e
000003b0: e3d6 b73f 9eda 85bf e560 00c0 a794 30bf
000003c0: db37 4bbe 6bc1 e0be 4dea b33d c90c 3cbf
000003d0: f306 943f 6e20 dcbd 0cab bdbe 81f9 1a3e
000003e0: c2eb 0ebc 168c 2cbc 64be b4bc d0ed d9be
000003f0: 9148 cf3e ec79 c3bd de26 2dbf 1da8 ffbd
0.11288956 0.26478472 0.18941289 1.1380512 -0.19902419 0.030733893 -0.13994019 0.02938331
1.4743514 -0.20710418 0.8340647 -0.041169416 0.01644243 0.035458528 -0.13546963 -0.18546994
0.55647737 -0.49164832 0.11805106 1.437958 -0.86830837 0.059287544 -0.52597314 0.109538004
-0.879302 -0.26555324 -0.32639387 -0.6856309 0.2620183 0.23669045 0.17280577 -0.11356101
0.06897639 0.10910793 -0.34737867 1.4613439 0.03231879 0.68292713 0.17578988 -0.19709145
0.54948777 -0.53892064 -0.09310102 1.1765678 -0.12125549 -0.2388392 0.33668905 0.28953004
0.48234442 -0.014631658 -0.26529804 -1.1093665 -1.2169122 0.22370829 0.52028286 -0.30611962
-0.006250167 0.00041695713 2.2869463 0.16240934 -0.0022110136 -0.09326683 0.00023377573 -0.00038425275
0.06768615 -0.46705344 0.86069024 -0.18789686 -0.65097916 -1.0950835 0.37350306 -0.801275
0.038146175 -0.024674658 -0.39601165 -0.5483005 -0.47776914 0.52425325 0.09549825 -0.7580807
-0.08855974 -1.0548477 0.32038346 -0.74347395 0.977382 1.1478527 0.0696315 -1.4302098
-0.22339474 0.04909361 -0.10799434 0.092063956 -0.03336357 0.7906167 -0.8578629 -1.100216
0.2538154 -0.034641445 -0.3074504 -0.7595981 -0.27507964 -0.03308454 -0.10411404 -0.9442446
-0.2590987 -0.6493585 -0.332215 -0.9072438 0.6355042 -0.6082026 -0.17718124 -0.6139891
0.3293121 -0.56657106 -0.8821459 -1.3400272 1.3452908 -0.22934133 -0.53699404 0.024409888
-0.61135614 -1.7383343 -0.25999233 -0.71139747 -1.4134943 -1.2811244 -1.3653505 -0.34043947
0.12481864 -0.13877371 0.2942978 0.2648171 -0.5628872 -0.058732774 -0.12660821 -0.023646371
0.42649904 -0.62284964 -0.45327285 -0.70811707 0.4628206 0.29822913 0.025581986 -0.37975138
-0.0012194436 -0.0031957568 1.3280656 3.8345478 0.0063909097 -0.03671574 -0.00089965976 -0.001644702
-0.20394067 0.16912238 0.5594953 -0.44040504 -1.2929702 0.24866237 0.22865872 -0.7362679
-0.010749849 -0.0021628013 -0.16245589 -1.138428 0.26648346 0.013451078 -0.3117924 0.34702465
0.0013467765 0.00042699542 -0.0018712715 0.0006940452 2.3742042 -0.047217183 0.06792438 -0.94899154
-0.92754334 0.07403583 -0.3246263 -0.03639465 -2.0773268 -0.48219645 -0.6639289 -1.1646456
-0.056855157 -0.09460743 0.28588107 -0.44854715 -0.92545563 0.16286701 -0.048848264 -0.528115
0.86749893 0.24297093 -0.024935259 -0.044098984 1.5837208 -0.095988095 -0.54127717 0.17834336
-0.19262685 -1.0400988 1.1382643 -0.61703795 -0.04841779 -0.25718522 -0.10949253 -0.34865063
-0.0030923064 -0.4414615 0.9581042 -0.30443606 0.012106936 -0.3537292 -0.56744146 0.13661216
0.1762884 0.07397191 -0.1955342 0.3769616 -1.5079969 -0.91447216 0.07913425 -0.17901488
-0.77115196 -0.055575892 0.33810163 0.17126065 0.6024328 -0.124350496 -0.10825384 0.08454261
-0.12092812 0.061386302 -0.0015485061 0.35255325 1.4362453 -1.0457342 -2.005914 -0.68976825
-0.19845526 -0.43897566 0.08784924 -0.7345701 1.1564621 -0.10748373 -0.3704456 0.1513424
-0.008723201 -0.010531446 -0.022063442 -0.4256425 0.4048505 -0.09544739 -0.6763743 -0.12483237

net.0.bias f4 [256]
00000000: 6fa4 2b3e 0cf7 523e be6f 023e c4c7 463d
00000010: 541b 973e c4a7 79be 6243 11bf 44a4 f1b8
00000020: 08a8 75bb ffc4 44bd 6060 08bd aa9c 313d
00000030: b0e0 b73d 8dca 173d dcfd 793d 2cd8 20be
00000040: 2814 723e 440d 8d3e e27b 1f3a 250b 8bbe
00000050: e9e1 803b fb46 9d39 c78b 93bd f878 553d
00000060: c3e5 afbe 521c b93e 44b4 d5bd c3e7 973d
00000070: b88f b2bd 9f10 b73e 2dd5 fabc 0faf d6bc
00000080: 4e47 4cbf 979f aebd 61de cbbe 7c63 ecbb
00000090: ab44 f2bb df62 c83d 5318 5ebd b41c 54be
000000a0: 214a 293e 21b5 12bf 33e8 a8bd bf14 c4bc
000000b0: 9add 52be bc61 ac3d 41c2 0cbf 6d92 2dbe
000000c0: 9598 003e 41d8 d9bc a5a2 92bd 8aae b5be
000000d0: d345 f9bd 7baf 91bc eb4e 283b 586a b6be
000000e0: a3bd 29be cd4d 52bd d687 683d c2a5 13bb
000000f0: e703 703d 1e29 c0be 4433 cbbe 1e47 503d
00000100: ed47 27be 547f 833d 3dc6 653d a710 52bd
00000110: 82a3 38bd 7263 7cbd ed98 453c 2fbb 533d
00000120: 8594 0bbe a3e3 fe3d 8216 70bd 3855 273d
00000130: 8b92 80bd a715 6abe 8c9a e73d 209d 14bc
00000140: ded9 fc3d 82ca 173e 0288 4e3e 09cb 193d
00000150: 4c07 4139 3b9f 903e 8d72 82be fea1 8a3b
00000160: adf8 bebd 6fb1 7ebf 9065 aabe 5908 173b
00000170: fb23 5f3e 0b69 61be 90cd 92ba ebf0 b43d
00000180: 09fb 3b3d 6ad4 dc3d 70b3 9f3e c890 39be
00000190: 9edc aa3d 7ed2 513d 0787 c43e 71a9 1ebf
000001a0: 00db 443e aef1 d7bd 07fd 3cbd 98a0 343b
000001b0: c00b 9a3d ac19 9a3d 412b c0be 1ea9 5fbe
000001c0: 62bc b43d dd5d 64be 2646 983d fa50 343d
000001d0: 443d 27bd 2ad9 85be e085 e0bd b04f bfbe
000001e0: 3aa1 be3c 95ec 673e f0a5 f13c 0598 9c3b
000001f0: 4cb1 33bf bed3 243d c59e 16bc 1e86 f3be
00000200: 9e80 ec3d ec35 da3d 42ec 4bbe 244f 0f3e
00000210: b774 29bf d013 05be 94ae 32ba 3d3e bfbe
00000220: fb1d f4bd e1ac b2be 2636 da3d ca0e 493e
00000230: bcd9 e6be 394f babe 9cd7 01bf 940c 04bf
00000240: 533d 60bd cede 933b 8167 0cbd f94e 02bf
00000250: fb2c 5abe b466 063e 3cac 803e 3041 973c
00000260: 740a e7bb db1a aebe 06b0 12bf 4261 a33d
00000270: de65 a4bd 984a 4d3c 66c4 a9be c0db d53d
00000280: 041e 9a3c 560d a1bb 10eb a53d 1617 e53d
00000290: 8651 dbbd 1eba 8d3e 2340 04bf ce1a 593b
000002a0: 50ab 0abf 33e8 f1be 525c a93c b9cd 1c3d
000002b0: aae3 833d c067 95bd 814d 4cbe 55e5 af3c
000002c0: ff0f b4bb 68ed b3be fccf 1ebe 03fa 843d
000002d0: fbbb 90be bd68 11be b0f4 ca3d fc72 b23d
000002e0: c13e 9fbe c0c7 5fbf f749 80bd 4d41 13be
000002f0: e2e2 e13e 7a77 353e 9c34 ba3b b6e2 eebe
00000300: 6e69 fc3c b5df 03bf 04a0 9cbb 6455 ccbe
00000310: 961a ec3d f84a 30bf fa1c 1dbf 0585 b7be
00000320: 4686 cd3e f8a7 a8be f633 02bf d771 23bf
00000330: 9b76 d6bc 764f 82bf a62e 7b3d ba67 ae39
00000340: 20ad 0b3e 6085 41be d755 1bb9 acaf d2be
00000350: 80a1 7abe 0626 b1be 79f8 343e aaf2 203c
00000360: 7cfe 0b3d aa80 a6be 7d94 cbbe d42c f5be
00000370: 7ab3 8d3b 63de 103e 4c08 1b3d a65b d83d
00000380: 1b13 a9bd 0e0b 533e d99c 023d 82fa b1be
00000390: d7c6 78be eee0 cebd 3fea 21bc a519 8b3e
000003a0: 37d5 cd3d 6d94 a8be a156 86bd 9d22 d7bb
000003b0: 219b 223e da1c fbbe c16c 903e 9a60 9abe
000003c0: 04e7 893d 7815 053d bd03 ce3d 23a1 9bbe
000003d0: 5f28 33be 9175 08bf c67f 773d 75cc 473e
000003e0: 5b5d a5bb ffe6 debe afc2 9dbe 613c 65be
000003f0: a65c 013d ea2e 91be 87e0 2abf 4287 5bbe
0.16761945 0.20602053 0.12737939 0.048530355 0.29513037 -0.24380404 -0.56743443 -0.000115223724
-0.0037484188 -0.048039433 -0.033295035 0.043362297 0.089784026 0.0370584 0.061033115 -0.15707463
0.23640501 0.27549183 0.00060838286 -0.2715694 0.0039331806 0.00029998258 -0.07204395 0.052117318
-0.34354982 0.3615442 -0.104347736 0.07417252 -0.087188184 0.35754868 -0.030619228 -0.026206521
-0.797963 -0.08526533 -0.398181 -0.007214008 -0.0073934398 0.09784483 -0.054222416 -0.20714074
0.16532184 -0.5730763 -0.082474135 -0.023935674 -0.20592347 0.08417079 -0.5498391 -0.16950388
0.12558205 -0.026592376 -0.07159928 -0.35484725 -0.12171521 -0.01778387 0.0025681804 -0.3562801
-0.16576247 -0.051343728 0.05677017 -0.002252922 0.05859747 -0.3753137 -0.3968755 0.050849073
-0.16336031 0.0642077 0.056097258 -0.051285412 -0.04507781 -0.061618276 0.012060386 0.051692184
-0.13630874 0.12445762 -0.058615215 0.040852755 -0.06277951 -0.22859822 0.11308774 -0.009070665
0.12346242 0.14823344 0.2016907 0.037547145 0.00018408633 0.28246483 -0.2547802 0.0042307368
-0.09324775 -0.9948949 -0.3328061 0.0023045747 0.21791069 -0.22012727 -0.0011200178 0.08835014
0.045893703 0.10782702 0.31191587 -0.18121636 0.08342861 0.05122613 0.38384268 -0.619773
0.19224167 -0.105441436 -0.046139743 0.0027561542 0.075217724 0.07524428 -0.37533 -0.21841857
0.08824994 -0.22301431 0.07435255 0.044022538 -0.04082991 -0.26142246 -0.10963035 -0.37365484
0.023270238 0.22648843 0.02949807 0.0047788643 -0.7019241 0.040240996 -0.009193127 -0.4756326
0.11547969 0.10654816 -0.19914344 0.13995034 -0.6619372 -0.12995839 -0.00068161753 -0.37352172
-0.11919781 -0.3489752 0.10654859 0.19634548 -0.45087993 -0.36388567 -0.5071962 -0.5158169
-0.054745983 0.0045126444 -0.034278397 -0.5090175 -0.21306221 0.13125116 0.25131404 0.018463701
-0.0070508067 -0.34004864 -0.5729984 0.07977535 -0.08027242 0.012529992 -0.33157653 0.104423046
0.01881314 -0.00491492 0.08101475 0.11186044 -0.10708909 0.2768106 -0.51660365 0.003312755
-0.5416765 -0.47247466 0.020673905 0.03828213 0.06439908 -0.07295179 -0.1995144 0.021471659
-0.005495071 -0.35142064 -0.15509027 0.064929985 -0.28268418 -0.1420011 0.09909952 0.08713338
-0.31102565 -0.8741417 -0.06264108 -0.14380379 0.4411841 0.17721358 0.005682541 -0.46657342
0.030811992 -0.51513225 -0.0047798175 -0.39908898 0.11528508 -0.68864393 -0.6137234 -0.35843673
0.40141505 -0.3294065 -0.50860536 -0.6384558 -0.026179602 -1.01805 0.061323784 0.00033265149
0.1364026 -0.18898535 -0.0001481393 -0.41149652 -0.2447567 -0.34599322 0.1767291 0.009823481
0.034178242 -0.32520038 -0.39761725 -0.47885764 0.004324374 0.14147334 0.03784971 0.105643556
-0.08255597 0.20609686 0.031887863 -0.34761435 -0.24294601 -0.10101496 -0.009882509 0.27168003
0.10050433 -0.3292574 -0.06559492 -0.0065654055 0.1587949 -0.4904545 0.28207973 -0.30151826
0.06733516 0.032491177 0.10059307 -0.30396375 -0.17495869 -0.5330439 0.06042459 0.19511588
-0.005046529 -0.4353561 -0.30812594 -0.22386314 0.031582497 -0.28356105 -0.6674885 -0.21438316

net.2.weight f4 [256, 256]
00000000: fc51 8bbf f985 babf 44eb adbf 1083 c03d
00000010: 6867 813d 9f2f 863e 0db0 233e 0a67 a43f
00000020: 0009 15be 7693 29be 1032 ee3e 5b26 42c0
00000030: 2ed7 9e3e 4021 ff3e a222 8cbd 1d91 7f3f
00000040: 38b1 2d3d b993 7f3e 5953 3c3f d1d3 73bf
00000050: 9330 a2be 8c25 e23e 00bc 18bf cd5a c2be
00000060: 826b 2ebf cfb6 a93e 8258 f03d efd0 7e3d
00000070: 747f f0be 0f7c 963e 6fdd 54bf b0ac 33bf
00000080: f845 25bf 64d3 16be bca0 003f 6f8c 503e
00000090: ac61 a8be 5905 f1be b7f2 f6be cbce efbf
000000a0: 419c aabd f658 f13e c159 ffbe e7da 693e
000000b0: 5bf5 60bf 7286 a43e 70ab 1c3f 98df 81be
000000c0: ed46 10bf 244a f6be 7752 0ec0 6faa 1d3e
000000d0: 3bf9 aabf 55a4 8c3d e332 2b40 ec99 43bf
000000e0: 5ce0 1cbe dba1 eabf 6a50 693d 478b bdbe
000000f0: 034d 05bd fcff e1be dfa0 48bf 73b6 86be
00000100: 1327 943e 837c ca3d ca6f 4ebe 21c7 703d
00000110: d7ef 093f 37d6 5abe 002a 6cbf 79fe 3dbd
00000120: 9d13 9abc c231 0dc0 de65 fb3d 54ce d0be
00000130: 8abc 3dbf c773 003e f992 103f 861e a9bd
00000140: 17cf 0d3f 5d80 7ebe 0d91 4a3d 61b7 6cbf
00000150: f6b6 603f fe31 053f b7a5 ba3d 51ff 99bf
00000160: cb71 51bd 1e2b 333f e93a 56bf 2376 be3d
00000170: 8576 b73e b731 603e f775 a8be f7ab 15be
00000180: 7a0c e5bf ed0e 9a3d 55a0 073f 19fa a63c
00000190: a589 d43d 9851 653d 6e49 35bf be46 0fbf
000001a0: 3028 973e 5068 ecbe 9f7b a8be 552c 983e
000001b0: afe5 01be f530 603e a191 823d dc39 adbd
000001c0: 9ac4 7c3e 9084 1dbf 6a13 18bf d999 873f
000001d0: 1ee0 28bf 424b 773c 7b50 8c3e ec1d 2e3e
000001e0: e4bf 943d 75e7 fe3d 1259 08bf 4400 b63d
000001f0: 0eb9 df3e 36fa a33f dbc9 3fbc acb8 5a3c
00000200: 67ff 5fbd 32e4 7ebe 0762 9bbd 6baf 2a3f
00000210: 3b9b fe3c 0dc4 8c3e 7111 4c3d a951 213e
00000220: bad1 fe3e af51 0ebf 13c5 583f 8fc4 1d3e
00000230: 1d52 01be 8932 8fbe d691 8fbf b503 99bf
00000240: 771b 74be 3415 603f 7bed 923e 8c80 313e
00000250: 4cba 2c3e b4ba c5be cd23 acbe 35b0 34be
00000260: fa1a ddbc b385 b73e d4e5 4abd a3d9 01bf
00000270: e1d3 24bf fe5d f5bf fc8d 28bd a6a4 e83e
00000280: ef67 0bbf 4347 37be a31d e6bd c7a8 883d
00000290: d9b0 c0be ac5d a7be da93 173e 1355 afbe
000002a0: b838 d03f 55a4 163f 74ab d23c 054c 80be
000002b0: 37d9 143e a881 90be 7f3b 993c 23e1 bdbf
000002c0: 0ccd 0dbe b447 84bf c60e 273d 9246 abbf
000002d0: 8eb5 e1be 1e7d 28c0 a724 ee3d c85a 893e
000002e0: 8ff5 173f 99ad 05c0 25fa 66bd 773b ae3e
000002f0: 0b14 213f 49ea adbd 007b 773e 8ded 4f3f
00000300: d092 323e 8080 313f 5b61 fc3c 0fd3 c8bb
00000310: f2ce d4bd 848b 4cbf a959 ec3e 32b3 d1bd
00000320: 839d 1e3f b86b b03e 4435 423a 36e8 53bc
00000330: d404 0abf 02f5 b5bf 4646 253f 12b6 e53e
00000340: becd 383f 0924 be3e 48bf 363f 9b19 d5be
00000350: 32f1 003e d6a8 163d ba5d c63d 20ff b8bf
00000360: 8ce3 063f 428e 8ebe 424c 693d 2837 e6bc
00000370: 0ac8 783d 7170 92bd f898 0cbf 401c 7d3e
00000380: b691 a83c 2e47 003f 1a6d 31bf f8c1 b4bf
00000390: 4606 e8bf 3e66 993e d45c 2a3e 7377 193f
000003a0: 1115 343e 415b 1e3e 2589 953c e15f 22bf
000003b0: ce1a 073f 9c7a 8cbf 677c 86bf 01a8 f73e
000003c0: ef41 2b3f a321 f1be 5afe 1dbf 2d7c 23c0
000003d0: 3060 4f3e 4101 45be 8bb2 07be 516d 8c3e
000003e0: 4c96 5abe d176 cf3e 83a1 cbbf e83b 203e
000003f0: bf0f f03d 536c 4cbd 1f39 19c0 1c8d 8abe
-1.0884395 -1.4572135 -1.3587422 0.09399998 0.06318551 0.26208207 0.15985127 1.2843945
-0.14554214 -0.16560158 0.4652257 -3.033591 0.31023544 0.49830055 -0.06842543 0.998308
0.042405337 0.24958695 0.7356468 -0.9524508 -0.31677684 0.4416927 -0.59661865 -0.379599
-0.68132794 0.33147284 0.117356315 0.062210973 -0.4697224 0.29391524 -0.8315038 -0.70185375
-0.6455989 -0.14729077 0.5024526 0.20366071 -0.32887018 -0.47074392 -0.48232052 -1.8734983
-0.08330584 0.47138184 -0.49873164 0.22837411 -0.8787438 0.32133824 0.6119909 -0.253659
-0.56358224 -0.4810344 -2.2237833 0.15397047 -1.3357309 0.06867281 2.6749809 -0.7640674
-0.15319961 -1.8330644 0.056961454 -0.37020323 -0.032544147 -0.44140613 -0.7837047 -0.26311073
0.2893606 0.0988703 -0.20159832 0.058783654 0.5388159 -0.21370779 -0.92251587 -0.046385262
-0.01880818 -2.206162 0.12275289 -0.40782416 -0.7411581 0.12544166 0.5647426 -0.08257775
0.5539412 -0.24853654 0.049454737 -0.92467314 0.87779176 0.5202941 0.09113639 -1.2031041
-0.051133912 0.69987667 -0.8368364 0.092998765 0.3583261 0.21893965 -0.329025 -0.1461638
-1.7894433 0.07522378 0.5297902 0.020382928 0.10377816 0.055986017 -0.7081517 -0.5596732
0.29522848 -0.46173334 -0.32906815 0.29721323 -0.12685274 0.21893676 0.06375433 -0.084583014
0.24684373 -0.615304 -0.59404624 1.0593826 -0.65966976 0.015093626 0.27405152 0.17003602
0.07263163 0.12446491 -0.5326091 0.088867694 0.43695873 1.2810733 -0.011705841 0.013349693
-0.05468693 -0.24891737 -0.075870566 0.66673917 0.031079879 0.27493325 0.04982132 0.15753807
0.49769384 -0.5559339 0.8467571 0.15407012 -0.1262898 -0.27968243 -1.1216381 -1.1954256
-0.23838602 0.87532353 0.28696808 0.17334193 0.16867942 -0.38619006 -0.33621064 -0.17645343
-0.026990402 0.35844192 -0.049535587 -0.5072271 -0.643858 -1.9169309 -0.04115103 0.45438117
-0.54455465 -0.17898278 -0.112361215 0.06672817 -0.37634924 -0.32688653 0.14802495 -0.34244594
1.6267309 0.588445 0.02571652 -0.25057998 0.14535986 -0.2822392 0.018705128 -1.4834331
-0.1384775 -1.0334382 0.040785573 -1.3380911 -0.44083828 -2.6326365 0.11628085 0.26827073
0.5935907 -2.0887206 -0.0563909 0.34029743 0.6292121 -0.08491952 0.24168015 0.8122185
0.17438817 0.693367 0.030808141 -0.006128676 -0.10391034 -0.79900384 0.46162155 -0.10239257
0.61959094 0.34457183 0.000740845 -0.012933781 -0.5391362 -1.4215395 0.64560354 0.4486547
0.7218894 0.37136868 0.7138562 -0.41621098 0.12592009 0.03678211 0.09685846 -1.4452858
0.5269096 -0.2784291 0.05695749 -0.028102472 0.060737647 -0.07150353 -0.5492091 0.24717808
0.020577293 0.5010861 -0.693071 -1.4121695 -1.8126915 0.29960817 0.16636974 0.5994789
0.17586161 0.15464498 0.018253872 -0.6342755 0.52775276 -1.0974917 -1.0506715 0.48370364
0.6689748 -0.47095975 -0.61716235 -2.554454 0.20251536 -0.1923876 -0.13251702 0.27427152
-0.21346396 0.40520337 -1.5908664 0.15647852 0.11721753 -0.049907994 -2.3941114 -0.27060783

net.2.bias f4 [256]
00000000: c996 e2bd 1f21 383e 850c 3d3e 6030 7ebe
00000010: 119f 343e 11c3 88bd 347e 923d e339 063e
00000020: 9ed2 bb3c 5f53 b3be 726e 1c3e 0de0 3b3e
00000030: d284 513d f7dd 2c3e bcbb 0d3d f5b4 57be
00000040: 3d3e 0cbd 1f88 7a3d 3469 513e b1c0 47bc
00000050: 074d 46bd d81f fdbd 5976 6c3e 5a4b 003e
00000060: 610e e23d cef1 553e 82f1 093d 4c30 80be
00000070: 7456 9ebe a760 e53d 42a2 15be f4ea 30be
00000080: 64c9 8a3d 5ec3 d73d 81bd ec3c 94ff 12be
00000090: 0422 293d 32bb bf3d 7564 483c d2e5 273e
000000a0: 3cd4 1dbd 35c5 583d 0b93 993d f5e9 97bd
000000b0: e3ec 203e eeda 82bd 0e1d e63d 89f0 653e
000000c0: 237a 9bbd 87a1 68be 594f e73d 1cd2 98be
000000d0: a13d 71bf 32ff efbd 70ab 443d 56f7 fc3d
000000e0: 8e7e c33c 7e5b a43c dae0 5b3d 5886 64bd
000000f0: 627d adbe bf44 3cbe 10f0 553e c6d9 d33d
00000100: e865 40bf 19eb 0f3e 55d3 923c be31 ec3d
00000110: 5ad2 67be 2e8a fabc 9432 b3bc 45fe 973d
00000120: a2ee a03d 10f8 15bd 1382 83be 16ed ff3c
00000130: 47e7 3e3c a3e7 4bbc bdb3 223e 5c36 363d
00000140: 0d5b ccbc 7019 8fba ff92 a7bd c3b1 e23d
00000150: 6ecc 463e 723b 14be d2c2 073b 1376 19bf
00000160: 12dc 433e 2342 823c 0812 363d de25 0c3e
00000170: b92a b9bd 31ee 5e3c 5230 793e 148b cb3b
00000180: 6d28 8abe b7dd 01be d887 36bd 0592 18bc
00000190: e45c 61bd b0f8 0fbf e4a7 18be 5e05 193e
000001a0: f0d4 e33a 4c0b 313e 818b c43c 265b 8d3d
000001b0: 3e1c d63d 43d8 96bd 799e 163e 7cb8 a6bd
000001c0: bfdd 12be 8ed9 9b3c 6e8a 9bbc 6680 8f3d
000001d0: f1fd febd 14f9 43be ea03 04be 5b3c 82bc
000001e0: 4a48 48be 04b0 b3be ac42 233d f695 023e
000001f0: 4c56 ac3d d8fb 42bc 2e7e cebc f358 bbbc
00000200: 20a4 a33d 8506 1a3e 135a 273d c5a2 eaba
00000210: 2e3c 973d e41c b63d 7b60 98bd f787 d2bc
00000220: ab77 5cbe 6ecd edbb 9728 963d 80b8 82be
00000230: ac86 873d 705f 623e 3982 aa3d d7e9 89bd
00000240: 7c7f 843d 6b0a 073d 7989 d43d 6d3d 673e
00000250: 1a17 09bd a3e6 9d3d 51ed 99bd 9f14 88be
00000260: 26c9 d2be 10dd 76bc 931c 75bd a619 d9bc
00000270: 4734 5a3b ec73 863e be58 163d 4b54 7fbc
00000280: 6208 33bd 282c 07be 7981 babc 6de9 2bbe
00000290: eb50 44bc a2aa a7bc 8041 09be 577c d6be
000002a0: 173d 16bd 552d 9dbd 9880 303e 969e 873e
000002b0: 33c7 1ebe 67bb 0ebd d8a6 3d3e 2cc8 463e
000002c0: 7199 3b3e e6a2 c03c 4e4a 533e c8e0 d8bc
000002d0: b02d 2e3e 0199 a73d 7a45 063e 8e97 4fbd
000002e0: 4340 09bb faf2 e43d d43a 803d ef7c 59be
000002f0: b75a 02bc 5abe eabd b950 a4be 03cb cabd
00000300: 743b d1bd 354e 803e bf5d 173e c7ac c7bc
00000310: b034 123d ac37 3ebd b4f4 f93d 9505 76be
00000320: 20c9 32be a010 d1bc 2ac1 59bd ba7c 95be
00000330: f7a3 92bd ce90 0f3e f2f6 113e ad46 ad3c
00000340: 084b 80bd 1e3e c83c 1734 dfbc 2433 4dbe
00000350: 0088 41be 9f12 dc3d a39c b0bd 465f d63b
00000360: e728 0b3d 0c2e 5cbd 6521 c6be 318a bebd
00000370: acd5 1cbe 21a2 9b3c 81c8 95bd ef37 96bd
00000380: 94fd 2ebe b947 fabd c086 c23d 3e32 a0be
00000390: e79f c03c ca95 24bd 2533 21bf 8d03 ca3d
000003a0: 5b9f 893d be26 f93d 6fd0 0dbc 3a6a 29bb
000003b0: 9828 463c 84e8 133e 30f6 883d 6121 6f3d
000003c0: b0c4 f2bd c9f3 303e a0db b03d 911b 983e
000003d0: c2da fa3b 09de 5bbd acf8 ffbd a87f ba3c
000003e0: d893 a03e bfde 8cbe d331 b6bd a514 503c
000003f0: 7420 d9bd 7963 f5bd cd64 9cbe 4b56 893d
-0.11063916 0.17981385 0.18461807 -0.24823141 0.17638804 -0.06677831 0.071529776 0.1310802
0.022927579 -0.35024545 0.15276507 0.18347187 0.051152058 0.16881548 0.034602866 -0.21065123
-0.034239043 0.06116497 0.20450288 -0.012191937 -0.048413303 -0.12359589 0.23092021 0.12528744
0.11037899 0.20893022 0.033677585 -0.25036848 -0.30925333 0.112000756 -0.14612678 -0.17277128
0.067766935 0.1053531 0.028898956 -0.14355308 0.041292205 0.093618765 0.012230982 0.16396263
-0.03853248 0.052922446 0.07498749 -0.07417671 0.15715365 -0.06389414 0.112360105 0.22455038
-0.07591655 -0.22717868 0.11294431 -0.298478 -0.94234663 -0.117185965 0.048015058 0.12351863
0.023864057 0.020063158 0.053681232 -0.055792183 -0.33884722 -0.183856 0.20892358 0.10344271
-0.75155497 0.14054526 0.017923037 0.11532925 -0.22638837 -0.030583467 -0.021874703 0.07421545
0.078580156 -0.036613524 -0.25685176 0.031240981 0.0116518205 -0.012445363 0.15888877 0.044485435
-0.02494576 -0.0010917615 -0.08182334 0.110690616 0.19413921 -0.14475802 0.0020715487 -0.5994579
0.19126919 0.015900677 0.04445079 0.1368632 -0.09041352 0.013606594 0.24334839 0.0062116478
-0.26983967 -0.12682234 -0.044563144 -0.0093121575 -0.055020228 -0.5623884 -0.14907795 0.14943454
0.0017382186 0.17289466 0.023992302 0.06902151 0.104546055 -0.073654674 0.1470889 -0.08140656
-0.14342402 0.019024637 -0.018986907 0.07006912 -0.12450779 -0.19137985 -0.12892118 -0.01589792
-0.19558826 -0.35095227 0.039858505 0.12752518 0.08414897 -0.011900865 -0.025206652 -0.022869563
0.07990289 0.1504155 0.040857386 -0.0017901292 0.07384525 0.08892229 -0.07440277 -0.025699599
-0.21530025 -0.007257155 0.07331961 -0.25531387 0.066174835 0.22106719 0.08325619 -0.067340545
0.06469628 0.03296892 0.10377783 0.22582026 -0.033469297 0.07710006 -0.07515968 -0.26578233
-0.4116909 -0.015067354 -0.059841704 -0.026501488 0.003329532 0.26260316 0.036705725 -0.015584062
-0.043709166 -0.13200438 -0.022766815 -0.16788264 -0.011982183 -0.020467106 -0.13403893 -0.4189174
-0.036679354 -0.07674662 0.17236555 0.2648818 -0.15505676 -0.03484669 0.18520677 0.19412297
0.18320252 0.023515176 0.20633814 -0.026474372 0.17009616 0.0818348 0.1311244 -0.050681643
-0.0020942844 0.111791566 0.062612206 -0.21239065 -0.007956198 -0.11462088 -0.32092836 -0.09902003
-0.10216418 0.25059667 0.14781855 -0.024374379 0.035694778 -0.04643981 0.122048765 -0.24025567
-0.17459536 -0.025520623 -0.05316273 -0.2919672 -0.0716018 0.14020082 0.14254358 0.021151865
-0.06264311 0.024443682 -0.027246518 -0.2003904 -0.18899536 0.10745739 -0.08623626 0.006542119
0.033974554 -0.05375485 -0.38697353 -0.09303702 -0.15315884 0.018998208 -0.07313634 -0.07334887
-0.1708892 -0.12220711 0.09498358 -0.31288332 0.023513747 -0.040181912 -0.62968665 0.098639585
0.06719848 0.121655926 -0.0086556515 -0.002585067 0.012094639 0.14444166 0.066875815 0.058381442
-0.118539214 0.17280497 0.0863564 0.29708531 0.0076554725 -0.053678546 -0.12498602 0.02276595
0.31362796 -0.27513692 -0.08896222 0.012700235 -0.10601893 -0.119818635 -0.30545655 0.06705912

net.4.weight f4 [4, 256]
00000000: a0b5 0c3f 6d9f 30be 5e08 b8be f07a a8be
00000010: ebba dfbe 7200 e43e ed7a dc3e 18ff e63e
00000020: f00c 14bd e663 ac3f e392 3ebf 5b56 6fbe
00000030: 2d79 043f d39a 45bd a8a2 adbe b85a 8d3e
00000040: f17d bf3e 189e 92be 23d8 28be f8c0 d33d
00000050: dc46 763d 7469 eb3e da69 9fbe 5696 18bd
00000060: 5c18 3cbe 33d0 eabd dfc0 d33e 43e3 5f3e
00000070: 584a 5fbf 9c58 a0bc 30cc 46bf f045 48bf
00000080: 8d47 8cbb 9995 d43e f4da 55bc 32e9 6b3f
00000090: 430d 263d 8f1d 0b3e b688 e23d cab7 70be
000000a0: 94ea bd3f d16c 81be cc33 1e3e cb8c 143f
000000b0: 5f38 e53e f5b1 2c3f 645b f23e c18e 5bbe
000000c0: 045d 8f3e 27c0 cdbe 7173 4d3e 89f6 1740
000000d0: 48dc 0340 224d f73e 9ae3 65be 9486 07be
000000e0: 2657 a5bd 9e4e e9be 13c4 26be 61d7 763d
000000f0: ff58 1d3e 418c 3c3e c1c0 63be 1f86 abbd
00000100: f8a1 11bf 7d5a 903e b138 063f b985 a0be
00000110: b086 bfbf b040 b7bc 109e 983c 1a06 573f
00000120: f808 90bf b879 72be ae2c 1d3f f140 b2be
00000130: bb5b 70bf bc6a ee3c c9ee 70be 45d4 f83d
00000140: 1977 c93f 20c2 143d ad3e a1be 041e d83e
00000150: edbb d2bd 2a28 2e3f 0593 be3e b8f1 31c0
00000160: 7699 1ebf a6a1 32bf 3a83 18bf 236d f7be
00000170: bed8 35be c95c 513e 3e7e 24bf ca7e 93bd
00000180: 14d9 aebf 5962 ebbe 0fef 0640 e0b3 9abe
00000190: 99e0 7abf 10b1 973f 54d4 8dbf 0cc1 84bc
000001a0: 6023 7f3f c72e 8dbf f92b e3be e055 37be
000001b0: 0014 1abe 2b3d 10bd 5d38 32be dfc9 993d
000001c0: 6819 e43e e8e5 c1be 5ee9 76bc 9f67 0a3e
000001d0: b0ea 263f 6839 dc3e 4ce7 49c0 2477 d8be
000001e0: e0da 3bbf ec00 e9bf 81a6 a23e b3bb 113e
000001f0: 78d8 a9bf ef98 c7bf ac54 96be 5861 463d
00000200: 7b43 a7be 3f4e c4be f393 cc3f 6009 253d
00000210: 26f3 52ba ce7a 2d3e 194e a5bd d691 8c3e
00000220: 70f9 5dbf 5872 59be 57e5 4e3e 666e 113f
00000230: 283a 493f 031e fdbd 39bf 963e 41ea 2abd
00000240: 7106 05bf 7d56 b3be d37f 5ebd 7135 3abe
00000250: 2047 d63c ac25 393e 7575 01bf c271 b9bf
00000260: 0a8b 83bf 5121 d33e ab11 f83d a935 cfbe
00000270: c9c3 5f3c 0874 7a3f ef7a ae3e 92c1 313f
00000280: 4796 0e3f c499 90bf 2a0e 483c 3355 9abf
00000290: f273 0d3e 5431 84bf d9f2 803f dae6 6c3f
000002a0: 1a1e 533c 815b b53e eab7 fcbe dcbe 6fbe
000002b0: 23cc 6a3e 05b6 8d3f e808 ccba ba3c 983f
000002c0: 2636 62be fb53 183d 3117 443e b500 243e
000002d0: 174a 60be c50a 89bd e3a3 80be cc5d e8bc
000002e0: fcb9 b63c d9f7 59be 92aa 7e3e 08f9 98bf
000002f0: 0742 35bf e37e 953b 4d47 6bbf 9b19 06bf
00000300: b9ea c63e 797e e3be 7f27 ddbe 4ecf bcbe
00000310: 9c06 813e ce80 c7be 8166 bb3f 07e3 053f
00000320: 9889 843e 220e ffbf 8c9f eabe 92fa 503f
00000330: d0b5 5c3f f6ef 0abe d19d 72bd 828a 163d
00000340: 4b81 2dbd 7b2b 473d 086b c2bc cd6c c0be
00000350: 0e22 8c3e f50e 983e 6233 a23b ecf0 80be
00000360: 36c7 e43e 7493 eabc 7ca6 04be 6257 aabe
00000370: 7c63 50bf 943d 61bf 4e93 433e f5e3 bc3e
00000380: db28 393f bc89 923f 1b0d 39bf 0ec0 bbbe
00000390: f3af 533f 6866 87be 97db 93bf e6d9 8bbd
000003a0: c1b6 7b3f acbc 7ebe 0886 0b3f 78a3 a3be
000003b0: 4729 423e 29b3 27bf 650e aa3e 3eea 60bf
000003c0: 70d6 79be 28ea 15bf c472 6d3f 4b88 80be
000003d0: ff25 c3be 2df9 3f3f 6aa6 893f 0490 f7be
000003e0: 268e b9be 4980 08bf 884d 9a3e e59f 673d
000003f0: 11f2 97be 58ef 60bf d750 0dc0 ceb5 333e
0.5496464 -0.17248316 -0.35943884 -0.32906294 -0.43697295 0.4453159 0.43062535 0.45116496
-0.03614515 1.3467987 -0.7444288 -0.23372786 0.517474 -0.048243355 -0.3391316 0.27608275
0.37400773 -0.2863624 -0.164887 0.1033954 0.06012617 0.45978892 -0.31135446 -0.037252747
-0.18368667 -0.11465492 0.41358086 0.21864037 -0.87222815 -0.019573502 -0.77655315 -0.78231716
-0.0042809905 0.41520384 -0.013052691 0.921527 0.04053999 0.13585494 0.11061232 -0.2350761
1.4837213 -0.25278333 0.15449446 0.58027333 0.4476957 0.6745904 0.4733535 -0.21441175
0.28000653 -0.40185663 0.20063569 2.3744223 2.06032 0.48301035 -0.22450104 -0.13234931
-0.08073263 -0.45567793 -0.16285734 0.060263995 0.1536598 0.18412878 -0.22241499 -0.08375191
-0.5688777 0.28194037 0.52430254 -0.31352022 -1.4962978 -0.022369713 0.018630058 0.83993685
-1.1252737 -0.23679245 0.613963 -0.3481517 -0.9388997 0.02910363 -0.2352859 0.12149862
1.5739471 0.036317945 -0.3149313 0.422104 -0.1028975 0.68030035 0.37221542 -2.7803783
-0.6195291 -0.69777906 -0.59575236 -0.48325452 -0.17758462 0.20445551 -0.6425513 -0.072019175
-1.3659997 -0.4597347 2.108341 -0.3021536 -0.9799896 1.185091 -1.1080422 -0.016205333
0.9966335 -1.10299 -0.44369486 -0.17903852 -0.15046692 -0.035214584 -0.17404313 0.07509207
0.44550633 -0.37870717 -0.0150702875 0.13516091 0.65201855 0.43012547 -3.1547422 -0.42278397
-0.7338085 -1.8203406 0.31767657 0.14231758 -1.3269186 -1.5593547 -0.29361475 0.048432678
-0.3266867 -0.38340947 1.598265 0.040292144 -0.0008047096 0.16941378 -0.080715366 0.27455014
-0.86708736 -0.21235025 0.20204674 0.5680908 0.78604364 -0.1235924 0.29442766 -0.04172731
-0.51962954 -0.35026923 -0.05432112 -0.18184449 0.026156962 0.18080777 -0.5056985 -1.4487841
-1.0276806 0.41236356 0.12112745 -0.40470627 0.013657519 0.978333 0.34078166 0.6943599
0.55698055 -1.1296926 0.012210408 -1.2057251 0.13813761 -1.0327554 1.0074111 0.9253975
0.012885595 0.35421374 -0.49359065 -0.23412651 0.22929434 1.1071173 -0.0015566619 1.1893532
-0.22090968 0.037189465 0.19149472 0.16015895 -0.21903263 -0.06691507 -0.25125036 -0.028365038
0.022305481 -0.21285953 0.24869755 -1.1950998 -0.70803875 0.004562245 -0.9190567 -0.5238282
0.38850954 -0.44432428 -0.43194196 -0.3687691 0.25200355 -0.38965458 1.4640657 0.5229954
0.25886226 -1.9926188 -0.4582485 0.8163234 0.86214924 -0.135681 -0.059232537 0.036753185
-0.04235963 0.04862545 -0.023732677 -0.37583008 0.27369732 0.2969891 0.004949973 -0.2518381
0.44683236 -0.028634764 -0.12954134 -0.33269793 -0.814018 -0.87984586 0.19099161 0.36892667
0.72327965 1.1448283 -0.7228562 -0.36669964 0.8269035 -0.26445317 -1.1551389 -0.0682867
0.98325735 -0.2487666 0.5450139 -0.31960654 0.18961059 -0.6550775 0.33214107 -0.87857425
-0.24398208 -0.5856042 0.92753243 -0.25103983 -0.38114926 0.7498959 1.075391 -0.48352063
-0.36241263 -0.5332075 0.30137277 0.05654897 -0.2967687 -0.8786521 -2.208059 0.17549822

net.4.bias f4 [4]
00000000: 2270 cebd 337b 473e a6dd 8b3d 678e 7b3d
-0.100799814 0.1948059 0.068293855 0.061415102
