drafts/draft_rk/runs_lunarlander/dqn_trial04_seed42.pth (torch, 279705 bytes, 6 tensors)

net.0.weight f4 [256, 8]
000000 b0 07 89 3e fe f8 a4 3e 1b c3 cd bc 17 48 33 3f
       0.26763678 0.32221216 -0.025117448 0.70031875
000010 05 0e 0c bd 69 20 2f 3d 7d 58 eb bd ee db 1b 3e
       -0.034193058 0.042755518 -0.11491487 0.15220615
000020 67 e5 10 3f cf 8b 56 be d4 a1 5f 3f f3 ca 21 3d
       0.5660004 -0.2095177 0.87356305 0.039500188
000030 60 c2 2e 3f 9d 76 a3 3e c2 55 72 bd e8 63 a0 bd
       0.6826534 0.31926432 -0.059163816 -0.078315556
000040 32 23 5d 3e c8 9d 02 3e f1 cb 1e 3d 56 61 6a 3c
       0.21595457 0.12755501 0.038768712 0.014305433
000050 83 32 c7 be de db 1f be fa 63 27 be ea 49 cf 3e
       -0.38905725 -0.15611216 -0.16346732 0.4048608
000060 6d 0d 56 be c7 2b e6 bb 94 8b ef bd a6 c6 d4 be
       -0.20903559 -0.0070242616 -0.11696544 -0.41557807
000070 a0 e7 2e 3f b0 4a 0f bf a0 b5 bf 3e d8 99 62 be
       0.6832218 -0.5597334 0.37443256 -0.22128999
000080 69 c8 9f 3e 2b 4f d1 3d fc 95 72 3b 18 e8 09 3f
       0.31207588 0.10220178 0.0037015667 0.5386977
000090 50 86 22 be dc 3e a0 3e e4 1e 3e be f4 4b df bd
       -0.15871549 0.31297958 -0.18566471 -0.10903159
0000a0 5d 9f a4 3d f7 f1 ba bd 68 2f bc 3e 85 3c 75 3f
       0.08038209 -0.091281824 0.36754918 0.9579547
0000b0 6b 3f 59 bd e3 fb d4 be 99 44 ae 3e 51 dc 1d 3e
       -0.053038996 -0.41598424 0.3403671 0.15416075
0000c0 44 c9 24 bd 35 b2 be be 2f fa 05 bf 5a bb b2 be
       -0.040231004 -0.37245336 -0.52334875 -0.34908563
0000d0 5d 51 48 3e 5d e1 9f 3e 5f d0 53 3e 7e da 85 3e
       0.19562288 0.31226626 0.20684956 0.2614326
0000e0 6e 6a 8a 3b bf 16 12 3c 24 a1 68 3f f5 36 c4 be
       0.004224113 0.008916556 0.9087088 -0.3832318
0000f0 5c e4 e4 b9 1e 5f 43 be a1 77 25 bc 27 c0 88 3c
       -0.0004365769 -0.19079253 -0.010099323 0.016693188
000100 4b 91 61 3e 3b d8 06 be 9a b3 d1 3e 50 1b 43 be
       0.22028081 -0.13168423 0.40957338 -0.19053388
000110 fb 87 fe be 0c 20 a3 be c8 b6 a2 3e 05 69 05 3e
       -0.4971312 -0.31860387 0.31780076 0.13028343
000120 15 0b a2 3e de e1 20 be 7b 88 f6 be 7d d8 f8 be
       0.3164908 -0.15711161 -0.48151 -0.48602667
000130 7f f7 a8 be e4 3d 60 3e cf d9 60 3e 1e d6 b1 3e
       -0.33001325 0.2189861 0.21958087 0.3473367
000140 c2 35 1e 3e 52 ef ba be d5 c3 bc 3e 7f ff d9 be
       0.15450194 -0.36510712 0.36868158 -0.4257774
000150 d5 c5 c0 be 8a 19 d0 bd 71 00 af 3e 00 c3 13 bf
       -0.37650934 -0.10161121 0.34180024 -0.5771942
000160 17 36 44 bd d9 00 24 3e ac b8 bc 3e 29 4d 13 be
       -0.047903147 0.16015948 0.36859643 -0.14384903
000170 0c 98 56 3e 1e 9a 2c 3f 13 bf 1c 3e 17 86 c7 be
       0.20956439 0.67422664 0.15307264 -0.3896949
000180 1e 4c 9b 3e 84 01 b3 3d 5e a2 31 be e6 6e 05 bf
       0.3033151 0.087405235 -0.17347094 -0.5212234
000190 07 48 84 be 21 b7 50 3d 61 96 dc be 00 6c dd be
       -0.25836203 0.050955895 -0.4308348 -0.4324646
0001a0 09 ad b7 bd cb 20 2d bd 71 db ac be 3a d1 10 bf
       -0.08968551 -0.042267602 -0.3376117 -0.56569254
0001b0 2f ef a2 be 11 a4 aa be 37 67 ca 3e 1a 3c 04 3e
       -0.31823108 -0.33328298 0.39531872 0.12913552
0001c0 5d 33 2a 3d f7 7c f1 be e6 16 47 be a4 a7 ef be
       0.04155289 -0.47165653 -0.19442329 -0.46807587
0001d0 77 4e 55 3e cf dc 91 be cb d3 f8 be 91 b5 a3 be
       0.20830713 -0.28488776 -0.48599085 -0.31974462
0001e0 66 d7 98 3d a8 7b 24 be 27 37 36 3e 31 00 dd be
       0.07462959 -0.16062796 0.17794476 -0.4316421
0001f0 63 7d d1 be b8 cb 03 bf 5f d9 16 bf 59 11 4c 3d
       -0.40915975 -0.51482725 -0.5892543 0.04982123
000200 66 a4 c0 3e 65 2e 73 bc d9 0c a5 3e c4 e5 a3 3e
       0.37625426 -0.014842604 0.32236364 0.32011235
000210 56 60 74 bf 0a be 77 3e 64 79 d9 bd 17 b3 c1 bd
       -0.95459497 0.24193588 -0.106188565 -0.09457987
000220 11 f4 fa be d7 63 ba be 67 f2 ed bd 35 18 c3 be
       -0.49014333 -0.36404297 -0.116185 -0.38104406
000230 f2 d7 70 3e 06 8f ab be 27 ab c4 3e 0a bd 89 be
       0.23519877 -0.33507556 0.3841183 -0.26902038
000240 c1 5c 48 be e1 26 b2 3c 73 24 01 3f 96 a8 6c 3f
       -0.19566633 0.021747055 0.5044624 0.9244474
000250 92 54 de 3e 98 a1 74 be 5e b8 f1 bd 93 ef de 3d
       0.43423897 -0.23889768 -0.118027434 0.10885539
000260 0d 61 57 3e 25 7b 8d be b2 ca 2d 3f 5e 9f 14 bf
       0.21033116 -0.27633014 0.67887414 -0.58055675
000270 32 35 42 be 17 5d 5b 3e c4 54 23 be 59 fa a1 be
       -0.18965605 0.2142223 -0.15950304 -0.31636313
000280 46 99 df 3e 43 bd 52 3e 5f 4a 24 3e 92 1a 0f bf
       0.43671626 0.2058001 0.16043995 -0.5589992
000290 bb de 9e 3e ab 1c 83 be 25 5b 99 be 28 2a b4 3e
       0.31029305 -0.2560781 -0.2995235 0.35188413
0002a0 01 20 90 bd 06 f8 d6 bd 1c fc 7d be 27 fe a7 bd
       -0.07037354 -0.104965255 -0.24803203 -0.082027726
0002b0 1c 15 e8 3e 92 6b 5e 3e f6 c7 47 3d 08 8b 2f bf
       0.45328605 0.21720722 0.048774682 -0.6857152
0002c0 d7 e1 db be 0e a1 87 3e 50 cb 11 3f b3 2c c5 be
       -0.4294574 0.26490062 0.56950855 -0.38510665
0002d0 5d 21 fe 3d e9 86 6e 3e 6a b8 33 3e 6b 24 cc bd
       0.12408707 0.23293652 0.17550817 -0.09967884
0002e0 55 d1 29 3e 21 2a 80 3e e6 8a 72 3e 8f c1 82 be
       0.1658376 0.25032142 0.23685798 -0.25538298
0002f0 5f f9 aa be f0 f4 28 bd 3e 12 94 bd 28 c8 10 be
       -0.3339338 -0.041249216 -0.07230042 -0.14138854
000300 dd 5e d7 3e f0 94 b4 3e 63 b9 01 3e 21 fa 37 3d
       0.42064562 0.3526988 0.12668376 0.044916276
000310 09 6e 1e be a0 a9 26 be a4 32 19 3e 3a e1 32 3e
       -0.15471663 -0.16275644 0.14960724 0.1746873
000320 c8 5e 9e be dc fd f8 bd 64 e8 1a 3e 26 ba cc 3d
       -0.30931687 -0.12157795 0.15127712 0.099964425
000330 21 a4 9d 3d e4 b6 c2 be 0e 11 4a bf dd 59 57 bc
       0.07697321 -0.3803016 -0.78932273 -0.013143984
000340 66 89 01 3d 2a cf 20 3e 17 d6 61 3e e0 04 29 3e
       0.031625174 0.15704027 0.22054325 0.16505766
000350 5b 46 f3 be 69 d8 99 be ca d7 6c be 15 5a ff 3e
       -0.47514614 -0.3004792 -0.23129192 0.49873415
000360 84 c3 16 bc 7e dd 8c bc ee 4a 22 3d 6f 47 df bd
       -0.009201888 -0.01719546 0.03962224 -0.10902297
000370 c7 2c 81 bf 6a 57 33 3e ae c2 70 3b e3 cb 3e bd
       -1.009179 0.17513815 0.0036737132 -0.04658116
000380 a4 d6 2a be 75 dd 56 3e 46 aa af 3e c2 93 87 3e
       -0.16683441 0.20982917 0.34309596 0.26479918
000390 55 d7 ea be ea b0 bc be 69 cc e7 be 4f ea d4 3e
       -0.4586741 -0.36853725 -0.4527314 0.41585013
0003a0 a6 73 b6 3d db 88 9a 3e c9 a0 a4 3e 80 88 c8 3e
       0.08908777 0.30182537 0.3215392 0.3916664
0003b0 1a be c9 be fa c5 66 be e9 86 92 be 54 7a 9b be
       -0.39402848 -0.2253646 -0.28618553 -0.30366766
0003c0 19 ee 6b 3e b4 83 45 be f9 ca 99 be f1 f4 23 bf
       0.23040046 -0.19288522 -0.30037668 -0.64045626
0003d0 e6 78 09 3f ad 75 5e bf cd b3 99 be 3b af c0 3e
       0.537001 -0.8689831 -0.3001999 0.3763369
0003e0 6b 1b fa bd 31 63 9f 3e d2 38 2b be 7b e2 d0 be
       -0.12212261 0.31130365 -0.16720894 -0.4079779
0003f0 f4 d8 3f 3e ad 2e fd be 3b 9f e2 bd e1 58 5b be
       0.18735105 -0.49449673 -0.11065527 -0.21420623

net.0.bias f4 [256]
000000 31 d8 47 3e 1d b7 3b 3e 4c a8 4c bd b4 bd 92 3e
       0.19516064 0.18331571 -0.049965188 0.28660357
000010 5d 36 46 3e 24 b8 52 be 2e 08 ce bd 09 14 df bb
       0.19356675 -0.20578057 -0.10060154 -0.0068078083
000020 6a d7 1d 3e e0 ae 86 3e c8 27 38 bd 5f 6c 8f be
       0.15414205 0.26305294 -0.044959813 -0.28012368
000030 e4 96 01 3d f7 8e bc 3d 66 57 60 3e fe 6c 4c be
       0.03163804 0.09206956 0.2190834 -0.19963452
000040 3e 7e 8a 3e 7e 36 3a 3e 81 c1 7d 3e df 41 12 3c
       0.2704944 0.1818485 0.24780847 0.008926838
000050 3b 48 0c 3e 51 5b 30 3e ce 12 ab bc f6 29 78 3e
       0.13699429 0.17222334 -0.02088299 0.24234757
000060 f9 af b3 be 0f a5 ab 3e 1f 89 a1 3d bf 03 4a 3c
       -0.35095194 0.33524367 0.07887482 0.012329995
000070 73 e4 1f 3e 1c 37 93 3d 1e 26 0b 3e 88 dc 9c 3e
       0.1561449 0.07188246 0.1358876 0.30637002
000080 48 ab ee bd 75 ee 8a 3e 4d 7e c7 3c f9 ac a5 bd
       -0.11653763 0.27135053 0.024352217 -0.080896325
000090 44 14 17 3e c2 9d b1 3e 9d b0 81 be 27 d6 0f be
       0.14753824 0.34690672 -0.25330058 -0.14046536
0000a0 bd ef 8a 3e 45 45 b2 be 63 ff 5c 3e f7 02 a6 3c
       0.2713603 -0.34818473 0.21581797 0.020265086
0000b0 40 fc 27 3e 05 82 9a 3e be 8e e8 3c 38 ef e2 bd
       0.1640482 0.30177322 0.028388377 -0.110807836
0000c0 0b 9b 7e 3e 2e b9 41 3d b0 1c b7 3c 78 7b 8e bd
       0.24863832 0.04729574 0.022352546 -0.069571435
0000d0 f0 41 b6 3e 6f 73 0f 3d f2 3c 85 3c e8 15 d5 3c
       0.3559718 0.035022195 0.016264413 0.026011422
0000e0 97 24 10 3d 43 32 77 3e c8 3b a5 bd 1d a3 8b 3e
       0.035191145 0.24140267 -0.08068043 0.27272883
0000f0 ac ff c3 3d c3 8f 57 b9 7c 3e 75 3e 66 63 28 bc
       0.0957025 -0.00020557553 0.23949617 -0.010277605
000100 04 57 7b bd a8 69 42 3e bf 7f bb 3e ce 30 62 ba
       -0.06136228 0.18985617 0.366209 -0.0008628488
000110 e4 4b 96 3e d4 5a 9d 3e 78 3f 32 3e fa e2 4d 3e
       0.29354775 0.3073336 0.17407024 0.20106116
000120 12 07 3f 3e c5 71 aa 3d 8c f8 ba 3e 82 9a ce 3e
       0.18655041 0.08322481 0.3651775 0.40352255
000130 cd 01 27 3e 69 6e c9 3d 8c 7a ba 3e da 8a 9f be
       0.1630928 0.09835512 0.3642162 -0.31160623
000140 b1 c7 a6 3e 2c b4 41 3e 67 5f ad 3e bd ee 47 bc
       0.32574227 0.18916386 0.3386185 -0.012202916
000150 a8 d6 47 be 82 3d 85 3e 9d 33 66 be 8c 41 d7 3d
       -0.19515479 0.2602349 -0.22480626 0.10510549
000160 04 32 83 3e 70 a9 97 be a7 de 28 3e b5 9f cd bd
       0.25624096 -0.29621458 0.16491185 -0.10040227
000170 82 d7 b1 3e 80 a9 8b be 7f 73 17 3e 83 00 a6 3e
       0.34734732 -0.27277756 0.14790152 0.32422265
000180 f9 0a 2b 3e 4b 22 da 3e ba cb 60 3e 4b 7b ad be
       0.16703404 0.42604288 0.21952716 -0.33883128
000190 cc 96 58 3e 70 e9 39 3e 8c 4b 01 3e bb 14 83 be
       0.21151274 0.18155456 0.12626475 -0.25601754
0001a0 6d 5c 52 3d 7d fa dc bd 91 ec ce 3e e1 cc 94 3e
       0.051357675 -0.10789964 0.4041486 0.2906256
0001b0 03 c2 77 3e ae 10 aa 3e 8c 82 ef 3d 3b e8 92 bd
       0.24195103 0.3321585 0.11694822 -0.07173201
0001c0 d8 cd a6 bd 4b 38 e0 bd 2f f5 b8 3e b1 27 3c 3e
       -0.0814473 -0.10948237 0.3612456 0.18374516
0001d0 17 b6 91 3e 6e 8f 5f 3d 66 27 aa bd 2d c3 9f bc
       0.28459236 0.054580145 -0.08308296 -0.019502247
0001e0 7b c5 90 3e b7 c5 82 3e 9b d6 57 3d 6f b4 34 bd
       0.28275666 0.2554147 0.052694898 -0.044117387
0001f0 9b cc ab bd 33 08 83 be 3e 11 68 3e 6b b9 cf 3c
       -0.08388635 -0.25592193 0.22662827 0.025356969
000200 f1 ae 06 3e e0 78 43 3e 63 02 57 be 1c a4 6d 3e
       0.13152672 0.19089079 -0.20997004 0.23207134
000210 08 33 c0 bb f7 90 ce 3d 56 dd f4 b9 7e 24 da be
       -0.0058654584 0.100862436 -0.00046704215 -0.42605966
000220 d8 f1 9d 3d 70 b0 a6 3d d9 bd 32 be 96 61 85 3e
       0.07712144 0.081391215 -0.17455234 0.26051015
000230 0f b2 94 be b6 03 ec be 2f b4 18 bd 47 86 20 bd
       -0.29042098 -0.4609658 -0.03728121 -0.039190557
000240 82 01 0d 3e 28 e2 30 bc 63 50 69 3e 9c a0 72 be
       0.13770106 -0.010796107 0.22784571 -0.2369408
000250 0b b2 91 3d 56 d9 4b bd 8a 94 b6 3d ff 34 e5 3e
       0.07114037 -0.049767815 0.0891505 0.44766995
000260 6b 7f 49 3e e5 66 2a be 55 9f 8d be 5d 29 05 bc
       0.19677512 -0.16640814 -0.27660623 -0.008127538
000270 a8 09 06 3c 1a cf 59 3e 1f 82 1d 3b de 29 89 3e
       0.008181013 0.21270409 0.0024033857 0.26789755
000280 b9 3e 4f 3e 27 c5 c7 3b f2 f5 09 3e fc 28 13 3e
       0.2023877 0.0060965004 0.13472727 0.14371103
000290 fb a2 dd bc d2 8e 6d 3e fc 9a a6 be a6 76 24 bb
       -0.027055254 0.23199013 -0.3254012 -0.0025095134
0002a0 ea 53 b5 be bc 04 9e bd e1 c3 ea bc dc c2 39 3e
       -0.35415584 -0.07715747 -0.028657855 0.18140739
0002b0 da e2 8a 3e 90 1c a5 3d 5d ce b1 3c 41 44 d4 3c
       0.271262 0.080620885 0.021704847 0.025911452
0002c0 ad 06 e1 bd 77 6d e9 3d 12 48 6c bd 94 d7 cc 3e
       -0.109876014 0.11397832 -0.05768592 0.40008223
0002d0 a0 90 8c 3e 88 11 45 be 0d 19 b5 3d 04 53 03 3e
       0.2745409 -0.19244969 0.08842669 0.12824637
0002e0 e6 ac d5 bd eb d4 56 be df 39 1c 3e 1d 9f 07 bb
       -0.104333684 -0.2097966 0.15256451 -0.0020694204
0002f0 b1 45 e0 3e 39 0e d4 3e 41 77 59 be dd 0b 93 be
       0.4380317 0.414171 -0.21236898 -0.28719988
000300 ca b0 d1 bc f8 65 9e bd 82 b2 bd 3d 22 bc aa bd
       -0.025596995 -0.07734293 0.09262563 -0.08336665
000310 78 b8 2c 3e ed 84 6c be 3b 36 b6 be 06 da 17 be
       0.16867244 -0.23097582 -0.3558825 -0.14829263
000320 30 40 75 3e 85 71 14 3d e1 68 89 be 4f f0 97 bd
       0.23950267 0.036241073 -0.2683783 -0.07418882
000330 57 3d 6a bc 6f 02 e0 be ea 02 5b 3e b3 eb 9b 3e
       -0.014296851 -0.43751857 0.2138783 0.30453262
000340 09 71 0f 3d ae 90 31 be 5e df 12 bb 18 41 24 be
       0.035019908 -0.17340347 -0.002241097 -0.16040456
000350 a9 14 fa 39 92 32 4d bd b5 2b bf 3e 4a 70 9b bc
       0.0004769911 -0.050097056 0.37338033 -0.018974442
000360 cc eb 45 3e 27 7e 5b 3d 2e 60 8b 3a c1 02 ee be
       0.1932823 0.053587105 0.0010633522 -0.46486476
000370 d1 3f c2 3e 95 8f cc 3e 5c 59 4a 3e ae 64 40 3e
       0.37939313 0.39953294 0.1976065 0.18788406
000380 8d 79 c4 3e c7 59 8c 3e 52 62 91 3e e6 fe b1 be
       0.38373986 0.27412245 0.28395325 -0.34764785
000390 cf 37 4d be d2 e0 aa bd d9 9d 27 3e aa 61 03 be
       -0.2004082 -0.08343662 0.16368808 -0.12830225
0003a0 53 e5 fe 3c 6f 02 2b be c9 a7 96 bd 9c ce 51 3d
       0.03111521 -0.16700147 -0.07356221 0.05122243
0003b0 e7 57 4c 3e b6 9f 44 be 1b 28 92 3e c5 ca 54 bd
       0.19955407 -0.1920155 0.28546223 -0.05195119
0003c0 6d d5 8b bd fc 05 ac 3e ce 77 96 3e 97 51 8f 3d
       -0.06827817 0.33598316 0.2938828 0.06997984
0003d0 71 80 02 be 05 d5 07 be 1c 6e 25 bc bd c5 f9 bc
       -0.12744309 -0.13264854 -0.010097053 -0.030489797
0003e0 e2 2e 6e 3e 8f 5e 44 be 66 e7 85 be ef 43 85 be
       0.23260072 -0.19176696 -0.26153105 -0.26028392
0003f0 d9 4b f7 3c 92 7b 0c 3e 0b 6f 85 bd f4 9e 4b be
       0.030187534 0.13719013 -0.065153204 -0.19884855

net.2.weight f4 [256, 256]
000000 bb 0c 2d 3d 08 bd 20 bc d0 d7 1a 3e 52 b4 1d bd
       0.04224847 -0.009810694 0.15121388 -0.038502045
000010 f5 5d bc 3d 06 38 e2 3e 7c a7 fe 3d 6e 6b e4 bd
       0.091976084 0.44183367 0.12434289 -0.11153303
000020 ae 0b ee 3d cd b7 1b 3d 32 f0 94 3e 9a 40 46 3d
       0.116233215 0.038017083 0.29089504 0.048401453
000030 07 eb 07 bd c5 c1 99 3d 95 17 f0 3d 0a 20 d5 3e
       -0.033183124 0.07507662 0.11723248 0.41626006
000040 8d e3 5b 3c df b1 b4 3d a6 0a 89 3d 2f fb 2c 3e
       0.013420952 0.08822989 0.06691484 0.16892694
000050 f7 28 95 3c ce db f9 3d d4 60 e1 bd 51 7b 27 3c
       0.01820801 0.122001275 -0.110047966 0.010222272
000060 d8 98 f2 3d 19 31 bd 3d 32 12 34 3e ba 3c 33 be
       0.11845559 0.0923788 0.17585066 -0.17503634
000070 67 36 50 3d 00 f4 fc 38 5f 56 dd 3d af 6a 52 bd
       0.050833132 0.00012061745 0.108074896 -0.051371273
000080 fd 49 4a 3d 22 e1 25 3c 25 88 fb 3c a8 5e 8c 3e
       0.049386967 0.010124477 0.030704567 0.27415967
000090 60 a6 14 3e bd a1 54 bc 3a 52 4f bc b1 8f 30 be
       0.14516592 -0.012978015 -0.012653882 -0.17242314
0000a0 d5 cd 25 3e 4f 66 a7 3e 2d 2d 5f bc 63 2d f3 bd
       0.161918 0.32695243 -0.013621611 -0.11873891
0000b0 67 3d e8 ba 47 07 bb 3d 76 2e 1a 3d 51 d6 a0 bd
       -0.0017718495 0.091322474 0.037641965 -0.078533776
0000c0 aa b1 33 bc 79 c5 96 3d f6 86 d4 3d d1 cd d0 3d
       -0.010967651 0.07361884 0.10377304 0.10195506
0000d0 47 f9 02 3d 6b a8 99 ba ad bf 59 bd f4 47 3d be
       0.03197601 -0.0011723166 -0.053161312 -0.18484479
0000e0 7b a5 8d bd 2d f9 a7 bd 6a f3 1c 3e e3 d4 aa 3d
       -0.069163285 -0.082018234 0.1532723 0.08341386
0000f0 08 e8 39 3e 4b a7 0a 3e 2a d0 b2 3c 99 36 ec 3a
       0.18154919 0.1354038 0.021827776 0.0018021642
000100 bf 03 72 be b7 0a 07 3d e0 6e 3b 3d 15 5c e2 be
       -0.23634242 0.032969203 0.045760036 -0.44210878
000110 e4 44 31 bb 96 92 07 bd 5b f0 90 bc 82 9e 76 bd
       -0.0027049119 -0.03309878 -0.017692735 -0.06020976
000120 e7 e1 9e bd d2 eb aa 3d f5 bc 39 bc 04 1a 92 bc
       -0.07757931 0.083457604 -0.011336555 -0.01783467
000130 19 ab 34 bd 54 ad cd be 46 d8 cf 3c 19 c8 14 3e
       -0.044108484 -0.401713 0.025371682 0.14529456
000140 2b d1 f5 3d 91 d2 fa bc a1 74 76 3d 4f a5 11 3e
       0.12002786 -0.030617984 0.06016982 0.14223216
000150 02 ca 83 be 98 39 31 bd e6 91 0e 3e 7a c5 2b bd
       -0.25740057 -0.043267816 0.13922843 -0.041936375
000160 a8 00 57 3d e8 43 3b 3e 28 ee 34 bd 41 81 5a be
       0.05249086 0.18287623 -0.044172436 -0.21338369
000170 22 77 49 bd 71 c8 67 be 0e 65 26 bc b5 82 29 bd
       -0.04918588 -0.22635056 -0.010155929 -0.041384418
000180 12 21 bf b9 79 d2 15 bd 46 33 b7 bc ef 9e 01 3f
       -0.00036454998 -0.036577675 -0.022363316 0.5063314
000190 f7 5a 60 3d b3 1e 29 3e 3f b4 d9 3d 91 1f ae 3e
       0.05477425 0.16515617 0.10630082 0.34008458
0001a0 e2 45 9e 3d d6 4d dd 3e 56 1e 28 bd 8b 18 4d 3d
       0.07728173 0.43223447 -0.041044556 0.050072234
0001b0 38 60 f4 3d 89 48 7b bd 12 8a 46 3d 8b 65 09 3e
       0.11932415 -0.06134847 0.048471518 0.13417642
0001c0 3e 6a 04 3e 52 cf a0 bd aa 11 5a bd 6f 4c bd 3d
       0.12931153 -0.07852043 -0.053239502 0.09243094
0001d0 8e 8f 5d bd ab 87 2b be 33 44 a4 bd 1e b1 c2 3d
       -0.054091983 -0.16750972 -0.080208205 0.09506439
0001e0 17 ee 44 3d 77 c1 01 3e 5d eb 39 3d b2 62 d5 3d
       0.048078623 0.12671457 0.045390476 0.10419215
0001f0 e4 e1 a6 3e 2e 78 df 3e ac bb 98 3c 67 7c 2d 3d
       0.32594216 0.43646377 0.018644176 0.042354967
000200 7f aa b8 bd 03 5f 20 be 27 f8 61 3d 5e fe 2d 3e
       -0.090168945 -0.15661244 0.055168297 0.16991565
000210 9a 8a b6 bd ca b7 d9 3d fe bb 20 bf 66 47 79 3e
       -0.08913155 0.10630758 -0.62786853 0.24343643
000220 d3 8c 8a bd 9c 6f 1b bd 3f 43 16 bf b8 e3 3d bd
       -0.06765141 -0.037948236 -0.5869636 -0.046359748
000230 ba 95 c7 3c 0d b2 87 3e de 4b e5 bd 37 1c e2 3d
       0.024363387 0.2650303 -0.11196111 0.11040538
000240 95 2c b1 3b e4 ac 04 be a5 b6 df 3c 70 c9 63 be
       0.005406926 -0.12956578 0.027308771 -0.22244811
000250 5d 22 09 3e ff b9 b4 3d b4 52 c9 bc ad fa 11 bd
       0.13392015 0.088245384 -0.024575569 -0.035639454
000260 3c c8 d2 3d fe a5 91 3e d6 8c 42 3e 47 2e 54 3e
       0.10292098 0.28446954 0.18999037 0.20720778
000270 72 00 7b 3c 98 c6 28 bd 48 6f c3 3d 81 76 07 3e
       0.01531993 -0.04120502 0.095427096 0.132288
000280 0e 50 83 3d 2c 26 b3 be 8f 77 0c be 87 c3 ee bc
       0.064117536 -0.3499006 -0.13717483 -0.02914597
000290 88 19 d5 3d 4c 58 0a bd 33 e1 52 3e 97 a2 7f be
       0.1040526 -0.033775613 0.20593719 -0.24964367
0002a0 74 5a d1 3e b2 6a b6 3d 54 af 2e be d4 a5 95 3b
       0.40889323 0.08907069 -0.1705907 0.0045668874
0002b0 9a d1 84 3d ed 9f 59 3e 11 8f 42 3e 63 56 15 3e
       0.06485291 0.21252413 0.18999888 0.14583735
0002c0 e4 29 88 3e 82 1d f3 3d 14 5c 51 3e e7 73 04 bd
       0.2659446 0.118708625 0.20445281 -0.032337096
0002d0 96 d4 ca 3c e6 cb c6 3e 31 1e 5c bd ad fe ad 3d
       0.024759572 0.38827437 -0.05373973 0.08495841
0002e0 71 f4 66 3d 6b 92 41 bd ba 63 ba bc 81 96 22 be
       0.05638546 -0.047258776 -0.022752631 -0.15877725
0002f0 a1 2c 3d bd f3 c3 91 bc e2 0e c5 3c 62 0b 99 3e
       -0.04618514 -0.017793631 0.024054948 0.29891497
000300 82 9c 15 3e 9f c1 4b 3e 2b fd f2 3d 1b 45 30 3c
       0.14610484 0.1989808 0.11864694 0.0107586635
000310 35 49 5e 3e 02 af ee 3d ac 51 0c 3e 4a eb b6 3e
       0.21707614 0.11654474 0.1370303 0.35726386
000320 1c cb 16 bd a1 fa 87 3c d8 f7 15 3e e4 40 1e bd
       -0.036814794 0.016599001 0.14645326 -0.038636103
000330 7a cf 6b bc a3 7a 39 3e d0 16 d9 3d 9f cd 6c 3d
       -0.014392728 0.18113188 0.10600054 0.057813283
000340 b7 d5 82 3d ba 34 c1 3d d6 d6 50 be 79 8b 88 3d
       0.06388419 0.09433885 -0.20394453 0.06667227
000350 c3 e5 c2 be 78 ba a8 bd 20 91 4c 3d 3b b1 0f bd
       -0.3806592 -0.08238691 0.04994309 -0.03508113
000360 28 83 f4 3d 66 98 b3 bd a5 7c f6 bd c0 83 c6 3e
       0.119390786 -0.08769302 -0.12035493 0.38772392
000370 94 1e 29 3d f7 a1 84 3d f2 11 4b 3d d6 81 ab 3d
       0.041288927 0.06476205 0.04957766 0.083743736
000380 10 3c 89 3d e8 d5 1a 3e 67 89 17 3d b9 92 1b 3f
       0.06700909 0.15120661 0.03699627 0.60770756
000390 a5 bf ea 3e 46 ac 5b 3c e0 30 5f 3d bf 83 23 3e
       0.45849338 0.013407772 0.05448997 0.15968226
0003a0 6a 19 fe bd a8 03 f5 3d 24 dc 9e be fb 50 ef be
       -0.12407191 0.11963588 -0.3102733 -0.4674147
0003b0 17 80 38 3e 67 35 4a 3e 14 6c 87 bd 34 a6 57 3e
       0.18017612 0.19746934 -0.06612411 0.21059495
0003c0 33 5b b9 3e 1b 99 56 bd 32 72 be 3d 7f 4d 42 bd
       0.36202392 -0.052392107 0.09299125 -0.047437187
0003d0 61 77 f7 bd d6 25 62 3e aa 68 41 3e a2 d0 44 bd
       -0.120833166 0.22084746 0.18887582 -0.04805053
0003e0 5e cb 5a 3c ba 9a 3f 3e a9 87 32 3f 02 8b a1 3e
       0.013354151 0.18711367 0.6973825 0.31551367
0003f0 d9 5a 96 3e 94 e2 61 3d c7 a4 35 3e 1a 98 b7 3e
       0.29366186 0.055147722 0.17738639 0.35858232

net.2.bias f4 [256]
000000 4c f0 14 bd 2f 56 1a 3d 8b 32 30 3d d7 c9 4e bd
       -0.036361977 0.037679847 0.04301695 -0.05048546
000010 c5 98 30 3d 8b cc 2b 3e c5 ca 80 bb 66 81 13 3e
       0.043114442 0.16777246 -0.003930422 0.1440483
000020 d9 e8 5d 3d ce 32 ce bc 27 f9 36 3b 36 80 fb bb
       0.05417714 -0.02517071 0.0027919502 -0.007675196
000030 2a 04 40 bd cc 79 0f bd 49 5c df 3c b1 61 89 bd
       -0.04687897 -0.035028264 0.027265685 -0.06708086
000040 83 c7 4c bd c6 eb 8e bd 28 3b 91 bc 0c 7d 47 3d
       -0.049994957 -0.06978564 -0.017728403 0.04870324
000050 b2 f8 87 bd 11 60 e5 3d 68 a4 a0 bc b3 fe e6 3c
       -0.06639232 0.11199964 -0.019609645 0.028197622
000060 1c dc 05 bd 76 3c af bb 07 5d df bc ba 16 b6 bc
       -0.032680616 -0.0053477837 -0.027266039 -0.022227634
000070 69 d7 9d 3c 7e 9b 2a 3d 34 38 b6 bd d3 d9 01 be
       0.019267755 0.041652195 -0.08897439 -0.1268075
000080 62 14 18 3d f1 cb 78 bd 49 01 8e 3d 58 fa 17 bd
       0.037128814 -0.06074137 0.06933839 -0.03710398
000090 ce 74 93 bc 70 e1 fd 3d 25 86 a9 3d 7f 7f da bb
       -0.018000033 0.123965144 0.08277539 -0.0066680308
0000a0 58 86 31 bc 5e 7c 20 3d fb 97 33 3d a0 66 df 3c
       -0.010835253 0.039181106 0.04384611 0.027270615
0000b0 38 d9 c2 3d 59 11 a6 3d f5 ff 3e 3c e6 b7 68 3d
       0.095140874 0.081087776 0.011657705 0.056816004
0000c0 c2 fd 37 3d e9 a8 35 be f2 2a e4 3b 0b aa e1 bd
       0.044919737 -0.17740215 0.0069631273 -0.11018761
0000d0 de 31 17 3b 7e dc e3 3c cf 60 c5 bd 7f 59 88 3d
       0.0023070495 0.0278151 -0.096376054 0.06657695
0000e0 3c c5 15 3e a4 7c 81 3d 49 7c aa bd a1 8f e5 3b
       0.1462602 0.063226014 -0.08324487 0.0070056473
0000f0 da d9 3a 3c 91 0b 6a bd ba f4 df 3d 44 c1 db 3c
       0.011404479 -0.057139937 0.1093535 0.026825555
000100 bb ab a3 bc 11 64 c4 3c a1 e9 98 3d 21 81 db 39
       -0.019979348 0.023973497 0.07466436 0.00041867144
000110 82 cc da 3b e4 be ba bc e2 fa 4e bc 58 b6 c2 3d
       0.0066772113 -0.022796102 -0.012633057 0.095074356
000120 85 96 59 bd e1 43 95 bd 1b b3 ca 3d f4 56 b9 bc
       -0.053122062 -0.072883375 0.09897443 -0.02262447
000130 7f 6e 96 bd 81 81 8a bb 02 fc a1 bc 19 15 33 bd
       -0.07345294 -0.004226864 -0.019773487 -0.043721292
000140 c6 83 97 3c ee 9a 2b 3c 82 0d fc 3b b3 d7 a3 3d
       0.018495452 0.01047395 0.00769204 0.08000126
000150 e4 e4 0f 3e a2 c3 51 3d f2 65 e3 3b ad 6d 04 3d
       0.14052159 0.05121196 0.006939643 0.032331157
000160 bd 8c 59 bd f2 8b e2 bc 44 5b 05 3e 21 3d 7a 3c
       -0.053112734 -0.027654622 0.13023096 0.015273363
000170 37 f2 0e 3e e5 0e 18 3d 01 a8 59 3d 5e db 20 bd
       0.13959585 0.03712358 0.053138737 -0.039271705
000180 35 c5 8a bd c8 a6 39 3d f5 1f 1a 3d 92 e9 16 bc
       -0.067758955 0.04532507 0.037628133 -0.009210961
000190 e9 b0 62 3d a8 5b 36 bd 15 e3 da bc 49 91 34 3e
       0.055344496 -0.044521004 -0.02671961 0.17633547
0001a0 ef b7 95 3d de 6f 05 bc be 94 08 3e 61 e4 24 bd
       0.07310473 -0.008144347 0.1333799 -0.04025686
0001b0 4d 12 51 3d 2a 98 7b bd 91 6f 7b 3c 1c 9e 28 3d
       0.051042844 -0.06142441 0.015346424 0.04116641
0001c0 6f 5b d7 3c d9 8e db ba 3e 20 2a 3d 07 10 90 3c
       0.026288716 -0.0016750946 0.041534655 0.017585767
0001d0 6d ab 61 bd 21 d5 de ba 7f bb ed 3b cf 2b a8 3c
       -0.055095125 -0.0017000773 0.0072550173 0.020528702
0001e0 bb 62 28 bd 97 79 1f bd 18 71 d5 bd b7 a0 1c 3e
       -0.04110978 -0.038934316 -0.104219615 0.15295683
0001f0 62 3f 36 3e e1 4d a2 3c b3 5d ed 3c d6 cb 07 3e
       0.17797616 0.019812526 0.028975343 0.13261351
000200 a2 66 87 3d ba 52 1b 3d a0 ee 95 3d 65 ad 6f bc
       0.066113725 0.03792069 0.07320905 -0.014628743
000210 1b 4d f7 bc dc 26 9c 3d b2 10 bf bd bc 81 3e 3e
       -0.030188134 0.07624599 -0.09329356 0.18604177
000220 af 4d 21 bc ef ce 7d bd 9f 9b e8 3b f7 d5 75 bc
       -0.009845181 -0.061964925 0.0070986296 -0.0150046265
000230 4d 77 3e bd c7 c4 21 3d 18 d1 14 3e 85 5a 20 bc
       -0.046500493 0.039494302 0.14532888 -0.009787207
000240 14 44 de bb 48 d9 48 bc 2b 6a bd 3c be a0 f0 ba
       -0.006783018 -0.012258835 0.023121914 -0.0018358452
000250 36 80 cd bc ba e4 a0 bd 65 d0 8e 3d 92 21 a1 bd
       -0.02508555 -0.07856126 0.06973342 -0.07867731
000260 36 a9 0f 3c 25 f7 68 3d 17 49 a6 3d bb ef 24 bc
       0.00876837 0.05687632 0.081194095 -0.010066922
000270 b1 db f4 3c 5a f6 db 3d 45 9b 1f 3e 2f 5a f8 3d
       0.029889913 0.10740347 0.15586574 0.12126576
000280 28 37 55 3d 43 9a 78 3d 2e 57 5c bc bf d6 4c 3d
       0.052054554 0.06069399 -0.01344852 0.050009485
000290 9e 43 c4 3c 60 bf 00 3d f6 07 7a bd 6e b9 14 bd
       0.023958024 0.03143251 -0.06104275 -0.036309652
0002a0 d9 12 f6 bc 8a e0 75 bd 9e 24 69 bd 03 85 30 bc
       -0.030038284 -0.06002859 -0.056919686 -0.0107739
0002b0 59 a1 a8 3d 4a f1 cc bc 1e 3d 89 3d d9 85 58 3c
       0.082338996 -0.0250174 0.0670111 0.0132155055
0002c0 3a 6a b7 bc 0b d5 1d 3d 63 bb 79 3d 7f ff 74 3d
       -0.02238952 0.03853325 0.06096972 0.059813973
0002d0 ff 7c 57 3d db 39 d1 bc fe 59 5f bd 0e 53 4a bd
       0.05260944 -0.025540283 -0.054529183 -0.049395613
0002e0 92 2c e9 3c 58 24 59 3d 8a 64 77 bd 3f a1 3c bd
       0.028463636 0.053013176 -0.060398616 -0.046052214
0002f0 67 c8 23 bb de c1 dd bc e5 ea 92 bc 35 4b ec bb
       -0.0024991275 -0.027069982 -0.017934272 -0.007211114
000300 3c 2a 21 bd fd f1 6b bc 3a 3f 23 3d 83 b9 2c 3e
       -0.03934692 -0.014400956 0.03985522 0.16867642
000310 df 0d 8c bc 79 88 14 bd ed 36 03 3d 63 9c 97 3d
       -0.017096458 -0.036262963 0.032034803 0.07402875
000320 83 92 d0 3d 28 d1 2a bd e2 88 69 bd 9f 29 0c bc
       0.10184195 -0.041703373 -0.057015307 -0.008554845
000330 a2 31 8e 3d cf c0 2c 3e c7 9b 68 bd 69 cb 2f 3e
       0.069430605 0.16870426 -0.056789186 0.17167439
000340 9e eb 6d bd d1 e6 01 be ac 60 ab bc f2 f5 63 3d
       -0.05808603 -0.12685706 -0.02092012 0.055654474
000350 20 5c 9c bd 8d e6 87 3d 1f 1f 09 bd dd 3f ce bc
       -0.07634759 0.06635771 -0.033476945 -0.025176937
000360 4a 3b a2 3d 71 58 51 bd b8 91 b1 bd cd 8b 3c 3d
       0.07921465 -0.051109735 -0.08670372 0.046031762
000370 2b 72 f8 3c 4f ed c7 bd cf 2d a1 bd 1c d6 4d 3d
       0.030327877 -0.0976206 -0.078700654 0.05025302
000380 42 2b 0a 3e 3e 42 b2 3b 08 ab 89 bc 9d 23 9b bd
       0.13493064 0.0054400256 -0.016805187 -0.07575152
000390 cc e0 df 3d cf 7f 2c bd 6f 1a ab bd f9 4c d9 3b
       0.109315485 -0.042114075 -0.08354651 0.0066314903
0003a0 f1 33 18 bd 80 eb 06 bb 9a eb 01 be 5a a6 44 3d
       -0.03715891 -0.0020587146 -0.12687531 0.048010208
0003b0 2c 18 5e 3c 2b 00 21 3c 32 a0 3b 3e 66 61 e7 3c
       0.013555568 0.0098267 0.18322828 0.028244685
0003c0 43 6c c0 bc 56 68 c0 bc e9 73 d6 3d 99 c9 77 3d
       -0.023489123 -0.023487251 0.10471327 0.060494993
0003d0 df d2 81 bc 7a 30 4f 3e e1 93 74 bc b2 35 ad 3c
       -0.015847621 0.20233336 -0.014927835 0.021143768
0003e0 ac 91 c9 3d 35 95 87 bd 17 8b 78 bd 6e d2 0b bd
       0.09842238 -0.06620256 -0.06067952 -0.03413623
0003f0 3d 2f a7 3d 42 c0 9b bd 13 65 45 3d 24 f1 29 3d
       0.08163307 -0.0760503 0.048192095 0.041489735

net.4.weight f4 [4, 256]
000000 d8 6a 2f be 5e 37 51 be f3 e0 0e bf da 13 a3 be
       -0.17130601 -0.20431277 -0.55811995 -0.31851083
000010 92 19 a6 be 96 d6 82 3e ef 3e 90 3e c4 01 1f 3e
       -0.32441384 0.2555434 0.28173015 0.15528017
000020 82 47 a1 be b0 eb ff be d4 86 c8 be d2 31 da be
       -0.3149987 -0.49984503 -0.39165366 -0.42616135
000030 7a a8 32 3f 88 53 9f be 4e 44 8c be 4e b9 3b 3d
       0.69788325 -0.31118417 -0.27395862 0.045831017
000040 95 75 f6 3e 5b 93 b1 be 4b 0e 98 be e2 50 94 3e
       0.48136583 -0.34682736 -0.29698405 0.2896796
000050 24 32 70 bd e3 02 b0 3e 2e b4 e4 be 98 d0 20 3f
       -0.058641568 0.34377202 -0.44668716 0.6281829
000060 68 74 fa be 0a c6 b3 be 3f 7c 5d 3e b6 08 ab be
       -0.48916936 -0.3511203 0.21629427 -0.33405083
000070 4f 72 81 be 23 7e 84 be 9e 78 b4 bd be a3 e6 be
       -0.25282523 -0.25877485 -0.088120684 -0.450468
000080 90 31 b4 be 0b 7e 42 3f 8b d2 9a be 59 02 ae 3e
       -0.35194063 0.75973576 -0.30238757 0.33986166
000090 8d 73 80 be 79 50 95 3e 80 7b 0e 3f 31 6a d5 be
       -0.25088158 0.29162958 0.55657196 -0.4168258
0000a0 1c 55 6a 3e b7 0c f5 3d 3b f2 af 3f 39 f1 f7 3e
       0.22884029 0.11965316 1.3745798 0.48426226
0000b0 04 9d 0a 3f d6 83 f2 bd 75 2d f7 3e 06 b5 0a be
       0.54145837 -0.11841552 0.48276868 -0.13545617
0000c0 9f b0 8c 3e 17 7d db be e5 a2 97 be c8 5a b0 be
       0.274785 -0.42868873 -0.29616466 -0.3444426
0000d0 98 c2 00 3c fc 62 53 3f b5 0d 82 be df 14 05 be
       0.007858895 0.82572913 -0.25401083 -0.12996243
0000e0 07 1a be be ac 8b e4 be 3c f6 d4 be 7d df 18 3f
       -0.37129232 -0.4463781 -0.41594112 0.59716016
0000f0 8a 8a df 3e cb 70 46 bc bd d8 0b be cd d6 0e bf
       0.43660384 -0.012111853 -0.13656898 -0.5579651
000100 96 ab d4 3c 2d fd f3 3e 9d de ab 3e ef 55 ef be
       0.025960725 0.47654095 0.33568278 -0.4674525
000110 f7 be ca be 1a 81 fa bc 0c 3c 7a 3c 9a e6 61 3f
       -0.3959882 -0.030579139 0.015273105 0.88242495
000120 bf 22 de be 54 65 9d be c3 83 7b be 24 ce a0 bd
       -0.43385884 -0.3074137 -0.24561982 -0.07851818
000130 31 6c d6 be 0c 4a d5 3c e2 53 a3 be 74 3c 8e 3e
       -0.41879418 0.026036285 -0.31899935 0.27780497
000140 38 bf c1 be 46 c9 60 be a7 46 0e be b7 97 8f 3e
       -0.378412 -0.2195178 -0.13894139 0.28045437
000150 88 de 8d be 0c d9 1c 3f e9 b7 44 3e e7 a4 b5 be
       -0.2770884 0.6126869 0.19210781 -0.35477373
000160 4f 70 d4 be 96 65 b6 be 9b 20 40 3e a7 69 17 be
       -0.41491935 -0.3562438 0.18762438 -0.14786397
000170 22 36 21 3e 1d ed 19 3f ff 3f f1 be 9b 13 88 be
       0.15743306 0.6012743 -0.47119138 -0.26577458
000180 df 24 aa be 50 67 94 be 49 c4 16 3e 95 de d1 be
       -0.33231255 -0.2898507 0.14723314 -0.4099013
000190 90 3a 6b be da 50 53 3d f8 b8 98 be 3a 96 6b 3e
       -0.22971559 0.051590778 -0.2982862 0.23006526
0001a0 85 15 a6 3e e0 cd 9a be b8 30 6b 3f 65 11 8b 3e
       0.32438293 -0.30235195 0.91871214 0.27161708
0001b0 4e 1d e1 be 24 c7 3f bd a7 98 c7 be 33 41 67 be
       -0.4396767 -0.046820775 -0.38983652 -0.22583465
0001c0 b7 9a a1 3f 37 0b 94 be a8 1c c5 3d 3b 24 4a 3f
       1.262534 -0.28914806 0.09624606 0.78961533
0001d0 9c f5 1d 3f e1 fc f8 3e d6 19 f0 be bd 08 a2 be
       0.61702895 0.4863043 -0.4689471 -0.31647292
0001e0 46 de 18 bf 72 9f b8 be 98 4e a3 be 74 c5 25 3e
       -0.5971416 -0.36059147 -0.318959 0.16188604
0001f0 99 7e 80 3e 9f d4 e2 be 3a 3e c6 be 1a df 92 3e
       0.25096586 -0.44302842 -0.3871935 0.28685838
000200 8f cf 44 be d9 38 9e be 6c 46 0c 3f af 28 52 3f
       -0.19219802 -0.30902746 0.54794955 0.8209333
000210 e6 17 b5 3e b6 7d c8 be ed a4 ab be 97 1d c3 3e
       0.35369796 -0.3915841 -0.33524266 0.38108513
000220 b5 a0 b1 be 15 1b c7 be 56 b2 0c 3f 85 1a 6c 3f
       -0.34692922 -0.3888785 0.5495962 0.92227966
000230 d3 ec d9 be cf 62 ac be d5 87 7c 3e bb 61 8d 3f
       -0.42563495 -0.33669135 0.24661191 1.104545
000240 4a 8f c2 be 18 9e 9f 3c 86 99 97 be 57 c6 d0 be
       -0.37999946 0.019484565 -0.29609317 -0.4077632
000250 12 98 19 3d 87 94 13 3f 30 2a 19 be 2c 8f bd 3b
       0.03749854 0.5764851 -0.149575 0.0057848897
000260 f7 fc 0c be b4 92 ff 3e 59 b2 9d 3e 66 ed 1e 3f
       -0.13768373 0.49916613 0.3080013 0.6208099
000270 97 61 12 bf ea fc bd 3e f4 d3 4c 3e e5 44 6e 3e
       -0.5718016 0.3710702 0.20002729 0.23268469
000280 40 4c 97 3f dd 54 99 be 2c 02 05 3f 25 f0 bb be
       1.1820145 -0.29947558 0.5195644 -0.36706653
000290 11 30 d6 be 54 6b bd be 4c 68 18 3f e2 47 9c 3e
       -0.41833547 -0.36995947 0.59534144 0.30523592
0002a0 50 66 0b 3f 0b 9d 6a bd 56 22 02 bd d0 50 9a be
       0.5445299 -0.057278674 -0.031771027 -0.3013978
0002b0 a0 a7 7a be a0 bf 3b 3f bc d6 aa bd 80 a7 4d 3f
       -0.24478006 0.7333927 -0.083417386 0.8033371
0002c0 d0 b0 21 bf df cc 2b 3d 6f 79 da be d0 5b 92 3e
       -0.6316042 0.041943427 -0.4267077 0.28585672
0002d0 e6 09 a0 3e e5 7a 95 be b4 eb 04 bf e4 28 9c be
       0.31257552 -0.29195324 -0.51922154 -0.30499947
0002e0 28 72 5f 3f db b9 71 bd 17 5e 40 3c 0d 57 53 3e
       0.87283564 -0.059015136 0.011741183 0.20638676
0002f0 e4 84 9f be 63 9a a8 be 48 a8 35 be 36 57 b6 be
       -0.31156075 -0.32930288 -0.17739975 -0.35613412
000300 25 97 82 be 5d 4f c7 be b1 f6 d9 be f8 c0 70 3e
       -0.2550594 -0.38927737 -0.42571023 0.23511112
000310 24 d8 b2 3e b8 44 a5 be 8d 49 6e 3c c4 63 82 3e
       0.34930527 -0.3227899 0.014543903 0.2546674
000320 30 67 1e 3f b9 1e 27 3d 74 b5 0e 3f c9 a3 b6 be
       0.618762 0.040800784 0.55745625 -0.35671833
000330 f0 2c a7 3e 7c 47 93 3e ce 66 e1 be 4d 02 b0 3e
       0.32651472 0.28765476 -0.44023746 0.34376755
000340 af 2c 1d bd a7 32 ff be 08 6b c2 bc 59 bb ec bd
       -0.03837269 -0.49843332 -0.023732677 -0.11559171
000350 ff 59 8d be aa 3d 2c 3f 81 d3 08 3f 6e 3c c3 be
       -0.27607724 0.6728159 0.5344773 -0.38132042
000360 da 0a a5 be 74 93 ea bc 23 c9 ad be d6 cc 99 be
       -0.32234842 -0.028634764 -0.33942518 -0.3003909
000370 5c e2 d2 be d5 3c 0f be 1f aa 1f 3f da ec 93 3f
       -0.41188323 -0.1398805 0.6236896 1.1556656
000380 44 cb 58 3e c4 b4 5c 3e c1 c3 d8 be 03 b9 a0 be
       0.2117129 0.21553332 -0.42336848 -0.31391153
000390 18 d0 38 3e 84 06 ad be 00 b9 83 be 70 1a 4a be
       0.18048131 -0.33794034 -0.2572708 -0.19736648
0003a0 b4 84 f9 3c b0 cb aa be 89 34 b5 be 5b 3f 8e be
       0.030458786 -0.33358526 -0.35391644 -0.2778271
0003b0 de 89 a4 bd 35 76 eb be a8 ea 7e 3e f9 6b d7 be
       -0.080341086 -0.45988622 0.24894202 -0.42074564
0003c0 0e c9 8d 3e 97 af 07 bf 52 d4 b8 3e 10 68 e6 be
       0.27692455 -0.53002304 0.36099488 -0.45001268
0003d0 7c 04 67 be 2f cf 94 3e 44 9f 0b 3f d5 fc 12 3d
       -0.22560304 0.2906432 0.54539895 0.03588565
0003e0 ec f1 e3 be c7 8d 70 be be 92 95 3e 82 f0 9b be
       -0.4452051 -0.23491584 0.29213518 -0.3045693
0003f0 f1 b9 fd bd 80 9d 98 be 00 1f 6b 3b f5 3b 9f 3e
       -0.12388981 -0.29807663 0.0035876632 0.3110043

net.4.bias f4 [4]
000000 a4 b7 80 3c 36 91 59 3c 04 b3 9a 3d 08 07 20 3d
       0.015712567 0.01327925 0.07553676 0.039069206
