drafts/draft_rk/runs_lunarlander/dqn_trial14_seed42.pth (torch, 279705 bytes, 6 tensors)

net.0.weight f4 [256, 8]
0	0x3d547325	0.051867623
1	0x3edc16b9	0.42986086
2	0xbd8e565f	-0.06950068
3	0x3f15a243	0.58450717
4	0xbe94a7c1	-0.29034236
5	0x3e8fe760	0.28106213
6	0xbedc8871	-0.43072847
7	0xbe03c048	-0.12866318
8	0x3f2b32a0	0.6687412
9	0xbe1c880f	-0.15286277
10	0x3efe034c	0.4961189
11	0x3db50e04	0.08840564
12	0x3d750a20	0.05982411
13	0x3e2b97d5	0.16757138
14	0x3e1da1e8	0.15393794
15	0x3ca8107e	0.020515677
16	0x3eb09081	0.34485248
17	0x3e1e40e1	0.15454437
18	0x3cd87392	0.026422296
19	0xbd8204d6	-0.06348579
20	0xbe717748	-0.23580658
21	0xbe654395	-0.22389062
22	0xbf23c928	-0.63978815
23	0x3e917669	0.28410652
24	0xbe7f4596	-0.24928889
25	0xbdba9863	-0.09111097
26	0xbdca3304	-0.09873012
27	0xbecaf4fd	-0.39640036
28	0x3f0c7a20	0.5487385
29	0xbf01bbf4	-0.5067742
30	0x3ea98e63	0.33116445
31	0xbe83d90d	-0.25751534
32	0x3dc09f5a	0.09405394
33	0x3e199ccc	0.1500122
34	0xbe1035d5	-0.14083035
35	0x3e79ac2a	0.24382082
36	0x3e08d457	0.13362251
37	0x3f220172	0.63283455
38	0xbda4507e	-0.08023165
39	0xbf66b8a5	-0.90125495
40	0xbd92ae3f	-0.07162141
41	0x3d1c5948	0.038171083
42	0x3f04e312	0.5190898
43	0x3f02c5ba	0.51082957
44	0xbe36af3c	-0.17840284
45	0xbeabddc2	-0.33567625
46	0xbd196f6a	-0.03745977
47	0xbe83150d	-0.25601998
48	0xbc581f1c	-0.013191011
49	0xbdbc62b7	-0.09198516
50	0xbece0515	-0.40238252
51	0xbedcc0bb	-0.43115792
52	0x3c9b3450	0.018945843
53	0x3ea07f7f	0.31347272
54	0x3e863191	0.2620969
55	0x3e44ce1b	0.19219248
56	0xbe3f08bb	-0.18655674
57	0xbd39da02	-0.045373924
58	0x3f098ff6	0.5373529
59	0xbed9b9d1	-0.4252458
60	0xbe3e80ba	-0.18603793
61	0xbf50ac57	-0.8151297
62	0x3d0daf10	0.03459078
63	0xbc0e4a91	-0.00868477
64	0x3d51e3f4	0.051242784
65	0xbe03ec7b	-0.12883179
66	0x3e48c7dd	0.19607492
67	0xbd583e40	-0.05279374
68	0xbf0281a8	-0.5097909
69	0xbf385040	-0.7199745
70	0x3eace186	0.3376581
71	0x3e86c10e	0.26319164
72	0x3eb30cfc	0.34970844
73	0xbeb5adbc	-0.3548411
74	0xbedd83b5	-0.43264547
75	0xbf032039	-0.5122104
76	0xbe2a1b0a	-0.16611877
77	0x3d96a7bf	0.07356214
78	0x3e666f90	0.22503495
79	0x3ecf3f5c	0.40478027
80	0xbe5004ee	-0.2031438
81	0xbe0ef99b	-0.13962404
82	0x3dcda584	0.10041335
83	0xbf0bc09f	-0.5459079
84	0x3d0160db	0.03158651
85	0x3dada910	0.08479512
86	0x3e1f086d	0.15530558
87	0xbf204165	-0.62599784
88	0xbe23e3e3	-0.160049
89	0xbc34ddbb	-0.011039193
90	0x3dff49a9	0.124652214
91	0x3e8b06cf	0.27153632
92	0x3e152730	0.1456573
93	0x3f2d9400	0.67803955
94	0xbec98a5c	-0.39363372
95	0xbed8c351	-0.42336515
96	0x3f0285c3	0.50985354
97	0xbd8d7653	-0.06907334
98	0xbdbab158	-0.09115857
99	0xbf06302d	-0.5241726
100	0xbeae141b	-0.33999714
101	0x3e274938	0.16336524
102	0x3db69f0a	0.08917053
103	0xbe5ccdd9	-0.215629
104	0x3d0ab65f	0.03386533
105	0xbcaf0fb3	-0.02136979
106	0xbea7b315	-0.32753816
107	0xbf0b5645	-0.5442851
108	0xbe0022b2	-0.12513235
109	0xbe9e84fa	-0.30960828
110	0x3eb98a2c	0.3623823
111	0x3db94954	0.09047189
112	0x3ca3bfa7	0.019988848
113	0xbe8169d8	-0.25276065
114	0xbe787f90	-0.24267411
115	0xbf2acc3f	-0.66717905
116	0x3cfa2fac	0.03054031
117	0xbe28f1ba	-0.16498461
118	0xbe8d2de0	-0.27574062
119	0xbea3fd3b	-0.32029137
120	0x3cfce035	0.030868629
121	0xbe3f0bd9	-0.18656863
122	0x3da8c469	0.08240587
123	0xbec87c54	-0.39157355
124	0xbebc32d7	-0.36757538
125	0xbf1af765	-0.60533744
126	0xbf4b759b	-0.79476327
127	0xb9f1bb64	-0.0004610672
128	0x3f0b1b13	0.54338187
129	0xbe340c5c	-0.1758284
130	0x3e728e55	0.23687108
131	0x3e8583ae	0.26077026
132	0xbef8b754	-0.48577368
133	0x3e6aec2b	0.22941653
134	0xbd34abae	-0.04410904
135	0x3dcf8f3d	0.101347424
136	0xbe7e5b08	-0.24839413
137	0xbe266b19	-0.16251792
138	0x3d3e655b	0.04648338
139	0xbf08b305	-0.5339816
140	0x3e316860	0.17324972
141	0xbe912ecb	-0.28356013
142	0x3eb1296c	0.34601915
143	0xbe67effb	-0.22650139
144	0xbd5e7ce4	-0.054318324
145	0x3e962bb0	0.29330206
146	0x3c1d3383	0.009594801
147	0x3f309212	0.68972886
148	0xbd704b66	-0.058665656
149	0xbf35ef63	-0.710684
150	0xbe4b1296	-0.19831309
151	0xbf3ae769	-0.73009354
152	0xbd24bcb7	-0.040219035
153	0xbe9db726	-0.30803794
154	0x3e37a184	0.17932707
155	0xbf39230b	-0.72319096
156	0xbe3803d1	-0.17970206
157	0x3e693451	0.22773863
158	0xbbf05b98	-0.0073351376
159	0xbf38ff9c	-0.7226503
160	0x3ee3b539	0.444742
161	0x3e41200f	0.18859886
162	0x3e30a754	0.1725133
163	0xbf03c220	-0.51468086
164	0x3eacfc40	0.337862
165	0xbe0b887c	-0.13626283
166	0xbdba8a21	-0.09108377
167	0x3eb0a6dd	0.34502307
168	0xbd70805f	-0.058716174
169	0xbe661a10	-0.2247088
170	0xbe812082	-0.25220114
171	0xbe70afb2	-0.23504522
172	0x3ebb5c31	0.36593774
173	0x3f047523	0.51741236
174	0xbdce239c	-0.10065386
175	0xbf3585e9	-0.70907456
176	0xbe4d9a74	-0.2007845
177	0x3e5c76d7	0.21529709
178	0x3f277417	0.65411514
179	0xbee5515e	-0.4478864
180	0x3e08ff16	0.13378558
181	0x3d9ab9b0	0.07554948
182	0xbed043c1	-0.40676692
183	0xbe808081	-0.2509804
184	0x3e4e19da	0.20127049
185	0x3e901adf	0.281455
186	0x3e572f34	0.210141
187	0xbe513799	-0.20431365
188	0xbd28b3d8	-0.041187137
189	0xbd2fb2ab	-0.042895
190	0xbc1b2ac2	-0.0094706435
191	0xbd5b8f45	-0.05360343
192	0x3ec36076	0.3815953
193	0x3e4473f7	0.19184862
194	0x3e51ec15	0.20500214
195	0x3c515d4e	0.012778593
196	0xbeac84e6	-0.33695143
197	0xbe157af3	-0.14597683
198	0xbdf61e0b	-0.12017449
199	0x3e8efa3e	0.27925295
200	0xbed6659b	-0.41874394
201	0xbc69d825	-0.014272724
202	0xbe28b637	-0.1647576
203	0x3df4c856	0.119522735
204	0x3e927065	0.28601375
205	0xbec2510a	-0.37952453
206	0xbf27f25c	-0.65604186
207	0xbf0690a3	-0.5256445
208	0x3c0beddd	0.008540598
209	0x3e941b8e	0.28927273
210	0x3de60993	0.11232295
211	0x3e917984	0.28413022
212	0xbea206ae	-0.3164572
213	0xbf0a4879	-0.54016834
214	0xbdc03d5e	-0.09386705
215	0x3f15100f	0.5822763
216	0xbcae5c36	-0.021284204
217	0xbd5ab122	-0.053391583
218	0x3d013ee1	0.031554107
219	0xbdbeb24b	-0.093113504
220	0xbf93ec2b	-1.1556448
221	0x3e018ab3	0.12650566
222	0xbf088f69	-0.53343827
223	0xbcfd6727	-0.030932976
224	0xbd789155	-0.060685474
225	0x3eab2ad9	0.33431128
226	0x3e3768cd	0.17911072
227	0x3e920afd	0.28524008
228	0xbea62a84	-0.32454312
229	0xbf18fb22	-0.597582
230	0xbe9db2a1	-0.30800346
231	0x3f1bc6d4	0.6085026
232	0x3dabd8e8	0.08390981
233	0x3ec259f0	0.37959242
234	0x3e04a2ae	0.12952682
235	0x3e61d09b	0.22052233
236	0xbef41956	-0.4767558
237	0xbedc38de	-0.43012136
238	0xbf42b6e1	-0.760603
239	0xbed30da5	-0.41221347
240	0x3e4cc973	0.19998722
241	0xbd92d119	-0.071687885
242	0xbdd0362b	-0.10166582
243	0xbed71ae5	-0.42012706
244	0x3eaff510	0.34366655
245	0xbf60891d	-0.8770922
246	0xbeb0b143	-0.3451024
247	0x3d3ed92f	0.04659384
248	0xbdf1d807	-0.11808782
249	0x3ec2786f	0.3798251
250	0xbd4afbdd	-0.0495566
251	0xbeacc063	-0.3374053
252	0x3e8e510e	0.27796215
253	0xbe9585e3	-0.2920371
254	0xbe7cbb9b	-0.24680941
255	0xbf564af3	-0.83708113

net.0.bias f4 [256]
0	0x3e85ab6e	0.26107353
1	0x3d0f8d0a	0.035046615
2	0xbd3fd295	-0.046831686
3	0x3eb64cf2	0.3560558
4	0x3e58fd72	0.21190432
5	0xbea6f2f6	-0.3260724
6	0xbdf9ef31	-0.12203825
7	0xbbc5802d	-0.0060272426
8	0x3d0097dd	0.031394828
9	0x3e9e3dc1	0.3090649
10	0x3de0c460	0.109749556
11	0xbed1c9bb	-0.4097422
12	0x3ca584d4	0.020204939
13	0x3e2fbd93	0.1716216
14	0x3e6c5cd5	0.23082288
15	0xbe82f168	-0.25574803
16	0x3eaa3ee5	0.3325111
17	0x3e772f4f	0.2413914
18	0x3ed4b9b8	0.41547942
19	0xbdcfa3fb	-0.10138699
20	0x3e9d325f	0.30702493
21	0xbdd88ee6	-0.10574131
22	0xbdd02516	-0.101633236
23	0x3ebac56c	0.36478746
24	0xbedaa155	-0.42701212
25	0x3e59c787	0.2126752
26	0x3e5a507b	0.21319763
27	0x3c199679	0.009374254
28	0x3e74eb2b	0.23917834
29	0x3e36e541	0.17860891
30	0x3ea63162	0.3245955
31	0x3ec60f1b	0.386834
32	0x3b9be014	0.004756937
33	0x3ededb83	0.4352685
34	0x3e277825	0.16354425
35	0xbe5b8bfe	-0.21440122
36	0x3dfbaad6	0.12288444
37	0x3ef6fe7a	0.48241025
38	0xbe47855e	-0.1948447
39	0xbe4add6d	-0.1981103
40	0x3e84a77f	0.2590904
41	0xbd83b423	-0.06430843
42	0x3ea572df	0.32314202
43	0xbe3eca8c	-0.18631953
44	0x3eb1ce3a	0.3472765
45	0x3e81588a	0.25262862
46	0x3e179b33	0.14805298
47	0xbe0ba252	-0.13636139
48	0x3ed18b25	0.4092647
49	0x3e6a8c22	0.22905019
50	0xbda25adc	-0.07927486
51	0xbe94e77f	-0.29082868
52	0x3ef7cbfd	0.48397818
53	0x3de8a93c	0.11360404
54	0xbe4773b7	-0.19477735
55	0xbe4d7c6a	-0.20066991
56	0xbe38bd6b	-0.18041007
57	0x3eb104fc	0.34574115
58	0xbd9d5c5a	-0.0768363
59	0x3ea61a63	0.32442006
60	0x3d9e0bcc	0.07717094
61	0xbc8deea0	-0.0173257
62	0x3ece527c	0.40297306
63	0x3d452c40	0.048137903
64	0xbe18d69a	-0.14925614
65	0x3e78dbce	0.24302599
66	0x3ef4ad9e	0.4778871
67	0x3c3cc4e8	0.0115215555
68	0x3e778414	0.24171478
69	0x3ed7b0f7	0.421272
70	0x3e8825bf	0.26591298
71	0x3e7900e9	0.24316753
72	0x3e9fc7e0	0.3120718
73	0x3e14d83d	0.14535613
74	0x3f0217b5	0.50817424
75	0x3eff1c82	0.49826437
76	0x3e88a74f	0.26690146
77	0xbe7915de	-0.24324748
78	0x3ebd89e8	0.37019277
79	0xbec117fb	-0.37713608
80	0x3ea7898c	0.32722127
81	0x3ebd04de	0.36917776
82	0x3eb64eeb	0.35607085
83	0x3cf6e159	0.030136751
84	0xbe70d145	-0.2351733
85	0x3f02b774	0.5106118
86	0xbec11604	-0.3771211
87	0x3e39e3b8	0.18153274
88	0x3e6fb054	0.23407108
89	0xbe8776e5	-0.26457897
90	0x3e8aa4bc	0.27078807
91	0xbda14157	-0.07873791
92	0x3ed9300c	0.4241947
93	0xbe928384	-0.28615963
94	0x3ec83b0f	0.39107558
95	0x3ecd3968	0.4008286
96	0x3e9c5bd3	0.30538806
97	0x3f0c984c	0.54919887
98	0x3e95290d	0.29132882
99	0xbe83e5fe	-0.25761408
100	0x3e99c2e5	0.30031505
101	0x3e4b0939	0.19827737
102	0xbe6dc504	-0.23219687
103	0xbe3acd2c	-0.1824233
104	0x3cf5e855	0.030018011
105	0xbd55dc96	-0.05221232
106	0x3f0a4d82	0.5402452
107	0x3e968fcc	0.29406583
108	0x3ee7323d	0.45155516
109	0x3eeaf192	0.4588743
110	0xbe114984	-0.141882
111	0x3d01dd95	0.031705458
112	0xbe0f4104	-0.13989645
113	0xbda9a366	-0.08283119
114	0x3ee77f7b	0.45214447
115	0x3ebdfbe9	0.37106255
116	0x3e9d64e5	0.3074104
117	0x3d491add	0.049097884
118	0xbe7555a0	-0.23958445
119	0x3b8b4f58	0.004251402
120	0x3f0af7e3	0.54284495
121	0x3e81fa60	0.25386333
122	0x3e88f02f	0.26745746
123	0xbdaf2008	-0.08551031
124	0xbe89bd26	-0.2690212
125	0xbcb5f18c	-0.022209905
126	0x3e907888	0.28216958
127	0x3b9fabb4	0.0048727635
128	0x3e569d16	0.20958361
129	0x3e3cdaa0	0.18442774
130	0xbe021a13	-0.12705259
131	0x3e5421b5	0.20715983
132	0x3e0cf770	0.13766265
133	0x3e5c53cf	0.21516345
134	0xbe0e3dd9	-0.1389078
135	0xbe7bc972	-0.24588564
136	0x3e573568	0.21016467
137	0x3ddfce13	0.109279774
138	0xbe7d4717	-0.2473415
139	0x3eed39b7	0.46333095
140	0xbe7c14da	-0.24617329
141	0xbd70f120	-0.058823705
142	0xbdf82875	-0.121170916
143	0xbe2c3409	-0.16816725
144	0x3d5859ce	0.05282002
145	0xba4ea9db	-0.0007883587
146	0x3ec23bd5	0.37936273
147	0xbdce9de5	-0.1008871
148	0x3e35eb74	0.177656
149	0x3e34c869	0.17654575
150	0x3eb64fbc	0.35607708
151	0x3f0e90b6	0.5568956
152	0x3e6de14b	0.23230474
153	0xbe6b1e83	-0.22960858
154	0xbec6b394	-0.38808882
155	0x3cf99bd5	0.030469814
156	0xbd3a4639	-0.045477126
157	0x3e9f7869	0.31146553
158	0xbe113456	-0.14180121
159	0x3ea54622	0.3228007
160	0x3e831bae	0.25607055
161	0x3c75174f	0.0149591705
162	0x3d97fafd	0.07420919
163	0x3e442c27	0.19157468
164	0xbe61efa5	-0.22064073
165	0x3ed59cc0	0.41721153
166	0xbea6dc4b	-0.32589945
167	0x3d742436	0.059604846
168	0xbe68b3c2	-0.22724822
169	0xbdc3e5dc	-0.095653266
170	0x3d43afd2	0.047775097
171	0x3e958eab	0.2921041
172	0x3ec89217	0.39173958
173	0x3dd50229	0.10400803
174	0x3b6dfc24	0.0036313618
175	0x3e615fe7	0.2200924
176	0xbe5b077e	-0.21389577
177	0x3dd5fbb3	0.104483984
178	0x3d0e85fe	0.034795754
179	0x3f1dbdcb	0.61617726
180	0x3ec3a85c	0.38214386
181	0xbec50d7d	-0.38486853
182	0x3b93658b	0.004498189
183	0x3dd4d1f4	0.10391608
184	0x3df2938c	0.118445486
185	0xbe41a272	-0.18909624
186	0x3e8409b2	0.25788647
187	0xbe01e592	-0.1268523
188	0x3ee9069b	0.45512852
189	0x3ebd95cc	0.37028348
190	0xbe5ab050	-0.2135632
191	0xbe40b045	-0.18817241
192	0x3bf830a9	0.00757416
193	0xbe4dfe15	-0.20116456
194	0x3e46d688	0.19417775
195	0xbe8575b0	-0.2606635
196	0x3e182f79	0.1486186
197	0xbeb4ddb5	-0.353254
198	0xbe9f604d	-0.3112816
199	0xbe90b294	-0.28261244
200	0x3f0acae7	0.54215854
201	0x3d110fc1	0.035415415
202	0xbe56bc7d	-0.2097034
203	0xbe0c4a0d	-0.13700123
204	0xbd80d19b	-0.06289979
205	0xbee7086c	-0.45123613
206	0x3e30d230	0.1726768
207	0x3df413d3	0.11917844
208	0x3e34765d	0.17623277
209	0xbcfcaf66	-0.030845355
210	0x3c1143e0	0.00886628
211	0xbecbc887	-0.39801428
212	0xbe4ab604	-0.19795996
213	0x3dd78e55	0.105251946
214	0x3efc0ff2	0.49230915
215	0xbd9b969f	-0.07597088
216	0x3eb6cdcc	0.35703886
217	0xbe9dd623	-0.30827436
218	0xbd3e2ffe	-0.046432488
219	0xbec15f50	-0.3776803
220	0x3f048b77	0.51775306
221	0x3f05bd06	0.5224155
222	0x3e028a80	0.12748146
223	0x3eaa1b0a	0.33223754
224	0x3f0041dc	0.50100493
225	0x3e4bc3e4	0.19898945
226	0x3e786c1a	0.24259987
227	0xbe99b080	-0.3001747
228	0xbe4233bb	-0.18965046
229	0xbdb01f06	-0.08599667
230	0x3e6194fe	0.22029492
231	0xbe8bea91	-0.27327397
232	0x3b6be6d5	0.003599574
233	0x3bb1dd08	0.0054279603
234	0x3cf733e5	0.030176112
235	0x3e201bf3	0.15635662
236	0x3e77d1d6	0.2420114
237	0xbe9d92f2	-0.30776173
238	0x3ec2719d	0.37977305
239	0xbe173029	-0.14764465
240	0x3d482727	0.048865464
241	0x3ecd22eb	0.40065703
242	0x3e835ca6	0.25656623
243	0x3e6b0601	0.22951509
244	0xbe073357	-0.13203178
245	0xbdf626e7	-0.12019139
246	0x3e08f030	0.13372874
247	0x3ebd8819	0.37017897
248	0x3ead8613	0.33891353
249	0xbe9a3233	-0.30116424
250	0xbe972bdf	-0.29525658
251	0xbe94d95c	-0.29072082
252	0xbe341084	-0.17584425
253	0x3e9c5e97	0.30540916
254	0xbe22f01c	-0.15911907
255	0xbe981004	-0.2969972

net.2.weight f4 [256, 256]
0	0x3df36709	0.11884887
1	0x3da5b57d	0.08091257
2	0x3e14eec6	0.1454421
3	0xbd1eac5f	-0.038738605
4	0x3baf8ebc	0.0053575914
5	0x3f185165	0.594992
6	0x3d831483	0.06400397
7	0xbdd69478	-0.10477537
8	0x3e22be36	0.15892872
9	0xbc57fdbb	-0.013183053
10	0x3e5f5e0f	0.21813224
11	0x3e2f5f55	0.1712621
12	0xbdba1438	-0.09085888
13	0x3d925f0e	0.071470365
14	0x3e8421af	0.2580695
15	0x3ef4818f	0.47755095
16	0x3da82f0c	0.082120985
17	0x3dee4d69	0.116358586
18	0x3e296f35	0.16546328
19	0x3ef562de	0.47926992
20	0x3ca92299	0.02064638
21	0x3e672d7b	0.22575943
22	0xbe1fcb81	-0.15604974
23	0x3c8b17ed	0.016979182
24	0x3e406ceb	0.18791549
25	0x3ccf323e	0.025292512
26	0x3e4b58f8	0.19858158
27	0xbf096739	-0.5367313
28	0x3de10b3e	0.109884724
29	0x3dd1f0bd	0.10250995
30	0x3d100003	0.03515626
31	0xbd0080df	-0.0313729
32	0x3dff5751	0.12467826
33	0xbcf4ac79	-0.029867398
34	0x3dd3e29e	0.10345958
35	0x3f060359	0.5234886
36	0x3dd93525	0.1060584
37	0xbcce4f6a	-0.025184352
38	0x3cc3eff2	0.023918126
39	0xbec90e8e	-0.39268917
40	0x3df6a655	0.12043444
41	0x3e80a5fa	0.2512663
42	0xbd3669b0	-0.044534385
43	0x3e6a02df	0.22852658
44	0xbd37de29	-0.044889603
45	0xbc8e9c58	-0.017408535
46	0x3e03c3c2	0.12867644
47	0xbe313c42	-0.17308143
48	0xbc86a5e6	-0.016436528
49	0x3dd9206f	0.10601889
50	0x3e800b19	0.25008467
51	0x3e5feff2	0.21868876
52	0x3cf0631f	0.02934414
53	0x3ca06aee	0.019582238
54	0x3e0c8b03	0.13724904
55	0x3ed2aa0b	0.41145357
56	0x3ebd863e	0.3701648
57	0xbd88821d	-0.06665442
58	0x3de18035	0.11010782
59	0x3dc0a849	0.09407098
60	0x3e17342a	0.14765993
61	0x3e30966c	0.17244881
62	0x3ce07023	0.027397221
63	0x3c857a16	0.016293567
64	0x3e3075d0	0.17232442
65	0x3d5d6e1b	0.054060083
66	0x3c7115db	0.014714683
67	0xbe612198	-0.21985471
68	0x3ce35fbc	0.02775561
69	0xbd455780	-0.04817915
70	0x3b769395	0.0037624587
71	0xbd3fd175	-0.046830613
72	0xbd8caf4c	-0.06869373
73	0x3db1adfa	0.086757615
74	0xbbff33e4	-0.0077881683
75	0xbd3f96be	-0.04677462
76	0xbd2576ff	-0.040396687
77	0x3efe5368	0.4967301
78	0x3ccacdfe	0.024756428
79	0x3e30457c	0.17214006
80	0x3e2c771c	0.16842312
81	0xbad2e1f4	-0.0016089068
82	0x3d8ba5cf	0.06818735
83	0x3d64c69c	0.05585347
84	0xbefdf49b	-0.49600682
85	0xbe0d3b0e	-0.13792059
86	0x3cf44217	0.02981667
87	0x3e383e62	0.17992547
88	0x3e24ca0a	0.16092697
89	0x3ebefffa	0.3730467
90	0x3db50755	0.08839289
91	0xbe3d796a	-0.18503347
92	0xbed0fa16	-0.408158
93	0x3f167b14	0.5878155
94	0xbd216cf6	-0.039410554
95	0xbd8721bc	-0.06598231
96	0xbdaadc85	-0.08342842
97	0xbd53e983	-0.051736366
98	0x3de2af77	0.110686235
99	0x3f0726ee	0.52793777
100	0x3e1697f2	0.147064
101	0x3b01cdcf	0.001980651
102	0xbcc4c2b1	-0.024018617
103	0x3e91dd7d	0.28489295
104	0x3e3d2aee	0.18473408
105	0x3f00af22	0.5026723
106	0xbd0116b2	-0.031515785
107	0x3e0177ed	0.12643404
108	0x3d99f7f7	0.07517999
109	0xbdb5a3b5	-0.08869115
110	0xbe329848	-0.17440903
111	0xbca8bebb	-0.02059876
112	0x3dcf226a	0.10113986
113	0x396207ac	0.00021555898
114	0xbd333919	-0.043755624
115	0x3d0734b7	0.033009257
116	0xbe0eed4d	-0.1395771
117	0xbd66f378	-0.056384534
118	0xbd9973ad	-0.074927665
119	0x3cbf42c8	0.023347273
120	0xbb82f31a	-0.003996265
121	0x3de7ae1b	0.11312505
122	0x3e4337ec	0.19064301
123	0xbbe710c4	-0.007051559
124	0x3f2619ad	0.6488293
125	0x3da9396d	0.08262906
126	0x3d396843	0.045265447
127	0x3daa5214	0.083164364
128	0xbe0a7f9f	-0.13525246
129	0x3e40c63d	0.18825622
130	0x3da40f56	0.080107376
131	0x3e3e8573	0.18605594
132	0x3dde704d	0.108612634
133	0x3e0fdb1e	0.1404843
134	0xbb34127d	-0.002747684
135	0x3dce2fc6	0.10067706
136	0x3e182f84	0.14861876
137	0x3dff15c3	0.124553226
138	0xbf18a6f6	-0.5962976
139	0xbda959e9	-0.08269102
140	0x3e3ca972	0.18424013
141	0xbe6545c2	-0.22389892
142	0xbde5aacc	-0.112142175
143	0x3e754a67	0.23954163
144	0x3d584969	0.052804384
145	0xbf1099a5	-0.5648444
146	0xbb7dbc8c	-0.003871712
147	0xbd4b1c43	-0.0495875
148	0x3dbc59bc	0.09196803
149	0x3e229fa2	0.15881208
150	0x3d40b998	0.047051996
151	0xbd7c7530	-0.061635196
152	0xbc1fb8fc	-0.009748694
153	0x3ed1757d	0.4090995
154	0x3e470e46	0.19439039
155	0x3cd4a59e	0.025957879
156	0x3d0d3c53	0.034481358
157	0xbd206721	-0.03916085
158	0xbd899464	-0.067177564
159	0x3df0761f	0.1174128
160	0xbce6bf8c	-0.028167509
161	0xbe94c218	-0.29054332
162	0x3e1f7f14	0.1557582
163	0xbc89c6a3	-0.01681835
164	0x3f05da5f	0.5228633
165	0xbc9b026d	-0.018922055
166	0x3d89d689	0.067303725
167	0xbdf82892	-0.12117113
168	0x3ed3095e	0.41218084
169	0xbd015e32	-0.031583972
170	0xbdbb00d4	-0.09131017
171	0x3e0659f8	0.13120258
172	0x3d88b964	0.066759855
173	0x3b899c85	0.004199567
174	0x3e52f2b9	0.20600404
175	0x3d2b2b3b	0.041789275
176	0x3f06e8f2	0.52699196
177	0x3d9452aa	0.072423294
178	0x3e1eb927	0.15500318
179	0xbd98546f	-0.074379794
180	0x3d25128c	0.04030089
181	0x3f1ef92d	0.6209896
182	0xbe53f327	-0.20698224
183	0x3df97ed7	0.12182396
184	0x3deaa85f	0.114578955
185	0xbd8aaf6c	-0.0677174
186	0xbcb5feb4	-0.022216178
187	0xbf1bcd77	-0.6086039
188	0x3d08c6c1	0.03339267
189	0x3ce68d3c	0.028143518
190	0xbf2620e7	-0.64893955
191	0x3e348648	0.17629349
192	0x3d41f985	0.0473571
193	0x3e1f0b37	0.15531622
194	0x3e637ca1	0.22215511
195	0x3e424492	0.1897147
196	0x3e24b6ec	0.16085404
197	0x3efad5c0	0.48991203
198	0x3c6d24be	0.014474092
199	0x3f0bc112	0.54591477
200	0xbdbb31d9	-0.09140367
201	0x3dc009c8	0.093768656
202	0x3e30f2b2	0.17280081
203	0x3ea331ec	0.31874025
204	0xbde3af67	-0.1111744
205	0x3e975b81	0.29562
206	0x3e0fa66e	0.14028332
207	0x3e001072	0.12506273
208	0x3c9f6e7f	0.019461868
209	0x3cd92991	0.026509078
210	0xbed0ae74	-0.40758097
211	0x3e8255eb	0.25456175
212	0x3defd646	0.11710791
213	0x3de563d0	0.11200678
214	0x3d510566	0.05103054
215	0xbe1cbe93	-0.15307073
216	0x3d2b4c1e	0.041820638
217	0x3e02920f	0.1275103
218	0xbe604602	-0.21901706
219	0x3ed2b742	0.4115544
220	0x3cbbb2f5	0.022912482
221	0x3d929d92	0.071589604
222	0x3e6c5d47	0.23082457
223	0x3e2123d5	0.15736325
224	0x3da1d698	0.07902259
225	0x3dc46f44	0.09591535
226	0xbd4f09b0	-0.050546348
227	0x3e376c11	0.17912318
228	0x3ec011f8	0.3751371
229	0x3e38091a	0.17972222
230	0x3dbbbdb0	0.091670394
231	0x3e50a750	0.20376325
232	0x3dab9442	0.08377887
233	0x3e03e803	0.12881474
234	0xbe9e0ce1	-0.308692
235	0x3e5cfccd	0.21580811
236	0x3e93868f	0.28813598
237	0x3f17ff90	0.5937433
238	0xbdeabd0f	-0.11461841
239	0x3e9aa4f5	0.30203977
240	0x3d950d18	0.07277888
241	0xbd7a5e89	-0.061125312
242	0xbcf436a7	-0.029811217
243	0x3bdf8c5a	0.006822151
244	0x3c2a9a28	0.01041273
245	0x3e8b0bf8	0.2715757
246	0x3e44679d	0.1918015
247	0xbc322fe1	-0.010875673
248	0xbd10698e	-0.035256915
249	0x3eab33c4	0.33437932
250	0x3f2f38db	0.6844613
251	0x3efcfd7a	0.49412137
252	0x3e88a647	0.2668936
253	0x3c256f6e	0.010097368
254	0x3e395c4a	0.18101612
255	0x3e71c98e	0.23612043

net.2.bias f4 [256]
0	0xbd92a1bc	-0.07159755
1	0xbce2230f	-0.027604608
2	0xbb940ccf	-0.0045181285
3	0xbdf752f1	-0.12076367
4	0xbd0a2126	-0.03372302
5	0x3e89adef	0.26890513
6	0x3cc35495	0.023844043
7	0x3e77a411	0.2418368
8	0x3d1468d6	0.03623279
9	0x3dacf28b	0.08444699
10	0xbcb85068	-0.022499278
11	0xbdb663f9	-0.08905787
12	0x3bc2ac55	0.0059409537
13	0xbc066ba7	-0.008204377
14	0xbca389bb	-0.019963136
15	0x3df28314	0.118414074
16	0xbd4329e4	-0.047647372
17	0xbdef38a3	-0.116807245
18	0xbc5a8819	-0.013338112
19	0x3db8f74a	0.09031542
20	0xbca83d82	-0.020537142
21	0x3dd6fdd7	0.10497635
22	0xbd65b73d	-0.056082953
23	0x3de83f91	0.11340249
24	0xbdb8551e	-0.0900061
25	0x3d1c4d7f	0.038159844
26	0xbd1b3151	-0.03788883
27	0xbd5ffb83	-0.05468322
28	0xbda1a014	-0.078918606
29	0xbd12de2f	-0.035856422
30	0xbd1ed499	-0.038776968
31	0xbe5eae42	-0.21746162
32	0xbcfca6b9	-0.030841218
33	0x3bf6d981	0.0075332527
34	0xbc2ead8d	-0.010661495
35	0x3d5d8879	0.05408523
36	0xbe7732b6	-0.24140438
37	0x3e6870ad	0.22699232
38	0x3e677f76	0.22607216
39	0xbda868a8	-0.082230866
40	0x3e1527b4	0.14565927
41	0x3e41e03a	0.18933192
42	0x3d8806fa	0.06641956
43	0x3e47feec	0.19530839
44	0x3e08f91e	0.1337628
45	0x3df27312	0.11838354
46	0x3d3ccd1e	0.046094052
47	0xbe106940	-0.1410265
48	0x3cb9b827	0.022670818
49	0xbda992e8	-0.08279973
50	0x3d651db9	0.05593655
51	0xbe13235d	-0.14368959
52	0x3ca8b896	0.02059583
53	0x3ddfa003	0.10919192
54	0xbe09e013	-0.13464384
55	0xbc31caf3	-0.0108516095
56	0x3d848d66	0.06472282
57	0xbd107916	-0.035271727
58	0xbe01fb5f	-0.12693547
59	0xbd4766f3	-0.048682164
60	0x3d5b69d6	0.05356773
61	0xbcaa3a37	-0.020779712
62	0xbc516d4d	-0.012782407
63	0xbc14dbca	-0.009085605
64	0xbd29ae37	-0.04142591
65	0x3e7e195a	0.24814358
66	0x3e82de30	0.2556014
67	0xbd80ceca	-0.06289442
68	0xbd9495d5	-0.07255141
69	0x3d317636	0.043325625
70	0x3e164070	0.14673018
71	0x3e92ac1b	0.2864693
72	0xbe00dbb3	-0.12583809
73	0xbdaf4640	-0.08558321
74	0x3cd70265	0.026246259
75	0xbd8decbb	-0.069299184
76	0xbe06639f	-0.1312394
77	0x3de978d1	0.11399997
78	0xbd3b129e	-0.04567205
79	0x3e133509	0.143757
80	0xbdb619fd	-0.088916756
81	0x3d98f6e5	0.074689664
82	0xbc4a381b	-0.012342478
83	0x3e614b27	0.22001325
84	0xbd6b7cf8	-0.057492226
85	0x3e64dfdf	0.22351025
86	0x3dcd8030	0.100342155
87	0xbcf56c26	-0.029958796
88	0xbdeb37fa	-0.11485286
89	0xbd93b51d	-0.07212279
90	0x3e6c4ff3	0.23077373
91	0xbc74c4d8	-0.014939509
92	0x3e756120	0.23962831
93	0x3d85adce	0.06527291
94	0xbd076c8d	-0.033062506
95	0xbdcc1db2	-0.099666014
96	0xbde6a90c	-0.11262712
97	0xbd5ca855	-0.05387147
98	0x3e374dbe	0.1790075
99	0xbd903bc3	-0.07042649
100	0x3cc909f2	0.024540875
101	0xbd365ba8	-0.044521004
102	0xbdc9665a	-0.09833975
103	0x3e8f5a79	0.27998713
104	0x3e88c852	0.26715332
105	0xbd7adba5	-0.061244626
106	0x3d69b440	0.057056665
107	0xbd494fcf	-0.049148377
108	0xbccb9c31	-0.024854751
109	0xbd3f3165	-0.046677966
110	0xbd7d530c	-0.061846778
111	0xbb9a60ce	-0.004711247
112	0x3b6813a5	0.00354121
113	0xbc90a80b	-0.017658254
114	0xbc3dfa35	-0.011595299
115	0xbd5b221a	-0.05349932
116	0xbdc26e31	-0.094936736
117	0x3dc131e0	0.09433341
118	0xbd6f3bd0	-0.05840665
119	0xbd5e74cf	-0.054310616
120	0x3cc5c8f4	0.024143673
121	0xbd9ee8e5	-0.07759265
122	0xbc848e8f	-0.016181258
123	0x3e83503b	0.25647148
124	0x3e2c4e11	0.16826655
125	0xbcd35151	-0.02579561
126	0xbd13042a	-0.035892643
127	0x3e6fe7b0	0.23428226
128	0x3a2e6173	0.00066520943
129	0xbcd9cdb3	-0.026587343
130	0x3e7cd141	0.24689199
131	0x3d0c4e58	0.034254402
132	0xbe017f0b	-0.1264612
133	0xbd049ed3	-0.03237803
134	0xbe7efbf2	-0.24900797
135	0x3e19efd8	0.150329
136	0xbd4978f3	-0.04918761
137	0xbd8e2725	-0.0694106
138	0x3e5cbaff	0.21555708
139	0x3e0c7c2f	0.13719247
140	0xbd37ef16	-0.044905744
141	0x3a038b8e	0.00050180487
142	0x3e7ed42e	0.24885628
143	0xbcd175dc	-0.025568895
144	0xbd9a561b	-0.075359546
145	0xbc85d06b	-0.016334733
146	0xbcdfe302	-0.027329925
147	0xbd8ba6b5	-0.06818906
148	0xbd841e6d	-0.06451116
149	0xbcddf030	-0.02709207
150	0xbcc1a922	-0.02364022
151	0xbd6f8522	-0.058476575
152	0xbe57e2d1	-0.21082617
153	0x3dd3bd56	0.10338847
154	0x3e30f618	0.17281377
155	0xbb90ad32	-0.0044151777
156	0x3dd20b13	0.102560185
157	0x3d89757c	0.067118615
158	0x3e833059	0.25622824
159	0x3e543ddb	0.20726721
160	0x3e4b8e20	0.19878435
161	0xbbc07f25	-0.005874532
162	0xbc881e2d	-0.016615951
163	0xbcb6c412	-0.02231029
164	0xbd38544f	-0.045002278
165	0xbc59fc53	-0.013304788
166	0xb93ee213	-0.00018204031
167	0x3dcd8cd1	0.10036624
168	0xbd014b4d	-0.031565953
169	0x3d85e1c8	0.06537205
170	0xbd6e85ad	-0.058232952
171	0xbdf913b9	-0.12161965
172	0x3c7fd5de	0.015614955
173	0xbdb79578	-0.08964056
174	0xbe1b167c	-0.15145296
175	0x3cf36b2a	0.029714186
176	0xbd82e7ae	-0.06391846
177	0xbc75c44d	-0.015000415
178	0xbd235057	-0.03987154
179	0x3db7e48e	0.0897914
180	0xbac758e4	-0.0015208987
181	0xbdf495a8	-0.11942607
182	0xbdef4ab2	-0.11684169
183	0x3e1f9fb2	0.15588263
184	0x3c0ad0e3	0.008472654
185	0x3b176bd5	0.0023105044
186	0xbe48c500	-0.196064
187	0xbce4e0b9	-0.027939187
188	0xbd5cf62f	-0.053945716
189	0xbda37687	-0.07981592
190	0xbdc77e0d	-0.09740839
191	0xbd5a750d	-0.053334285
192	0xbdde4e8d	-0.10854826
193	0xbdf03bfd	-0.11730192
194	0xbc74fe3a	-0.01495319
195	0x3df187e5	0.11793498
196	0xbe39accd	-0.18132325
197	0xbda6b5a8	-0.08140117
198	0x3d1565fa	0.036474206
199	0x3e216c51	0.15763976
200	0x3db23b9f	0.08702778
201	0x3d7e256b	0.062047403
202	0xbd715e10	-0.058927596
203	0x3dca260b	0.09870537
204	0x3e31b889	0.17355551
205	0x3e7e2337	0.24818121
206	0xbdfd9da8	-0.12383586
207	0x3deb43cd	0.11487541
208	0xbc555161	-0.0130198905
209	0xbda53ac5	-0.0806785
210	0xbcab60ac	-0.02092012
211	0xbc3454d3	-0.011006552
212	0xbd705f9d	-0.058684934
213	0x3e8206dd	0.2539586
214	0xbd89fc36	-0.067375585
215	0xbd3dc01c	-0.046325788
216	0x3d544adc	0.051829204
217	0x3d9a2aef	0.0752772
218	0xbe009c20	-0.12559557
219	0xbcb96435	-0.02263079
220	0xbd323864	-0.04351081
221	0xbdf06fd4	-0.117400795
222	0x3d076e1a	0.033063985
223	0x3e60f43f	0.21968172
224	0x3e76871f	0.24074982
225	0x3e235131	0.15948941
226	0xbd82169d	-0.063519694
227	0xbdcc9db9	-0.09991021
228	0x3da4732d	0.080297805
229	0xbda3cdd4	-0.07998243
230	0xbdd77359	-0.10520048
231	0xbc947932	-0.018124197
232	0xbd5c2d6d	-0.05375426
233	0xbd77c5ab	-0.060491245
234	0xbdf60dde	-0.12014364
235	0xbc3a2046	-0.011360234
236	0xbdae4c5e	-0.0851066
237	0xbd9f6989	-0.07783801
238	0x3e8cdb86	0.27511233
239	0x3d6bb908	0.057549506
240	0x3d3e4e5c	0.046461448
241	0xbd82e151	-0.06390632
242	0x3d958f9b	0.07302781
243	0xbca12392	-0.019670282
244	0xbd584648	-0.0528014
245	0x3e9f4002	0.31103522
246	0x3b36ac23	0.0027873598
247	0xbd844d32	-0.06460036
248	0xbaa9e49f	-0.0012961811
249	0xbdbdf488	-0.09275156
250	0x3b0bec52	0.0021350575
251	0xbd8b6699	-0.06806678
252	0xbd014124	-0.031556264
253	0xbde6dbcf	-0.11272394
254	0x3d5015da	0.05080209
255	0x3da4df15	0.08050362

net.4.weight f4 [4, 256]
0	0xbe597d3d	-0.21239181
1	0xbe9c57b9	-0.30535677
2	0xbf00e9d4	-0.50356793
3	0xbeae649b	-0.3406113
4	0xbebc0f68	-0.36730504
5	0x3e996642	0.2996083
6	0x3f0134c6	0.5047115
7	0x3e52713d	0.2055101
8	0xbd40cebe	-0.047072165
9	0x3eb22d42	0.34800154
10	0xbebe18d1	-0.37128308
11	0xbedc9f84	-0.4309045
12	0x3f0b0403	0.54302996
13	0xbebf7b06	-0.37398547
14	0xbebd125c	-0.3692807
15	0x3e96f92f	0.29486987
16	0x3e9eb58d	0.30997887
17	0xbeb34b53	-0.35018405
18	0xbea27920	-0.31733036
19	0x3ee9453e	0.4556064
20	0x3f2adf2e	0.66746795
21	0x3ee6a9e7	0.450515
22	0xbedf032a	-0.435571
23	0x3f330707	0.699326
24	0xbef6ee4c	-0.4822868
25	0xbe7ec404	-0.24879462
26	0x3f0c81eb	0.5488574
27	0xbeb00a86	-0.3438303
28	0xbead468b	-0.33842883
29	0xbeec02bf	-0.46095845
30	0xbd63412c	-0.055482075
31	0xbec8a020	-0.39184666
32	0xbec683a9	-0.38772324
33	0x3f142945	0.5787547
34	0xbed4df1d	-0.41576472
35	0x3ed3a84c	0.41339338
36	0xbeec8729	-0.4619687
37	0x3e9b88ed	0.30377904
38	0x3e0610b9	0.13092317
39	0xbed709ac	-0.41999567
40	0x3f0a6f99	0.54076535
41	0x3e125c86	0.14293107
42	0x3f24564a	0.64194167
43	0x3e5a4aa5	0.21317537
44	0x3ee5ba65	0.4486877
45	0x3f0d0275	0.55081874
46	0x3f0c30ed	0.54762155
47	0xbeb8018b	-0.35938677
48	0x3ecfd7d7	0.4059436
49	0xbec32288	-0.38112283
50	0xbe4a0ebe	-0.19732186
51	0xbeb46951	-0.352366
52	0xbe538bec	-0.20658845
53	0x3e4e4279	0.20142545
54	0xbec90251	-0.3925958
55	0xbe566d47	-0.20940123
56	0xbe2e389f	-0.17013787
57	0xbefda24a	-0.4953788
58	0xbee295bd	-0.44254866
59	0x3d6e4191	0.058167998
60	0x3e9bf00c	0.3045658
61	0xbe862f45	-0.2620794
62	0xbeb31fb9	-0.3498514
63	0xbef966ee	-0.48711342
64	0xbef0b43d	-0.4701251
65	0x3e9a7a72	0.30171543
66	0x3e88b3e7	0.26699755
67	0xbed8a76f	-0.42315242
68	0xbecb195a	-0.3966778
69	0x3ed07aac	0.4071859
70	0x3eeb837f	0.4599876
71	0x3e8e1b4f	0.2775521
72	0xbed12d75	-0.40854993
73	0xbe9dbc95	-0.3080794
74	0xbe169bff	-0.14707945
75	0xbe4c1804	-0.19931036
76	0xbebc8336	-0.36818856
77	0x3ef90dfd	0.48643485
78	0xbeaca866	-0.33722228
79	0x3e7dfa8a	0.24802604
80	0xbee4be07	-0.4467623
81	0x3f0490cc	0.5178344
82	0xbe016206	-0.12635049
83	0x3f0356c4	0.5130427
84	0xbeb8db1e	-0.36104673
85	0x3e9053d3	0.28188953
86	0x3f3ecb40	0.74528885
87	0xbeb1a57a	-0.3469656
88	0xbec57ff7	-0.38574192
89	0xbebf96ea	-0.37419826
90	0x3e786466	0.24257049
91	0x3f22d439	0.63605076
92	0x3e4d9ff5	0.2008055
93	0x3f384191	0.71975046
94	0xbeeb758d	-0.45988122
95	0xbeac37de	-0.33636373
96	0xbea2f84a	-0.31830055
97	0xbeb06a9d	-0.3445634
98	0x3f1922dc	0.59818816
99	0xbece0108	-0.40235162
100	0xbec34bf4	-0.38143885
101	0x3d5350da	0.051590778
102	0xbead70e8	-0.33875203
103	0x3e886968	0.2664292
104	0x3e5a18f2	0.21298578
105	0xbea5a5cc	-0.32353055
106	0x3d4396b4	0.047751144
107	0xbbe642bc	-0.0070269983
108	0xbee268fd	-0.44220725
109	0xbeb5fe88	-0.35545754
110	0xbed2ce72	-0.4117313
111	0xbe9ecf27	-0.3101742
112	0x3ed29ba1	0.4113436
113	0xbead16a2	-0.3380633
114	0xbe9852d2	-0.29750687
115	0xbe9f569d	-0.31120768
116	0x3eb82624	0.359666
117	0x3ecebf01	0.403801
118	0xbebbee6c	-0.3670534
119	0xbeb46afa	-0.35237867
120	0xbe23640b	-0.15956132
121	0xbeb250da	-0.3482731
122	0x3e5d40d9	0.21606769
123	0x3e507018	0.2035526
124	0x3ec017d3	0.37518176
125	0xbea3f2d4	-0.320212
126	0xbeceb689	-0.40373638
127	0x3ea6808f	0.32519957
128	0xbe863b9a	-0.26217347
129	0xbebdb39c	-0.37051094
130	0x3e54fc1a	0.20799294
131	0x3f1613f5	0.586242
132	0x3dbd0c92	0.09230913
133	0xbebe5ac6	-0.3717863
134	0xbee4fda3	-0.4472476
135	0x3efab031	0.48962548
136	0xbec6cf16	-0.3882987
137	0xbec121f6	-0.37721223
138	0x3e9e1a50	0.3087945
139	0x3ea61424	0.3243724
140	0xbea7b319	-0.32753828
141	0xbec6e4aa	-0.38846332
142	0x3e836d8b	0.25669512
143	0x3ee33e2f	0.4438338
144	0xbede43af	-0.43411013
145	0xbe7c33fc	-0.24629205
146	0xbeab34a9	-0.33438614
147	0xbec246cb	-0.37944636
148	0xbc0faae5	-0.008768772
149	0x3f175152	0.5910846
150	0xbea29026	-0.31750602
151	0xbd04f92b	-0.032464188
152	0xbedcc765	-0.43120876
153	0x3ed56250	0.4167657
154	0x3e99dc8d	0.3005108
155	0x3efb96b2	0.4913841
156	0x3ee60538	0.44925857
157	0x3f0e7e77	0.5566172
158	0x3e83a798	0.257138
159	0x3e7af9c7	0.24509345
160	0x3e345420	0.17610216
161	0xbea53287	-0.32265112
162	0xbefbbc4a	-0.4916709
163	0xbec152e7	-0.37758562
164	0xbebbe169	-0.36695412
165	0xbebd0b47	-0.36922666
166	0x3e9d4ff1	0.30725053
167	0x3f1612bd	0.5862234
168	0x3d173e31	0.036924545
169	0x3f264f13	0.6496441
170	0x3e4e4c6f	0.20146345
171	0xbeb50077	-0.35351917
172	0xbe382ee9	-0.17986645
173	0xbebd17b4	-0.36932147
174	0xbef3cdb6	-0.47617882
175	0x3f0f7032	0.5603057
176	0xbef8a766	-0.48565215
177	0xbeaf0f6c	-0.34191453
178	0xbec93a28	-0.39302182
179	0x3f043f1b	0.5165879
180	0xbeb040c1	-0.34424403
181	0xbee431e2	-0.44569308
182	0xbed83f8f	-0.4223599
183	0x3e4165eb	0.18886535
184	0x3f2a5b37	0.6654543
185	0xbe5405ad	-0.2070529
186	0x3d75e6dc	0.060034618
187	0x3f0a908b	0.54126805
188	0xbeabb064	-0.33533013
189	0xbeeb28d2	-0.4592958
190	0xbe9c2345	-0.3049566
191	0xbed2c14b	-0.41163096
192	0xbeaa1778	-0.3322103
193	0xbed6509b	-0.41858372
194	0xbee0378b	-0.43792376
195	0x3f048140	0.5175972
196	0xbeab2055	-0.33423105
197	0xbea37f76	-0.31933182
198	0x3c5c19a5	0.0134338485
199	0x3e9e31c7	0.30897352
200	0xbdc826f6	-0.09773056
201	0x3f0d38b5	0.55164653
202	0xbd246a9a	-0.040140726
203	0x3f1c94de	0.61164653
204	0x3ee7266b	0.45146498
205	0x3e68bf28	0.2272917
206	0xbedd28e4	-0.4319526
207	0x3eddf9df	0.433547
208	0xbe829db6	-0.2551095
209	0xbec2d109	-0.38050106
210	0xbcc26b08	-0.023732677
211	0xbe371f0f	-0.17882942
212	0xbeb6c38a	-0.3569606
213	0x3e69e0db	0.22839682
214	0x3c39b4e2	0.01133463
215	0xbeb28572	-0.34867436
216	0xbe4e1eb9	-0.20128907
217	0xbd938f66	-0.072050855
218	0xbeb13449	-0.34610203
219	0xbe911311	-0.2833486
220	0xbec6bcb0	-0.38815832
221	0xbe772e7c	-0.24138826
222	0x3f0063e2	0.5015241
223	0x3e3a0f40	0.1816988
224	0x3e6a16fd	0.22860332
225	0x3efb6c94	0.49106276
226	0xbed81b68	-0.4220841
227	0xbecf9367	-0.40542147
228	0x3f00f571	0.50374514
229	0xbeb93fcb	-0.36181483
230	0xbeaddde9	-0.33958367
231	0xbe9d9e5d	-0.30784884
232	0xbeb7d2e9	-0.359031
233	0xbec09f3e	-0.37621492
234	0xbed1f5ac	-0.41007745
235	0xbf1aebb5	-0.6051591
236	0xbeadf919	-0.3397911
237	0xbeee5bfd	-0.46554556
238	0x3e9d7b44	0.30758107
239	0xbb08857d	-0.0020831518
240	0x3ec4294c	0.38312757
241	0xbed7d277	-0.4215276
242	0x3f061481	0.52375036
243	0xbed6566f	-0.4186282
244	0xbed8c6d1	-0.42339185
245	0x3ea40bc2	0.3204022
246	0x3f23e49d	0.6402071
247	0xbed92dcb	-0.4241775
248	0xbecf0bde	-0.4043874
249	0xbe929b85	-0.28634277
250	0x3edd69a0	0.43244648
251	0xbead3c8f	-0.33835265
252	0xbe5de1a6	-0.2166811
253	0xbe99eee4	-0.30065072
254	0xbeabc3c9	-0.3354781
255	0x3f2d6947	0.67738765

net.4.bias f4 [4]
0	0x3d423350	0.047412217
1	0x3da5e16a	0.08099635
2	0x3dae665c	0.08515617
3	0x3d80b11b	0.0628378
