drafts/draft_rk/runs_lunarlander/dqn_final_seed999.pth (torch, 279693 bytes, 6 tensors)

net.0.weight f4 [256, 8]
0.2793518 0.07439202 -0.2567944 0.38463017 0.07003496 0.6243794 0.57002014 -0.44295382
-0.100315794 0.451574 -0.042314276 -0.46076235 -0.1520139 0.24669093 0.2740598 -0.54298055
0.03272731 -0.02671697 0.028738998 -0.43917397 -0.6718218 0.124566644 0.1911202 0.2379222
0.16242395 -0.1274794 0.20362249 -0.40514573 -0.6896783 -0.547714 -0.52475137 -0.09764383
0.41541532 -0.11552163 0.8888501 -0.72110486 0.54654086 0.06685532 -0.269017 0.24179177
-0.16084951 0.27240428 -0.11135374 0.03737339 1.0934188 0.66682297 -0.09858332 -0.93889993
-0.16612029 0.27237064 0.56625205 0.30120534 -1.1610836 -0.60797864 0.18144417 0.19004032
0.23266475 0.352351 -0.45468602 -0.35690433 -0.55808944 -0.5047072 -0.76760346 0.9024573
-0.24353218 -0.16876575 -0.62220794 0.2326519 0.7803071 -0.012635259 -0.086662225 0.19862649
-0.37901026 -0.18263885 0.31865284 -0.1629978 0.15718774 -0.47647184 -0.9582153 0.73328644
-0.5560832 -0.1465366 -0.08062392 -0.14214057 -0.46214366 -0.051656786 0.09241687 0.62194467
-0.0656714 -0.35662195 0.17638405 -0.7516886 0.42225853 0.14524648 -0.3037519 -0.24238773
0.22047994 -0.13119692 -0.47634915 -0.39847106 0.36280754 -0.054170463 0.4099432 -0.011136645
0.076598376 -0.111053325 0.02533296 -0.41270706 -0.9543976 0.06537125 -0.073741704 0.19546735
-0.015259796 -0.39288017 -0.11528242 -0.52643067 0.55859166 0.7114012 0.41606423 -1.0116087
-0.16948108 -0.45271975 0.3711233 -0.7429045 -0.52774763 -0.32011476 -0.7581653 0.82563835
-0.09309679 -0.11519192 0.5329958 -0.40615645 0.90472716 0.45533034 -0.05733372 -2.017803
-0.29820246 -0.18931809 -0.20793292 -0.43003675 0.1489006 0.48103616 0.6335312 -0.9806076
0.121480666 -0.13381378 0.08216295 0.18165565 -1.1384716 -0.08205443 -0.13709307 0.094353996
-0.013929901 0.3496726 -0.10101489 -0.49573606 -0.25886005 -0.72508466 -0.70491487 -0.45254824
0.015918827 -0.069065094 -0.9930128 -0.32444873 -0.08177809 -0.23968801 0.2419849 0.30021226
0.0032197353 -0.12578605 0.43107852 0.31365943 -0.7577846 -0.09688286 0.034458704 -0.22144711
0.010471393 0.23001674 -0.50365186 2.1393433 -0.1466147 -0.04139746 -0.07708811 0.3461035
-0.29456165 -0.074985795 0.4678349 0.33822998 -0.37866333 -0.18584934 0.11870192 0.116275966
-0.18037015 -0.6085401 -0.16828582 -0.6559787 -0.31599838 0.55389863 0.049146842 0.6161579
-0.099632636 -0.3202604 -0.08971287 -0.41029903 0.6723208 0.61318886 -0.96809417 -0.5907207
0.2736803 0.1413309 -0.30666575 -0.203526 -0.33561805 0.38329712 0.37900108 -0.19808762
0.09107812 0.45286763 0.72954834 0.490926 -0.018893486 0.08209606 -0.19923414 -0.18077655
-0.45596057 0.011491355 -0.17885429 -0.4115093 0.5102383 -0.43611252 -0.22500053 -0.4763642
0.22313727 -0.0052413307 0.52154106 -0.61371666 0.52791184 -0.30417958 0.017530605 -0.118809536
-0.25863767 -0.60237676 0.28802803 1.5329891 -0.43718517 -0.22374399 0.13173585 -0.14831322
-0.10627187 -0.06036764 -0.059528016 0.033021647 -1.3136878 -0.32300708 0.3255586 0.1730818
00000000: 3307 8f3e d85a 983d 8e7a 83be 3fee c43e
00000010: 7d6e 8f3d 54d7 1f3f d7ec 113f d8ca e2be
00000020: 5e72 cdbd b534 e73e bc51 2dbd 0be9 ebbe
00000030: 88a9 1bbe 8c9c 7c3e 9151 8c3e c600 0bbf
00000040: 120d 063d 8cdd dabc 0c6e eb3c 69db e0be
00000050: 83fc 2bbf cc1c ff3d 04b5 433e e1a1 733e
00000060: 7752 263e f689 02be 6a82 503e 436f cfbe
00000070: c28e 30bf fc36 0cbf 1b56 06bf 7df9 c7bd
00000080: 51b1 d43e 9b96 ecbd ae8b 633f 549a 38bf
00000090: 1aea 0b3f 71eb 883d 99bc 89be 4398 773e
000000a0: bcb5 24be 9378 8b3e 6e0d e4bd d714 193d
000000b0: 26f5 8b3f e9b4 2a3f 0de6 c9bd bf5b 70bf
000000c0: 701b 2abe 2a74 8b3e e5f5 103f 9637 9a3e
000000d0: 639e 94bf 7da4 1bbf 80cc 393e ee99 423e
000000e0: ab3f 6e3e 5a67 b43e 9bcc e8be 2abc b6be
000000f0: f3de 0ebf 7e34 01bf a981 44bf 7107 673f
00000100: 8060 79be eed0 2cbe 0549 1fbf 4d3c 6e3e
00000110: 35c2 473f 1e04 4fbc f77b b1bd be64 4b3e
00000120: a20d c2be ae05 3bbe 7726 a33e e5e8 26be
00000130: d3f5 203e 1ef4 f3be 994d 75bf a9b8 3b3f
00000140: 785b 0ebf b10d 16be 271e a5bd 4c8d 11be
00000150: 189e ecbe 1196 53bd 0e45 bd3d c437 1f3f
00000160: ba7e 86bd 2797 b6be 059e 343e aa6e 40bf
00000170: 4532 d83e 7ebb 143e 5e85 9bbe 7d34 78be
00000180: 7ec5 613e 7c58 06be 09e4 f3be 6604 ccbe
00000190: e9c1 b93e d9e1 5dbd 13e4 d13e 7a76 36bc
000001a0: 9cdf 9c3d ed6f e3bd 1187 cf3c 574e d3be
000001b0: 6753 74bf 5de1 853d e405 97bd 9828 483e
000001c0: 3904 7abc 9727 c9be 3019 ecbd 29c4 06bf
000001d0: ddff 0e3f 641e 363f 5f06 d53e 657c 81bf
000001e0: 738c 2dbe e2ca e7be e003 be3e fd2e 3ebf
000001f0: 781a 07bf 15e6 a3be 1f17 42bf 095d 533f
00000200: 88a9 bebd bee9 ebbd 6a72 083f bdf3 cfbe
00000210: 339c 673f 0f21 e93e c3d6 6abd af23 01c0
00000220: fead 98be 9adc 41be 5eec 54be c72d dcbe
00000230: 6679 183e 5f4a f63e 1a2f 223f 1a09 7bbf
00000240: dbca f83d 7b06 09be 0c45 a83d f003 3a3e
00000250: 70b9 91bf 270c a8bd 2062 0cbe ab3c c13d
00000260: 3d3a 64bc 4908 b33e e5e0 cebd 1ed1 fdbe
00000270: 4e89 84be 269f 39bf 4d75 34bf 67b4 e7be
00000280: 3368 823c 0072 8dbd 1636 7ebf 251e a6be
00000290: 457b a7bd c670 75be e4ca 773e 6cb5 993e
000002a0: 3202 533b 0fce 00be 53b6 dc3e f897 a03e
000002b0: 2cfe 41bf 856a c6bd 9224 0d3d 08c3 62be
000002c0: 3590 2b3c 8289 6b3e 54ef 00bf 00eb 0840
000002d0: 2a22 16be 6290 29bd 5fe0 9dbd 7a34 b13e
000002e0: c9d0 96be 2792 99bd 0e88 ef3e 7b2c ad3e
000002f0: 29e0 c1be 4a4f 3ebe fe19 f33d 1822 ee3d
00000300: f4b2 38be 49c9 1bbf 1e53 2cbe 38ee 27bf
00000310: 8aca a1be 4dcc 0d3f 334e 493d 86bc 1d3f
00000320: 320c ccbd 2cf9 a3be 62bb b7bd b712 d2be
00000330: 371d 2c3f f2f9 1c3f 05d5 77bf 7939 17bf
00000340: d31f 8c3e 0cb9 103e 4b03 9dbe 1f69 50be
00000350: 21d6 abbe 853f c43e 6e0c c23e 7bd7 4abe
00000360: 2a87 ba3d 44de e73e aec3 3a3f a75a fb3e
00000370: 83c6 9abc fb21 a83d 0904 4cbe 7d1d 39be
00000380: aa73 e9be 3c46 3c3c 9425 37be 59b1 d2be
00000390: fa9e 023f 244a dfbe 8a66 66be 02e6 f3be
000003a0: 197e 643e 78bf abbb b783 053f 891c 1dbf
000003b0: 3b25 073f 6dbd 9bbe 589c 8f3c 6a52 f3bd
000003c0: 286c 84be 5d35 1abf 6978 933e fd38 c43f
000003d0: bcd6 dfbe 251d 65be c3e5 063e 6cdf 17be
000003e0: 11a5 d9bd 0f44 77bd a6d3 73bd b541 073d
000003f0: ec26 a8bf 2f61 a5be 9eaf a63e 5b3c 313e

net.0.bias f4 [256]
0.33126423 0.2730827 0.0068997825 -0.00019116991 0.28613377 -0.1807444 0.09408237 0.20304193
0.28548473 -0.071284704 0.11952766 0.19273528 0.20424414 0.24661507 -0.23541987 0.074725576
0.13717824 -0.13131317 0.021577293 0.1395851 0.049473744 0.17693257 -0.34791854 0.38363513
0.25482297 -0.25623268 0.29229525 0.44270927 0.0048543955 0.43733865 -0.19573255 0.15746239
0.32200047 0.24091679 0.0010674194 -0.23600511 0.25328246 0.23891969 -0.12687945 -0.13953047
-0.039947614 -0.10613369 -0.4296833 0.09167058 0.09703509 -0.057676926 0.2055139 -0.22084308
0.5002098 0.38820356 0.045505412 -0.035533547 0.14614072 0.06286277 0.26221707 -0.05286763
0.33971974 0.17542602 -0.10222622 -0.2022664 0.08768511 0.09615955 0.15115733 -0.00889286
0.06797138 0.03529969 -0.02242848 -0.24499926 -0.09080346 0.36556345 0.21649319 0.44129828
0.24737829 0.48708728 -0.19775514 0.10840757 -0.18889609 0.17924692 0.01314359 0.15449636
0.26203993 -0.043419044 0.1636485 -0.23865275 -0.2831345 0.08486888 0.28016028 0.07500168
0.50515026 -0.35385415 0.027911838 0.16440907 -0.048168495 -0.17083861 -0.18550344 0.69172055
-0.17248924 -0.17196901 0.10963088 0.06049428 0.32122123 -0.2573551 0.046678264 0.39119494
0.49547604 -0.2061993 -0.08436679 0.31636068 0.041093487 -0.45346797 0.46543935 0.08954891
0.41856456 0.0024334628 0.039996743 -0.16342714 0.15615723 0.33772525 0.21823148 0.18896167
0.52868253 -0.052989654 -0.24715574 0.18097562 -0.2149944 0.23395263 0.22022963 -0.038506247
-0.35715967 0.45177522 0.09210436 0.29027262 0.2638698 0.088742465 0.17407562 0.38793218
0.21770445 -0.086049534 0.064260356 0.07970753 -0.08349659 0.034519218 0.28297564 -0.0041968855
0.25474662 -0.26805496 0.022175578 0.06377181 -0.15390387 0.10090037 0.23571362 0.22572584
-0.1278294 -0.01974137 0.034478433 -0.016860358 0.22742362 0.33078536 0.3408582 0.35333765
0.048873987 -0.25887805 0.014371906 0.0884946 0.36510104 0.36786357 -0.09736645 0.26805565
-0.07718464 0.38515157 0.19544265 -0.09441504 -0.15046108 -0.26669377 0.3873566 -0.09120226
-0.14038907 0.17235802 -0.06196847 0.206184 -0.34429687 0.34663898 -0.19528028 -0.18538308
0.08155377 -0.016876232 0.16697988 0.2896075 0.027927963 -0.0077930023 -0.417725 0.5825675
0.36793274 0.09398211 -0.0039020507 0.1258979 -0.26193437 0.35216108 0.47332406 -0.021710843
-0.20974085 0.31692132 -0.33209047 -0.39759824 0.1109664 -0.031290673 -0.25519785 -0.16014157
0.17719492 -0.1255757 0.3125429 0.31830668 0.20920902 -0.06820749 0.01925103 -0.119810104
0.4935149 0.25870007 0.33160493 -0.059230544 -0.093642145 -0.39813557 0.37182117 -0.1205563
-0.024247758 -0.0072677685 0.372045 0.083419435 0.34542054 -0.04413894 0.06219743 -0.17754559
-0.23545182 -0.19065407 -0.26979417 0.06234852 0.18382114 0.051884178 -0.20582771 0.0050853384
-0.007933215 0.31912374 0.09754914 -0.1256793 -0.19127916 0.21045741 -0.03450558 -0.030939888
0.048779596 0.22235799 0.24240936 0.20497636 0.3135514 -0.200218 0.48200357 0.008520486
00000000: 779b a93e 7fd1 8b3e 9217 e23b c874 48b9
00000010: 2080 923e 0f15 39be 42ae c03d 39ea 4f3e
00000020: 0e2b 923e b7fd 91bd ebca f43d 665c 453e
00000030: 6025 513e a988 7c3e e811 71be b909 993d
00000040: 7478 0c3e f676 06be ddc2 b03c 65ef 0e3e
00000050: fba4 4a3d d02d 353e 6122 b2be d36b c43e
00000060: 2878 823e ee30 83be b9a7 953e caaa e23e
00000070: 9f11 9f3b daea df3e 1d6e 48be d23d 213e
00000080: 3fdd a43e e4b2 763e a7e8 8b3a 53ab 71be
00000090: 3dae 813e 5da7 743e b0ec 01be 13e1 0ebe
000000a0: 1ca0 23bd 9f5c d9bd 73ff dbbe c9bd bb3d
000000b0: 55ba c63d a43e 6cbd 3c72 523e b024 62be
000000c0: c00d 003f 9ec2 c63e e263 3a3d a08b 11bd
000000d0: eaa5 153e 32be 803d 5141 863e ba8b 58bd
000000e0: bfef ad3e e1a2 333e fb5b d1bd ec1e 4fbe
000000f0: 4094 b33d 4cef c43d fdc8 1a3e 5cb3 11bc
00000100: 9434 8b3d 6896 103d efbb b7bc 16e1 7abe
00000110: 2af7 b9bd 222b bb3e 64b0 5d3e d9f1 e13e
00000120: bc50 7d3e 8163 f93e 5380 4abe ca04 de3d
00000130: fa6d 41be 818c 373e 3658 573c 4b34 1e3e
00000140: 192a 863e 2bd8 31bd 7993 273e 6361 74be
00000150: 01f7 90be bccf ad3d 2b71 8f3e 7b9a 993d
00000160: 8751 013f 5f2c b5be 5ea7 e43c da5a 283e
00000170: 544c 45bd 51f0 2ebe 9df4 3dbe 9914 313f
00000180: 05a1 30be a518 30be 2886 e03d dac8 773d
00000190: 1c77 a43e 0cc4 83be b531 3f3d b44a c83e
000001a0: 09af fd3e e925 53be 7fc8 acbd 07fa a13e
000001b0: a551 283d f42c e8be 114e ee3e 6b65 b73d
000001c0: 184e d63e bb7a 1f3b a0d3 233d 7259 27be
000001d0: aee7 1f3e 53ea ac3e 1378 5f3e 2b7f 413e
000001e0: bd57 073f ae0b 59bd 6516 7dbe ac51 393e
000001f0: 7e27 5cbe 4791 6f3e e083 613e bab8 1dbd
00000200: a2dd b6be 154f e73e 36a1 bc3d 9d9e 943e
00000210: f119 873e 9cbe b53d e140 323e 0c9f c63e
00000220: eaed 5e3e bd3a b0bd ef9a 833d b43d a33d
00000230: 4300 abbd 0664 0d3d 2fe2 903e 0786 89bb
00000240: 266e 823e 803e 89be 8fa9 b53c cb9a 823d
00000250: fa98 1dbe daa4 ce3d e95e 713e ad24 673e
00000260: b6e5 02be a7b8 a1bc 4239 0d3d bc1e 8abc
00000270: bde1 683e b35c a93e f784 ae3e ace8 b43e
00000280: 1730 483d aa8b 84be 2578 6b3c a83c b53d
00000290: 86ee ba3e 9d58 bc3e 1068 c7bd 973e 893e
000002a0: fb12 9ebd 9632 c53e 1e22 483e ac5c c1bd
000002b0: 7812 1abe 168c 88be 9b53 c63e 40c8 babd
000002c0: 27c2 0fbe 9f7e 303e a7d2 7dbd e621 533e
000002d0: ae47 b0be aa7a b13e 8ef7 47be 10d5 3dbe
000002e0: aa05 a73d 0640 8abc c6fc 2a3e 6f47 943e
000002f0: 2fc9 e43c 715c ffbb 0de0 d5be 2523 153f
00000300: ae61 bc3e b179 c03d 8cb9 7fbb 61eb 003e
00000310: 431c 86be 754e b43e 8857 f23e f0da b1bc
00000320: 4ec6 56be 8343 a23e c307 aabe ff91 cbbe
00000330: 5a42 e33d a62a 00bd 4ba9 82be 27fc 23be
00000340: 9672 353e eb96 00be 9f05 a03e 18f9 a23e
00000350: e43a 563e 5eb0 8bbd 56b4 9d3c 005f f5bd
00000360: fcad fc3e 5674 843e 1fc8 a93e ba9b 72bd
00000370: 74c7 bfbd 6dd8 cbbe 585f be3e 39e6 f6bd
00000380: 3ca3 c6bc 7626 eebb af7c be3e cfd7 aa3d
00000390: f6da b03e 08cb 34bd bbc2 7e3d 83ce 35be
000003a0: 481a 71be d23a 43be 7622 8abe 2961 7f3d
000003b0: 9c3b 3c3e 8184 543d 80c4 52be e9a2 a63b
000003c0: 51fa 01bc 3064 a33e d8c7 c73d 13b2 00be
000003d0: afde 43be 2682 573e b955 0dbd a675 fdbc
000003e0: 1dcd 473d d0b1 633e 293a 783e 53e5 513e
000003f0: cf89 a03e f305 4dbe 2cc9 f63e 8299 0b3c

net.2.weight f4 [256, 256]
0.039748844 -0.072596215 -0.022937872 -0.10233322 -0.036589295 0.43302009 -0.0133352885 0.0032132587
0.1426012 0.15789007 -0.10684036 0.11430389 -0.042523813 -0.07045526 0.22969438 0.06487926
-0.17013445 0.16968682 -0.17774771 -0.12710634 0.0024092498 -0.13987817 0.2033007 0.03310926
0.10824538 0.5691487 0.007257906 -0.033375785 -0.27444908 0.012148294 0.5677464 -0.42014083
-0.044220746 -0.06309944 0.24407294 0.05964101 -0.16550511 0.06301602 0.5867907 -0.5053005
-0.22341135 0.13944256 -0.52350944 0.0716551 0.08442983 0.03239709 0.04923508 -0.11120162
-0.21120518 -0.35949245 0.38396955 0.082054205 0.3218849 0.13314378 -0.110218056 0.18446735
-0.10513348 0.19956149 0.09829712 0.120825015 0.09774458 -0.08557383 0.15493108 0.09520878
-0.05197676 0.3042589 -0.10240786 -0.3704679 -0.017438198 -0.05236823 -0.22335148 0.09474347
-0.13697393 0.11595849 -0.31210485 -0.09638952 0.7251383 0.033044674 0.18617015 -0.3497037
-0.22872771 0.09179362 0.145067 -0.1190673 1.0284704 -0.07781654 0.0048935907 -0.34067976
0.01681544 0.1456337 0.14591481 0.0339432 -0.25030446 0.07730601 0.4459707 -0.17838438
0.15833667 -0.16268077 0.023124652 -0.028226333 -0.04946837 -0.040302284 -0.40827578 0.16890809
0.08984237 0.31763995 0.053871054 -0.04623619 -0.12165809 0.29737628 -0.09769728 0.52834046
-0.06815608 0.5520361 0.04721512 -0.20483933 -0.11202035 0.15281422 0.01596973 0.038403176
-0.21613875 -0.043601096 0.10313068 -0.02313599 0.21438403 0.040041156 -0.06232371 0.21334514
0.33264402 -0.14675122 -0.0706399 0.39770716 -0.07887968 0.15156512 -0.2262407 0.1867724
-0.04686104 0.37440524 0.16567251 0.105252035 -0.06505769 -0.1980603 0.6115451 -1.3550041
-0.18588075 0.19882852 0.20440505 0.06170073 0.6117215 -0.0656495 -0.26416 0.085618585
-0.1774608 0.44381917 0.3268138 -0.0025519647 0.08813061 -0.02337578 0.0068154912 0.08704986
0.24049531 0.383202 0.20998234 -0.0056945668 -0.34732416 -0.073079824 0.13997118 0.04189697
-0.49610102 -0.07559343 -0.1814141 0.04722139 -0.7902543 0.204337 -0.13339664 -0.069968164
0.15814252 0.28435028 0.25569504 -0.008754729 -0.294804 -0.32068458 0.5297449 -0.46428353
-0.25696772 -0.35066277 0.07268097 0.18915299 -0.1924387 0.016980303 -0.6803086 0.035922807
-0.03615089 0.054847416 0.090222426 -0.043236677 -0.054885045 -0.013241303 -0.17004839 -0.17891929
0.8527819 -0.09145093 0.60227555 0.44960648 0.16431858 0.5561676 0.5542857 0.33878085
-0.16408929 0.5448128 -0.056531206 0.025457157 0.050302416 0.24338211 0.008309456 0.024780616
-0.049705286 -0.07757691 0.17904353 0.07852093 0.20007649 0.70018834 -0.08734233 0.2572909
0.4013782 0.45791134 -0.0677162 -0.006706802 0.005005277 0.13392743 0.16826 0.18238583
0.532527 0.5130477 0.08417176 0.035668336 0.03958467 -0.06062694 0.3075454 -0.44545388
-0.17083313 0.1084499 -0.17675088 0.2136285 0.2515772 0.019322362 0.38214007 0.23272727
0.120299205 0.054598406 -0.29339486 0.1125648 0.013000012 0.7942887 -0.048788957 0.27449292
00000000: afcf 223d 53ad 94bd 34e8 bbbc 1494 d1bd
00000010: a8de 15bd cfb4 dd3e 417c 5abc 8995 523b
00000020: 0d06 123e efad 213e 1ecf dabd 2818 ea3d
00000030: 732d 2ebd d94a 90bd 0135 6b3e 6bdf 843d
00000040: ba37 2ebe 62c2 2d3e 7f03 36be 2a28 02be
00000050: 81e4 1d3b 393c 0fbe 0f2e 503e 939d 073d
00000060: c1af dd3d bbb3 113f bad3 ed3b 0cb5 08bd
00000070: 9784 8cbe a309 473c d457 113f b31c d7be
00000080: d020 35bd 473a 81bd 42ee 793e 224a 743d
00000090: 2c7a 29be 8b0e 813d ea37 163f 605b 01bf
000000a0: f2c5 64be 08ca 0e3e b704 06bf e9bf 923d
000000b0: 8ce9 ac3d d0b2 043d b9aa 493d adbd e3bd
000000c0: 2c46 58be 650f b8be a897 c43e 090c a83d
000000d0: 19ce a43e d856 083e 01ba e1bd 02e5 3c3e
000000e0: 3950 d7bd d959 4c3e 0050 c93d 1b73 f73d
000000f0: 4f2e c83d 5541 afbd 41a6 1e3e d2fc c23d
00000100: 95e5 54bd d3c7 9b3e 36bb d1bd f8ad bdbe
00000110: 8dda 8ebc 1280 56bd 40b6 64be dd08 c23d
00000120: e542 0cbe a57b ed3d 35cc 9fbe de67 c5bd
00000130: aaa2 393f da59 073d 63a3 3e3e 5d0c b3be
00000140: 9937 6abe 4bfe bb3d 728c 143e 8ed9 f3bd
00000150: eba4 833f 475e 9fbd 6a5a a03b 946d aebe
00000160: 89c0 893c 0021 153e b16a 153e 0608 0b3d
00000170: e827 80be 9d52 9e3d 4656 e43e 65aa 36be
00000180: 0223 223e ca95 26be e96f bd3c e93a e7bc
00000190: 589f 4abd 0214 25bd 8609 d1be 3ef6 2c3e
000001a0: 47ff b73d b4a1 a23e e5a7 5c3d 2962 3dbd
000001b0: e027 f9bd b441 983e 8315 c8bd 5241 073f
000001c0: 6a95 8bbd 3d52 0d3f a464 413d 67c1 51be
000001d0: ed6a e5bd 557b 1c3e f4d2 823c a64c 1d3d
000001e0: 7a53 5dbe 1097 32bd 2e36 d33d b087 bdbc
000001f0: 7d87 5b3e 3202 243d 2647 7fbd 2677 5a3e
00000200: 5150 aa3e f445 16be a7ab 90bd 46a0 cb3e
00000210: ab8b a1bd e333 1b3e a4ab 67be 4441 3f3e
00000220: 5df1 3fbd 0bb2 bf3e 0ea6 293e 618e d73d
00000230: f73c 85bd 52d0 4abe 388e 1c3f c670 adbf
00000240: 8657 3ebe b499 4b3e 8f4f 513e e8b9 7c3d
00000250: c899 1c3f 3f73 86bd fb3f 87be cc58 af3d
00000260: 49b8 35be 443c e33e 2354 a73e dd3e 27bb
00000270: d27d b43d 907e bfbc 7c54 df3b 3247 b23d
00000280: 6744 763e 0d33 c43e 9c05 573e 7d99 babb
00000290: 79d4 b1be e0aa 95bd 9b54 0f3e 289c 2b3d
000002a0: f400 febe bad0 9abd 9ec4 39be 376b 413d
000002b0: 1b4e 4abf b83d 513e 2199 08be 784b 8fbd
000002c0: 1df0 213e 5c96 913e 76ea 823e ff6f 0fbc
000002d0: 8df0 96be c530 a4be 5d9d 073f 92b6 edbe
000002e0: 4691 83be 128a b3be c3d9 943d 52b1 413e
000002f0: a70e 45be 471a 8b3c b428 2ebf cb23 133d
00000300: f512 14bd afa7 603d 89c6 b83d f118 31bd
00000310: 24cf 60bd 0df2 58bc 2a21 2ebe 9e36 37be
00000320: ea4f 5a3f a04a bbbd bb2e 1a3f d232 e63e
00000330: 2143 283e 0061 0e3f abe5 0d3f af74 ad3e
00000340: 0607 28be da78 0b3f 448d 67bd 878b d03c
00000350: e809 4e3d 2939 793e 6224 083c b800 cb3c
00000360: c597 4bbd a5e0 9ebd 3057 373e 95cf a03d
00000370: dae0 4c3e 8b3f 333f 89e0 b2bd a2bb 833e
00000380: 7281 cd3e 5b73 ea3e cbae 8abd bcc4 dbbb
00000390: 4f03 a43b 4624 093e 594c 2c3e 5ac3 3a3e
000003a0: b153 083f 1857 033f 3e62 ac3d f618 123d
000003b0: 8923 223d f453 78bd 9776 9d3e 8812 e4be
000003c0: e1ee 2ebe fb1a de3d 2ffe 34be 6ec1 5a3e
000003d0: bace 803e ee49 9e3c dda7 c33e 0f50 6e3e
000003e0: 6e5f f63d 94a2 5f3d da37 96be 6088 e63d
000003f0: 01fe 543c 8156 4b3f eed6 47bd 568a 8c3e

net.2.bias f4 [256]
-0.11845267 -0.0513979 -0.019771086 -0.109862246 0.03773889 0.1597942 0.15672077 0.04081094
0.027397985 -0.0010075709 -0.020426426 -0.13152897 0.2740586 0.010173016 0.1639469 0.08772296
0.13127153 0.20943326 5.8197453e-05 0.059523657 0.02759041 0.12606455 0.03012422 -0.014495948
-0.07611591 -0.039740264 -0.022822507 -0.1659468 -0.007338213 0.010736468 0.05250486 -0.049235977
0.048128072 0.03759423 0.1315775 -0.10346267 0.022389853 0.11155428 0.11245413 -0.06640831
-0.060458515 0.03352922 -0.050131734 0.19401583 0.09223235 -0.11292211 -0.010083784 -0.07418217
0.1073834 0.08637862 -0.0055664107 0.20700422 0.06361057 0.011162872 0.086698934 0.02002568
0.11617242 0.0066564362 -0.09237872 -0.009819238 -0.0060293977 0.10220962 0.032169677 -0.059855413
0.045197904 0.027139587 0.07498591 -0.063689426 0.008164855 -0.020034079 -0.0069948644 0.045036107
0.14247195 0.05765291 -0.014545489 0.0014240353 0.15606755 -0.034112323 -0.031848174 0.0064994516
-0.11696331 0.119174674 -0.019484367 -0.029881973 -0.029931566 -0.025346471 0.041548982 -0.042364806
0.07992893 -0.030554876 0.09559829 0.07466342 0.056634318 -0.06861756 0.046014193 0.045059625
0.08808239 0.045375932 0.021076389 -0.017391765 0.17248566 -0.059644632 0.15082003 0.03708154
0.23777528 -0.036595766 0.06867467 0.021247534 -0.06139237 -0.024381053 -0.05067811 0.18047984
0.142013 -0.0129476115 -0.059684943 -0.06484642 0.12214112 0.0473209 -0.004681661 0.16109881
0.09828811 0.06054743 -0.10445543 -0.06801604 0.07204476 -0.02145348 -0.0016548765 0.01757952
-0.0921554 0.108246155 -0.05760007 -0.02373198 0.04458975 0.09288191 -0.053523835 -0.057984106
0.079493456 -0.03222616 0.12175048 0.07527267 -0.008089158 -0.078147486 -0.022325324 0.15323028
-0.029214121 -0.09194845 -0.08675957 0.068084896 -0.006567139 -0.011906898 0.086404175 0.14231211
0.11203062 -0.02817634 0.108483195 -0.018523319 -0.1641806 -0.07569393 0.0068816976 -0.021022122
-0.013700502 -0.030817844 0.24828225 -0.020096764 -0.27137288 0.008386956 -0.10003895 0.018559953
0.034829218 0.043831263 0.035219453 -0.01656363 0.03614904 -0.057432182 0.027704345 -0.0024976085
0.026075779 0.12326593 -0.029216895 0.0421353 0.09087036 0.17411193 -0.051257875 0.08019489
0.011976453 -0.04975398 0.08526092 -0.10773237 0.049382582 -0.04326673 0.025381641 -0.06819643
0.066337034 -0.10428218 -0.009619808 -0.030615605 0.034178156 -0.05733145 0.0054810094 -0.034527212
0.007560204 -0.0058866125 -0.03306725 0.11708284 -0.036326908 -0.0652967 0.01870385 0.031356387
0.06336906 0.042894136 0.15004215 -0.101842634 -0.042481 0.040655673 0.08492485 -2.7245562e-05
0.030447356 0.015536647 -0.051927526 -0.06855083 0.20096387 0.07230667 -0.22699687 0.043489005
0.08326249 -0.0664441 0.034136962 -0.07355175 0.027228659 -0.007986986 0.084074885 0.23169754
0.040018175 -0.04581649 -0.0032104522 -0.046314448 0.04072554 -0.010037447 0.07918865 0.03131364
-0.072821885 0.058196556 0.017708581 -0.15139268 0.0026044946 0.021635441 -0.038794763 0.04890271
0.03842341 -0.0025463314 0.07894529 0.010668719 0.032552917 -0.025371296 0.009544231 0.0223763
00000000: 5097 f2bd 9b86 52bd f9f6 a1bc 75ff e0bd
00000010: 1894 1a3d 17a1 233e 697b 203e 5f29 273d
00000020: bd71 e03c 7810 84ba 5255 a7bc 88af 06be
00000030: 6951 8c3e b9ac 263c b2e1 273e 18a8 b33d
00000040: 0b6c 063e ac75 563e 0a19 7438 14cf 733d
00000050: 4905 e23c 1117 013e 11c7 f63c 6a80 6dbc
00000060: a9e2 9bbd b0c6 22bd 44f6 babc f5ed 29be
00000070: 6475 f0bb 03e8 2f3c 560f 573d aaab 49bd
00000080: f121 453d 68fc 193d 41bc 063e 3de4 d3bd
00000090: ed6a b73c 9276 e43d 5a4e e63d 1401 88bd
000000a0: 59a3 77bd ef55 093d ef56 4dbd 16ac 463e
000000b0: 50e4 bc3d b543 e7bd 7536 25bc d2ec 97bd
000000c0: d4eb db3d 46e7 b03d 7066 b6bb eaf8 533e
000000d0: 4246 823d 7be4 363c 368f b13d e50c a43c
000000e0: ceeb ed3d 3c1e da3b 0e31 bdbd dfe0 20bc
000000f0: 4192 c5bb 4753 d13d 5ac4 033d f32a 75bd
00000100: 7021 393d d753 de3c 3692 993d 9a6f 82bd
00000110: e2c5 053c 821e a4bc 2d35 e5bb c877 383d
00000120: 2be4 113e 7525 6c3d 3450 6ebc b2a6 ba3a
00000130: 2cd0 1f3e 5db9 0bbd 3b73 02bd 5af9 d43b
00000140: 768a efbd da11 f43d ae9d 9fbc 0acb f4bc
00000150: 0b33 f5bc 67a3 cfbc 442f 2a3d b886 2dbd
00000160: c7b1 a33d 384e fabc 09c9 c33d 23e9 983d
00000170: 63f9 673d 5d87 8cbd 6179 3c3d 7190 383d
00000180: 8a64 b43d 1ddc 393d 64a8 ac3c 2d79 8ebc
00000190: 15a0 303e ee4d 74bd 9170 1a3e d0e2 173d
000001a0: 5d7b 733e 71e5 15bd 4ea5 8c3d 4f0f ae3c
000001b0: 9176 7bbd c6ba c7bc da93 4fbd b5cf 383e
000001c0: db6b 113e 3822 54bc 3378 74bd 33ce 84bd
000001d0: 2025 fa3d 8fd3 413d 9e68 99bb 16f7 243e
000001e0: 474b c93d 9500 783d baec d5bd fe4b 8bbd
000001f0: 348c 933d 35bf afbc 71e8 d8ba ed02 903c
00000200: f8bb bcbd 29b0 dd3d 0dee 6bbd 9269 c2bc
00000210: bea3 363d df38 be3d cf3b 5bbd be80 6dbd
00000220: 77cd a23d 94ff 03bd 5158 f93d 8f28 9a3d
00000230: 6388 04bc ca0b a0bd 99e3 b6bc 66e8 1c3e
00000240: 7452 efbc 784f bcbd 00af b1bd 1870 8b3d
00000250: 2831 d7bb 2615 43bc acf4 b03d 44ba 113e
00000260: 4f70 e53d 11d2 e6bc 702c de3d 37be 97bc
00000270: f61e 28be 6b05 9bbd dd7f e13b 9636 acbc
00000280: 1278 60bc b475 fcbc b43d 7e3e f8a1 a4bc
00000290: 63f1 8abe 7169 093c 39e1 ccbd 0b0b 983c
000002a0: 15a9 0e3d 6988 333d 4642 103d 73b0 87bc
000002b0: 0411 143d 023e 6bbd 39f4 e23c ebae 23bb
000002c0: df9c d53c d972 fc3d 4558 efbc 1096 2c3d
000002d0: 3d1a ba3d 664a 323e c7f3 51bd 383d a43d
000002e0: e238 443c d4ca 4bbd 479d ae3d caa2 dcbd
000002f0: 6445 4a3d 7438 31bd 29ed cf3c 92aa 8bbd
00000300: b6db 873d e591 d5bd 669c 1dbc 94cd fabc
00000310: 65fe 0b3d 62d4 6abd 0a9a b33b 686c 0dbd
00000320: 96bb f73b 7ce4 c0bb 8671 07bd 21c9 ef3d
00000330: 86cb 14bd 47ba 85bd d138 993c 8e6f 003d
00000340: a3c7 813d c3b1 2f3d a6a4 193e df92 d0bd
00000350: 8f00 2ebd 9086 263d 14ed ad3d 668d e4b7
00000360: bc6c f93c 6c8d 7e3c f5b1 54bd 6164 8cbd
00000370: 79c9 4d3e 8515 943d de71 68be 8721 323d
00000380: 8685 aa3d d813 88bd 33d3 0b3d 4da2 96bd
00000390: a30e df3c d9db 02bc 742f ac3d 1f42 6d3e
000003a0: 19ea 233d 12aa 3bbd 7366 52bb 38b4 3dbd
000003b0: d3cf 263d 1b74 24bc a92d a23d bb42 003d
000003c0: a423 95bd 835f 6e3d 9611 913c af06 1bbe
000003d0: 2bb0 2a3b cf3c b13c 42e7 1ebd 354e 483d
000003e0: de61 1d3d 5ae0 26bb 11ae a13d dacb 2e3c
000003f0: 3556 053d 77d7 cfbc 685f 1c3c 814e b73c

net.4.weight f4 [4, 256]
-0.63188756 0.025859274 -0.43589115 -0.3537709 -0.46791568 0.27347857 -0.76231617 0.6878817
-0.79998225 -0.43223605 -0.8088855 -1.1900693 1.0361083 0.42133126 0.24004294 -0.3883238
-0.057490673 -0.37734488 -0.8691187 0.23860683 -0.6737428 -0.35459447 -0.7691253 0.4184025
-0.43550795 0.25537193 -0.3906041 -1.3716408 -0.9803757 -0.91793394 1.0678196 0.041164823
-0.51343125 0.521226 -0.59525746 -0.46905783 0.057551645 -0.6480222 2.355743 0.05409459
-0.50603634 -1.1019397 -0.4003218 -0.25325269 0.5523082 1.1001303 -0.011536755 -0.5527207
0.5746827 0.48434347 -0.5299086 0.2163386 0.6489031 0.14140093 -0.45151153 1.8423977
-0.4098306 0.63912857 -0.5953796 0.017177014 -0.49047247 -0.8097907 -0.32487187 -0.04393705
0.62492007 0.02687944 0.481502 0.048221473 -0.56126404 0.73606837 1.0315579 1.2233921
0.95262784 -0.7432015 -0.6642848 -0.516351 0.41873834 -0.03502835 -0.037191737 0.37054953
-0.26379302 0.31896478 0.13104282 -0.03393869 -0.69385576 1.0138788 0.4487451 0.035098046
0.186106 -0.41412646 -0.30878553 -0.78335285 -0.85739154 0.04063931 0.008923606 -0.43803895
0.46459827 1.1671698 0.54699993 0.4286838 0.45897946 -0.8722142 0.26439017 -0.61181396
-0.15696323 -1.1203591 0.28740287 1.0404724 0.008513069 -0.71425056 -0.47461712 0.33622253
-0.24607769 -0.33893847 -1.338378 0.49792433 0.6863153 0.6032538 -0.3480928 0.30983254
-0.632204 -0.2103907 -1.0034745 -0.58504575 0.40602645 0.009177429 0.05883524 -0.8197638
-1.0265335 -0.71129936 0.42045733 0.011456518 -0.25040945 -0.35355538 0.5916338 -0.8280098
-0.3145304 -0.4989959 0.33457786 0.7359475 -0.6218163 -1.1999179 -0.22436535 0.49435958
0.0473196 -1.0541902 -0.5943073 0.9673132 -0.7600379 0.02522732 -0.29734963 0.32070053
0.26465872 -0.37210968 -0.19736004 -0.45430902 -1.4128611 0.8964362 -0.23580806 -0.4019314
0.031540386 -0.87097555 0.579584 -0.4621689 -1.1163377 -0.33872932 1.1610134 0.017446138
-0.9559941 0.47029552 -0.35039523 0.00316755 0.40877363 0.028091777 -0.0056431326 0.66031766
-0.32466868 0.75485545 -1.0161743 -0.045926616 0.6401581 -0.67980516 -0.7387299 -0.35516393
-0.6498214 -0.6731307 0.34688598 -0.7155296 0.04844702 -0.68266344 -0.198292 -0.5757583
-0.55871356 -0.1723283 -0.88906616 0.0393646 -0.5140064 -0.0132228155 0.36148474 -0.8964212
0.6308889 -0.44802102 -0.7063189 -0.8728606 -1.213278 -0.41181746 -0.8188329 -0.22194801
-0.64198774 0.36583287 0.42558032 -1.2262291 -0.62373877 0.5971551 -1.0056365 -0.5070828
-0.29424593 0.30314463 -0.7335126 -0.5122646 0.30563664 -0.41911793 0.34811044 0.039820567
-0.5430114 -0.021781553 -0.5109475 -0.03733498 -0.26732978 0.052733812 0.22670074 0.041353058
0.7941876 -0.55145353 0.47242042 -0.81860304 0.20176034 -0.5595458 1.536169 -0.40009058
0.77970433 -0.6818262 -0.61082584 -0.9079939 -0.018762711 -0.30177304 0.02606067 0.6257667
1.1848556 -0.3316379 0.6202064 0.37789157 0.40303737 -0.5360281 -0.76709414 -0.38704506
00000000: 62c3 21bf d4d6 d33c 202d dfbe 7621 b5be
00000010: a592 efbe 6205 8c3e 2727 43bf 0419 303f
00000020: a3cb 4cbf 0b4e ddbe 1f13 4fbf 3154 98bf
00000030: 329f 843f bbb8 d73e d1cd 753e 61d2 c6be
00000040: 577b 6bbd 5933 c1be 907e 5ebf 5955 743e
00000050: 687a 2cbf 688d b5be 65e5 44bf da38 d63e
00000060: e6fa debe 1cc0 823e 43fd c7be ed91 afbf
00000070: e7f9 7abf b8fd 6abf 50ae 883f 729c 283d
00000080: 3b70 03bf 116f 053f cb62 18bf 5928 f0be
00000090: 46bb 6b3d c8e4 25bf 7ec4 1640 4a92 5d3d
000000a0: 998b 01bf 5c0c 8dbf fbf6 ccbe 56aa 81be
000000b0: 1264 0d3f 12d1 8c3f a804 3dbc 1b7f 0dbf
000000c0: 681e 133f defb f73e 17a8 07bf de87 5d3e
000000d0: 831e 263f 68cb 103e 852c e7be b0d3 eb3f
000000e0: 51d5 d1be ee9d 233f cc6a 18bf cfb6 8c3c
000000f0: 351f fbbe 714e 4fbf 9b55 a6be 56f7 33bd
00000100: c3fa 1f3f 4532 dc3c 6e87 f63e e183 453d
00000110: 00af 0fbf fa6e 3c3f 170a 843f 1d98 9c3f
00000120: 6bdf 733f 7442 3ebf 920e 2abf 942f 04bf
00000130: df64 d63e e379 0fbd 5d56 18bd abb8 bd3e
00000140: e10f 87be 5a4f a33e 1730 063e 4c03 0bbd
00000150: 88a0 31bf c8c6 813f ebc1 e53e f8c2 0f3d
00000160: 9292 3e3e 6208 d4be 2319 9ebe d089 48bf
00000170: 037e 5bbf 6875 263d 5134 123c a446 e0be
00000180: d3df ed3e d265 953f 3008 0c3f 717c db3e
00000190: 5bff ea3e 6e49 5fbf 265e 873e d79f 1cbf
000001a0: f8ba 20be ed67 8fbf 7826 933e 332e 853f
000001b0: 667a 0b3c 20d9 36bf 0401 f3be 5c25 ac3e
000001c0: cafb 7bbe 5889 adbe f84f abbf f0ef fe3e
000001d0: 5cb2 2f3f d76e 1a3f 3839 b2be 5fa2 9e3e
000001e0: 1fd8 21bf a970 57be da71 80bf 8fc5 15bf
000001f0: b3e2 cf3e ed5c 163c 38fd 703d 0adc 51bf
00000200: 7365 83bf b717 36bf 2f46 d73e 1fb4 3b3c
00000210: ab35 80be 3605 b5be 5075 173f 73f8 53bf
00000220: 210a a1be 647c ffbe ca4d ab3e 0e67 3c3f
00000230: 5a2f 1fbf e996 99bf 08c0 65be b31c fd3e
00000240: 32d2 413d b4ef 86bf 8624 18bf d6a1 773f
00000250: d891 42bf 86a9 ce3c 363e 98be dc32 a43e
00000260: 5981 873e 2985 bebe c018 4abe 319b e8be
00000270: a2d8 b4bf d87c 653f ab77 71be f4c9 cdbe
00000280: 7e30 013d 41f8 5ebf 9e5f 143f 67a1 ecbe
00000290: 27e4 8ebf ee6d adbe 169c 943f 34eb 8e3c
000002a0: 08bc 74bf 93ca f03e 0167 b3be ac96 4f3b
000002b0: c74a d13e ba20 e63c 07ea b8bb 940a 293f
000002c0: f93a a6be 353e 413f 0012 82bf 8c1d 3cbd
000002d0: 67e1 233f b607 2ebf 671d 3dbf 0cd8 b5be
000002e0: b25a 26bf 4b52 2cbf 0a9b b13e f32c 37bf
000002f0: 6270 463d 08c3 2ebf 0f0d 4bbe e564 13bf
00000300: da07 0fbf d476 30be d799 63bf c63c 213d
00000310: ec95 03bf 82a4 58bc 8714 b93e dc7b 65bf
00000320: ef81 213f 0363 e5be 51d1 34bf cb73 5fbf
00000330: b24c 9bbf bdd9 d2be 089f 51bf 5746 63be
00000340: 4f59 24bf 724e bb3e aae5 d93e 13f5 9cbf
00000350: 58ad 1fbf 28df 183f b2b8 80bf 2ed0 01bf
00000360: 67a7 96be c635 9b3e 7bc7 3bbf c623 03bf
00000370: 687c 9c3e a096 d6be 883b b23e e41a 233d
00000380: cc02 0bbf 3a6f b2bc 75cd 02bf 90ec 18bd
00000390: 73df 88be 69ff 573d 3d24 683e d361 293d
000003a0: e14f 4b3f 0f2c 0dbf 17e1 f13e f88f 51bf
000003b0: 439a 4e3e 653e 0fbf 30a1 c43f acd8 ccbe
000003c0: b49a 473f 298c 2ebf 155f 1cbf 4a72 68bf
000003d0: 42b4 99bc ff81 9abe 307d d53c 3f32 203f
000003e0: 59a9 973f 71cc a9be d9c5 1e3f 017b c13e
000003f0: ea5a ce3e 2339 09bf 4860 44bf c52a c6be

net.4.bias f4 [4]
0.07429032 -0.00012881272 0.1519815 0.12916052
00000000: 8625 983d e711 07b9 0aa1 1b3e a842 043e
