drafts/draft_rk/runs_lunarlander/dqn_trial19_seed42.pth (torch, 279705 bytes, 6 tensors)

net.0.weight f4 [256, 8]
000000 01 de 02 3e 4f 84 e0 3e 59 f3 ee 3c b1 fa 0d 3f
       0.1278 0.43850943 0.029168772 0.5546065
000010 fe 29 3a bd 7f 58 9d 3e 40 dd 2a bf dd da 31 be
       -0.045450203 0.3073158 -0.6674385 -0.17368646
000020 8d 47 17 3f 37 bf 02 3d 0a d7 18 3f 0f be 69 be
       0.5909355 0.031920638 0.59703124 -0.22826408
000030 d1 62 69 bd e5 4d 5b 3e f9 76 3f ba 16 dc be be
       -0.056979004 0.21416433 -0.00073038 -0.37277287
000040 70 85 97 3e 48 8e 27 3e 97 1e 6d be f9 f3 48 3d
       0.29593992 0.1636287 -0.231562 0.049060795
000050 af 61 9e be d1 92 89 be 00 b0 07 bf 46 11 ea 3e
       -0.30933902 -0.26869825 -0.5300293 0.45716304
000060 9b 1b 84 be ec e5 f7 bd 49 08 18 be cd 47 d7 be
       -0.2580231 -0.12104401 -0.1484691 -0.42046967
000070 79 a5 35 3f 74 c7 b0 be b8 15 b9 3e a3 ba 7b be
       0.70955616 -0.3452717 0.36149383 -0.24582915
000080 ae 7d de 3d a7 ad 2f 3e 10 4f 9d bd 3d 12 c0 3e
       0.10863815 0.17156087 -0.076810956 0.37513915
000090 81 b5 a8 3d b6 25 13 3f c1 76 ec 3e 04 85 04 be
       0.08237744 0.5747942 0.46184352 -0.12941366
0000a0 ab b0 e8 3d 67 2b a7 bc 6d 58 09 3d 05 33 13 3f
       0.11361822 -0.020406438 0.033531595 0.57499725
0000b0 86 a2 2f 3e 7c 16 ea be 83 f4 df 3e 87 16 b0 bd
       0.17151842 -0.4572028 0.43741235 -0.08598047
0000c0 a6 86 2c bf dc 3b bc bd 1f fe 0a bf 95 7a ee be
       -0.6739296 -0.09191105 -0.5429401 -0.46577898
0000d0 bd 90 65 be d8 ee b1 3d 1c b3 6a 3d 41 bc 1f 3e
       -0.22418495 0.08688134 0.05729972 0.15599157
0000e0 f3 2c 02 3b 04 7b 64 bd 8e 9b 4e 3f 0c 07 e5 be
       0.0019863218 -0.05578138 0.8070611 -0.4473194
0000f0 77 42 0c b9 eb 67 49 bf 20 ba 0d b9 a2 ce 57 b9
       -0.000133762 -0.7867419 -0.00013516145 -0.00020580975
000100 fe a8 99 3d e3 85 88 be 80 c2 25 3e c6 d7 70 be
       0.07502936 -0.26664647 0.16187477 -0.23519811
000110 bc 5a 08 bf 8c f5 2a bf f2 d7 d3 3e da ed 98 3e
       -0.5326345 -0.66780925 0.4137569 0.29868966
000120 2d 55 0e 3f 38 73 9f be 4b 94 de be d4 c5 02 bf
       0.5559872 -0.31142592 -0.43472514 -0.5108311
000130 3f 7e 97 be 74 ae 3d 3e 66 58 4f 3e 66 6b b7 3e
       -0.29588506 0.1852358 0.20248565 0.35824126
000140 1b 51 fd bd 74 ee a1 be 3b 57 18 3e 56 5a 17 bf
       -0.12368985 -0.31627238 0.14877026 -0.59122217
000150 84 fd 46 be 60 02 d9 bc a2 f9 ae 3e 89 bf 22 bf
       -0.19432646 -0.02649039 0.3417483 -0.6357351
000160 1a e2 f6 3d ca 21 26 3d 5c 4b a5 3e 5e 72 a3 bd
       0.12054844 0.040559568 0.32284057 -0.07980798
000170 d5 8c 4e 3e 1c 18 06 3f 46 51 06 bf 3d 63 25 bf
       0.2017091 0.5238054 -0.52467763 -0.6460455
000180 12 3c 15 3f d2 6e d7 bd 61 62 4c be 26 17 04 bf
       0.58294785 -0.10519184 -0.19959404 -0.5159782
000190 0a af be bd 58 c2 d4 3d 46 c0 53 3d 8c fc 85 be
       -0.0931073 0.10388631 0.051697038 -0.2616924
0001a0 6b 02 d7 3b bb ea 68 be e0 60 8c be 83 f2 f5 be
       0.0065615675 -0.22745793 -0.2741766 -0.48036584
0001b0 4d fc e6 bc 35 c0 99 be 53 e6 d1 3e 76 f0 08 3e
       -0.028196478 -0.30029455 0.40996036 0.13372979
0001c0 f4 69 74 bd 32 c8 85 be 51 40 9f 3b 71 4d 2d bf
       -0.059671357 -0.261293 0.004859962 -0.6769629
0001d0 f0 e1 f0 bb f2 87 49 bd 68 e7 8d be aa 90 b5 be
       -0.0073511526 -0.049201913 -0.2771561 -0.35461932
0001e0 4f 2c 43 3c d8 2d 7c be 7f 0d e4 3d b6 8b f2 be
       0.011912419 -0.24626863 0.11135387 -0.47372216
0001f0 7b 81 92 be 45 4c 16 bf e3 59 56 bf f6 72 f8 3d
       -0.2861441 -0.5871013 -0.83730906 0.12131302
000200 9a bd bf 3d 15 97 c1 bd ea 18 7f 3e c8 f5 00 3e
       0.093623355 -0.09452645 0.24911848 0.12593758
000210 a1 2b 21 bf cd 22 07 3f ff e7 ba bd 3a fd 46 bc
       -0.629572 0.52787477 -0.09126281 -0.012145335
000220 6e 23 86 be da bf b0 be 45 da 64 3d d6 35 0b bf
       -0.26198906 -0.3452137 0.05587222 -0.5437902
000230 66 a7 2b 3e f0 1c 9c be d2 08 cb 3e 26 04 45 be
       0.16763076 -0.30490828 0.39655167 -0.19239864
000240 e5 72 67 bd f5 5e 8c 3e c8 08 a1 3d e3 04 08 3f
       -0.056506056 0.27416196 0.07863003 0.53132457
000250 0e 7a 08 bd 6a 4f 75 bf 51 79 01 be 99 1b cb 3e
       -0.033319525 -0.958243 -0.12643935 0.39669493
000260 bc ce 06 be e5 f8 17 be 45 3b d9 3d 53 a5 4a bf
       -0.131648 -0.1484104 0.10607008 -0.79158515
000270 b1 b4 6b bd b6 d0 8b 3c 0a 08 35 3e 2f d2 17 be
       -0.057545368 0.017067295 0.17678848 -0.14826272
000280 dd 45 ff 3e 58 8c 26 3e 31 e8 5b 3e 96 54 06 bf
       0.4985799 0.16264474 0.21475293 -0.5247282
000290 97 57 d0 3e b5 0d dc bd be 6f 4a be 86 2b 91 3e
       0.40691826 -0.10744802 -0.19769189 0.28353518
0002a0 9e ac 80 3d 8e e6 c4 bd d0 5c de bc 1c 57 33 be
       0.06282924 -0.09614287 -0.027143866 -0.17513698
0002b0 6f 09 9e 3e 64 c5 d2 3e 51 54 88 be 69 93 45 bf
       0.30866572 0.41166222 -0.26626828 -0.77178055
0002c0 33 1d 00 bf 36 25 d3 3e 2d 0e 28 3f e9 57 f7 be
       -0.50044554 0.41239327 0.6564663 -0.48309258
0002d0 17 c8 25 3d cc 3c af 3e b4 3d d0 3d 07 76 ec be
       0.040474024 0.34226072 0.10168019 -0.46183798
0002e0 e5 58 73 3e 90 8a 83 3e 4a 63 90 3e 49 07 74 be
       0.2376438 0.25691652 0.28200752 -0.23830904
0002f0 81 9f 48 be 94 ef 6a bd 0c d5 f8 bc 00 3c af bd
       -0.19592096 -0.057357386 -0.030375026 -0.08556366
000300 f0 82 eb 3d ac 8c 8e be f2 1d e8 3c 36 93 a3 3f
       0.11499584 -0.278417 0.028334592 1.27793
000310 78 af 94 be 15 e8 74 bd ce 9c c4 3e 69 db dd 3e
       -0.29040122 -0.059791643 0.38400882 0.4333146
000320 c4 72 62 be 68 35 a3 bd ab e7 be 3c a8 d9 58 3e
       -0.22114092 -0.07969171 0.023303827 0.2117678
000330 d2 9d 39 3e 48 e3 06 bf e5 1a c6 be f9 87 40 bf
       0.1812661 -0.52690554 -0.38692394 -0.7520748
000340 13 0e 87 3d 0d 51 31 3e f7 33 4b 3e 9f b0 76 3e
       0.06594481 0.17316075 0.19844042 0.24090813
000350 4f 30 b4 be 96 3b 07 bf f0 7d c3 be ff 47 21 3f
       -0.35193107 -0.52825296 -0.3818202 0.6300048
000360 96 73 3e 3c f9 d1 4a bd 6c a1 2d 3d fb c6 b9 bd
       0.0116242375 -0.04951665 0.042390272 -0.09071156
000370 41 31 81 bf 87 3b 05 3e 0a b2 be bc b5 d6 00 3e
       -1.0093156 0.13010989 -0.023278255 0.12581904
000380 0d 1f 95 3c e1 07 9e 3e ba 69 00 3e a2 0f ad 3e
       0.018203283 0.30865386 0.12540331 0.3380099
000390 04 f8 ad be 50 03 1c bf 1a a3 12 bf 66 a1 1e 3f
       -0.33978283 -0.60942554 -0.57280123 0.61965024
0003a0 2b 7c 39 3e 82 05 b6 3e f5 6c 4e 3d 4c b0 ad 3e
       0.18113773 0.35551077 0.05039688 0.33923566
0003b0 f0 3d c5 be 9c 39 0d bf 64 d6 5c bf 31 e0 21 bf
       -0.38523817 -0.5516603 -0.86264634 -0.63232714
0003c0 ff 62 53 3e ae 72 84 3d b5 3b 01 3c 2e 2f 68 bf
       0.20643233 0.06467186 0.00788777 -0.9069699
0003d0 3d 22 13 3f 0d 0f cd be a9 b0 9b bf c8 23 b8 be
       0.5747412 -0.40050545 -1.2163287 -0.359648
0003e0 62 04 14 be f8 64 b5 3e 25 b5 c3 bc 88 71 cd be
       -0.14454797 0.35428596 -0.023890087 -0.4012568
0003f0 4f 36 17 3e 39 d4 d6 be 63 2b 1b bf 69 d4 4a bf
       0.14766811 -0.41958788 -0.6061308 -0.7923036

net.0.bias f4 [256]
000000 e5 8a 99 3e fa 0b 20 3e b6 44 53 bd 6e 99 98 3e
       0.2998878 0.15629569 -0.0515792 0.29804558
000010 98 c8 8b 3e e4 76 90 be 08 10 be bd b8 02 1a 39
       0.27301478 -0.28215706 -0.092804015 0.00014687597
000020 40 de ad bd 55 1f 88 3e 85 f7 ae bd d6 2f b2 be
       -0.084896564 0.26586404 -0.08543304 -0.3480212
000030 fe 78 c3 3d 7f b5 aa 3d a6 23 8e 3e b4 48 9a be
       0.09544562 0.08335399 0.27761573 -0.30133593
000040 02 d2 cd 3e 5d 42 3b 3e 1c 67 ca 3e 4e 20 e5 3d
       0.40199286 0.18287034 0.3953179 0.11187802
000050 79 a8 8c 3e d7 5a 25 3d f2 09 22 be d8 2f b1 3e
       0.27472284 0.040369835 -0.15824106 0.34606814
000060 a4 64 94 be 92 da 9d 3e 8d 25 05 3e fd d3 0f 3c
       -0.28983033 0.30830818 0.13002606 0.008778569
000070 d7 22 36 3e e9 f2 3d 3e 92 83 3d 3e eb 66 b3 3e
       0.17786728 0.18549694 0.18507221 0.35039458
000080 f4 5b d6 bd 98 6c dc 3e f8 61 bf bd 87 ee ef 3c
       -0.104667574 0.430516 -0.09344858 0.029288543
000090 2a 08 29 3e 95 b4 e4 3e 4b bd 56 bd 0d 90 37 be
       0.1650702 0.44669023 -0.052426618 -0.17926045
0000a0 40 d5 83 3e 1b 4e 8f bd ce 8f 91 3e d1 95 6a be
       0.25748634 -0.06997319 0.28430027 -0.22908713
0000b0 a9 3c 8d 3e 7e 52 9d 3e ed 08 ea 3c 02 84 10 bd
       0.27585343 0.30727 0.02856871 -0.035282142
0000c0 60 86 b6 3e cb f3 06 3e ff aa 4b bd 24 9b a7 be
       0.35649395 0.13178937 -0.04972362 -0.3273555
0000d0 0a f5 e8 3e 40 95 82 3d 77 27 2f bd 58 57 0f be
       0.4549945 0.063761234 -0.042762246 -0.13998163
0000e0 6f 57 85 3e 6b 8c a2 3e b5 9f c8 bd 29 1d a9 3e
       0.2604327 0.31747755 -0.09796087 0.3303006
0000f0 62 3f c9 3d b8 91 5c bd 3f 0c bb 3e 28 c9 63 3d
       0.098265424 -0.053849906 0.3653278 0.05561176
000100 a8 2e 24 3b 72 1a fe 3c e8 cd f9 3e 65 e7 6c bc
       0.0025052223 0.03101847 0.48789907 -0.014459466
000110 03 44 d7 3e 8c 66 c8 3e a1 a1 75 3e bc e3 80 3e
       0.42044076 0.39140737 0.23987438 0.25173748
000120 0a 3b 7b 3e 52 a8 9a 3d e4 4a e1 3e 27 64 ff 3e
       0.2453424 0.07551636 0.4400245 0.49881098
000130 8a 55 82 3e 9e 8a bd bc 61 bf ea 3e 83 b3 c3 be
       0.25455886 -0.023137387 0.45849136 -0.38222894
000140 e4 55 ac 3e 00 5b d7 3e 1c 67 b4 3e 9c 85 af 3d
       0.3365928 0.42061615 0.35234916 0.08570406
000150 d8 58 cd be 24 11 0c 3f 88 5c 2f 3e 85 e6 8e 3e
       -0.40106845 0.54713655 0.17125142 0.27910247
000160 25 73 75 3e d0 86 06 be 34 22 a3 3e f6 52 ec 3d
       0.23969705 -0.13137364 0.31862032 0.11539261
000170 78 3b c4 3e b8 7a 8c be 20 cc c4 3e e9 7c ca 3e
       0.3832662 -0.27437377 0.38436985 0.39548424
000180 c2 5d 9a 3e e0 fd 03 3f 27 6a ad 3e 61 ab 85 be
       0.30149657 0.5155926 0.3387005 -0.26107314
000190 a0 ec 2f 3e 52 91 3c 3e 54 40 59 3e 7a 5b 7f be
       0.17180109 0.1841481 0.21215945 -0.2493724
0001a0 86 85 b2 3d 44 e6 49 bd f2 3c 01 3f 62 f6 fa 3e
       0.08716874 -0.049291864 0.5048362 0.490161
0001b0 ee c0 b6 3e 3f c7 d8 3e c6 19 3e be 02 b7 8f bd
       0.3569407 0.42339513 -0.1856452 -0.07017328
0001c0 4c 91 05 be 88 1d 2b be e4 67 d1 3e 7b 8a 92 3e
       -0.13043708 -0.16710484 0.40899575 0.28621277
0001d0 24 51 7f 3e 66 48 3f 3e f1 08 72 be c2 a3 07 bb
       0.24933296 0.18679962 -0.23636223 -0.0020696972
0001e0 81 dd f1 3e a0 78 7c 3e 8c 29 9b 3e 7a f8 37 3e
       0.47239307 0.2465539 0.30305135 0.1796588
0001f0 ac 41 17 bd 72 15 02 bd 26 37 7c 3e 67 07 58 3d
       -0.036927864 -0.031758733 0.24630412 0.052741434
000200 25 db 45 3e 20 fd 11 3f 8c 62 22 be e2 98 4f 3e
       0.19321878 0.57026863 -0.15857905 0.20273164
000210 cb 38 3e bc 50 b6 60 3e aa d3 5a be 87 9f 86 be
       -0.01161022 0.21944547 -0.21369806 -0.26293585
000220 18 63 05 3e 1e cf bf 3d 79 d2 a6 be ca 3e f8 3e
       0.13026083 0.09365676 -0.32582453 0.48485404
000230 d2 18 87 be 78 d7 66 be 30 30 31 be fe 98 44 be
       -0.26386124 -0.22543132 -0.17303538 -0.19198987
000240 6f fc 08 bd db c9 14 be 1d 2e bb 3e f7 de 65 be
       -0.033443864 -0.14530127 0.3655862 -0.22448336
000250 61 a5 21 3e 1e 81 34 3e ab f0 5b 3e f1 87 04 3f
       0.15785743 0.1762738 0.21478526 0.5176993
000260 2f ef 77 3e 06 11 04 3d 0c 88 09 be 63 29 81 3d
       0.24212335 0.032242797 -0.13430804 0.06306722
000270 b9 25 fd bb 6a 7a 92 3e ef 71 07 be 8a 78 b4 3e
       -0.007725444 0.2860902 -0.13227056 0.35248214
000280 41 81 8f 3e 62 d0 a7 bd 3e 56 74 3e f1 4e 34 3e
       0.280283 -0.08194043 0.23861024 0.17608239
000290 96 e4 0d be 80 ae a7 3e 04 e9 7b be ff 89 35 3e
       -0.1385673 0.3275032 -0.24600607 0.17728423
0002a0 d7 0e cd be 3e 66 36 be b4 46 da 3d c4 84 97 3e
       -0.40050384 -0.1781244 0.10658017 0.2959348
0002b0 59 83 ae 3e fd ad 9a bd ad 1d 28 bd 3b 5b 82 3e
       0.34084585 -0.07552717 -0.041043926 0.25460228
0002c0 fd de 59 3d 7b 3f 18 3e ab 0c 0b be 43 e6 07 3f
       0.053191174 0.14867966 -0.13579051 0.53085726
0002d0 13 dd a0 3e e6 a7 af be f6 05 4a be 12 a9 0e 3d
       0.31418666 -0.34307784 -0.19728836 0.034829207
0002e0 ee 04 99 be 24 b5 4a be d2 7b 23 3e be 57 d6 be
       -0.29886574 -0.19795662 0.15965202 -0.41863817
0002f0 44 8a fc 3e 31 a3 fc 3e cb 33 15 be a3 5b 7e be
       0.49324238 0.49343255 -0.14570539 -0.24839644
000300 83 41 09 bd 91 21 9d ba 3b d3 36 3e c8 95 8b be
       -0.033509742 -0.0011988153 0.17854016 -0.27262712
000310 43 64 3f 3e 01 f2 89 be 50 5b 95 be 45 80 7e be
       0.1869059 -0.26942447 -0.29171228 -0.24853618
000320 a7 6a b4 3e 81 42 ad 3d 86 af 7a be de 1f b3 be
       0.3523762 0.0845995 -0.2448102 -0.3498525
000330 f0 fd 49 3c 66 24 f1 be ac 58 30 3e 50 14 6e 3e
       0.01232861 -0.47098082 0.17221326 0.23249936
000340 68 de a2 3e a2 15 66 be 16 3c 26 bb d5 eb b9 be
       0.31810308 -0.2246919 -0.0025365404 -0.36312738
000350 9d 2c 29 be cf 7d 5f bd 9a a9 eb 3e 3d c9 87 3b
       -0.16520925 -0.05456334 0.46027833 0.0041438625
000360 31 fe 01 3f 8b 3e 3c 3e 22 f3 a4 bd 49 77 c5 be
       0.5077849 0.18383233 -0.080541864 -0.3856757
000370 d5 cc fd 3e 85 78 fb 3e fb 2f 2d 3e f0 1b a3 3e
       0.49570337 0.49115387 0.16912834 0.31857252
000380 0c a4 c6 3e 13 eb 88 3e d6 1b 8a 3e fd 45 b3 be
       0.38797033 0.26741847 0.26974362 -0.35014334
000390 22 b6 d7 be ae a0 b1 bd cb 34 21 3e b4 05 7d be
       -0.42131144 -0.08673225 0.15742795 -0.24709207
0003a0 58 54 1e 3e 88 ab 40 be 77 cb 18 be 00 f8 4a 3e
       0.15461862 -0.18815434 -0.14921366 0.19821167
0003b0 bd 2a 06 3e 73 07 b4 be f5 fb b3 3e 21 38 d8 bd
       0.13102241 -0.35161933 0.35153165 -0.10557581
0003c0 24 f7 9d bd 63 c5 c2 3e a5 fa 0b 3e 6e 27 e8 3c
       -0.07713154 0.3804122 0.13669832 0.028339114
0003d0 25 58 8d be 9f 11 7c be 20 9a de bc 33 4c c6 3e
       -0.2760631 -0.24616097 -0.027173102 0.3873001
0003e0 60 3f 5c 3e 5e 0b 51 3c f1 32 a9 be 76 db 95 be
       0.2150855 0.012759058 -0.33046678 -0.29268998
0003f0 a9 30 2e be e2 2e 8c bd 8b 0d 78 be 67 bc 39 be
       -0.1701075 -0.0684488 -0.24223916 -0.18138276

net.2.weight f4 [256, 256]
000000 09 11 49 3e 63 39 fa 3d dd ac 02 3e 0c 94 fb bc
       0.19635405 0.12217977 0.12761255 -0.030710243
000010 8f 52 27 3e 4a 95 5b 3f 60 99 75 3e 7e 5c be be
       0.16340087 0.8577467 0.23984289 -0.3717994
000020 d3 21 dc 3d a3 ee 43 bd a5 7f 16 3f 9b ed b9 3e
       0.10748639 -0.047835004 0.5878852 0.3631409
000030 dc 11 8f bd e2 a8 a1 3d e6 73 ca 3e ae 59 13 3f
       -0.06985828 0.0789354 0.39541548 0.57558715
000040 63 c4 67 bd 5e dc 45 3e 36 78 c7 3d cd c3 cc 3e
       -0.056583773 0.19322345 0.09739725 0.39993134
000050 2b 10 fd bc 83 36 85 3e 35 21 de bc 5e eb b4 bc
       -0.030891499 0.26018152 -0.027115444 -0.022084888
000060 30 4d 29 3f 31 7d d9 3c bb e2 03 3e 9d 0b 72 bd
       0.66133404 0.026548954 0.1287946 -0.059093107
000070 b9 52 59 3d f0 03 29 bc 23 79 88 3e 4a 1f 11 be
       0.053057406 -0.01031588 0.2665492 -0.14172092
000080 8e 29 36 3e 82 8e c3 bd 9e b4 b2 bd 08 12 9d 3e
       0.1778929 -0.095486656 -0.08725856 0.3067782
000090 6f 30 98 3d 71 e4 72 bd 98 74 56 3d cf b6 e3 3e
       0.07431113 -0.05929989 0.052357286 0.4447541
0000a0 39 cb 6e 3d 29 06 40 3e 7f 79 14 be 12 2c 6f 3e
       0.058299277 0.1875235 -0.14499472 0.23356655
0000b0 9b d7 cf bd f7 e7 fa 3d 9d c0 30 3e 4b 91 e0 bd
       -0.10148545 0.12251275 0.17260976 -0.109652124
0000c0 e1 7d a0 bd 9f 46 d9 bc 02 f0 74 3e 25 bc bb 3e
       -0.078365095 -0.026522933 0.2391968 0.3666698
0000d0 74 8a 91 bd 4a aa ff bc b5 51 8b 3e 5d 0b 73 bd
       -0.07106486 -0.03120913 0.27210775 -0.05933701
0000e0 be 5b 2a 3d a9 ae ef bd 29 18 38 3e 47 77 8e 3d
       0.0415914 -0.11703236 0.17977966 0.06956344
0000f0 b8 ec fa 3d 9e 1a 63 3e a6 3f 97 bc bf 80 09 bd
       0.12252182 0.22178122 -0.018462967 -0.033570047
000100 ab 4e 3e 3e 83 0a 10 3d c4 4f 80 bc 6e 80 2f be
       0.18584697 0.035166275 -0.015663035 -0.17138836
000110 a3 cd e0 3c 07 75 9e bd f2 6f ef bd ce 2f 65 bd
       0.027441805 -0.07737165 -0.11691274 -0.055953793
000120 6e ae ef bd 7e 92 ab 3d 01 8e 39 bd fa a1 f2 bd
       -0.11703192 0.083775505 -0.04530144 -0.11847301
000130 cd c4 f8 bd 4a 15 90 3e d9 3c 27 be f2 8b 8a 3e
       -0.12146912 0.28141242 -0.16331805 0.27059895
000140 07 dc da 3d 55 1e 82 bc 84 7a 20 3c cb 4c ec 3b
       0.10686498 -0.015883604 0.009794835 0.007211303
000150 23 21 0a bf a0 9d 62 be e5 f6 d2 bd ff 7b ac 3e
       -0.5395681 -0.22130442 -0.10300998 0.33688352
000160 08 c1 d6 3d 90 a2 58 3e fc 8b 23 3d 73 7b 33 be
       0.104860365 0.21155763 0.03992842 -0.17527561
000170 8b bc cb 3c f3 ef db bd 7d 30 c2 bd 4c cd c0 bd
       0.024870178 -0.10739126 -0.09481905 -0.09414157
000180 53 cf fd bc 80 91 ae bd 25 44 02 3d d3 55 07 3f
       -0.030982649 -0.08523846 0.03180327 0.5286533
000190 83 89 09 3e 58 19 db 3d 13 bc 3c 3e d9 e7 ad 3e
       0.13431363 0.10698193 0.1843112 0.33965948
0001a0 c0 0a 3e 3e 98 33 3a 3f 1a b5 bf bd 2b d4 8c bb
       0.18558788 0.72734976 -0.09360714 -0.0042977533
0001b0 8c 0a e0 3d 82 78 f0 bd a3 39 82 3e cd fc 21 3d
       0.10939512 -0.11741735 0.25434598 0.03954773
0001c0 d8 6c 85 3e 74 1a 94 3b 94 22 a7 bd d6 71 6f 3d
       0.26059604 0.004519755 -0.08160892 0.05845817
0001d0 3f 2d 92 be 62 96 66 be f2 97 97 bd ea b8 e7 bb
       -0.28550145 -0.22518304 -0.07402028 -0.007071604
0001e0 dc 81 35 bd 7e fa 11 3e 49 c6 de 3d 5b 60 24 3e
       -0.044313297 0.14255711 0.10877664 0.16052382
0001f0 35 0c 51 3f 13 8c 87 3d 1f 66 6c ba 55 74 2b 3e
       0.8165925 0.06618514 -0.0009017903 0.16743596
000200 68 15 ac bd af af ab be c4 3e 96 3e 07 88 0d 3e
       -0.084025204 -0.33532473 0.2934476 0.13821422
000210 fb 9b 10 3e f8 48 27 3e da 88 6a bd 08 e1 20 3e
       0.14122002 0.16336429 -0.057259418 0.15710843
000220 1c bc f0 bd 32 71 7f 3e 40 72 5e bf 5c 5d 05 be
       -0.11754629 0.24945524 -0.8689308 -0.13023895
000230 82 32 50 3e 62 3a c0 be 0b 29 11 be 92 95 8d 3e
       0.20331767 -0.37544543 -0.14175813 0.27653176
000240 bf fc 6e 3e 1d 83 b2 be 0c 84 87 bc e2 34 b3 be
       0.23338602 -0.34865656 -0.016542457 -0.35001284
000250 38 79 8f 3d 10 c1 04 3e 60 56 9e be b9 33 dd bd
       0.070055425 0.12964272 -0.30925274 -0.10800881
000260 da b4 57 bd d6 2e 0c 3e a5 98 d7 3d 16 7b d0 3d
       -0.052662708 0.13689741 0.105271615 0.10179727
000270 2e 49 cd 3c 00 31 00 be 53 d2 14 3e 44 3c 1a 3e
       0.025059309 -0.12518692 0.14533357 0.15062052
000280 b2 89 74 bd 95 21 83 be 9d c7 73 3e ba 11 09 bd
       -0.05970163 -0.2561156 0.23806615 -0.03346417
000290 d3 a2 ac 3e 0d 06 13 be 7f 91 5d 3e 85 33 fc bd
       0.33717975 -0.14357777 0.21637534 -0.12314514
0002a0 91 f1 43 3f a2 fb 13 bd 46 ba 04 bd 74 21 2a 3d
       0.76540476 -0.036128648 -0.032404207 0.04153581
0002b0 14 7b 0e 3e d9 49 07 3e aa 49 17 3e 4f 5a 76 3d
       0.13914138 0.13211764 0.14774194 0.06014472
0002c0 97 a5 80 3e ee e8 ad 3d 4f d6 2f 3e 65 73 4b be
       0.25126335 0.084916934 0.17171596 -0.19868238
0002d0 0f 57 43 bd e2 27 1f 3f 83 6a 22 3d 42 75 d6 3d
       -0.047690447 0.6217023 0.03965236 0.10471584
0002e0 3c 7b 73 be 82 9f b8 bd ff 3f 47 be 1b ab bc bc
       -0.23777479 -0.09014799 -0.19458006 -0.023030808
0002f0 93 0f b7 3c 62 f2 da bd 2c d9 bd be be 9a ea 3e
       0.022346294 -0.10690762 -0.37079751 0.45821184
000300 bb 08 a3 3d cb c3 5f 3e 7d d1 99 3d 58 9a 7c 3e
       0.079606496 0.21852033 0.0751066 0.24668252
000310 e5 19 30 3e 02 bd 84 3e 4e 34 9b 3e 0b 49 d2 3e
       0.17197378 0.25925452 0.30313343 0.41071352
000320 dc 7c bc bd 67 b4 0d 3e aa fa 26 3e 38 3e 7c 3f
       -0.092035025 0.1383835 0.16306558 0.9853244
000330 74 6d c1 bd 41 a8 6e 3e 63 5b 65 3e 89 15 12 3e
       -0.09444705 0.23306371 0.22398143 0.14266028
000340 a6 e9 08 3e c5 d9 e8 3e b1 60 ad be 1c 09 8d 3e
       0.1337038 0.45478645 -0.33862832 0.27546012
000350 4f d7 1e be b0 ea 10 3e 39 cd f6 3c 4e 3d 05 be
       -0.15511821 0.14152026 0.030127155 -0.13011667
000360 dc 32 a1 3d 14 0e 75 3a 40 89 91 be dd e1 be 3e
       0.07871029 0.0009348106 -0.28425026 0.37281695
000370 23 fc 33 bc fb fe 0f 3d 97 24 cb 3e fa 21 ea bc
       -0.010985407 0.035155278 0.39676353 -0.028580654
000380 d3 d3 e0 bb f0 ea b1 3d c4 00 7d bd 74 9b 2a 3e
       -0.006861189 0.08687389 -0.06176831 0.16660863
000390 15 54 6d 3f 93 ae 03 3f f7 ca d1 3c 14 f1 76 3e
       0.92706424 0.51438254 0.025609476 0.24115402
0003a0 44 fe ee 3b b4 fc 50 3e b6 a3 6b bf 35 1e 43 bf
       0.0072934944 0.20408899 -0.9204668 -0.7621797
0003b0 06 2b 92 3e 80 c1 30 3f 9d e3 9a be e4 00 8f 3e
       0.2854845 0.6904526 -0.3025178 0.27930367
0003c0 15 f7 d2 3e f2 c6 83 be a8 d7 4c 3d 45 00 f5 3d
       0.41204134 -0.2573772 0.050010353 0.11962942
0003d0 7b 9f a5 3e 42 e5 84 3e 17 fa 71 3e 18 64 31 bd
       0.32348236 0.2595616 0.23630558 -0.043308347
0003e0 15 de 9c bd a4 59 a1 3e 41 d5 46 3f 13 25 30 3f
       -0.07659546 0.31513703 0.7766915 0.6880657
0003f0 83 1f df 3e 92 1e 99 bd 70 3f 48 3e da a1 53 3e
       0.4357873 -0.07476534 0.1955545 0.2066721

net.2.bias f4 [256]
000000 9b e5 f8 bd 63 a5 3c bc 14 07 4d bc 88 d1 02 be
       -0.12153169 -0.011514041 -0.012513895 -0.12775242
000010 78 b4 2c bb 04 31 5c 3e 04 8a b8 3d 97 6e 3d 3e
       -0.0026352685 0.21503073 0.090106994 0.18499218
000020 35 4e 0f 3d 7f 9a 00 3e df 64 d3 bc f7 fa c8 bd
       0.034986693 0.12558936 -0.025804935 -0.09813493
000030 b6 08 06 bd 5e c0 2d bd 60 2f f9 bd de d4 66 bd
       -0.03272315 -0.042419784 -0.12167239 -0.05635535
000040 88 29 82 bd eb e9 ed bd 98 cc 1e be 2c 3d 0e 3e
       -0.06355578 -0.11616882 -0.15507734 0.13890523
000050 73 d0 7b bd e5 0d 1e 3e 05 e7 7d bd dd e8 77 3d
       -0.06147809 0.15434988 -0.061987896 0.06052481
000060 18 dd b6 bd 78 1a 59 3d ae 2a 25 ba cb d7 11 bd
       -0.08928889 0.05300376 -0.000630061 -0.035606187
000070 a1 86 82 bc 4b 7d b5 bc 47 83 c6 3d 15 0c 57 bd
       -0.015933337 -0.02215447 0.09693008 -0.052501757
000080 7b 69 43 bd c4 85 10 bc 2b e5 c7 3c 0e 5d 99 3d
       -0.047708016 -0.008820955 0.024401268 0.07488452
000090 65 73 c2 bd cf 4f 3a 3e 61 fd 7a 3e 68 d7 9c bd
       -0.09494666 0.18194507 0.24510719 -0.07658273
0000a0 03 64 12 3e 8e f4 e8 3d 7a 70 e3 3d 0b 26 09 3e
       0.14295964 0.1137477 0.111054376 0.13393418
0000b0 18 bd 34 3e 33 ee 97 3d 26 31 d5 3d 1f 3a 30 bc
       0.17650259 0.0741848 0.10409765 -0.010756045
0000c0 2f cc a5 3d ad 37 74 bd 55 af 12 3e c6 98 e0 bd
       0.080955856 -0.05962341 0.14324696 -0.10966639
0000d0 05 5b 9d 3a 61 ac 06 3e 69 3a ac bd c5 94 49 3c
       0.0012005275 0.13151695 -0.08409578 0.012303536
0000e0 7a b8 af 3d e7 94 80 3b 1f 08 e2 bd f6 56 46 bd
       0.08580108 0.0039240005 -0.11036705 -0.048422776
0000f0 50 4f 0f 3d 5f a0 09 3d 55 52 11 3c 0f 27 6e bc
       0.034987748 0.033600207 0.008869727 -0.0145356795
000100 c1 06 a2 bc a9 af 7c 3d 03 0f c8 3d da 85 82 bd
       -0.019778611 0.06169096 0.09768488 -0.063731864
000110 85 3d 4f bd 45 f9 fb 3d a9 bf 6d bc 49 f4 84 3e
       -0.05059578 0.12303404 -0.014511027 0.25967625
000120 4d 59 47 bd 7c d7 c3 bd fb 41 cc bb 21 8d b9 bd
       -0.04866915 -0.09562585 -0.0062334514 -0.09060121
000130 ad 4a e1 bd fa a0 21 ba 6b 0d 24 bd 47 7f ee 3d
       -0.110005714 -0.000616565 -0.04005186 0.1164537
000140 1e 48 ce 3d 22 b9 66 3c 6a d1 56 bd 81 21 89 3e
       0.10072349 0.014082225 -0.052445807 0.26783374
000150 aa c4 17 bd 02 3f b3 bc b9 68 08 3e a8 68 42 bc
       -0.037052788 -0.02188063 0.13321199 -0.011865772
000160 a8 a5 d4 bd 2f 89 47 bd 7b 06 3a 3e b5 d0 0d bc
       -0.10383159 -0.048714813 0.18166535 -0.008655717
000170 c3 b5 3a 3e eb c2 3a 3d 9d 7e 17 bd 19 af 9e bd
       0.18233399 0.045596045 -0.036985982 -0.07748241
000180 4c 00 bc bd 07 30 79 bd b9 8b e6 3d 3a 62 77 bd
       -0.09179744 -0.060836818 0.11257119 -0.06039641
000190 12 72 4e 3c a8 5b 36 bd da c7 ce bd 71 0a 75 3e
       0.012600439 -0.044521004 -0.100967124 0.23929764
0001a0 51 14 65 3e 3d e2 ca bd 3d e3 17 3e 5f fa 41 3b
       0.22371031 -0.09906433 0.14832778 0.0029598696
0001b0 2a 2b 0e bd 58 f2 94 bd 0f e2 27 bd fc ac 2b bd
       -0.034709133 -0.07272786 -0.04098707 -0.041913018
0001c0 fd e1 62 3b 55 5c a2 ba c5 15 35 3b 37 03 83 bd
       0.0034619563 -0.0012387136 0.0027631384 -0.063970976
0001d0 f3 71 91 bd ee 40 87 3c c6 e3 ea 3c 35 98 7f bd
       -0.07101812 0.016510453 0.028673064 -0.062401015
0001e0 ab 43 08 3e 56 7d e8 bd 60 1d 38 be 33 ae 5d 3e
       0.13307063 -0.11352031 -0.17979956 0.21648483
0001f0 0e 39 78 3e 8f 95 50 3d 5d c2 69 bd fe 25 38 3e
       0.24240515 0.05092388 -0.057070125 0.17983243
000200 b8 0e 83 bc 15 63 e3 bc 36 15 2b 3e 88 ba 5c bb
       -0.01599823 -0.027757207 0.1670731 -0.0033680517
000210 56 bf 4b bd 6a 12 2f 3d da 52 54 be bc e0 47 3d
       -0.04974302 0.04274217 -0.2073473 0.048798308
000220 87 a9 26 bd 31 f8 4e bd 39 a9 30 3e 9f 4d 9f bd
       -0.040689018 -0.050529663 0.17252053 -0.07778477
000230 03 ef 35 be 2c 19 18 3c 87 ce 51 3e 92 db 08 3d
       -0.17766957 0.009283345 0.2048894 0.033412524
000240 4e 0c b4 bd d7 40 8a bc 36 69 a4 38 9b 8f 82 bd
       -0.087914094 -0.016876621 7.8397265e-05 -0.06375047
000250 d2 8a bf bc b1 03 85 bd 6c 0a c2 3c 81 7a ca bd
       -0.023381624 -0.06494845 0.02368661 -0.09886647
000260 97 83 12 be 57 13 1d 3e c9 d9 b8 3d 2f 41 d7 bc
       -0.1430801 0.15339409 0.09025914 -0.0262762
000270 c8 95 00 3d a8 dd 29 3c 80 69 4f 3e 99 12 2b 3e
       0.031392843 0.010367788 0.20255089 0.16706313
000280 30 b0 1f 3e 30 ca 74 3c 85 c5 58 be 31 07 15 bc
       0.15594554 0.014940783 -0.21169098 -0.009095953
000290 5f 57 d8 bc ed ee 3f bc 07 00 90 3b f5 d5 03 3e
       -0.02640885 -0.011714679 0.0043945345 0.12874587
0002a0 14 27 8b 3d c4 28 cd 3d cd 8d bc 3d 62 75 83 3a
       0.06794563 0.10017541 0.09206734 0.001002949
0002b0 83 d8 5f 3d ef 32 99 bd d3 fd f0 3c 8c a0 21 bd
       0.05464984 -0.07480418 0.029417908 -0.03945975
0002c0 05 4d 2a bd f0 59 ab 3d 2c 77 97 bc e2 0a a5 bd
       -0.041577358 0.083667636 -0.018489443 -0.08058716
0002d0 6d 58 12 bb 60 35 0e be 59 72 fa bd 24 d1 0d 3e
       -0.0022330538 -0.13887548 -0.12228841 0.13849312
0002e0 49 6f 1a 3c 38 6f 47 bd 0e 85 86 be f6 7c e7 bd
       0.0094259465 -0.04869005 -0.26273388 -0.11303131
0002f0 59 6a 19 bd 23 99 e8 bc a2 d9 8e bc 66 93 4a bd
       -0.037454937 -0.028393334 -0.01743776 -0.049456976
000300 64 b6 e8 bd c4 fc b6 bd 08 0f 0c bd 94 3b 13 3e
       -0.11362913 -0.0893493 -0.034194022 0.14378196
000310 1a 47 38 be 77 b9 99 bd 3b 00 13 3d c6 59 9b bd
       -0.17995873 -0.07506078 0.03588889 -0.07585482
000320 6f 54 3e 3e c2 5d a7 bd 3b 00 6b bd d2 04 39 be
       0.18586896 -0.0817218 -0.057373267 -0.18068245
000330 7d d6 3e 3b 4c ed 21 3e de bf 14 be 27 68 92 3d
       0.0029119544 0.15813178 -0.14526317 0.07148772
000340 8d 90 8e 3d 31 59 b2 bd ac 60 ab bc 0f de 97 bb
       0.069611646 -0.08708418 -0.02092012 -0.0046346257
000350 3d 22 03 bd 8d 35 5b 3e 4c c6 88 bd 6c 5f ed bc
       -0.032015074 0.21407147 -0.06678447 -0.028976165
000360 4b 17 87 3e ba ee bc 3d f4 72 e5 bd d1 7f 07 3b
       0.2638496 0.09225221 -0.11203566 0.002067555
000370 a5 35 fa bc 95 dd f4 bd e3 87 3d bd 8a 7b fc 3d
       -0.030543158 -0.11956326 -0.04627217 0.12328251
000380 a8 e5 48 3e 39 75 a1 3d a7 b7 9d bd 94 08 d4 3b
       0.19618857 0.078836866 -0.077010445 0.006470749
000390 a1 b8 49 3e 37 43 86 bd 7d b9 18 be ba 9c 33 bd
       0.19699337 -0.06555789 -0.14914508 -0.043850638
0003a0 b2 79 9c bd 30 b0 cb ba d9 f8 89 bd 18 e0 e9 3b
       -0.07640399 -0.0015540179 -0.06736917 0.0071373098
0003b0 84 e4 5e bd 33 c1 b9 bd 04 d6 6b 3e f5 cd 5c 3d
       -0.05441715 -0.09070053 0.23030859 0.053907353
0003c0 10 99 b8 3d b5 56 9e bd b4 2b 1b 3e 47 4e a9 bc
       0.09013569 -0.07731382 0.1515339 -0.020667208
0003d0 12 35 83 bd 6f 06 86 3e 59 6b ad bc c9 71 a8 bc
       -0.06406607 0.26176783 -0.021169351 -0.02056207
0003e0 76 6c fc bc 40 11 b9 bd 91 ee ca 3d f1 40 81 bc
       -0.030813437 -0.09036493 0.09908784 -0.015778037
0003f0 c0 76 eb bc b9 ed c9 bd b9 0b 3c 3e 7c 8b 06 3d
       -0.028743148 -0.09859795 0.18363847 0.032847866

net.4.weight f4 [4, 256]
000000 ab 05 6f be a9 6f 9d be a6 63 52 bf 9b da ba be
       -0.23342006 -0.30749252 -0.821833 -0.36494908
000010 81 62 a9 be dd 00 a3 3e b4 5e ec 3e 8f 69 6a 3e
       -0.33082965 0.31836596 0.46166003 0.2289183
000020 be ce 40 bd 07 3e 04 bd f5 38 d9 be ce 93 36 bf
       -0.047072165 -0.032285716 -0.42426267 -0.7131928
000030 1d 5e 19 3f 4c a6 01 bf 26 ba 81 bf 26 79 8a bd
       0.5990923 -0.50644374 -1.0134933 -0.067613885
000040 34 24 13 3d d6 3f cd be cc 90 68 bf 41 5d 08 3e
       0.035923198 -0.40087765 -0.9084594 0.13316824
000050 36 d0 67 be 14 49 19 3f 93 2a fd be 4a b6 fe 3e
       -0.2263802 0.59877133 -0.49446544 0.4974845
000060 d3 ac 3b bf d7 c9 5e be ee b4 27 3f 20 66 cb be
       -0.73310584 -0.21756683 0.6551045 -0.39726353
000070 e0 c4 84 be 5e 07 78 bf 3a fd 97 3d 7c 7b be be
       -0.25931454 -0.9688624 0.07421346 -0.37203586
000080 ea e1 cf be 99 95 39 3f 7e d3 00 bf 48 be dc 3e
       -0.40602046 0.7249389 -0.5032271 0.43113923
000090 ae ea 89 be 05 8f a3 3e 78 04 e0 3e 15 4a 29 bf
       -0.2693686 0.31945053 0.4375341 -0.66128665
0000a0 a2 ea 01 3f 75 c0 07 3f 4e 58 f3 3e d7 c3 6f 3e
       0.50748646 0.5302804 0.4752831 0.2341455
0000b0 1d 8c 6b 3e ad 17 06 3f 17 de 0d 3f 7f 8c cd be
       0.23002668 0.52379876 0.5541701 -0.40146253
0000c0 8d 30 07 3f 4f aa c7 be cc 93 ef 3e 55 56 cd be
       0.5280846 -0.38997123 0.46792448 -0.4010493
0000d0 98 90 85 3b b6 21 a1 3e c0 4d b4 be 25 96 aa be
       0.004076075 0.31471032 -0.3521557 -0.33317676
0000e0 34 da 01 be 29 05 2f bf 46 2a ee be 22 f7 6d 3d
       -0.12680894 -0.6836725 -0.46516627 0.058097012
0000f0 f8 fc 53 3f 09 56 81 3d 4f a6 7f be b6 82 47 bf
       0.82807875 0.06315238 -0.24965785 -0.77933824
000100 8b 0c cc 3c e9 b2 61 3f cb 79 07 3f 31 b3 3e bf
       0.024908325 0.8816362 0.52920216 -0.74492174
000110 ce 1c dc be 17 f0 47 3f 1a 95 5b 3c e0 a7 f4 3e
       -0.42990726 0.78100723 0.013402248 0.47784328
000120 79 11 cb be ef ab 4a bf ca 47 5b be 34 30 74 be
       -0.39661768 -0.791686 -0.21414104 -0.23846513
000130 2b 21 bb be f9 fd 4b 3f 1e 3c b4 be c8 c9 61 3e
       -0.36548743 0.79684407 -0.35202116 0.2204963
000140 f1 e6 01 3e 1b 53 67 3d 85 1a 99 be 3d de f9 3e
       0.12685753 0.05647574 -0.29903045 0.48802367
000150 3c 08 c4 be b5 25 67 3c a6 8c 30 3e 14 b0 c5 be
       -0.38287532 0.014108111 0.17241153 -0.386109
000160 1b 6d e5 be 39 0a c0 be c4 51 82 3e 3b a5 dd be
       -0.44809803 -0.375078 0.25453007 -0.43290123
000170 7e 7a bc 3e 92 24 70 3f b0 d0 08 bf ba 27 a4 be
       0.36812204 0.938058 -0.5344343 -0.3206156
000180 e1 08 b4 be 46 52 c8 be 15 d0 6d 3f e7 63 e6 be
       -0.35163024 -0.3912527 0.92895633 -0.44998094
000190 79 ff 34 bf da 50 53 3d c5 93 b1 be 12 91 8d 3e
       -0.7070232 0.051590778 -0.34683052 0.27649742
0001a0 7f da 59 3e ad ca bb be 81 19 d4 3e 13 71 7b bd
       0.21274756 -0.36678067 0.41425708 -0.061387133
0001b0 c2 8e 0f bf 10 20 cf be f5 87 dc be 3d d9 c8 be
       -0.56077206 -0.4045415 -0.43072477 -0.3922824
0001c0 35 2d 9f 3f 3f 3f bd be b1 08 25 bc 9e eb 7b be
       1.2435671 -0.36962315 -0.010072873 -0.246016
0001d0 2e b1 6b 3d a5 46 9c 3f 79 bd ad be cf 3a d0 be
       0.05754202 1.2209059 -0.3393362 -0.40669867
0001e0 cd 5f d9 3c b5 0d d8 be db 6e b9 bf 48 49 69 3e
       0.02653494 -0.42197958 -1.4486955 0.22781861
0001f0 37 e9 f4 3e b2 34 a0 be d4 d5 ee be 92 4d 05 3f
       0.4783418 -0.31290203 -0.46647513 0.5207149
000200 9a 3a 1a bf af da 34 bf d5 d0 25 3f bf 24 73 3f
       -0.6024567 -0.70646185 0.6477178 0.94977945
000210 71 fb 3f 3f da f4 50 3c 45 19 42 bf f6 e2 34 3d
       0.74993044 0.01275369 -0.7581981 0.04416176
000220 15 04 de be 10 53 d2 be d3 13 ab 3e 0e f5 37 3f
       -0.4336249 -0.41078997 0.33413562 0.718583
000230 76 c0 fd be dd 93 13 bf 8b 4c 8d 3e e2 b5 65 3f
       -0.495609 -0.57647496 0.2759746 0.89730656
000240 ac 0f 15 bf 5e b3 75 3c aa b5 9c be 9a eb e2 be
       -0.5822704 0.014996378 -0.3060735 -0.44320375
000250 24 5d 15 3d c0 02 1d 3f be be 8b be 65 da 92 3d
       0.03646578 0.6133232 -0.27293962 0.07170562
000260 1f 6d cb be 89 46 78 3e 8c 1b 06 3f e0 e4 0e 3f
       -0.3973169 0.24245657 0.52385783 0.55817986
000270 41 fa ed 3b 46 da 69 3f 38 82 8f 3e 52 ca 8c 3e
       0.0072624986 0.91348684 0.28029037 0.27498108
000280 c3 3d e9 3e 1a 6f a7 be 02 1d 6c bf 35 d4 cc be
       0.45554933 -0.3270195 -0.9223176 -0.4000565
000290 68 cc 2a bf 78 07 c6 be 06 88 13 3f fa a4 33 3e
       -0.6671815 -0.38677573 0.5762943 0.17543402
0002a0 83 99 0b 3f 28 c7 ee 3e 74 19 c7 3e 85 00 27 bb
       0.54531115 0.4663632 0.38886607 -0.0025482487
0002b0 15 02 7b be 77 cd 7a 3f 4f 4f f5 be 94 50 02 3d
       -0.24512513 0.97969764 -0.4791207 0.031815127
0002c0 d7 72 28 bf f6 f4 ed be 55 b1 f0 be 14 bd 23 3f
       -0.6580023 -0.46475953 -0.47010294 0.63960385
0002d0 1d 5a 1d bf 0f 15 7e bf fe 54 19 bf 31 35 e1 3e
       -0.61465627 -0.9925088 -0.5989531 0.43985894
0002e0 52 d8 84 3c 1b 34 1d bf 59 45 dc bd 10 35 1d bf
       0.01621643 -0.6140763 -0.107554145 -0.6140909
0002f0 a5 c8 c0 be 92 67 e8 be a4 d9 89 be 0a 49 ec be
       -0.3765308 -0.45391518 -0.2692386 -0.46149474
000300 c9 bb ad be 7e 67 da be b3 97 0a bf 2b 4d 47 3f
       -0.3393233 -0.42657083 -0.54137725 0.77852124
000310 b0 c6 30 bf 5a dc d3 be 4d bd 77 3c c4 bd 48 be
       -0.69053173 -0.41379052 0.015120816 -0.1960364
000320 ad d8 d6 3e 90 77 d6 be be de 2f bd fb 29 02 bf
       0.41962186 -0.41888094 -0.042937033 -0.5084531
000330 1e b4 21 3f ef c6 f9 3e 46 79 03 bf 12 f7 0c 3f
       0.6316546 0.48784587 -0.51356924 0.550645
000340 a5 51 ef 3e 47 e7 c8 be 08 6b c2 bc c9 d0 3c be
       0.46741977 -0.3923895 -0.023732677 -0.1843902
000350 14 b2 0e bf 76 3a 70 3e e8 24 6a 3c 05 d7 d0 be
       -0.55740476 0.23459801 0.014291026 -0.40789047
000360 fd 56 7a 3e b6 f7 66 3e e0 bd c1 be 78 db 9b be
       0.24447246 0.22555432 -0.37840176 -0.3044088
000370 66 12 f7 be 0f bc b2 be 93 cb 66 3f 79 25 14 3f
       -0.48256224 -0.34909102 0.9015438 0.5786968
000380 b2 9d 85 3e 5d 7b 14 3f d2 a2 01 bf e0 bf f0 be
       0.26096874 0.5800074 -0.5063907 -0.4702139
000390 13 62 4d 3e 8f 7b cf be c4 cd e6 be 11 bb e0 be
       0.20056944 -0.40523955 -0.45078862 -0.4389272
0003a0 c4 61 b9 be 3f c1 bb be 8c 2f ef bc 4c 87 04 bf
       -0.36207402 -0.36670873 -0.029197477 -0.51768947
0003b0 89 51 07 bf 3d 8d 80 bf 56 d4 a3 3e 7f 5a 4f bb
       -0.5285879 -1.0043103 0.31997937 -0.0031639633
0003c0 30 b3 33 3e 71 c5 33 bf 93 86 d0 3e 29 b8 fd be
       0.17548823 -0.70223147 0.40727672 -0.49554566
0003d0 41 8c d9 be e3 83 af 3e 12 6f 70 3f 57 c5 ee be
       -0.42489818 0.3428031 0.9391948 -0.46634933
0003e0 80 1d f3 be c1 04 9e be b7 05 54 3e 8e 1c 96 be
       -0.47483444 -0.30863002 0.20705305 -0.2931866
0003f0 39 db 6b be 7c 55 a0 be 2e eb 8a be dd 94 2d 3e
       -0.23032846 -0.3131522 -0.27132553 0.16951318

net.4.bias f4 [4]
000000 c2 c8 3d 3d 76 30 9f 3d e1 d0 8f 3d 26 79 55 3c
       0.046334036 0.07772915 0.07022262 0.013029372
