drafts/draft_rk/runs_lunarlander/dqn_trial02_seed42.pth (torch, 279705 bytes, 6 tensors)

net.0.weight f4 [256, 8]
-0.040097747 0.2844435 -0.042137634 0.59420377 -0.2591005 0.11637429 -0.25772658 -0.27840552
0.394167 -0.1420878 0.7502619 -0.21741448 -0.027309777 -0.39137554 0.3214293 -0.07728054
0.7803722 -0.7286124 0.3956289 0.21223617 -0.49530548 -0.21556939 -0.5000935 0.3157022
-0.41212043 0.05127225 -0.08786339 -0.31912798 0.51367176 -0.70495886 0.26053816 -0.3263162
0.30175245 0.045443498 0.36752447 0.18351892 -0.5507312 0.5915447 0.39576536 -0.49779302
0.0675298 -0.32309905 0.27191755 0.93801904 -0.39761147 -0.124885835 0.5745494 0.30422878
0.18606988 0.0796731 0.040060118 -0.6632858 0.19456421 0.5492185 0.034168147 0.3969864
-0.40432757 -0.036732577 0.16277623 -0.63637805 -0.036325872 -0.3057355 0.31515524 -0.4234466
-0.03790506 -0.070953816 0.5909729 -0.34627017 -0.54553753 -0.68941694 0.46801317 0.5688656
0.4961838 -0.29526314 -0.64547074 -0.77765125 -0.14419238 0.27230155 0.16415872 0.34820467
0.029960651 -0.0084352 -0.050797164 -0.6786006 0.051402528 0.33177358 0.4966661 -0.2836986
-0.11534009 0.27769932 -0.06884853 -0.099479176 0.45398736 0.96773624 -0.9194107 -0.53330886
0.47568285 -0.047319386 -0.4715335 -0.6122932 0.11468651 0.13873623 -0.1255715 -0.1714437
0.1225572 -0.39879602 -0.04553686 -0.62017345 0.37178585 -0.16736111 0.6937825 0.40803415
0.13112277 -0.19943051 -0.27866644 -0.48279935 -0.021965846 -0.6642089 -0.25845802 -0.6609651
-0.023603333 -0.04260127 0.18168186 -0.6748156 0.13905425 -0.21770811 -0.6139191 -1.7362748
-0.35379303 -0.80635244 0.4347528 0.3644087 -2.089919 0.44476643 0.08599045 0.14672884
-0.2656572 -0.19715105 0.09388158 -0.51534545 0.21288358 -0.11480881 0.5142397 -0.10714624
-0.17179556 0.07740926 0.41713646 0.40362406 0.8636106 -0.49902698 -0.05890842 -0.73651093
-0.066823624 0.15289842 0.32090917 -0.7172457 -0.4722483 -0.013754967 -0.11475509 -1.3772635
0.28117132 0.24224302 0.14402252 -0.5000356 0.3649033 -0.31315625 -0.29350728 0.33914462
0.2610989 -0.16530687 -0.0056086276 -0.1452401 0.8354998 0.34372017 0.026657363 -0.9942617
-0.9168026 0.2108112 0.14369155 -0.42454594 0.4086096 -0.10336633 -0.4456411 0.27217612
0.4384435 0.2318328 0.111570455 -0.16374876 -0.43869022 -0.09357883 -0.035102535 0.0012711814
0.59353 0.29981986 0.083516926 -0.0011478878 0.44152576 0.068102114 0.4166513 0.51199013
-0.02557341 -0.031297434 0.024396708 0.27213833 -0.2585885 -0.8037327 -0.99453336 -0.7737102
0.1469288 0.16064727 0.1424964 0.24222276 -0.41599917 -0.49698466 -0.53736687 0.5911659
0.004179446 -0.004405209 0.017306928 -0.0065168994 -1.5494902 0.021043047 -2.1119387 -0.020254344
0.11388297 0.2172661 0.09243272 0.4003724 -0.5233059 -0.46569428 -0.75429684 0.72811854
-0.048664633 0.42506224 0.0024810857 0.23826392 0.243082 -0.8626742 -0.65882015 -1.08001
0.09843869 -0.11079246 0.0026277665 -0.5888128 0.7937424 -0.31163695 -1.5874039 0.27137905
-0.033381507 0.3823026 -0.16494429 -0.25331077 -0.07831196 -0.77946633 -1.0306032 -0.37086406
00000000: 893d 24bd 94a2 913e 8398 2cbd bd1d 183f
00000010: d2a8 84be a555 ee3d bdf4 83be 2b8b 8ebe
00000020: 42d0 c93e 777f 11be 2a11 403f e7a1 5ebe
00000030: c1b8 dfbc 6062 c8be 6292 a43e 4245 9ebd
00000040: 79c6 473f 5886 3abf df8f ca3e 7054 593e
00000050: ae98 fdbe 39be 5cbe 2106 00bf b8a3 a13e
00000060: 7301 d3be da02 523d b9f1 b3bd be64 a3be
00000070: fe7f 033f 2f78 34bf 4265 853e eb12 a7be
00000080: 4c7f 9a3e f622 3a3d 2b2c bc3e 62ec 3b3e
00000090: b8fc 0cbf 796f 173f c2a1 ca3e bade febe
000000a0: 104d 8a3d 3d6d a5be c738 8b3e 0422 703f
000000b0: bb93 cbbe 25c4 ffbd ab15 133f e0c3 9b3e
000000c0: 1a89 3e3e a62b a33d 1416 243d 19cd 29bf
000000d0: d73b 473e 9599 0c3f e6f3 0b3d cd41 cb3e
000000e0: 0604 cfbe e674 16bd d0ae 263e ace9 22bf
000000f0: 70ca 14bd 5d89 9cbe 075c a13e fecd d8be
00000100: 5642 1bbd 3c50 91bd 004a 173f 534a b1be
00000110: 59a8 0bbf a17d 30bf 6c9f ef3e 2da1 113f
00000120: ce0b fe3e bb2c 97be 923d 25bf 2714 47bf
00000130: 2ba7 13be 1c6b 8b3e 3919 283e e247 b23e
00000140: 0a70 f53c cb33 0abc b010 50bd c5b8 2dbf
00000150: 758b 523d 3ade a93e 054b fe3e f140 91be
00000160: 6d37 ecbd 9b2e 8e3e 7500 8dbd bdbb cbbd
00000170: 0871 e83e 90bd 773f 805e 6bbf ee86 08bf
00000180: b48c f33e f9d1 41bd d76c f1be 3fbf 1cbf
00000190: c3e0 ea3d df10 0e3e d195 00be f08e 2fbe
000001a0: 45ff fa3d fe2e ccbe dc84 3abd b0c3 1ebf
000001b0: b75a be3e b660 2bbe bb9b 313f dae9 d03e
000001c0: 0c45 063e 8337 4cbe 5ead 8ebe 7a31 f7be
000001d0: b8f1 b3bc 9809 2abf 9c54 84be 0235 29bf
000001e0: c75b c1bc ab7e 2ebd cf0a 3a3e b7c0 2cbf
000001f0: 3d64 0e3e e0ee 5ebe cd29 1dbf 413e debf
00000200: 5c24 b5be 1d6d 4ebf eb97 de3e c793 ba3e
00000210: 3cc1 05c0 6db8 e33e c31b b03d 1640 163e
00000220: 3804 88be f7e1 49be fc44 c03d aeed 03bf
00000230: 27fe 593e e220 ebbd 37a5 033f 7d6f dbbd
00000240: 2deb 2fbe bf88 9e3d e992 d53e d0a7 ce3e
00000250: 9615 5d3f 7780 ffbe f549 71bd fb8b 3cbf
00000260: d3da 88bd 6791 1c3e 354e a43e 6a9d 37bf
00000270: 87ca f1be 835c 61bc b704 ebbd 2c4a b0bf
00000280: b0f5 8f3e 8e0e 783e a47a 133e 5502 00bf
00000290: 9bd4 ba3e 0456 a0be 9646 96be 5da4 ad3e
000002a0: c1ae 853e 3446 29be 94c8 b7bb d2b9 14be
000002b0: 51e3 553f 17fc af3e 8b60 da3c ef87 7ebf
000002c0: 93b3 6abf e4de 573e e123 133e 165e d9be
000002d0: 4735 d13e bab1 d3bd 122b e4be ab5a 8b3e
000002e0: ab7b e03e 9465 6d3e 0d7f e43d c1ad 27be
000002f0: 019c e0be 42a6 bfbd adc7 0fbd c59d a63a
00000300: 95f1 173f fd81 993e ec0a ab3d b974 96ba
00000310: aa0f e23e 1f79 8b3d 5253 d53e c911 033f
00000320: 547f d1bc bd31 00bd 9bdb c73c b755 8b3e
00000330: b665 84be 6dc1 4dbf bd99 7ebf df11 46bf
00000340: 8174 163e b880 243e 94ea 113e 3e09 783e
00000350: d8fd d4be c674 febe e090 09bf a656 173f
00000360: bcf3 883b 9259 90bb 42c7 8d3c b78b d5bb
00000370: b255 c6bf 7862 ac3c 012a 07c0 70ec a5bc
00000380: 793b e93d 017b 5e3e 5e4d bd3d 9cfd cc3e
00000390: 60f7 05bf 7b6f eebe 9919 41bf fa65 3a3f
000003a0: 9154 47bd c2a1 d93e b699 223b 75fb 733e
000003b0: 7dea 783e 37d8 5cbf 70a8 28bf c53d 8abf
000003c0: 399a c93d 28e7 e2bd 9b36 2c3b 70bc 16bf
000003d0: b432 4b3f e18e 9fbe 0d30 cbbf 32f2 8a3e
000003e0: 0cbb 08bd 2bbd c33e 28e7 28be f3b1 81be
000003f0: 0562 a0bd 1b8b 47bf ceea 83bf e5e1 bdbe

net.0.bias f4 [256]
0.48896864 0.40307525 -0.23718032 0.37270635 0.31819597 -0.37274668 -0.13055566 0.14366904
-0.33698076 0.43974343 0.21964587 -0.2263483 0.06958761 -0.22161515 0.45449144 -0.32004544
-0.016000874 0.4310278 0.39578077 -0.028444372 0.3224229 0.28059942 -0.22373293 0.40701476
-0.51864403 0.40967673 0.13096415 -0.00037563345 0.2791683 0.119242236 0.18907455 0.37450466
-0.35912275 0.3937484 -0.08270514 0.25517002 0.2425357 0.4562455 -0.091030456 -0.3487385
0.4083815 -0.626448 0.31844687 -0.0042481762 -0.050765797 0.41389623 -0.3593603 -0.28486228
0.4620353 -0.07893907 -0.055378668 -0.2868004 0.48261482 0.018437326 -0.21230091 -0.42536834
0.14474699 0.37033063 -0.06964758 0.21713828 0.17577548 -0.40972787 0.33689055 0.12760195
-0.095463835 0.17321634 0.4945028 0.06566436 0.118870765 0.4698584 0.25134882 0.2714531
0.21200742 0.003768208 0.38700795 0.49792963 0.28743052 0.29644865 0.5996904 -0.5340198
0.33364192 0.26503533 0.31405312 -0.044050105 -0.18326284 0.6587257 -0.38273543 0.3154664
0.07994299 -0.9237629 -0.2324356 -0.23458758 0.61477023 -0.02090702 0.34735945 0.41785744
0.20244992 0.5060322 0.33916175 0.026384732 0.2733253 0.26624894 0.4556915 -0.17677607
0.1356387 -0.04982869 0.55011684 0.5035713 0.38593262 0.4804945 0.12614316 -0.2045743
-0.053339016 -0.16119549 0.48303074 0.21657993 0.27417767 -0.04868287 -0.14091708 -0.11292655
0.25412568 0.37365294 0.41402107 0.011631599 -0.09269643 -0.03468105 0.17429182 -0.2796178
0.14802417 0.34074414 -0.3557691 0.17576507 0.04440343 0.36308894 -0.005702194 0.10432045
0.37927827 0.2760446 -0.35213736 0.40571186 0.17892471 -0.3778133 -0.30312312 0.15078941
0.39455363 -0.33926287 0.35865405 -0.42584798 0.43546706 0.11941994 0.42669168 0.57455474
0.31103265 0.06184275 -0.2571885 -0.20719677 -0.13992392 0.429583 0.08148585 0.69389075
0.25629845 -7.5462965e-05 0.43869743 0.18266164 -7.97157e-05 0.24093525 -0.41487104 0.042717747
-0.058360785 -0.20637757 -0.1564663 0.18954618 0.33530012 0.091545396 0.18616828 -0.0016232749
-0.08712069 0.2632357 -0.34027493 0.56382775 0.38429892 -0.25397298 -0.046203967 -0.43408924
-0.015999721 -0.45018774 0.21853209 -0.56771296 0.5863861 0.37820804 -0.28902102 -0.8140334
0.05662179 0.046368554 0.39133286 -0.23791975 0.26079074 -0.12648334 -0.2750078 -0.18093497
0.38475317 0.20160545 -0.32807064 -0.01685844 -0.007235925 -0.91856873 0.23207211 -0.13805601
-0.07823143 -0.24932958 -0.17828503 -0.2684835 -0.21301027 0.13291724 0.4426078 -0.037802707
0.3502269 0.1867451 -0.0025978591 -0.30340087 0.42015845 0.505772 0.14816178 0.4246377
0.39399016 0.37783024 0.27722886 -0.69953465 -0.44411883 0.0068658097 0.04308578 -0.18182442
0.1300207 0.006786965 -0.32084766 0.28451452 0.31544253 -0.49033785 0.27922958 0.13121314
0.18189068 0.3840291 0.19032562 -0.21245739 -0.36420116 -0.14207292 -0.01755373 0.4904491
0.4374569 -0.09497493 -0.2799707 -0.52611536 0.061326664 -0.008428036 -0.028350491 -0.047717143
00000000: 195a fa3e e15f ce3e 66df 72be 5ed3 be3e
00000010: 95ea a23e a7d8 bebe 62b0 05be fa1d 133e
00000020: be88 acbe 0d26 e13e d9ea 603e d9c7 67be
00000030: f383 8e3d 15ef 62be 1ab3 e83e ffdc a3be
00000040: 4414 83bc adaf dc3e c7a3 ca3e 2c04 e9bc
00000050: 9d14 a53e baaa 8f3e 3f1a 65be 3d64 d03e
00000060: dbc5 04bf 26c1 d13e 771b 063e abf0 c4b9
00000070: 26ef 8e3e 4635 f43d c29c 413e 13bf bf3e
00000080: f0de b7be 6499 c93e 5061 a9bd a5a5 823e
00000090: 475b 783e 0399 e93e 2d6e babd da8d b2be
000000a0: 6117 d13e e55e 20bf 780b a33e 4934 8bbb
000000b0: ccef 4fbd 35ea d33e 13fe b7be 78d9 91be
000000c0: e48f ec3e cfaa a1bd bed4 62bd 81d7 92be
000000d0: 4a19 f73e e009 973c 6965 59be e1c9 d9be
000000e0: 8e38 143e fa9b bd3e 64a3 8ebd 7f59 5e3e
000000f0: 7dfe 333e dac7 d1be eb7c ac3e 16aa 023e
00000100: 8b82 c3bd a05f 313e 792f fd3e 097b 863d
00000110: 8472 f33d 4891 f03e cbb0 803e e7fb 8a3e
00000120: 7918 593e 0af4 763b e825 c63e a2f0 fe3e
00000130: 182a 933e 1ec8 973e 4f85 193f 86b5 08bf
00000140: 1dd3 aa3e b6b2 873e 92cb a03e e26d 34bd
00000150: 41a9 3bbe 3fa2 283f e6f5 c3be d084 a13e
00000160: 26b9 a33d ba7b 6cbf 9903 6ebe ba37 70be
00000170: 9561 1d3f 3345 abbc 19d9 b13e 69f1 d53e
00000180: 084f 4f3e 548b 013f 9ca6 ad3e cb24 d83c
00000190: 4bf1 8b3e c851 883e 6550 e93e c904 35be
000001a0: dfe4 0a3e 2b19 4cbd 75d4 0c3f 0cea 003f
000001b0: f698 c53e 6003 f63e ac2b 013e ed7b 51be
000001c0: 037a 5abd 6e10 25be ce4f f73e 21c7 5d3e
000001d0: 0461 8c3e b067 47bd 914c 10be 0946 e7bd
000001e0: c31c 823e 704f bf3e 92fa d33e 7692 3e3c
000001f0: a0d7 bdbd b70d 0ebd 8e79 323e 102a 8fbe
00000200: a693 173e 0476 ae3e 5e27 b6be c2fb 333e
00000210: 5fe0 353d cbe6 b93e 78d9 babb f6a5 d53d
00000220: c330 c23e b855 8d3e 594b b4be 77b9 cf3e
00000230: 0a38 373e bf70 c1be f432 9bbe 8a68 1a3e
00000240: ef02 ca3e ddb3 adbe 81a1 b73e bf08 dabe
00000250: 8af5 de3e 7192 f43d 5577 da3e 0516 133f
00000260: ac3f 9f3e d34e 7d3d 36ae 83be 642b 54be
00000270: 3748 0fbe 4ef2 db3e 0ee2 a63d d3a2 313f
00000280: 8d39 833e df41 9eb8 f39c e03e a70b 3b3e
00000290: 0a2d a7b8 bbb7 763e fa69 d4be cef8 2e3d
000002a0: b80b 6fbd a454 53be b438 20be 6518 423e
000002b0: 75ac ab3e 277c bb3d e6a2 3e3e 11c4 d4ba
000002c0: 556c b2bd d4c6 863e 8438 aebe 0457 103f
000002d0: d4c2 c43e bf08 82be 5f40 3dbd f240 debe
000002e0: d911 83bc 027f e6be e0c6 5f3e a355 11bf
000002f0: 661d 163f 7ca4 c13e 90fa 93be 7e64 50bf
00000300: 40ec 673d f4ec 3d3d c85c c83e 3ca1 73be
00000310: 5d86 853e d984 01be d3cd 8cbe 0447 39be
00000320: 5efe c43e a971 4e3e e0f8 a7be b61a 8abc
00000330: 571b edbb 5227 6bbf 50a4 6d3e 8e5e 0dbe
00000340: cd37 a0bd 4150 7fbe 5a90 36be ab76 89be
00000350: 5d1f 5abe 751b 083e 7d9d e23e 03d7 1abd
00000360: f150 b33e 1c3a 3f3e d840 2abb 5c57 9bbe
00000370: 021f d73e 467a 013f b9b7 173e 1d6a d93e
00000380: 14b9 c93e f772 c13e f1f0 8d3e b414 33bf
00000390: 8b63 e3be 96fa e03b b77a 303d 2e30 3abe
000003a0: 2524 053e 3065 de3b 2546 a4be e3ab 913e
000003b0: af81 a13e 900d fbbe 2ef7 8e3e bd5c 063e
000003c0: 8d41 3a3e 769f c43e b8e4 423e 6e8e 59be
000003d0: 9378 babe 907b 11be d7cc 8fbc 251c fb3e
000003e0: 5afa df3e 3782 c2bd 5258 8fbe 7faf 06bf
000003f0: ab31 7b3d bf15 0abc 4a3f e8bc 0d73 43bd

net.2.weight f4 [256, 256]
-0.052143216 -0.081982076 -1.4919015 0.102467775 -0.046285182 -0.60385174 0.08342772 0.15252225
0.11322593 0.08927076 -0.0022518293 -0.04231008 0.12714496 0.10241798 -0.008899472 -0.7405202
0.2031743 0.07391289 0.3590882 -0.51962906 0.060510974 0.27096093 0.19072537 -0.029871289
-0.21524784 -0.001256339 0.04920207 1.0577749 -0.23345393 -0.010563801 0.08883036 0.046704948
-0.5638321 0.082419485 0.19322716 -0.009078949 0.22574158 0.09075268 0.052056137 0.80076325
-0.08042448 0.3442341 0.1757192 0.07337046 0.008614578 0.10721941 0.38015258 0.29303145
0.106792085 0.21113336 0.065326184 0.074770674 0.12561375 0.29401764 0.05501033 0.5677987
0.10654138 0.009183318 0.22424023 -0.31904536 0.2269184 -0.047754537 0.11410468 0.26185185
0.0026768844 0.024535865 0.018879138 0.35536024 -0.74768674 0.02887688 0.026403222 0.1764474
0.093220495 0.11970135 0.07054385 0.090975255 -0.019096786 -0.27950266 -0.101178125 0.5801448
0.010188376 0.119777404 0.14553949 0.12835789 -0.14313324 -0.13682427 0.031855166 -0.088944055
-0.5646288 0.31396565 0.094860345 0.11998028 0.08246342 0.1255214 -0.16115975 -0.025489848
-0.178979 0.013371798 -0.014785065 -0.16695645 -0.062137563 0.12102732 -0.11907566 -0.029602127
-0.43745387 0.08090507 -0.07342127 0.03930909 0.07215395 0.015504961 -0.102944866 0.1480159
0.14488417 0.38113388 -0.099098116 0.13891555 0.13245356 0.051959924 0.3041605 0.1306721
0.24992763 0.050312936 -0.2838665 0.12834573 -0.46638325 -0.14414531 0.008226083 0.11193989
-0.07666879 0.058717065 0.22939679 0.08834466 0.18306835 -0.0057339002 -0.3457604 0.06617634
0.03483008 0.02080301 0.46671638 -0.049686804 0.2892594 -0.0007251813 0.28505725 -0.12682584
-0.021101875 1.1826694 0.069153816 -0.2738958 -0.058449786 0.2304186 -0.07117671 -0.109438375
0.3645634 -0.55261606 0.20797075 0.12012502 0.2675924 -0.0019453311 0.08031306 0.15113816
0.09437439 -0.3001441 0.12075289 0.03231806 0.47921842 0.05721572 0.37131128 0.20103188
0.08018099 0.68967193 0.28228378 -0.112562716 0.24221675 -0.28810877 0.019335536 -0.044705536
0.06931139 -0.16104427 -0.03325718 -0.04947999 -0.014068545 0.17679434 0.14791143 0.1030283
0.26982862 0.056128096 0.041882306 0.08388752 -0.10231493 0.17268667 -0.11413043 -0.1646208
-0.09413206 0.059200633 -0.036981728 -0.10134925 0.13398315 -0.039993532 -0.48643383 0.08737212
0.047231555 0.013420476 -0.030713502 0.28818887 0.1816638 -0.14337152 -0.011677501 0.20234933
0.37200314 -0.25337872 0.57920736 -0.035415005 0.6473959 -0.0043456675 0.0871782 0.10954522
0.42850703 0.35796818 0.057173148 0.010850575 0.034488365 0.06418892 -0.040804338 -0.049663324
0.14038108 -0.048046105 0.0892858 -0.90347254 0.11381391 -0.067163005 0.021473018 -0.5989784
0.38401353 0.07101255 0.041588258 -1.0748549 -0.3617232 0.16690753 -0.05694159 0.723289
0.09504747 0.0131095005 -0.17940894 0.41225344 0.1763933 0.19410333 0.009012055 0.15272409
0.26298895 -0.5102024 0.12036118 -0.38254017 -0.33828136 0.29202315 0.19984487 0.101272166
00000000: 2094 55bd 38e6 a7bd a1f6 bebf a0da d13d
00000010: 8895 3dbd 0796 1abf 27dc aa3d cb2e 1c3e
00000020: ffe2 e73d 97d3 b63d 6d93 13bb 564d 2dbd
00000030: 4a32 023e 85c0 d13d 17cf 11bc bb92 3dbf
00000040: ec0c 503e a45f 973d 69da b73e 6906 05bf
00000050: 5bda 773d 64bb 8a3e 834d 433e a2b4 f4bc
00000060: ee69 5cbe beab a4ba 1c88 493d 2b65 873f
00000070: 8c0e 6fbe cb13 2dbc b1ec b53d b04d 3f3d
00000080: 4d57 10bf 8ccb a83d 57dd 453e dfbf 14bc
00000090: cd28 673e 8bdc b93d d138 553d d2fe 4c3f
000000a0: 97b5 a4bd 743f b03e bcef 333e 4043 963d
000000b0: 2924 0d3c da95 db3d 5ca3 c23e 3808 963e
000000c0: cfb5 da3d 5833 583e bcc9 853d 5e21 993d
000000d0: e4a0 003e 7b89 963e 8352 613d 415b 113f
000000e0: 5e32 da3d a175 163c 3b9f 653e ea59 a3be
000000f0: 4c5d 683e 439a 43bd b7af e93d 7211 863e
00000100: ab6e 2f3b 70ff c83c 6ca8 9a3c c7f1 b53e
00000110: 6668 3fbf 358f ec3c 924b d83c a1ae 343e
00000120: 63ea be3d fb25 f53d 4b79 903d 3c51 ba3d
00000130: dd70 9cbc f91a 8fbe 7a36 cfbd 5f84 143f
00000140: 25ed 263c db4d f53d 4e08 153e 4070 033e
00000150: 8591 12be a91b 0cbe 907a 023d 4d28 b6bd
00000160: 838b 10bf 1bc0 a03e 2446 c23d 39b8 f53d
00000170: 95e2 a83d af88 003e 1007 25be 16d0 d0bc
00000180: 4546 37be 6315 5b3c 0f3d 72bc a2f6 2abe
00000190: f583 7ebd 2cdd f73d f1dd f3bd 2980 f2bc
000001a0: f4f9 dfbe 8fb1 a53d e45d 96bd 9102 213d
000001b0: 73c5 933d 8508 7e3c c2d4 d2bd 7b91 173e
000001c0: 845c 143e fb23 c33e f4f3 cabd e13f 0e3e
000001d0: e8a1 073e eed3 543d edba 9b3e e8ce 053e
000001e0: 07ed 7f3e f014 4e3d f356 91be 106d 033e
000001f0: c9c9 eebe d49a 13be b1c6 063c be40 e53d
00000200: 8704 9dbd 4e81 703d fee6 6a3e 0cee b43d
00000210: 4576 3b3e 71e3 bbbb 8207 b1be 7687 873d
00000220: fca9 0e3d 136b aa3c 73f5 ee3e 6484 4bbd
00000230: cf19 943e 181a 3eba 06f3 913e a2de 01be
00000240: d7dd acbc b661 973f 84a0 8d3d 123c 8cbe
00000250: 0b69 6fbd daf2 6b3e 18c5 91bd 3a21 e0bd
00000260: 0ea8 ba3e 3f78 0dbf 49f6 543e 1b04 f63d
00000270: df01 893e 7bfa feba 2c7b a43d f6c3 1a3e
00000280: 5c47 c13d 7dac 99be 4b4d f73d f15f 043d
00000290: 1e5c f53e 085b 6a3d 831c be3e 4ddb 4d3e
000002a0: ee35 a43d 578e 303f 8087 903e 4887 e6bd
000002b0: ab07 783e fe82 93be 8f65 9e3c 271d 37bd
000002c0: 21f3 8d3d cae8 24be ae38 08bd 88ab 4abd
000002d0: c17f 66bc 9309 353e 1876 173e 8000 d33d
000002e0: fa26 8a3e 93e6 653d c88c 2b3d 38cd ab3d
000002f0: 7d8a d1bd c6d4 303e 37bd e9bd 5b92 28be
00000300: 4fc8 c0bd 5d7c 723d 277a 17bd 3290 cfbd
00000310: e132 093e 42d0 23bd db0d f9be 27f0 b23d
00000320: e075 413d 8ee1 5b3c e29a fbbc 7e8d 933e
00000330: 1306 3a3e fccf 12be fd52 3fbc aa34 4f3e
00000340: 3277 be3e dbba 81be ef46 143f 530f 11bd
00000350: bdbb 253f 1a66 8ebb 7c8a b23d 3f59 e03d
00000360: 4665 db3e 9b47 b73e 642e 6a3d 9cc6 313c
00000370: ac43 0d3d 7b75 833d 7322 27bd c56b 4bbd
00000380: 0fc0 0f3e fecb 44bd 79db b63d fa49 67bf
00000390: 4417 e93d c28c 89bd 2fe8 af3c a656 19bf
000003a0: 6c9d c43e 076f 913d 7358 2a3d d894 89bf
000003b0: c933 b9be cfe9 2a3e 963b 69bd 7829 393f
000003c0: 3fa8 c23d 3bc9 563c fab6 37be e212 d33e
000003d0: 72a0 343e 06c3 463e 4ca7 133c b463 1c3e
000003e0: 7da6 863e a09c 02bf ec7f f63d 4edc c3be
000003f0: 3733 adbe 0f84 953e 22a4 4c3e c867 cf3d

net.2.bias f4 [256]
-0.048087627 -0.004204709 0.08483887 -0.071592145 -0.19085637 0.09944013 0.09328928 0.09705207
0.027031131 0.038393017 0.02116558 -0.040699344 -0.09155844 -0.0019512551 -0.050487354 -0.07106569
-0.022820465 -0.08955533 -0.1507235 0.12542924 -0.0037377563 0.19811472 -0.08330825 -0.10859128
0.04131538 0.2939046 -0.18647125 -0.063481584 0.010243889 0.24140829 -0.04429791 -0.022644848
-0.16032642 -0.011951018 0.041198146 -0.021096293 -0.3182181 -0.0074874386 0.21085373 0.0746147
0.07510879 0.05609881 0.13660435 0.048731282 0.12401449 0.23885633 0.14637364 -0.17729884
0.029228143 -0.36725065 -0.013067346 -0.20886448 0.12997726 0.05073975 -0.24339665 0.16859183
0.169 -0.02035378 -0.117875956 0.16333574 0.030141423 -0.05564674 0.05655311 -0.11518764
-0.023441924 0.11552541 0.11506785 0.02701974 0.035135068 0.024624206 0.11116502 0.12893276
-0.074193664 -0.2512129 0.10733887 -0.21864837 0.052792706 -0.09260429 0.055084083 0.16398047
0.08035577 -0.021970294 -0.31365117 0.12899102 0.041290917 -0.024867544 0.07089329 0.0077983453
-0.025477618 0.017327422 0.060480542 -0.08583144 0.1459271 0.21114129 0.028901236 0.004946528
0.027162937 -0.030222986 0.15120658 0.028033612 -0.033080142 -0.02036044 -0.047972653 0.12849787
0.14669432 -0.13085417 -0.11550534 0.054468635 0.113012254 -0.6178681 0.07428047 -0.13501374
-0.0626392 -0.19928972 0.00041983332 -0.06709668 0.05656618 -0.008677592 -0.09976077 -0.22237001
-0.16095395 0.048668005 -0.18308632 0.24307437 -0.043345235 -0.4653783 0.08599939 -0.012749222
-0.13445425 0.1233804 0.08089462 0.122486755 -0.041619282 -0.047860775 -0.23975734 0.039736066
-0.16100548 -0.01622345 0.053585187 0.11815245 -0.1127255 0.13083906 0.09276251 0.11791576
-0.20915546 0.10853449 0.018161649 -0.16573462 -0.035035633 0.095449425 -0.098678894 -0.061739504
-0.12429055 0.09451472 0.12484347 0.1537977 0.025412224 -0.07053194 0.13583364 0.05809351
0.08613484 0.05107641 -0.117381 0.033186283 0.0145227965 0.10694 0.040443078 -0.088843174
-0.055145673 -0.06672135 -0.019138807 -0.07854689 0.027970381 0.11636546 -0.13526368 -0.04047954
0.00198246 0.03750234 0.06291744 -0.06221981 0.10993186 -0.19475675 0.025942707 -0.03789611
0.0077196 0.12574689 0.018704837 -0.11841121 -0.03197998 -0.13668384 -0.18918958 0.0405129
-0.09552885 0.020833876 -0.03001406 0.0678777 6.496851e-05 0.018597096 0.13679127 0.20981827
-0.1155851 0.007904452 -0.11700542 0.05857701 0.15286843 -0.0032761828 -0.09618221 0.18654259
-0.062818386 0.1222908 -0.027251584 0.007314092 -0.18239841 0.09663979 0.04654597 0.06521235
0.014557966 -0.050851513 -0.0664928 0.11360627 -0.13851604 -0.26047578 0.08641291 0.10451139
0.2021104 0.044029925 0.06971673 -0.20299385 0.110956214 0.015839273 0.008433805 -0.18511142
0.107141405 -0.058007747 -0.06944096 0.12204768 0.016804395 -0.12630525 0.12514168 0.049329672
0.012256805 0.09899193 0.075167164 0.17292817 -0.0068929796 0.13667743 -0.15431099 0.015022744
0.14208058 -0.038580947 0.018053826 -0.16240226 0.046782866 0.0022996499 0.040441845 0.116773896
00000000: 88f7 44bd a8c7 89bb 00c0 ad3d e79e 92bd
00000010: da6f 43be 44a7 cb3d 730e bf3d 3cc3 c63d
00000020: 6470 dd3c ff41 1d3d 7063 ad3c 5bb4 26bd
00000030: fe82 bbbd 42c1 ffba d4cb 4ebd e38a 91bd
00000040: fcf1 babc c968 b7bd 4357 1abe 8670 003e
00000050: 25f5 74bb 96de 4a3e 849d aabd 1b65 debd
00000060: 513a 293d aa7a 963e 52f2 3ebe a202 82bd
00000070: fcd5 273c bc33 773e ba71 35bd b081 b9bc
00000080: 9c2c 24be 34ce 43bc 63bf 283d 22d2 acbc
00000090: 7ced a2be 3059 f5bb 0aea 573e 98cf 983d
000000a0: a3d2 993d dec7 653d 03e2 0b3e 749a 473d
000000b0: 4ffb fd3d c196 743e f9e2 153e d48d 35be
000000c0: dc6f ef3c 4708 bcbe 6c18 56bc 92e0 55be
000000d0: c218 053e 7cd4 4f3d f93c 79be 56a3 2c3e
000000e0: 560e 2d3e f8bc a6bc f368 f1bd 7c41 273e
000000f0: 25eb f63c d6ed 63bd 3ca4 673d 7fe7 ebbd
00000100: 4709 c0bc 9698 ec3d b1a8 eb3d 8058 dd3c
00000110: cae9 0f3d b4b8 c93c 7caa e33d f306 043e
00000120: d9f2 97bd fa9e 80be 7bd4 db3d 5ce5 5fbe
00000130: 2a3d 583d 51a7 bdbd d99f 613d 7fea 273e
00000140: 9191 a43d 0cfb b3bc e396 a0be 3916 043e
00000150: aa20 293d 05b7 cbbc 8030 913d 4389 ff3b
00000160: 70b6 d0bc 3df2 8d3c 72ba 773d 65c8 afbd
00000170: ea6d 153e 6c35 583e 49c2 ec3c 7c16 a23b
00000180: cf84 de3c 3296 f7bc e6d5 1a3e bfa6 e53c
00000190: 0b7f 07bd f0ca a6bc f97e 44bd f294 033e
000001a0: 0937 163e a3fe 05be 108e ecbd 811a 5f3d
000001b0: f872 e73d 9b2c 1ebf 5c20 983d 0b41 0abe
000001c0: fb48 80bd 9b12 4cbe 131d dc39 fc69 89bd
000001d0: f0b1 673d 752c 0ebc 604f ccbd f7b4 63be
000001e0: 1dd1 24be 1a58 473d fb7a 3bbe 7de8 783e
000001f0: c68a 31bd 1146 eebe 7320 b03d 1de2 50bc
00000200: 60ae 09be ddae fc3d 14ac a53d 56da fa3d
00000210: fb78 2abd a909 44bd f382 75be 49c2 223d
00000220: 9fde 24be 0ae7 84bc 247c 5b3d e9f9 f13d
00000230: a0dc e6bd adfa 053e 45fa bd3d d17d f13d
00000240: d92c 56be 5547 de3d bdc7 943c 56b6 29be
00000250: 8681 0fbd fd7a c33d 2918 cabd 90e2 7cbd
00000260: 0b8c febd ef90 c13d efad ff3d 257d 1d3e
00000270: 4c2d d03c 0d73 90bd f917 0b3e 76f3 6d3d
00000280: 7767 b03d 7f35 513d 7365 f0bd 57ee 073d
00000290: 06f1 6d3c 5c03 db3d a4a7 253d 69f3 b5bd
000002a0: 6ee0 61bd 34a5 88bd fdc8 9cbc 31dd a0bd
000002b0: 2422 e53c 0451 ee3d 9082 0abe e0cd 25bd
000002c0: 29ec 013b 0e9c 193d dcda 803d 33da 7ebd
000002d0: f423 e13d 506e 47be cd85 d43c f438 1bbd
000002e0: b3f4 fc3b cbc3 003e e33a 993c 9481 f2bd
000002f0: 71fd 02bd d9f6 0bbe eaba 41be dbf0 253d
00000300: a1a4 c3bd ceab aa3c 0ce0 f5bc 7703 8b3d
00000310: b43f 8838 f058 983c 0313 0c3e 9ada 563e
00000320: e2b7 ecbd ad81 013c 8aa0 efbd 72ee 6f3d
00000330: 8b89 1c3e 3ab5 56bb 2efb c4bd 0505 3f3e
00000340: eda6 80bd 9973 fa3d b73e dfbc 0dab ef3b
00000350: a6c6 3abe 15eb c53d fda6 3e3d 0d8e 853d
00000360: 8984 6e3c ad49 50bd 612d 88bd 67aa e83d
00000370: 26d7 0dbe 155d 85be 40f9 b03d 110a d63d
00000380: 07f6 4e3e b958 343d a5c7 8e3d 9fdd 4fbe
00000390: 033d e33d 5dc1 813c f12d 0a3c d98d 3dbe
000003a0: f46c db3d 8899 6dbd 1037 8ebd 22f4 f93d
000003b0: 5fa9 893c 2a56 01be 2425 003e e90d 4a3d
000003c0: c4d0 483c 48bc ca3d 3ef1 993d 1514 313e
000003d0: 81de e1bb 2bf5 0b3e b303 1ebe f521 763c
000003e0: 927d 113e 0e07 1ebd 9ee5 933c c74c 26be
000003f0: 649f 3f3d b9b5 163b 59a6 253d 2727 ef3d

net.4.weight f4 [4, 256]
0.5273103 -0.79420006 -1.0194978 -0.5761463 -1.5127246 0.32318836 0.18762127 0.20004657
-0.04376075 -0.048577737 -0.64661944 -1.5321213 1.0405568 -0.69534564 -0.8197085 0.045831017
1.2282724 -0.65804404 -1.406124 0.6308188 0.913408 0.61521447 -0.8107123 -1.507968
-0.9978552 -0.39611527 -0.6017042 -0.81618387 -0.48308605 -1.1393503 -0.049931932 -0.4843937
-1.6655865 0.7498598 -0.020941889 0.102964 -1.3453727 0.057622846 0.71361226 -1.0508195
0.6153832 0.13520539 0.6523954 0.19589661 0.5696731 0.65853596 0.62838495 -1.448746
0.27627024 0.8275772 -0.48249176 -0.66265893 -0.19174792 0.6166971 -1.5552555 -0.61681587
-0.10624757 -1.4731317 -0.7732195 0.6590885 1.2006943 -0.0021769528 -0.36849865 -1.883891
0.021215348 0.28085503 0.97263604 -0.7634042 -0.48997068 0.88487023 0.33496293 0.9432656
-0.016625801 -1.5094496 -0.25207055 -1.4193149 -0.6967395 1.5662278 -0.4137949 0.7371543
0.35975015 1.0039654 -0.8323094 0.9219234 -0.5532851 0.002645794 0.68599945 -0.78502804
-0.4842107 -0.44124797 0.23576023 1.1793567 0.31557462 0.70006925 -0.74695367 -0.38235322
-0.6036079 -0.6777079 0.44296008 -0.48758295 -0.8621276 0.059292033 -0.52736104 0.25327665
0.21314885 -0.56979877 1.3939488 0.41972932 -0.952548 -2.1026583 -0.79955524 -1.090841
-1.0668612 -1.4066464 -0.012906521 -0.7740556 0.91435343 0.052777387 -0.39090654 -1.4645278
0.7842199 -0.5352822 1.0691781 0.35983425 1.7517284 1.4242215 -0.5146949 0.052922618
-0.31830958 -0.2828775 0.17039001 0.66879094 0.31422895 -0.65310067 -1.0558012 0.03479528
-1.870828 -0.5596224 0.34100452 0.7122036 -0.6574561 -0.3133633 0.254111 0.59167415
-1.4661998 -0.60649914 -0.6292352 -1.9467893 0.03813407 0.47133982 -1.8294315 -0.029791353
-0.40952367 0.25258702 0.5374853 -0.2883275 0.009106005 1.184676 0.24682164 0.27827755
0.16909738 -0.9334496 -0.19296695 -0.6128547 -1.0862522 -0.47490352 0.22388378 1.1478097
0.69055766 -0.057027925 0.46272528 -0.58461326 -0.43912184 -0.42580977 -1.627681 0.033252075
-0.6495618 0.02553342 -1.2560662 0.3262761 0.25175014 -1.5334308 -0.67050767 -0.5313053
0.020454407 -0.8234582 1.266621 0.58596176 -0.7741924 -1.5862162 -1.5155579 -1.0315301
-0.53575903 -0.90247643 -0.8529344 -0.596546 0.67164046 -0.5850419 1.222909 0.19445564
0.57596296 -0.7713642 1.5273831 0.35647485 0.9291637 1.1084228 -1.3591343 0.49502718
-0.038714364 -0.77017075 -0.017485106 -0.8243174 -0.521998 0.1977085 -0.8669612 -0.4832213
1.2192806 -0.02982073 -0.6238959 -0.48857236 -1.9007903 -1.2733849 0.99101293 0.21092755
0.36554846 0.8781064 -0.88348067 -1.4363225 0.18985501 -0.5350391 -0.46552858 -1.6759884
-0.1058086 -0.056862243 -0.029197477 0.89864653 -0.53089714 -1.3673314 0.3460863 0.00044458878
0.12765308 -0.8448423 1.5643572 -1.0307008 -0.6095456 0.33169678 1.2698232 0.13388579
-0.68125343 -1.095982 0.19440688 -1.6229427 -0.3024027 -0.49756497 0.0034209848 0.16673154
00000000: cffd 063f b250 4bbf e77e 82bf 537e 13bf
00000010: f6a0 c1bf f278 a53e ca1f 403e 02d9 4c3e
00000020: 793e 33bd 73f9 46bd da88 25bf 8d1c c4bf
00000030: f730 853f 2c02 32bf 6bd8 51bf 4eb9 3b3d
00000040: 0838 9d3f 9375 28bf dffb b3bf 577d 213f
00000050: 1bd5 693f b27e 1d3f d78a 4fbf 1805 c1bf
00000060: 7073 7fbf 9fcf cabe 4909 1abf 6df1 50bf
00000070: 0e57 f7be 3bd6 91bf 6d85 4cbd 7302 f8be
00000080: f031 d5bf d0f6 3f3f 538e abbc cade d23d
00000090: 2c35 acbf ef05 6c3d 4baf 363f 4181 86bf
000000a0: c189 1d3f 4873 0a3e 6303 273f 1f99 483e
000000b0: 19d6 113f d095 283f d6dd 203f 8270 b9bf
000000c0: 4b73 8d3e 19dc 533f 2909 f7be 04a4 29bf
000000d0: 9159 44be dcdf 1d3f 9d12 c7bf a5e7 1dbf
000000e0: 5398 d9bd 948f bcbf b7f1 45bf 06ba 283f
000000f0: 5ab0 993f 35ab 0ebb dbab bcbe 5723 f1bf
00000100: cfcb ad3c 3bcc 8f3e adfe 783f 756e 43bf
00000110: 70dd fabe db86 623f 4380 ab3e db79 713f
00000120: d532 88bc a535 c1bf 640f 81be 1cac b5bf
00000130: 855d 32bf 277a c83f eddc d3be 25b6 3c3f
00000140: 2c31 b83e f081 803f 3b12 55bf 2c03 6c3f
00000150: 18a4 0dbf 0f65 2d3b a99d 2f3f 99f7 48bf
00000160: 77ea f7be 41eb e1be 216b 713e 29f5 963f
00000170: ff92 a13e bd37 333f 5b38 3fbf cdc3 c3be
00000180: 0c86 1abf 447e 2dbf aacb e23e 79a4 f9be
00000190: 65b4 5cbf 34dc 723d 2201 07bf 7aad 813e
000001a0: b143 5a3e 55de 11bf ea6c b23f c3e6 d63e
000001b0: 30da 73bf f491 06c0 a7af 4cbf aea0 8bbf
000001c0: e88e 88bf fd0c b4bf df75 53bc 8228 46bf
000001d0: 1113 6a3f 1a2d 583d e724 c8be a675 bbbf
000001e0: a3c2 483f 4108 09bf d4da 883f 323c b83e
000001f0: a338 e03f e44c b63f 0cc3 03bf 63c5 583d
00000200: 79f9 a2be 52d5 90be b87a 2e3e e235 2b3f
00000210: 9ee2 a03e 9b31 27bf 7e24 87bf 7f85 0e3d
00000220: 4b77 efbf 6a43 0fbf 2598 ae3e fa52 363f
00000230: 0b4f 28bf 2871 a0be d61a 823e f577 173f
00000240: 6fac bbbf 8743 1bbf 8f15 21bf 6430 f9bf
00000250: 7832 1c3d 7453 f13e d02a eabf ff0c f4bc
00000260: 16ad d1be 1653 813e a398 093f a99f 93be
00000270: 5a31 153c 77a3 973f d0be 7c3e 657a 8e3e
00000280: dd27 2d3e 8ef6 6ebf 2199 45be 0ce4 1cbf
00000290: 500a 8bbf 8e26 f3be ca41 653e 6eeb 923f
000002a0: 63c8 303f 1d96 69bd 54ea ec3e 37a9 15bf
000002b0: 94d4 e0be bd03 dabe da57 d0bf 5433 083d
000002c0: af49 26bf 762b d13c c7c6 a0bf a90d a73e
000002d0: 65e5 803e 7647 c4bf 64a6 2bbf a003 08bf
000002e0: 0090 a73c 28ce 52bf a320 a23f 9701 163f
000002f0: 7931 46bf 2209 cbbf cdfd c1bf 2e09 84bf
00000300: 8127 09bf b208 67bf e959 5abf 3db7 18bf
00000310: a1f0 2b3f 4ec5 15bf 4888 9c3f 611f 473e
00000320: 4f72 133f 2078 45bf 4a81 c33f df83 b63e
00000330: acdd 6d3f cce0 8d3f 1df8 adbf 3474 fd3e
00000340: f492 1ebd e929 45bf ed3c 8fbc 7706 53bf
00000350: a9a1 05bf 1974 4a3e 2bf1 5dbf c868 f7be
00000360: 6311 9c3f 9b4a f4bc a4b7 1fbf 2826 fabe
00000370: 194d f3bf 47fe a2bf 06b3 7d3f 64fd 573e
00000380: 2b29 bb3e 95cb 603f ca2b 62bf 6ad9 b7bf
00000390: 5a69 423e 53f8 08bf c359 eebe ca86 d6bf
000003a0: 2eb2 d8bd 62e8 68bd 8c2f efbc b30d 663f
000003b0: e0e8 07bf b704 afbf 3932 b13e b217 e939
000003c0: 7db7 023e 9647 58bf db3c c83f 01ee 83bf
000003d0: 2e0b 1cbf 29d4 a93e 9189 a23f 5b19 093e
000003e0: a066 2ebf 2349 8cbf 9912 473e 96bc cfbf
000003f0: 87d4 9abe d6c0 febe 9a32 603b acbb 2a3e

net.4.bias f4 [4]
-0.0026469282 0.03637948 0.0598817 -0.07288121
00000000: 1678 2dbb a602 153d 8346 753d be42 95bd
