drafts/draft_rk/runs_lunarlander/dqn_trial03_seed42.pth (torch, 279705 bytes, 6 tensors)

net.0.weight f4 [256, 8]
000000 ab 4a 97 3e da d9 af 3e d3 6d 2d be 53 88 34 3f
       0.29549155 0.34345895 -0.16936426 0.70520514
000010 6d 50 af be 37 71 2d 3e f3 2f d0 bd 26 25 86 3d
       -0.34241048 0.1693772 -0.101653956 0.06550054
000020 89 b5 ce 3e 33 0b 6d bc 28 55 fe 3e c9 57 6a be
       0.40372875 -0.014468002 0.49674344 -0.2288505
000030 e3 20 d4 3e c8 76 8a 3e 71 f5 41 3e 57 41 36 be
       0.4143134 0.27043748 0.18941285 -0.17798363
000040 fe 71 34 3f 62 c8 fa be 93 98 08 3d 50 8f 9e 3e
       0.7048644 -0.48981005 0.03334863 0.30968714
000050 9b 03 a0 3d b6 a7 a9 3d 92 6e 91 be 42 b5 b6 3e
       0.07813188 0.082839414 -0.2840467 0.35685164
000060 35 e7 72 be 78 fa 98 bd 1e a5 5b bd 20 68 ae be
       -0.23721011 -0.07469648 -0.053624265 -0.34063816
000070 f2 a0 80 3f f4 fc 11 bf 3c e6 5a 3e 31 de 84 bf
       1.0049117 -0.570266 0.2137689 -1.0380307
000080 93 5d 82 3e c7 a7 df 3d 33 a9 2a be 51 e0 b8 3e
       0.25462016 0.10920673 -0.16666107 0.3610864
000090 3b b4 98 bd cd 33 ca 3e c8 03 53 3e 6b f5 53 3a
       -0.07456251 0.39492646 0.20606911 0.00080855814
0000a0 a8 5d 0f 3f 0c f8 9e be 30 d7 ca 3d e2 16 ee 3e
       0.56002283 -0.3104862 0.09904325 0.46501833
0000b0 56 85 85 3e 30 05 f1 bd 92 24 b3 3e 69 3e 5e 3e
       0.2607829 -0.117685676 0.34988838 0.21703495
0000c0 6c 0a 6a 3c cd 90 87 bd 15 ba e7 bd a7 f9 1d 3f
       0.014284711 -0.066194154 -0.11314789 0.61709064
0000d0 0e ef e5 bd 85 8e 27 3f 45 89 02 3e f4 0a 7a 3e
       -0.11227237 0.6545184 0.12747677 0.24418241
0000e0 1b 30 d1 ba e2 a5 11 bb cc e8 82 3f c3 a6 9e be
       -0.0015959771 -0.0022224118 1.0227294 -0.30986604
0000f0 a7 3a 0e 3c f5 17 aa bc b0 53 83 3e ca f7 83 be
       0.008680976 -0.020763377 0.25649786 -0.25774986
000100 ab 1c 96 bc 9c b6 90 be 4e 5e 54 3e fc d3 68 be
       -0.018324217 -0.2826432 0.207391 -0.22737116
000110 ef 27 ef be f2 7d 35 bf b4 01 99 3e 1d ea 2a 3e
       -0.46710154 -0.708953 0.29884112 0.1669087
000120 09 96 ad 3e aa 27 28 be 3e 17 f2 be 82 e4 ef be
       0.3390353 -0.1642138 -0.47283357 -0.46854025
000130 bc f4 c9 be 8d fe 27 3e d2 92 0c 3e ee 3a a8 3e
       -0.3944453 0.16405697 0.13727883 0.3285746
000140 e1 81 8b be 6e 70 f9 be 5a 38 63 3e 81 5c e2 be
       -0.27247527 -0.4871859 0.22189465 -0.442112
000150 11 5b 0e be da 98 07 bd 89 fa 17 3e ae 7f 10 be
       -0.13901927 -0.033104755 0.14841665 -0.14111206
000160 a3 6f 1a 3e 10 14 e4 3d e3 e2 cb 3e 23 ee 2c 3f
       0.15081649 0.11136639 0.39821538 0.6755087
000170 01 dd 12 3f 7d cd 2f 3f ea 3c 9a be 58 2b 6b be
       0.57368475 0.68672925 -0.301246 -0.22965753
000180 10 df 14 3f 07 ad 15 3d a8 23 97 be 78 6f ae be
       0.58152866 0.036541965 -0.2951939 -0.3406942
000190 87 27 7b be 8e 58 5b bd fe 3e f6 be be c9 97 be
       -0.24526797 -0.05355125 -0.48094934 -0.29646105
0001a0 8a 26 d7 3c 33 35 5c bd 00 ab fc be cc d3 a7 be
       0.026263494 -0.053761672 -0.49349213 -0.32778776
0001b0 08 52 c8 bd 8e 21 1b bf c6 5b c3 3e 3a 7e c6 3d
       -0.09781271 -0.60598075 0.38155955 0.096920446
0001c0 71 90 cc 3c d5 41 cd be dc cf 05 bd 06 be db be
       0.024971219 -0.40089288 -0.032668933 -0.42918414
0001d0 c3 16 e3 3e c3 ef 8a be bb 46 a0 be 13 3f bc be
       0.44353303 -0.2713605 -0.31303963 -0.36766872
0001e0 65 a4 d4 3e 3b b5 7c be ae 64 05 be 3a 3f 5a be
       0.41531673 -0.24678509 -0.13026688 -0.21313182
0001f0 73 03 0c bf 8b 63 bc be f3 f4 14 bf 6b 25 a4 3d
       -0.54692763 -0.36794695 -0.5818626 0.080149494
000200 bd b6 45 3e fd c5 2c be fc d2 ac 3e 79 79 df 3d
       0.1930799 -0.16872402 0.33754718 0.10911841
000210 dc f2 65 bf dc 53 72 3e 79 4c 04 be fd bc 04 be
       -0.898237 0.23664802 -0.12919797 -0.12962718
000220 cb dc 72 bf 71 4a 1f be cc 85 df be 96 87 cc bd
       -0.94868153 -0.15555741 -0.43656766 -0.099867985
000230 c4 44 0b bc 79 0f 2f be 52 0c 44 3d 4c e3 60 3b
       -0.008500282 -0.17095746 0.047863312 0.0034315167
000240 5a 9d 2d be c5 69 ec 3d 3e a1 74 bd 6b 87 3e 3f
       -0.16954556 0.115436114 -0.059724085 0.7442538
000250 05 11 2a 3f 42 a7 dd be 7c 12 75 bd f5 89 1c be
       0.6643222 -0.4329167 -0.05983208 -0.15287001
000260 5f 22 c8 3d 95 ab 84 be 5a 4c 0b 3f 3e 99 0a bf
       0.09772181 -0.25912157 0.5441338 -0.5414008
000270 1c d7 9c 3c 70 2d be 3e 56 86 32 be b1 21 91 be
       0.01914554 0.3714404 -0.17434058 -0.28346017
000280 33 d6 bb 3e 7b 4c cd 3d 04 e2 07 3e 5d 8f 0c bf
       0.3668686 0.10024353 0.13269812 -0.54906255
000290 ca 77 ee 3e 17 e7 1b be 9d 22 78 be 50 7f b3 3e
       0.46575767 -0.15224873 -0.24231954 0.3505807
0002a0 93 8a 12 bd 95 c1 ec bd e0 8a 3b be b6 8a 68 bd
       -0.035776686 -0.1156036 -0.18314695 -0.05677291
0002b0 75 a7 04 3f 82 b1 d6 3e 65 ac 93 bd 24 d6 1a bf
       0.5181802 0.41932303 -0.07210616 -0.60483
0002c0 79 09 08 bf 8b 70 8f 3e fd 8c df 3e 6a 29 f0 be
       -0.53139454 0.2801555 0.43662253 -0.46906596
0002d0 e8 95 21 bc d2 64 46 3d 7e 25 ee 3d ff 6d 40 be
       -0.009862401 0.048435993 0.11628245 -0.1879196
0002e0 f4 5e 38 3e 03 c7 25 3e b1 45 8a 3e 42 c7 af be
       0.18004972 0.16189198 0.27006295 -0.3433171
0002f0 9f fb 49 bd c2 d0 66 be e5 02 0c bf b2 f6 23 bf
       -0.04931223 -0.22540572 -0.54691917 -0.640483
000300 4b 29 df 3e 7c d7 b3 3e 26 3c 90 bd 41 cb 09 3f
       0.43586192 0.3512534 -0.070427224 0.53825766
000310 4f 06 19 3e ae 41 79 bd 23 bb 00 bc 97 0b 8e 3d
       0.14943813 -0.060853653 -0.007857117 0.06935804
000320 71 bf 98 be c4 e7 b4 bd 24 5e 39 3e c1 eb 69 3e
       -0.29833558 -0.08833268 0.18102318 0.22843839
000330 6d fe e3 bd ed 9d ad be 81 d6 0d bf cf 59 bc be
       -0.11132512 -0.3390955 -0.5540543 -0.3678727
000340 ff a6 81 3c fa 83 22 3e ac 2a fe 3d c7 91 6a 3e
       0.0158267 0.15870658 0.12410483 0.22907172
000350 15 c7 ec be eb e6 f7 be 61 e4 13 be 50 dc e9 3e
       -0.46245638 -0.48418364 -0.14442588 0.45675898
000360 e0 20 bc 39 7e dd 25 b9 21 6b 7c 3a 18 23 82 3a
       0.00035882648 -0.00015818138 0.00096290006 0.0009928672
000370 93 e7 9c bf be 17 06 3d c7 94 63 bd bb 84 62 3d
       -1.2258171 0.032737486 -0.055561807 0.055302363
000380 64 ec 5e be 12 5c 5d 3e db a9 7c 3e 20 a8 a3 3e
       -0.21769863 0.21617153 0.2467417 0.31964207
000390 b4 10 d7 be d6 b7 21 bf d7 0a bc be 3f 3b b8 3e
       -0.4200493 -0.63171136 -0.3672702 0.359827
0003a0 53 b4 85 3e af 6f 80 3e d6 f1 97 3e 7b a1 c9 3e
       0.2611414 0.25085208 0.29676694 0.39381012
0003b0 6e 2e cb bd 97 25 eb bd c5 18 a1 be b8 de 90 be
       -0.09920965 -0.11481779 -0.3146421 -0.2829492
0003c0 74 63 d5 3b 5a d9 d4 bd b0 6d 3d bd 02 a5 38 bf
       0.0065121 -0.10393019 -0.046247184 -0.7212678
0003d0 6e c9 e7 3e 67 77 1e be b8 c9 35 bf ee 8d 6f 3e
       0.45270866 -0.15475236 -0.71010923 0.23393986
0003e0 70 4c 02 be 26 c4 5a 3e 46 b2 29 be ea e5 da be
       -0.12724471 0.21363887 -0.16571912 -0.42753536
0003f0 a4 d0 c5 3d f2 64 41 bf a0 2f 3f bd ae 07 4c be
       0.09658936 -0.75544655 -0.046676278 -0.19924805

net.0.bias f4 [256]
000000 3a 62 fb 3d 9c 36 42 3e 99 81 a1 be f6 5d 76 3e
       0.122745946 0.18966144 -0.31544188 0.24059281
000010 a6 f5 3f 3e 13 28 79 be eb a9 40 be 45 11 3f b8
       0.18746051 -0.24331693 -0.18814819 -4.5554032e-05
000020 b1 53 71 bd f2 e8 80 3e e6 30 2c be 9f 43 ef be
       -0.058917705 0.25177723 -0.16815528 -0.46731278
000030 f6 b3 35 bd fc 85 12 3b 98 a8 4a 3e fd fe 67 be
       -0.044361077 0.0022357693 0.19790876 -0.22655864
000040 f9 12 82 3e a6 7a 6d bc e3 aa 84 3e f9 a5 21 bc
       0.254051 -0.014494574 0.25911626 -0.009866231
000050 b6 87 1e 3e ee 39 ce 3d 0c fe 0f bb b0 ce 13 3e
       0.15481457 0.10069643 -0.0021971492 0.14434314
000060 cd 29 97 be b1 fd 86 3e ed 8c 84 3d c5 f5 16 b9
       -0.2952408 0.26365426 0.06472192 -0.00014396671
000070 24 0d ea 3d f3 c3 dd 3b bc e7 40 3e bf c7 7d 3e
       0.114282876 0.0067677437 0.188384 0.24783228
000080 da 06 9b be b0 02 46 3e 61 fd 17 be 3f 46 d8 bd
       -0.30278665 0.19336963 -0.1484275 -0.105602734
000090 ee ff 0e 3b fd 1d 82 3e be 3e 75 bb 32 e2 90 bc
       0.0021820026 0.25413504 -0.003742143 -0.017685983
0000a0 18 ff 61 3e db 2e b3 bd 95 b7 1e 3e 37 a1 c1 bc
       0.22069967 -0.08749171 0.15499718 -0.023636444
0000b0 5d db a8 3d 22 f1 a6 3e 9a d8 8f 3c 62 63 9c 3b
       0.08244965 0.32605845 0.017559338 0.0047725895
0000c0 bc b2 36 3e 6c 5b bd 3c 36 04 fc bc b5 7a 66 be
       0.17841619 0.023114882 -0.030763727 -0.22507747
0000d0 d1 69 82 3e 32 2e 83 bc 59 ea ca 3c 04 8e 8a bc
       0.25471357 -0.016013239 0.024769949 -0.016913421
0000e0 7f 9e f4 3c bf 16 28 3e b3 8f 2d be d9 13 52 3e
       0.029860733 0.16414927 -0.16949348 0.20515384
0000f0 36 84 10 3d 30 e4 87 3c a2 cb 6c 3d be a0 57 bd
       0.035282336 0.0165883 0.057811387 -0.05264353
000100 02 10 c4 39 70 34 dc 3d bd 35 28 3e 85 d0 41 3d
       0.0003739596 0.10752189 0.1642675 0.047318
000110 75 20 37 3e 10 e0 0b 3e 95 c4 0b 3e d1 5a 6d 3e
       0.17883475 0.13659692 0.13649209 0.23179175
000120 52 e4 fa 3d bb e1 c0 3b a1 aa 58 3e 78 ce 9c 3e
       0.1225058 0.005886284 0.2115884 0.30626273
000130 b7 92 ae 3d c1 31 50 be e5 c2 89 3e 63 a2 b7 be
       0.085240774 -0.2033148 0.26906505 -0.3586608
000140 69 bf a4 3e c4 17 53 3e ff 0c a3 3e f6 6c 1c 3d
       0.32177284 0.20614535 0.31845853 0.03818985
000150 b9 3c 92 ba 9b 54 ad 3e fe db 19 be 83 1e f0 3d
       -0.0011157013 0.3385361 -0.15025327 0.1172457
000160 67 87 7d 3e fc 1e 7c be b5 4f df 3c 5d 18 b8 3d
       0.24758683 -0.24621195 0.027259687 0.08989022
000170 63 8f a0 3e 68 aa 18 be fb aa 52 3e 01 f5 3e 3e
       0.31359395 -0.14908755 0.20573036 0.18648149
000180 23 7f 0e 3e 25 ba 6f 3e a7 c2 19 3e e1 77 4d be
       0.13915686 0.23410852 0.1501566 -0.20065261
000190 2f 3e a6 3d 72 74 14 3e 0a a0 d8 3d 05 90 8c be
       0.08117329 0.14497545 0.105774 -0.27453628
0001a0 81 35 5b 3c 2e d8 9e 3b c3 8a 61 3e 76 15 8c 3e
       0.013379456 0.004847548 0.2202559 0.27360123
0001b0 91 dd 4e 3e 99 fd 6f 3e 92 ee 8e be fa 47 61 bb
       0.20201708 0.23436584 -0.2791639 -0.0034375177
0001c0 87 36 cf bd 02 16 4e be 35 86 64 3e 24 16 ef 3d
       -0.10117822 -0.20125583 0.22316821 0.11674145
0001d0 80 c7 8a 3e 46 74 10 3d cf 1e 5c 3b c8 1a 98 3a
       0.2710533 0.035267137 0.00335877 0.0011604661
0001e0 ca ac 99 3d 1c 91 46 3e ba f4 0d 3e 7c f8 00 3d
       0.0750366 0.19391292 0.13862887 0.031486973
0001f0 15 6a ba bd 7b fb 0f 3d 6f 0f 1a 3e 2c 06 6c 3d
       -0.09102265 0.03515194 0.1504495 0.057623073
000200 b7 8b 0a 3e 29 9c 64 3e e1 42 89 be a3 55 9a bc
       0.1352986 0.22325195 -0.26808837 -0.018839663
000210 d3 87 26 b8 00 08 55 3d d5 cc a9 3c 76 ca 9b be
       -3.970398e-05 0.052009583 0.020727554 -0.30427903
000220 ee 04 86 3e 2e 4d 0e 3d 02 5c 1d be fc 07 d3 3d
       0.26175636 0.034741573 -0.1536713 0.10304257
000230 c9 54 9c be 7b 49 ce bb 23 6d 5a bd c4 31 1e bd
       -0.30533436 -0.0062953806 -0.053326737 -0.03862168
000240 8b 6c ad 3d 89 e5 b0 bd 68 e3 9f 3d bd 14 87 be
       0.084679686 -0.0863753 0.07807046 -0.2638301
000250 d6 cf d5 3d 5b 6a 06 bb 14 81 80 3e b2 79 83 3e
       0.10440032 -0.002051017 0.2509848 0.25678784
000260 0d aa e8 3d 7c a0 51 be 7b ff 50 be 5e 61 2d 3c
       0.113605596 -0.20471376 -0.20409958 0.010582296
000270 36 4f 83 3c 46 29 33 3e ac 95 25 3d fc 54 6e 3e
       0.016028982 0.17496213 0.04042594 0.23274606
000280 e2 60 43 3e 79 a4 ce b8 1e 2e 7a 3e 13 ba 74 3d
       0.19079927 -9.853481e-05 0.24431655 0.059747767
000290 24 8b 85 3d 15 1a 8f 3d 92 d0 23 be d5 b2 14 3e
       0.065206796 0.06987397 -0.15997532 0.14521344
0002a0 34 05 aa be 47 5e 83 bb 32 ab 5f be 53 04 13 3e
       -0.33207095 -0.0040090415 -0.2184265 0.14357118
0002b0 1b 19 8d 3e ae e3 d8 bb c8 05 1d 3d 9e ca c9 3c
       0.27558216 -0.0066189384 0.03833559 0.024632748
0002c0 ad 98 5f be ef 1a bf 3d d3 b2 09 be 5e 88 89 3e
       -0.21835585 0.09331309 -0.13447122 0.26861852
0002d0 1d ce c8 3d a6 ff 8e be 07 ce 6c 3d 70 f8 84 3d
       0.09804938 -0.2792942 0.05781367 0.06492698
0002e0 94 b0 7f 3d 4a b1 cc be ef cf ad 3d a5 07 29 3a
       0.062424257 -0.3997901 0.08486926 0.00064479775
0002f0 a7 0e f2 3e 43 79 48 3e 14 42 3f be 05 3b 3c bd
       0.47276804 0.19577508 -0.1867755 -0.045954723
000300 b9 b1 c6 3d fe b8 0b bb 96 04 7c 3d b2 76 91 be
       0.09701867 -0.002131998 0.06152781 -0.2841087
000310 bb d7 14 3e ad 9e ad be 4d d5 8b be 4e 8e 48 be
       0.1453542 -0.33910123 -0.27311173 -0.19585535
000320 ca 86 87 3d 73 0d 5d 3d 92 fe 86 be 3c 39 a1 3b
       0.06617506 0.053967904 -0.26366097 0.004920153
000330 cd eb 19 bd db 82 00 bf a8 10 88 bd 28 6a 65 3e
       -0.037578393 -0.5019967 -0.06643802 0.22403777
000340 f7 fd 31 3d b7 dd b2 bd 93 e1 b0 b8 e2 de 9a be
       0.04345509 -0.08733695 -8.4343505e-05 -0.3024817
000350 bf 69 84 be 89 7a 10 3d 04 95 62 3e 8f 24 91 bc
       -0.25861928 0.03527311 0.22127157 -0.017717628
000360 14 31 97 3e ff 38 87 3d a1 c6 5c b9 a0 09 f5 be
       0.2952963 0.06602668 -0.0002105483 -0.47858906
000370 1a 0c a5 3e ff 52 5c 3e 0f 2e 70 3d e4 fb 65 3e
       0.32235795 0.21516035 0.058637675 0.2245937
000380 e7 37 1d 3e ae bf 10 3e 38 9f 57 3e 20 55 3e be
       0.15353356 0.1413562 0.21056831 -0.1858716
000390 83 bb 03 be f0 91 30 be 49 c2 1f 3c 25 20 95 be
       -0.12864499 -0.1724317 0.009750911 -0.29126087
0003a0 35 46 54 bd ee 16 20 be 2f 1e cf be fd b0 3b 3e
       -0.051824767 -0.15633747 -0.40452716 0.18329234
0003b0 3f 81 25 3e 22 49 c7 be df 93 66 3e 59 f3 85 3d
       0.16162585 -0.38922983 0.22517346 0.065405555
0003c0 30 18 07 be 3a 21 7b 3e 20 5a db 3d 2e 06 a0 bb
       -0.1319282 0.24524394 0.10710549 -0.004883549
0003d0 d7 33 73 b8 a0 f9 1c be 1c 0c 19 3d 6f 8e 5c 3e
       -5.7983994e-05 -0.153296 0.037365064 0.21538709
0003e0 1a 61 48 3e 8f ee 89 be 14 cc a0 be 9d a4 2b be
       0.19568291 -0.26939818 -0.314057 -0.16762014
0003f0 3e 73 6e 3b 42 2c c0 3d ed 5c b2 bd e4 90 6a be
       0.0036384608 0.093834415 -0.087091304 -0.22906834

net.2.weight f4 [256, 256]
000000 36 f2 22 3e 1c cf 80 3d a7 d6 51 3f 29 c7 92 bd
       0.15912709 0.06289503 0.8196816 -0.07166893
000010 93 9f 20 3e cc 8a b6 3e 57 0e 3a 3e 3a 91 21 bf
       0.15685873 0.3565277 0.18169533 -0.63112223
000020 48 ff 99 bb a7 b8 aa 3b 8c 0b ef 3e 70 fe 26 3f
       -0.0046996213 0.0052100006 0.46688497 0.6523199
000030 39 d9 1d bd d8 38 46 3d 6f 63 8f 3c f1 ce 7d 3e
       -0.038537238 0.048394054 0.017503468 0.24785973
000040 aa 23 0d bd d7 dd 14 3e c0 8f c9 3d 12 03 18 3d
       -0.03445784 0.1453775 0.09841871 0.037112303
000050 10 c9 5a bd 9a 43 b0 3d bb 77 6e be 3a ad 82 bd
       -0.053414404 0.08606644 -0.23287861 -0.063806966
000060 0b 27 7b be e2 51 2b bb 1c 1d 08 3e 28 11 93 be
       -0.24526612 -0.0026141335 0.13292354 -0.28724027
000070 83 b6 65 3d 0c 06 b3 3c 54 4e db bc f0 f0 ba bd
       0.05608226 0.02185347 -0.026770748 -0.091279864
000080 60 33 9d 3e 03 02 3f bd ae 69 3d be 77 f0 c4 3e
       0.3070326 -0.046632778 -0.18497345 0.3846471
000090 a3 00 19 3e a5 86 80 bd 63 7f 8e 3d 80 dc eb 3d
       0.14941649 -0.062756814 0.06957891 0.115166664
0000a0 8f 45 f7 3d 46 70 0a bd 11 76 42 bd 1c 1c 67 3e
       0.12073814 -0.03379848 -0.04747588 0.22569317
0000b0 b7 87 a0 bd a5 53 d5 bc 83 98 ba 3e 4e b1 6f be
       -0.078383856 -0.026040861 0.36444482 -0.2340748
0000c0 80 40 b9 bc 7a 3a 92 bd 1e de 46 3d bb c6 f4 3d
       -0.022613764 -0.0714006 0.04855167 0.11951967
0000d0 b6 88 16 3c 93 0b d5 bd 91 85 a1 3e 6a 14 b8 be
       0.009187868 -0.10402598 0.31547216 -0.35953075
0000e0 c9 cb 4e bd 67 13 db bd 24 c5 1a 3e 5b 5f fc 3d
       -0.050487313 -0.1069706 0.15114266 0.12322875
0000f0 9a 90 2f 3e 8a e2 04 3e 8a f5 78 bc dd b8 6e bd
       0.17145005 0.12977043 -0.01519526 -0.058281768
000100 83 04 3a be fe 44 0d 3d ee d0 6a bc 48 01 b3 3d
       -0.18165784 0.034489624 -0.014332039 0.08740479
000110 4b ff 55 bd ab cf 9a bd a5 dd a0 bd da 96 30 bd
       -0.05224542 -0.07559141 -0.07854775 -0.043112613
000120 2a 79 d9 bd 2a 4c ce 3d 91 83 93 bd 11 74 15 bd
       -0.10618813 0.10073121 -0.07202829 -0.036487643
000130 18 36 b1 bd 64 67 74 3e 6a 6d 8f 3c c9 7a 5f 3e
       -0.08652896 0.23867565 0.017508227 0.21824183
000140 10 d5 45 3d b9 32 08 be 16 1f 24 3e 88 e4 ba 3b
       0.048298895 -0.13300599 0.16027483 0.0057035126
000150 65 f1 ef bd 96 60 81 bd 65 dc ba 3e a7 51 80 3d
       -0.11715964 -0.063172504 0.36496273 0.06265574
000160 b7 f2 0a 3d a0 45 c2 bd c0 55 86 3d 13 39 59 be
       0.033922877 -0.09485936 0.06559324 -0.21213178
000170 23 77 ce 3d 02 db 50 be d4 41 0b be 79 68 b2 bd
       0.10081317 -0.20396045 -0.1359933 -0.08711333
000180 72 b0 58 3d 5b a5 94 bd 2c 08 12 bd 00 77 cf 3e
       0.052902646 -0.072581016 -0.035652325 0.40520477
000190 90 9b d1 3d ce 9b c5 3d ce 6f 28 3e 0c 71 f2 3e
       0.10234749 0.09648858 0.164489 0.47351873
0001a0 fe c3 90 3e f7 4e a7 be d0 09 5f bd 44 26 4a 3d
       0.2827453 -0.32677433 -0.054452717 0.0493529
0001b0 77 e8 c5 3d 63 b1 d5 bd a3 25 90 3d 69 e2 28 3e
       0.0966348 -0.104342245 0.07038429 0.16492619
0001c0 d4 8c d1 3d 59 65 30 be 13 4a cd bd 13 d0 27 3d
       0.10231939 -0.17226161 -0.10023894 0.04096992
0001d0 bd 12 69 be 2b c1 cb bd 4e 88 2b be 9a d3 85 bd
       -0.22761054 -0.09948953 -0.16751215 -0.065345004
0001e0 a9 60 be 3d 07 0c 95 3d 37 b0 b0 3d de ef dd 3d
       0.0929578 0.07277685 0.0862736 0.10836767
0001f0 14 43 9b 3e fa 8d ec 3d 76 65 91 bd 0d fd 96 3d
       0.30324614 0.115505174 -0.0709943 0.07372484
000200 fa 61 41 be 1d 37 6b bc 52 b1 b6 3e 7b 4c 2c 3d
       -0.18885031 -0.014356402 0.3568216 0.042065125
000210 78 8d 89 be 05 94 03 3e 1d d6 4b 3e 60 b9 c9 3d
       -0.26865745 0.12849434 0.19905896 0.098498106
000220 f6 8c 54 be 38 c7 85 3d 4b 12 c7 be 2e 96 1e bd
       -0.20756897 0.065321386 -0.38881144 -0.03871744
000230 9e b4 c2 3e 21 68 8b bc 7d 25 18 bd 74 db af 3e
       0.38028425 -0.017017426 -0.037145127 0.34347117
000240 87 e2 0e 3e 7f 6d 10 be 7b 42 a8 bd bc 96 43 bc
       0.13953601 -0.1410427 -0.08215805 -0.011937793
000250 df 14 97 3d 3a b1 a4 3e 3e b8 eb 3c 20 31 ec bd
       0.07377028 0.32166463 0.028774377 -0.11532807
000260 a2 2c 4b be 2e a7 db 3e 91 4a 5e be 85 28 de bc
       -0.19841245 0.42900985 -0.21708132 -0.02711893
000270 26 77 81 bc ec e1 e1 bd 27 e5 34 3e c9 e7 23 3e
       -0.015803885 -0.11029419 0.1766554 0.16006388
000280 13 68 2f bd 2c dd fe be 91 43 ee 3d 52 7c d9 bd
       -0.042823862 -0.49778116 0.11633981 -0.10619415
000290 36 b7 47 3e ca e9 58 3c 7b 8d d0 3e 32 3d 81 be
       0.19503483 0.013239333 0.4073294 -0.25242
0002a0 4c 85 73 3e a3 86 2e bd 58 c4 0e be 1f d8 36 3d
       0.23781317 -0.04260887 -0.13942087 0.044639703
0002b0 94 b3 1f 3d c7 4c 0d 3e 87 ea 2b 3d 5b a7 c3 3c
       0.03898962 0.1379882 0.04197171 0.023883512
0002c0 cf 70 30 3f 1b 60 28 3e f2 60 30 3e 17 9c 27 bd
       0.6892213 0.16442911 0.17224482 -0.040920343
0002d0 be b7 8c bd 87 f0 97 3e 80 61 74 be a3 92 d5 3d
       -0.068709835 0.29675695 -0.23865318 0.10428359
0002e0 63 d9 f9 3d 8a 42 4d 3d 1a bf 80 bd 7e db ae bf
       0.12199666 0.050112285 -0.0628645 -1.3660734
0002f0 96 63 c3 bc 21 12 3f 3d 48 23 dd bf 04 90 34 be
       -0.023851197 0.04664815 -1.7276392 -0.17633063
000300 c6 ce ea 3c 77 fd 02 3e 5b 99 a5 3d ff 19 81 3e
       0.02866305 0.12792002 0.08085891 0.25215146
000310 d2 25 1f 3e 89 2e 34 3e 0c 7a 56 bc 4a 94 c7 3e
       0.15541771 0.17595877 -0.013090622 0.38980323
000320 95 e2 b4 bd d2 45 4f 3d 1b c3 5b bc c8 e9 f0 bd
       -0.088322796 0.050603695 -0.013413216 -0.1176334
000330 63 85 6a 3c 46 f7 0c 3f dc ed 71 bb cf f8 83 3c
       0.014314028 0.5506481 -0.0036915457 0.016109852
000340 a6 a6 ad 3e 6b 4f 0b 3e 43 55 1d bf 41 e3 a2 3d
       0.33916205 0.13604514 -0.61458224 0.079535015
000350 1a f4 66 3e 71 6f 41 3e 22 dc b8 bc 18 90 88 bd
       0.22554055 0.18890168 -0.022565905 -0.06668109
000360 56 82 c7 3d f3 12 8c 3d 22 61 e0 bd 7b 5e 49 3e
       0.097416565 0.06839552 -0.109560266 0.19664948
000370 a9 8f 9c bc ed 29 ba 3c a0 fa a3 be f2 95 ba 3d
       -0.019111471 0.02272507 -0.3202715 0.09110631
000380 a2 ce f9 3c f7 0c 7e 3d 75 ac e1 bc 66 c7 fd 3e
       0.030494038 0.062024083 -0.027548054 0.4956619
000390 c2 69 e3 be fd cc 0b 3f f3 22 b3 3c 2f 7a d6 3e
       -0.44416624 0.5460966 0.021867251 0.41890094
0003a0 00 12 c7 3d bf 81 01 3e 9f 11 aa 3e 2e 97 31 3e
       0.0972023 0.1264715 0.3321657 0.17342827
0003b0 f2 a8 48 3e 8d 14 af 3e 6d f4 09 bd 30 05 9a 3e
       0.19595698 0.34195367 -0.03368037 0.30082083
0003c0 e4 cb b5 3e 24 fe cb bc e9 be 54 bd 37 4d 1f be
       0.3550712 -0.024901457 -0.05193988 -0.15556799
0003d0 b7 dc c7 be 03 bc 96 3e 93 c0 0c 3e e0 6d 1c 3d
       -0.3903558 0.29440317 0.13745336 0.038190722
0003e0 70 d4 08 3d 64 05 7c 3e 73 d8 01 3f e7 f7 b8 3d
       0.03340572 0.24611431 0.507209 0.090316586
0003f0 e4 dc 81 3e a7 9e 8b bc 6f ed 96 3d d9 24 da 3e
       0.2536384 -0.017043425 0.073695056 0.42606238

net.2.bias f4 [256]
000000 28 e0 65 bd a8 16 3b 3d 3c 8f 96 3d ee a0 82 bd
       -0.056121975 0.045675904 0.073515385 -0.06378351
000010 a2 c8 61 3d fa 2f 01 3e 15 e5 c9 bb 23 51 d0 3d
       0.05512298 0.12615958 -0.006161342 0.101717256
000020 7c ef 0f 3d 34 be ad 3d f3 74 a1 3c 1d ab 35 bb
       0.0351405 0.08483544 0.019709086 -0.00277204
000030 26 59 17 bd cd 37 8a 38 0b 0c c2 3c 90 cc 86 bd
       -0.036950253 6.5907465e-05 0.023687383 -0.06581986
000040 78 eb 9e bd a8 37 7c bd 99 19 45 3d f3 7f 66 3d
       -0.07759756 -0.061576515 0.048120115 0.056274366
000050 21 29 6a bd 66 17 ea 3c 67 1a ae 3b 8f 7e ab 3d
       -0.05716813 0.02857561 0.005313206 0.083737485
000060 12 d6 81 3b 57 e0 7e 3c 66 f4 ca 3c ba 05 4d 39
       0.0039622867 0.0155564165 0.024774741 0.00019552457
000070 03 2e d9 3c be 2c fa 3c 91 32 49 3c e0 6d 17 bd
       0.026511198 0.030538913 0.012280122 -0.03697002
000080 4e a7 b5 3d b2 c9 54 bd 38 fb d5 3a 79 20 ac bc
       0.088698015 -0.051950164 0.0016325479 -0.021011578
000090 52 61 82 bc 10 f8 b8 3d 73 62 95 3d 33 05 94 ba
       -0.015915547 0.09031689 0.07294168 -0.0011293053
0000a0 1f f3 6e 3c 6d 7b 4f 3d 53 83 60 3d 59 58 1d 3d
       0.014584332 0.050654817 0.05481274 0.038414333
0000b0 c8 08 51 3d 4c d1 9f bd 25 10 e8 3d 99 18 32 3d
       0.051033765 -0.07803592 0.11331204 0.04348049
0000c0 15 1b 80 bd e0 69 1c bd 37 8e 3b 3b a2 3d 5e bd
       -0.062551655 -0.038186908 0.0028618702 -0.054257996
0000d0 6e 37 54 3d 0d e3 63 bc 9a d7 b5 bd f7 23 af 3b
       0.051810674 -0.013909114 -0.08879013 0.0053448635
0000e0 2d 29 c1 3d 03 62 94 3d 76 73 8f bd a8 9e 9e bd
       0.09431682 0.07245257 -0.07004444 -0.07745105
0000f0 5c 6a d8 3d 44 ef 5a bd 01 76 0a 3d 7d 78 aa 3d
       0.105671614 -0.053450838 0.033803944 0.083237626
000100 48 a4 aa bc 67 85 e4 3d 1b 18 e4 3d 49 85 e5 3c
       -0.020830289 0.11158257 0.1113741 0.028017657
000110 e1 2f cd bc 04 21 9b bc d0 3a b0 3d c4 b4 12 3e
       -0.025047245 -0.018936642 0.086049676 0.14326769
000120 56 56 63 bd ae ee 89 bd d7 44 c0 3d b6 d6 33 bd
       -0.05550226 -0.06734978 0.0938813 -0.043905936
000130 29 8f 49 bd 30 82 bb 3b 19 3f 25 3b b3 8d 8e 3c
       -0.049208794 0.0057223067 0.002521461 0.017401552
000140 27 86 53 3d 15 24 77 3c 10 a3 2c bd d6 25 8f 3d
       0.05164161 0.015084286 -0.042147696 0.069896385
000150 6d 5b bb 3d b8 99 96 3d 97 d8 b0 3c a6 79 30 bc
       0.091482975 0.07353538 0.021587653 -0.010771191
000160 52 e7 21 bd 9b 18 83 bc 61 0e af 3d f0 55 80 3b
       -0.039527245 -0.016002944 0.085476644 0.0039164945
000170 44 22 c7 3d b6 11 58 3d 38 48 e3 3c a6 85 71 bd
       0.097233325 0.052751265 0.027744398 -0.058965348
000180 dd fa 7f bd d2 6c 56 3d 68 0d e8 3d 99 ba 33 bd
       -0.0624951 0.052349873 0.11330682 -0.043879125
000190 9c d5 ba 3d 09 a3 3b bd 74 96 8a bc 66 44 11 3e
       0.09122774 -0.04580978 -0.016917445 0.14186248
0001a0 53 94 a2 3d ca 7c ed bc 06 86 c4 3d 02 72 5b 3d
       0.07938447 -0.028990168 0.095958754 0.053575523
0001b0 1c 2f 0d 3d 55 56 f8 bc 15 e8 26 b9 ca 12 9d 3c
       0.034468755 -0.030314604 -0.00015917451 0.019173998
0001c0 f7 0d 92 3c ae 29 23 3c 36 cf 06 bd 54 1f e0 3c
       0.017828925 0.009958668 -0.032912455 0.027358688
0001d0 0a 55 8c bd 9e aa c1 3c f7 79 d5 3c 28 b2 65 bc
       -0.068521574 0.023640927 0.026059134 -0.014019527
0001e0 ff 46 7f bc e4 fd 6a bb ac 73 c4 bd 5c c4 d5 3d
       -0.015580892 -0.0035856897 -0.09592375 0.10437843
0001f0 77 8a d5 3d 74 b7 0d 3d c5 ca 27 3d 24 b9 bc 3d
       0.10426801 0.034598783 0.04096486 0.09215
000200 b7 3c 34 3d e9 bc f8 3c 73 07 d8 3d 71 cc 46 bc
       0.044003215 0.030363517 0.10548296 -0.012133704
000210 38 bf 39 bc 5c d4 d7 3c 74 97 01 3c 76 d9 4d 3d
       -0.011337094 0.026346378 0.007909644 0.050256215
000220 0d 16 82 b9 bd 8b 76 bc 23 0e 81 3c e8 e2 8e bd
       -0.0002481196 -0.015047965 0.015753811 -0.06976873
000230 96 5d 38 3d ed ec e6 3c 77 00 d2 3d c8 f2 77 bd
       0.045011126 0.028189147 0.10253995 -0.06053427
000240 fb 8a a6 3b b3 ef 91 bc 48 b8 f8 3c cf 70 d4 bc
       0.0050824857 -0.017814493 0.03036131 -0.025932698
000250 e5 45 c8 bc 28 f2 35 bd 6b 44 4b 3d aa 92 73 bd
       -0.02444739 -0.04442039 0.049625795 -0.05946604
000260 72 aa dd bc bb c5 81 3d f1 a1 17 3d 0d fb d2 3a
       -0.027058814 0.06336542 0.037019674 0.0016096547
000270 cf d0 f4 3c 44 de ee 3d d6 b9 d0 3d 3f 02 93 3d
       0.029884724 0.116634876 0.101916954 0.07178163
000280 8e 62 6c 3d ed 5c 0f 3c d9 a9 3d 3d 0f e7 de bc
       0.057711177 0.008750183 0.046304557 -0.027209787
000290 a8 36 76 3c 42 2e c3 3c 11 a7 0c bd 41 fa eb bc
       0.0150276795 0.023825768 -0.034339014 -0.028805854
0002a0 a2 70 05 bd a7 ff 6c bd 65 3d b6 3c be 89 18 bc
       -0.03257812 -0.057860997 0.022246072 -0.009310184
0002b0 99 c6 af 3d cc 70 aa 3b 8f 21 85 3d b9 f3 f8 3a
       0.08582801 0.0052014347 0.065005414 0.0018993533
0002c0 71 61 b4 3b 04 47 1e 3d 82 19 d3 3c 1e a2 f0 3c
       0.00550478 0.038641945 0.025768999 0.029374178
0002d0 87 c9 c8 3d 7b 26 8c 3c 1a f7 8c bd c7 d5 98 bc
       0.09804063 0.017108193 -0.068830684 -0.018656624
0002e0 27 f1 31 3d 8c a1 6d 3d 5a 9c 6a bd e8 a0 46 bd
       0.04344287 0.05801539 -0.057278015 -0.048493296
0002f0 8a 9b cd 3a 6a 65 0c 3d 0f de dc 3b 5e 6c ba bb
       0.0015686613 0.034276403 0.0067403386 -0.005689188
000300 e3 90 f2 bc c1 82 c1 bc 32 4c f5 3d 1a 77 9c 3d
       -0.029610103 -0.023621919 0.11977424 0.07639904
000310 75 a0 27 bd dc a1 a7 bc 00 0f fa 3c e2 ef 86 3d
       -0.040924508 -0.020462923 0.03052473 0.06588723
000320 40 95 cc 3d a2 9a 14 bd 28 1f 81 bd 14 39 91 3d
       0.09989405 -0.03628028 -0.06304771 0.07090965
000330 ee d5 40 3d 50 41 b9 3c bf cd 90 bd 36 ab 7e 3b
       0.04707902 0.022614151 -0.07070493 0.0038859374
000340 38 10 9a bd 5d 2e 47 bb ac 60 ab bc 66 eb 84 3d
       -0.07522625 -0.0030392625 -0.02092012 0.06490211
000350 22 d1 a8 3c 89 1a e3 3d 9a bc 9a bc e3 50 d2 3b
       0.020607535 0.110890456 -0.01888876 0.006418334
000360 2b d9 f0 3d a1 68 4f bd 3e c1 92 bd bf 30 08 3d
       0.117601715 -0.05063689 -0.07165764 0.033249613
000370 a8 4b 0e 3c c7 f6 86 bd 3e 6b 96 bd 2d 65 a4 3d
       0.00868503 -0.06590038 -0.073446736 0.0802711
000380 af 5f a8 3d 4e 59 67 ba a2 90 3a bc 83 3f 75 bd
       0.08221375 -0.0008825258 -0.011387022 -0.059875023
000390 b3 3d 9b 3d 31 0b ec bc 4b 99 cc bd 59 af f7 3c
       0.075801276 -0.02881393 -0.09990176 0.03023498
0003a0 dd 06 18 3d 05 c0 47 ba e4 01 9c bd 28 15 6b 3c
       0.03711592 -0.00076198607 -0.07617548 0.014348306
0003b0 35 10 d4 bc d9 e0 0f bd 4e b5 0c 3e ea a2 69 3d
       -0.025886634 -0.03512654 0.13741037 0.057040133
0003c0 48 0c 06 3b e0 a3 34 3c 52 60 9a 3d db 4f 59 3d
       0.0020454098 0.011025399 0.07537903 0.05305467
0003d0 8e ce f6 3b 7d 17 70 3d d9 3a a1 ba 8b bc 8a 3c
       0.0075319475 0.05861615 -0.0012300863 0.016935607
0003e0 65 c4 ba 3d 89 ff 60 bd 3d 8f 8b bc 12 a5 0f 3c
       0.091194905 -0.054931197 -0.017036075 0.008767383
0003f0 47 bc 34 3c 1b f2 71 bd cf 3d 0a 3e 1e 1e ae 3d
       0.011031217 -0.05906878 0.1350014 0.08501838

net.4.weight f4 [4, 256]
000000 fa 90 0f be de 47 a4 bd c7 35 a8 be 60 70 16 be
       -0.14020148 -0.0802152 -0.3285353 -0.14691305
000010 5c 50 19 be c0 29 4a 3e 5a d7 88 3e 02 2b bd 3d
       -0.14972061 0.19742489 0.267268 0.09236719
000020 2f 7b 36 bd 11 89 26 3f 55 1d 43 be 22 66 64 bf
       -0.04455107 0.65052897 -0.19054158 -0.8921834
000030 b4 9f d3 3e a1 10 b8 be 06 7d 27 be b8 5b 36 3d
       0.4133278 -0.35950187 -0.16356286 0.044521064
000040 a1 74 1d 3f 02 83 35 be de 1d 00 be 0f 3e 34 3c
       0.61506087 -0.17725757 -0.12511393 0.011001124
000050 9a 72 2e 3f 95 6d d8 3e 4e c2 be be f8 c3 42 3e
       0.6814362 0.42271104 -0.37257618 0.19020069
000060 57 87 a8 be 86 5c 0a be de a8 18 3e 48 63 23 be
       -0.32915756 -0.13511857 0.14908168 -0.15955842
000070 d7 4a ab bd 54 e5 11 bf 62 27 c3 be 09 4f 6b be
       -0.08363884 -0.5699055 -0.38115984 -0.22979368
000080 24 d5 c9 be 8e 3b 24 3f 07 85 6e be 1c c5 1c 3f
       -0.39420426 0.64153373 -0.23292933 0.61238265
000090 7c 64 88 be 27 46 46 3e fd 45 58 3f c1 a6 69 be
       -0.26639163 0.19362698 0.84481794 -0.22817518
0000a0 72 dd ae 3e ae 11 82 3e 2a f3 ef 3d b5 54 d9 3e
       0.34153324 0.25404114 0.11716302 0.4244744
0000b0 61 d9 a7 3e cf c2 fd 3d 82 1f 4f 3e c4 41 01 be
       0.32783034 0.123906724 0.20226863 -0.12622744
0000c0 a1 fd 35 bc 2b 79 0f 3d 32 a7 e8 bd cb 80 13 be
       -0.011107833 0.035027664 -0.11360015 -0.144046
0000d0 a5 bb dd bd 52 c8 89 3f 5d 9c b8 be e9 10 92 be
       -0.10826806 1.0764258 -0.36056796 -0.28528526
0000e0 a8 a5 87 be d4 e0 cf be 95 8a 6b be b6 85 07 3f
       -0.26493573 -0.40601218 -0.23002084 0.529384
0000f0 1d e1 05 3e 73 71 1c bc cb c5 90 be 44 92 b7 be
       0.13074155 -0.009548533 -0.28275904 -0.3585378
000100 ab 37 bf 3c 05 fc 36 3e a4 bb 83 3e bb 36 f1 be
       0.023341974 0.17869575 0.25729096 -0.4711207
000110 93 ec 4e be 4f db 4d 3e 85 23 86 3e 13 49 7a 3e
       -0.20207433 0.20103191 0.26198974 0.24441938
000120 02 5e c3 be c8 8c 9f be 0f 87 06 be 91 0d a3 be
       -0.3815766 -0.31162095 -0.13137458 -0.31846288
000130 e0 de 3d 3d ff b1 91 3e e6 ef 12 be fe 3e 19 3e
       0.04635513 0.28456113 -0.14349326 0.14965436
000140 47 69 9d bd 7e 11 f0 be d9 a6 8f be dc 35 03 3f
       -0.07686096 -0.46888345 -0.28056982 0.5125406
000150 83 5a 50 be 52 83 3f 3e 9d a0 3f 3e 71 09 b6 be
       -0.20347027 0.18702438 0.18713613 -0.35554078
000160 76 45 97 be 18 bd 37 be f8 d2 05 3e 58 53 d2 bd
       -0.29545182 -0.17943227 0.1306876 -0.10269803
000170 43 54 cb 3d 9b 22 07 3f af 8b 07 bf 1c 13 38 bf
       0.09928181 0.5278718 -0.52947515 -0.7190416
000180 7c 11 27 be 23 5a 26 be 43 93 86 3e 05 7f af be
       -0.16315264 -0.16245322 0.26284227 -0.34276596
000190 d7 c1 55 be 88 aa 5a 3d c3 0d 3a be 19 77 28 3e
       -0.20874725 0.053385288 -0.18169312 0.16451682
0001a0 43 7c c2 3e 8b cb 0c bf 6c 47 87 3e 4c e1 30 be
       0.3798543 -0.5499808 0.26421678 -0.17273444
0001b0 30 39 cc be a3 28 84 be 45 5f 25 be 69 5c 4c be
       -0.3988738 -0.25812253 -0.16149624 -0.19957127
0001c0 3b 20 91 3f 43 6d a7 be 10 34 85 bf 13 6a f9 3e
       1.1337961 -0.32700548 -1.0406513 0.4871374
0001d0 1e 3c 6f 3d a3 f2 dc 3e 9c c8 8f be 1b f3 8c be
       0.05840694 0.43153867 -0.2808274 -0.27529225
0001e0 f7 a0 04 3d d0 2c 6e be e2 9f b2 be ef 0c 04 3e
       0.03238007 -0.23259282 -0.34887606 0.12895559
0001f0 25 cb 23 3e 98 ad 03 bf ad 6a 83 be a3 52 65 3e
       0.15995462 -0.5143676 -0.25667325 0.22394805
000200 2a 68 a6 bd 6b 87 9a 3b cc 2f e7 3d d0 94 46 3f
       -0.081253365 0.00471585 0.112884134 0.7757082
000210 28 64 ca 3e c9 ce b8 be b9 a0 fc be ec 58 3a 3d
       0.39529538 -0.36095265 -0.49341372 0.04549496
000220 12 94 48 be d7 d3 58 be 16 ec c4 3e 7e 03 15 3f
       -0.19587734 -0.2117456 0.3846137 0.58208454
000230 c3 62 00 be d5 1f a8 be d0 07 0f 3e 61 9d 52 3f
       -0.12537675 -0.32836786 0.13967824 0.8227139
000240 2f 44 95 be 9f 02 81 3c 93 73 6a be af 2d 00 bf
       -0.29153582 0.01574832 -0.2289565 -0.5006971
000250 1a a3 17 3d 2e fc 2d 3f 1e a5 0a be 1b 2e e7 bc
       0.03702078 0.6796292 -0.1353955 -0.028220227
000260 27 08 45 be 3a 01 f3 3e 46 19 37 3e 55 3d 14 3f
       -0.19241391 0.47461873 0.17880735 0.57906085
000270 f4 4c 29 3c bd e9 69 3e 83 44 13 3f 00 44 4a 3e
       0.010333288 0.2284307 0.57526416 0.19752502
000280 ea 88 0f 3f 45 c2 25 bf 9a 69 96 be f7 14 ef be
       0.5606829 -0.64749557 -0.29377443 -0.46695682
000290 d7 32 8f be fd e1 d8 be 8d 25 2d 3f 05 99 9d 3e
       -0.27968475 -0.42359915 0.6763542 0.30780807
0002a0 02 90 0c 3d 1e d6 74 bd f6 a8 5c 3e b7 81 2e be
       0.034317024 -0.05977451 0.21548828 -0.1704167
0002b0 de d8 1e be 92 1c 7e be ad c9 37 bd 5b 3a 28 3f
       -0.15512416 -0.24815586 -0.044870067 0.65714043
0002c0 24 91 07 bf f1 42 1d 3d 3a 5e 49 be f2 3f 8f 3e
       -0.5295584 0.03839392 -0.19664851 0.27978474
0002d0 64 95 cc 3d ae e4 20 be ae c7 4f be 5f 76 6d be
       0.099894315 -0.15712234 -0.20291016 -0.23189686
0002e0 71 ff 80 3f a4 73 72 bd 1c 65 45 3f e1 f0 da bd
       1.0077955 -0.059192315 0.77107406 -0.10690475
0002f0 d4 11 1e be 63 e4 bf be 56 91 a7 bd a6 aa 0a bf
       -0.15436488 -0.37478933 -0.081820175 -0.5416664
000300 e1 64 86 be c0 c4 7c be 0b 52 3b be c0 46 43 3f
       -0.2624884 -0.24684429 -0.18293016 0.7627983
000310 36 bc b6 3e 93 86 15 be 85 a4 6f 3c b2 5d 74 3d
       0.3569047 -0.14602117 0.014626627 0.059659667
000320 c4 37 02 3f c9 ae f2 be be de 2f bd d7 ad 6e 3e
       0.5086634 -0.47398975 -0.042937033 0.23308502
000330 cd e5 8a 3e 9f bc 72 3f 13 80 9c be 8e d0 18 3f
       0.2712845 0.9481906 -0.30566463 0.5969323
000340 b6 45 fc 3e c6 6b 46 bd 08 6b c2 bc 92 24 39 be
       0.49271935 -0.048442625 -0.023732677 -0.18080357
000350 6b 7f 21 be 4b 03 de 3d 2e 32 c6 3e fb fa 39 be
       -0.15771262 0.10840472 0.3871016 -0.18162148
000360 dc 94 a4 be 74 93 ea bc 71 db 2c be 84 51 05 be
       -0.3214482 -0.028634764 -0.16880585 -0.13019377
000370 53 bb 45 be 61 b0 d8 bd 88 58 27 3f d4 7e 1a 3f
       -0.1930974 -0.105805166 0.6536946 0.60349774
000380 02 8c 33 3e 25 b1 d7 3e f7 f3 3f be 83 78 c5 be
       0.17533877 0.42127338 -0.18745409 -0.38568506
000390 74 1f b1 3e b8 d8 52 be 67 65 99 be eb 1e 42 be
       0.3459431 -0.20590484 -0.29960176 -0.18957107
0003a0 8b e3 57 be df fb 82 be 4b 71 b5 be 2d 0d 4c bd
       -0.21082895 -0.25582787 -0.35437998 -0.049817253
0003b0 a5 50 75 3d cb b0 dc be b2 83 45 3e 04 d7 5c bb
       0.05989136 -0.43103632 0.19288519 -0.0033697495
0003c0 e2 fc cb 3d 90 4a cb be 2d df 2a 3f b3 44 a9 be
       0.09960343 -0.39705324 0.6674679 -0.33060226
0003d0 a9 0e 92 be 72 c5 da 3e 5b ff 08 3e 20 9d 9b 3e
       -0.2852681 0.42728764 0.1337866 0.30393314
0003e0 e1 99 a0 be 86 87 73 be 55 5c b3 3e cc f4 e8 be
       -0.313674 -0.23782167 0.3503138 -0.45499265
0003f0 2f 04 ae bd 77 d4 fa bd f9 7f 63 be 96 83 df 3e
       -0.08496892 -0.12247556 -0.22216786 0.4365508

net.4.bias f4 [4]
000000 04 6f 30 bc db b1 c6 3c 6e f2 4f 3d ed 6e 87 bc
       -0.010768656 0.02425473 0.05076831 -0.016532386
