drafts/draft_rk/runs_lunarlander/dqn_trial01_seed42.pth (torch, 279705 bytes, 6 tensors)

net.0.weight f4 [256, 8]
000000 a9 96 d7 3d f0 cc fb 3e c5 d4 36 bd f4 a2 2b 3f
       0.10526783 0.49179792 -0.044636507 0.6704552
000010 a3 c1 bc bd e8 ec 0d be d9 73 43 be 8b 79 94 3e
       -0.09216621 -0.13859904 -0.19087161 0.2899898
000020 13 75 3f 3f 64 2e 3e be b2 c2 01 3f ee 49 01 be
       0.74788016 -0.18572384 0.50687706 -0.12625858
000030 88 9c 87 3c 74 06 c3 3d fb bf 3e 3d f1 cf 05 be
       0.016554132 0.09522715 0.046569806 -0.13067605
000040 45 90 6b 3e 4a b1 bf 3c f5 6f 80 3d 74 46 ab bd
       0.23004253 0.023399968 0.06271354 -0.08363047
000050 88 14 23 3e 6c fe 83 be 0c 75 4c bf d7 43 ea 3e
       0.15925801 -0.25780046 -0.798661 0.45754883
000060 71 f6 ad be 8b 89 e2 bc cb 49 85 bd 04 09 0d bf
       -0.33977082 -0.027653476 -0.065082155 -0.5509188
000070 39 58 cd 3e fa e7 23 bf bd 96 91 3e c4 ee b0 be
       0.4010637 -0.64025843 0.28435317 -0.34557164
000080 08 58 bc 3d 81 12 55 3e c2 d4 de bd 25 ab d0 3e
       0.09196478 0.2080784 -0.10880424 0.40755573
000090 c9 9c fd bc d9 2c 03 3f fa 7b f9 3e 3f 83 9b bd
       -0.03095855 0.5124031 0.487274 -0.075933926
0000a0 60 25 00 3f 3b 84 f5 be 72 0a d1 3d 51 13 4b bc
       0.5005703 -0.47952446 0.102070704 -0.012394742
0000b0 da d2 c3 3e f1 39 8a be 09 ed f1 3e 62 dc 85 3d
       0.38246804 -0.2699733 0.47251156 0.06536175
0000c0 93 27 10 3d 03 98 a6 be 16 9e dc bd 43 d3 0f bf
       0.03519399 -0.3253785 -0.1077234 -0.56181735
0000d0 cc 1c 41 3d a1 6c ba 3e d3 c4 31 3e 55 d2 9a 3e
       0.047146603 0.36411002 0.17360239 0.30238596
0000e0 c8 19 6f be c6 0e ec bd 7e e9 51 3e 8c 68 ce be
       -0.23349679 -0.11526255 0.20499226 -0.40314138
0000f0 ca 2f f3 be 4b 78 47 bf b3 0e 8a 3e 42 0b e7 bd
       -0.47497398 -0.7791793 0.2696434 -0.11281444
000100 02 b8 c3 3c 61 33 8c be 71 a3 64 3e 23 1c c2 be
       0.023891453 -0.2738295 0.22327973 -0.37912092
000110 37 3f be be 22 6a 11 bf da 66 cf 3e 44 38 94 3e
       -0.37157604 -0.5680257 0.40508157 0.28949177
000120 e8 3c b9 3e da 5d a6 be 4b 90 e8 be 2b 58 22 bf
       0.3617928 -0.32493478 -0.45422587 -0.63415784
000130 b4 bf 3b be 2a 53 ad 3d 4a 15 df 3d d9 41 97 3e
       -0.18334848 0.08463128 0.108927324 0.29542425
000140 14 98 6f be cd a6 b4 be 87 1f 86 3d d6 5c 12 bf
       -0.23397857 -0.3528351 0.06548982 -0.57172906
000150 15 b1 93 3d 71 8a ed 3d 9c 19 81 3e a3 9c 5a bf
       0.0721151 0.11598671 0.2521485 -0.8539526
000160 0f bd c5 be 74 8c 2f 3e 61 63 91 3d 7a f7 81 3c
       -0.38620803 0.17143422 0.07099033 0.015865076
000170 dc bf 4b 3c 96 5f 26 3f 98 f1 d7 bd d3 e2 5a bf
       0.01243588 0.649896 -0.10544127 -0.85502356
000180 87 ae 02 3f 16 c2 28 be cc d8 c9 be a7 66 2f bf
       0.5104756 -0.16480288 -0.39423215 -0.6851601
000190 50 06 d7 bd 2c f2 12 be 63 37 ac 3c 39 94 90 3c
       -0.10499251 -0.14350194 0.021022504 0.017648803
0001a0 70 cf 2f 3d 20 b5 41 bd 61 92 81 be 57 91 0b bf
       0.042922437 -0.047291875 -0.2530699 -0.54518646
0001b0 e8 03 04 be 5b f0 a0 be 18 31 a6 3e 91 02 af 3c
       -0.12892115 -0.31433377 0.3245933 0.021363528
0001c0 29 54 40 3d a9 d5 94 be 86 ae cd bd 8b b9 28 bf
       0.04695526 -0.2906926 -0.10043053 -0.65908116
0001d0 d5 d5 9a 3d 60 f1 88 bd 0d d9 9d be df a0 b9 be
       0.075603165 -0.06686664 -0.3082966 -0.36255547
0001e0 76 76 ea 3d e5 f9 81 be cc 82 f0 3d 05 db c7 be
       0.11448376 -0.25385967 0.117436975 -0.39034286
0001f0 a6 29 f6 be dc 45 19 bf cf 84 38 bf ee 42 11 be
       -0.4807865 -0.5987222 -0.7207765 -0.14185688
000200 6b 74 1a 3e 50 f1 02 bd 42 44 8a 3e 52 41 a2 3d
       0.15083472 -0.031968415 0.27005202 0.07922615
000210 23 b9 5c bf 22 ff e1 3d b5 91 73 3d b8 18 8f 3d
       -0.86219996 0.11034991 0.05946513 0.069871366
000220 41 84 4e be 9a 3c 14 be 12 f3 e6 3d 18 c4 10 bf
       -0.20167638 -0.14476243 0.11276831 -0.56549215
000230 57 6a 0a 3e 9b 13 99 be a7 00 82 3e 30 0c c6 be
       0.13517128 -0.2989777 0.25391123 -0.38681173
000240 88 76 76 bd d5 c6 b8 3e 94 46 4f 3d 2e 2d 26 3f
       -0.060171634 0.36089197 0.050604418 0.6491269
000250 bc ff 35 3d c1 58 0e bf e1 43 76 bc c3 16 8d be
       0.04443334 -0.5560418 -0.015030832 -0.27556428
000260 b1 c8 12 3c 58 ba 42 bd 96 57 c4 3e 95 bd 2b bf
       0.008958981 -0.047540992 0.38348073 -0.67086154
000270 f2 10 91 3c 7f f6 83 bd 89 91 24 bd 6f 03 b0 be
       0.017708275 -0.064435 -0.040177856 -0.3437762
000280 56 80 c2 3e 07 fd 3b 3e e3 f0 2e 3e ee 5f 10 bf
       0.37988538 0.18358241 0.17084078 -0.5639638
000290 11 ba 78 3e e1 e5 57 be cd e2 1d be 46 e0 a0 3e
       0.24289729 -0.21083786 -0.15418549 0.31421107
0002a0 47 fb 28 be 64 a1 34 be 93 1a 11 3c 3b cf b8 bd
       -0.16502105 -0.1763969 0.008856433 -0.09023901
0002b0 78 87 c4 3e 38 ac 00 3f 4c 01 74 be 2f ec 36 bf
       0.38384604 0.50262785 -0.2382862 -0.7145414
0002c0 83 c4 29 be 1b 3e 1f 3e 64 9d 79 3f 39 d2 02 bf
       -0.1657887 0.15551035 0.97505784 -0.51102024
0002d0 ce 62 fb 3d d0 56 99 bd 1e 92 47 bc 15 f1 8b bc
       0.12274705 -0.07487261 -0.012180833 -0.01708273
0002e0 d3 ac 3c 3e 93 ef 9a 3e 53 ec 12 3e 72 55 7b be
       0.18425302 0.30260906 0.14347963 -0.24544314
0002f0 c1 02 d5 bd d5 7a 19 bd b8 16 22 bd dc fc 57 bd
       -0.10400916 -0.037470657 -0.039572448 -0.05273138
000300 9d e6 d7 3e ae a4 6f 3e 5b 85 63 3e 10 aa a3 3d
       0.4216813 0.23402664 0.2221884 0.07991421
000310 7c 6a 9c be 09 8a e3 bd ff c2 87 be e1 24 95 3e
       -0.3054999 -0.111103125 -0.26515958 0.291297
000320 f6 97 cc be e8 ef 3c 3c db b1 ca bd 13 55 cc 3d
       -0.39959687 0.0115318075 -0.098972045 0.09977164
000330 3b e5 d6 3d 3a 70 a6 be 6a e3 00 be 65 85 e3 be
       0.10492941 -0.32507497 -0.12586752 -0.4443771
000340 02 46 7f bb 3c 61 80 3e 8b 27 b6 3a 46 ea a0 3e
       -0.003895164 0.25074184 0.0013897283 0.31428736
000350 12 96 49 be f2 e2 d5 be e3 de 73 be cb be 2d 3f
       -0.19686154 -0.41774708 -0.23815493 0.6786925
000360 2f 69 25 3c 30 5f d3 bc 88 6d c0 3c 02 93 c3 ba
       0.0100958785 -0.025802225 0.023489729 -0.0014921131
000370 66 8d a5 bf ea 8c dc 3d cc 35 0c be 1d fd c9 3e
       -1.2933776 0.10769065 -0.13692397 0.39450923
000380 a9 f7 86 bd 9f dc b1 3e e5 61 9f 3c dd 49 bc 3e
       -0.06590206 0.34738633 0.01945586 0.36775103
000390 a3 96 43 be c7 80 1f bf 85 9e c7 be 93 05 2a 3f
       -0.19100432 -0.62305874 -0.38988128 0.66414756
0003a0 f4 17 41 3c c3 5e dc 3e da 8f ab 3d fe bb 93 3e
       0.011785496 0.43041047 0.08377047 0.28854364
0003b0 cc 84 01 bf dc ad c9 be f7 f3 36 bf 3a 40 00 bf
       -0.50593257 -0.39390457 -0.7146601 -0.50098
0003c0 84 9e 7b 3d 8c 84 ae bd 7b 80 6c 3d 39 66 84 bf
       0.06143047 -0.08521375 0.057739716 -1.0343696
0003d0 ab cd ed 3e 98 d4 21 bf 9d 70 a8 bf 02 73 2b be
       0.46445975 -0.6321502 -1.3159367 -0.16743091
0003e0 7c c7 b7 bb ad f6 ad 3e 58 c9 47 be 0d f2 e1 be
       -0.005608497 0.3397726 -0.195104 -0.44129983
0003f0 dd 65 ca 3d 31 64 02 bf 18 e9 0a be 53 7a 9d be
       0.0988271 -0.5093413 -0.1356548 -0.30757388

net.0.bias f4 [256]
000000 fb ae 99 3e 8f 04 a0 3d a8 71 6f be 08 fa dd 3e
       0.30016312 0.078133695 -0.233832 0.4335482
000010 60 0d 87 3e f0 74 62 3e d5 f7 7e be a3 7a 35 be
       0.26377392 0.2211492 -0.24899228 -0.17722563
000020 0f 59 17 be b9 b6 ab 3e 88 3f ae bd 7f 59 ca be
       -0.14780067 0.33537844 -0.085082114 -0.39521405
000030 a4 c9 0d 3d 81 56 5e 3e 2e f4 8a 3e 60 f1 7a be
       0.034616128 0.21712686 0.2713942 -0.2450614
000040 15 7c f5 3e e7 0e 89 3e 83 35 0e 3f 0a 46 4b 3e
       0.4794623 0.26769182 0.555504 0.19850937
000050 40 84 ab 3e 4b 2a 9e bd da ae d2 3c f1 76 cb 3e
       0.33499336 -0.077229105 0.025718141 0.39739183
000060 42 77 ed be dd 24 b2 3e 45 64 47 3e 62 8d 21 3d
       -0.4638005 0.3479375 0.19471844 0.039441474
000070 e6 0c 5c 3e 54 56 15 3e 17 97 83 3e b8 0f e3 3e
       0.21489295 0.14583713 0.2570121 0.4434793
000080 85 d4 05 bd 45 cd e0 3e 7c cf 85 bd 6c 7d 96 3d
       -0.032673378 0.43906608 -0.06533715 0.07348141
000090 a7 76 05 bd fa 91 fa 3e 98 91 80 bd 0a 02 50 be
       -0.03258386 0.48939496 -0.0627777 -0.20313278
0000a0 6f 90 81 3e 56 c8 6a be 6e df ad 3e 96 a8 59 be
       0.25305507 -0.22927985 0.33959526 -0.21255717
0000b0 5e aa b8 3e 5d 71 9b 3e dc 60 86 be f2 5d 36 be
       0.3606748 0.30359927 -0.26245773 -0.17809275
0000c0 06 4c be 3e 71 ab 04 3e c7 9d 42 be 11 92 99 be
       0.37167376 0.12956025 -0.190055 -0.29994252
0000d0 65 7c 06 3f 2c 50 18 3e de 71 63 3e d8 47 6d 3e
       0.5253356 0.14874333 0.22211406 0.23171937
0000e0 cc 61 21 bd ec fd bf 3e 74 26 0b be 9e 39 80 3e
       -0.039399907 0.37498415 -0.13588887 0.25043958
0000f0 4d d9 11 3e 10 1e 02 3d 5e 2c e1 3e 7d 71 da bd
       0.1424305 0.03176695 0.43979162 -0.106661774
000100 e2 47 de bd c3 f8 37 3e 4e 8f 02 3f ff 46 40 bd
       -0.10853554 0.17965989 0.50999916 -0.046942707
000110 ab 95 8a 3e 2b 2a e3 3e 53 4a 8e 3e b9 07 95 3e
       0.27067313 0.4436811 0.2779108 0.29107454
000120 42 c1 a4 3e ae 57 5e 3e 88 08 06 3f 43 9d 06 3f
       0.32178694 0.21713135 0.5235677 0.5258371
000130 db 0b 9c 3e 89 e6 25 be 4a a4 d8 3e cd 5c f0 be
       0.30477795 -0.16201223 0.42312843 -0.469458
000140 3b 4d a2 3e 3e 27 84 3e 6b 3a 77 3e 41 2c 3b bc
       0.31699547 0.2581119 0.24143378 -0.011424125
000150 b5 b8 84 be 05 7b 0d 3f 2f 44 98 3c b1 90 bd 3d
       -0.2592217 0.5526584 0.0185872 0.09256113
000160 c8 92 4e 3e 15 20 57 be 16 fe 81 3e f1 ab 77 be
       0.2017318 -0.21008332 0.25389165 -0.24186684
000170 4c 09 c0 3e e7 9a 96 be 63 84 ce 3e 0f 3f d0 3e
       0.37507093 -0.29415056 0.40335378 0.4067311
000180 4d 0c d0 3e be 36 14 3f f1 88 b3 3e 42 04 94 be
       0.40634385 0.5789603 0.35065416 -0.28909498
000190 88 79 9d 3e 4b c4 7a 3e c4 fe 50 be 4e 38 31 be
       0.30756783 0.24488942 -0.20409685 -0.17306635
0001a0 08 3d 6c 3d d8 3a b3 3d c0 21 12 3f 72 9b f0 3e
       0.05767539 0.08751458 0.5708275 0.46993595
0001b0 82 1a a8 3e 60 11 f1 3e 54 e6 07 be 71 b5 ff 3d
       0.32832724 0.4708357 -0.13271457 0.12485779
0001c0 eb 58 7c be c9 9c 3a bd 80 f9 ff 3e 8c c9 86 3e
       -0.24643295 -0.04555968 0.4999504 0.26325643
0001d0 dc 93 a6 3e c4 6b 02 be c8 b5 51 be 61 71 26 bd
       0.32534683 -0.12736422 -0.204795 -0.04063547
0001e0 d0 71 05 3f 1c 08 85 3e 91 04 22 3e 81 e7 b2 bd
       0.5212679 0.2598275 0.15822054 -0.08735562
0001f0 69 80 df bc b4 b6 79 be 42 5f b3 3e a8 e2 3e 3b
       -0.02728291 -0.24386102 0.35033613 0.0029126797
000200 a3 33 42 3e 73 33 b1 3e 15 23 62 be 88 45 a3 3d
       0.1896501 0.34609565 -0.22083695 0.079722464
000210 0c 56 16 3e d4 74 7b 3e 56 6f 91 be 60 8b 0b be
       0.14681262 0.24556285 -0.28405255 -0.13627386
000220 94 78 68 3e c6 fb 97 3e 0f 77 43 be 44 d9 e6 3e
       0.22702247 0.29684275 -0.19088386 0.45087636
000230 ff 48 10 be 4b 3a 08 bf 5c a2 e1 bd 5b bd a9 be
       -0.14090346 -0.5321395 -0.11017296 -0.3315228
000240 4a 63 9b 3c 77 16 8f bd bf 07 ea 3e 63 d4 df be
       0.018968243 -0.06986707 0.45709035 -0.43716726
000250 6e 01 da 3d b1 70 5d 3e 0c 97 84 3e aa 02 12 3f
       0.10644804 0.2162502 0.2589649 0.57035315
000260 43 e8 6e 3e a3 fb 03 be be cf 9f be 9b fe 0a be
       0.23330788 -0.1288896 -0.31213182 -0.13573687
000270 0f 65 46 bc 58 44 a7 3e 7c 0d a4 bc e5 d3 c0 3e
       -0.012109055 0.3266933 -0.020025961 0.37661663
000280 ea 96 a9 3e de 54 8d bc 2f b6 02 3e 66 0f 67 3e
       0.3312295 -0.017252382 0.1276481 0.22564468
000290 20 aa 56 be 23 e6 93 3e 17 28 9c be 5f 5d 8f 3e
       -0.20963335 0.28886518 -0.30499336 0.28000924
0002a0 b2 2a 1f be 7b 00 f8 be a1 30 8e bd a9 87 9d 3e
       -0.1554363 -0.48437867 -0.06942869 0.30767563
0002b0 d1 57 d4 3e 6c b3 87 3c dc 52 bc 3c e3 5c 8f 3e
       0.4147325 0.016565047 0.02298873 0.28000554
0002c0 fe be b5 b9 8a db 92 3d d0 63 09 be 90 f7 12 3f
       -0.0003466531 0.0717078 -0.13416982 0.57409
0002d0 ab 9d cf 3e dc 73 bf be 89 3a 05 3d 36 dd ef 3c
       0.4054998 -0.3739308 0.032526527 0.029280286
0002e0 2a 93 a3 3d 49 a6 72 be 3a ba 81 3e 75 a5 26 be
       0.07987054 -0.23696245 0.25337392 -0.16274054
0002f0 7c 17 18 3f c5 ac 16 3f 43 e2 67 be 1f 23 53 be
       0.59410834 0.58857375 -0.22644906 -0.20618866
000300 69 bf f3 bd 6f 0e b3 3c e7 7b 08 3e ba d6 81 be
       -0.11901743 0.021857468 0.13328515 -0.25359136
000310 40 58 48 3e 90 04 c9 be e3 2a a0 be 38 d3 a8 be
       0.19564915 -0.39261293 -0.3128272 -0.32973647
000320 31 10 f6 3e 1b 17 89 bc b5 06 5c be 5a f8 d6 3b
       0.48059228 -0.01673465 -0.21486934 0.0065603675
000330 3b 9c e0 bd 85 f2 9e be a1 36 74 3e bb b6 34 3e
       -0.109672986 -0.31044403 0.23848964 0.17647831
000340 7c 1b 77 3e d1 f7 93 bd 4f 1f 45 bc 86 af ba be
       0.24131578 -0.072250016 -0.01203139 -0.3646204
000350 21 e4 23 be 28 a2 2d 3e c6 54 02 3f 9b e5 d5 bd
       -0.16004993 0.16956389 0.50910604 -0.104441844
000360 5b da c9 3e bb 31 35 be c1 d9 1d be cf ca b9 be
       0.39424405 -0.17694752 -0.15415098 -0.36287543
000370 14 04 19 3f 17 8b 0f 3f 56 85 8b be d3 68 85 3e
       0.5977185 0.5607161 -0.27250165 0.26056537
000380 0c fe 05 3f 78 9b 72 3e 76 78 99 3e 59 61 57 be
       0.5234077 0.23692119 0.29974717 -0.21033229
000390 70 0d ee bd 7e 95 33 be 6c 06 84 3e 1e 3c 18 3e
       -0.11623657 -0.17537495 0.2578615 0.14866683
0003a0 64 68 e5 bc 7d f0 94 bc d8 74 48 be 3e c2 8c 3e
       -0.028003879 -0.01818108 -0.19575822 0.27491945
0003b0 2a 3a 36 3e 58 e9 a5 be d9 72 e6 3e b5 a9 4c be
       0.17795625 -0.3240459 0.45009497 -0.19986613
0003c0 f1 c3 11 3e a3 57 e8 3e 80 1e ca 3e 89 bf 0d 3e
       0.14234902 0.45379362 0.39476395 0.13842596
0003d0 a3 3b d7 bc 47 dd 5d be 52 76 02 3d 27 6d 82 3e
       -0.026273554 -0.21666442 0.03185112 0.25473902
0003e0 e3 c5 b8 3e 37 98 7a be a2 7a 98 be cb ff 8c be
       0.36088476 -0.24472128 -0.2978106 -0.27538905
0003f0 ba 72 6f 3d 99 f7 c1 3e db bd 2b bd ba e0 48 be
       0.05845902 0.37884215 -0.041929107 -0.19616976

net.2.weight f4 [256, 256]
000000 da be 89 bd f9 74 33 3e bd 98 1e 3f 6b 7c 45 bd
       -0.06725855 0.1752509 0.6195181 -0.048214357
000010 15 f6 1c 3d 20 a1 b5 be 5a e6 bf 3e aa dc fa bd
       0.03832062 -0.3547449 0.37480432 -0.122491196
000020 da c1 73 3e 40 f7 8b 3c ff 59 4e 3f 3f a8 a2 3e
       0.23804417 0.017085671 0.80606073 0.31768987
000030 eb 88 aa 3d 01 d9 0f 3e 18 15 53 3e 01 8f 23 3f
       0.08326896 0.14047624 0.20613515 0.6389008
000040 a8 6f 64 be 74 2d 1c 3e 33 23 02 bf d7 7d ee 3e
       -0.22308218 0.15251714 -0.5083496 0.46580383
000050 35 57 ff bb 41 d5 e4 3e aa a7 d9 3c 28 38 a9 bd
       -0.0077923783 0.4469395 0.026569206 -0.08262664
000060 9b 4f 20 3e bf 8c 77 be a1 a1 40 3e 1a dd 8c be
       0.15655367 -0.24174784 0.18811657 -0.27512437
000070 f8 47 fc 3d 16 cc 94 3e 17 35 32 3e 93 6f e8 bd
       0.123184144 0.29061955 0.17403065 -0.11349406
000080 11 ee 68 3e e5 8e 3e be e3 38 de 3e 2c 9d bf 3e
       0.22747065 -0.18609197 0.43402776 0.374246
000090 f2 cc 2f 3e 42 36 9a bd 9f a8 f8 3d 73 c8 b9 be
       0.17168024 -0.0752988 0.12141537 -0.36285743
0000a0 7b f9 23 3e 84 2a a9 3e 54 d0 62 be 34 42 c9 3e
       0.16013138 0.3304025 -0.22149783 0.3930832
0000b0 dd 6b 62 bd 9e 51 1c 3e 53 9b d8 3e 85 e1 f6 3d
       -0.055278648 0.1526551 0.42306003 0.12054733
0000c0 15 99 e6 bd fc 38 da 3c aa 37 fa 3e bf 1d 08 3f
       -0.11259667 0.0266385 0.48870593 0.5317039
0000d0 fb 8a 11 bd a8 cb 6f 3d dc d3 52 3d b5 e9 87 3e
       -0.035532933 0.05854383 0.051471576 0.26545492
0000e0 c7 07 01 3f a8 93 10 be 22 be 98 3e 07 0f f2 3d
       0.5040249 -0.14118826 0.2983256 0.118192725
0000f0 09 e2 3f 3e a9 6e bd bc ba f4 8b bd 02 1c 04 3d
       0.1873857 -0.023124056 -0.06833787 0.032253273
000100 9f 33 d1 3e 8d d1 5d be b5 02 c0 bd f3 43 42 bf
       0.40859696 -0.21661969 -0.09375516 -0.7588493
000110 03 fe d5 bd cb e3 09 be 42 42 a8 bd 9e b9 f1 3c
       -0.104488395 -0.13465802 -0.08215763 0.029507454
000120 a4 2a 0a be 27 45 78 3d ce e8 37 bd 23 58 02 be
       -0.13492829 0.060612824 -0.044899754 -0.12728934
000130 48 59 f2 bd 95 d8 4f 3f 6b 65 e2 bd f1 fd 16 3f
       -0.11833435 0.8118985 -0.110545 0.58981234
000140 92 be 60 3d 1c 26 ed bc 42 90 47 3e 67 a7 6e 3e
       0.054869242 -0.028948836 0.19488624 0.23306046
000150 f3 19 c5 be 30 28 cf be 91 59 03 3d 17 d8 8e 3e
       -0.3849636 -0.40460348 0.03206784 0.27899238
000160 ce d6 25 3e 52 dc 03 3f 8e ce 21 3e 78 2e e3 3e
       0.16195223 0.5150806 0.1580145 0.4437139
000170 28 87 6b bf b9 8a 5d 3f fc 95 ec bd 62 54 bd bd
       -0.9200311 0.865398 -0.11552045 -0.0924461
000180 ad 34 91 be 0c 9b 2c be ec 28 5d 3e d7 89 5f 3f
       -0.283605 -0.1685602 0.21597642 0.873197
000190 d3 f2 4d bd 90 58 f7 3d 9f 6c 33 3d 4a dc a2 3e
       -0.050280403 0.12077439 0.04380476 0.31808692
0001a0 6a 40 80 3e 06 00 e3 3e 5c 63 18 be b9 bb a5 be
       0.25049144 0.44335955 -0.14881653 -0.32369784
0001b0 f2 45 34 bc de 4e 30 be 73 06 2f bf a8 9f 3e 3d
       -0.011003004 -0.17217585 -0.68369216 0.04653898
0001c0 3e 37 8a 3e bb 53 51 3e 30 f8 11 be 99 e7 95 3e
       0.2699527 0.20442097 -0.14254832 0.29278257
0001d0 48 dc 89 be 13 13 86 3e 2c 6b ee bc 66 da 4d 3c
       -0.26925874 0.26186427 -0.029103838 0.012564277
0001e0 b6 55 c3 bd 18 d2 83 bd 25 5e 8c bd 01 72 c1 3e
       -0.095378324 -0.064365566 -0.06853894 0.3778229
0001f0 de a5 1a 3f cc 4b 26 3f bc 8b 87 3c de 2b bb 3e
       0.60409343 0.64959407 0.016546123 0.36556906
000200 21 28 0d be 84 c0 ca bd 09 07 bb bc 30 85 43 3e
       -0.13784839 -0.09900001 -0.022830503 0.19093776
000210 71 6d 6b 3e e3 68 17 3e de b8 4f 3f e4 b5 b6 3e
       0.22990967 0.14786105 0.8114146 0.35685647
000220 89 5c 23 3e a3 ec c5 bd 33 5a 7b be a5 c3 8f be
       0.15953268 -0.096642755 -0.24546127 -0.28078952
000230 02 b5 d2 3e d8 cb d1 3e 65 30 ef bd eb 7b 46 3f
       0.41153723 0.40975833 -0.116791524 0.77532834
000240 de 81 8b 3e fd ee f9 be 7a 0e 53 bd 1f fb b6 3e
       0.27247518 -0.48815146 -0.051527478 0.35738465
000250 07 4a d5 3d 15 59 b5 3e 81 0a a0 be 53 af 20 be
       0.1041451 0.35419527 -0.31258014 -0.15691881
000260 f6 76 90 bd f6 82 9b 3e b0 0c 61 3e da 96 4f 3e
       -0.0705394 0.30373353 0.21977496 0.20272389
000270 af 3c 36 3e 1a 6a 99 be f1 d0 05 3e 92 2b 88 3d
       0.17796586 -0.29963762 0.13067986 0.066489354
000280 4d 0e d4 bb 5f 9b 0d bf df 2d e9 3d 4f a2 a5 bd
       -0.0064714313 -0.553152 0.11385702 -0.080875985
000290 55 66 36 3f e5 27 12 be 2d 86 89 3e 3c 38 4d be
       0.71249896 -0.14273031 0.2686018 -0.20040983
0002a0 c2 7a 5c 3f d7 05 17 3f 2d e6 e5 bd 5e d3 e4 bd
       0.86124814 0.58993286 -0.11225543 -0.111731276
0002b0 3c ba 92 be e6 3d 04 3f 73 56 6d 3e 27 e8 d8 3d
       -0.2865771 0.5165695 0.23177509 0.105911545
0002c0 08 27 20 3f 5e e2 ad 3e 53 d9 c1 3e 94 3b 4f be
       0.62559557 0.33961767 0.37861118 -0.20237571
0002d0 9f c6 82 3c e3 5b 0d 3f c7 6b 13 bd 37 2b 09 3e
       0.01596385 0.55218333 -0.035991456 0.13395391
0002e0 dd 55 7f 3e 88 23 f0 3d 1a f7 37 be 96 94 52 bf
       0.24935098 0.11725527 -0.17965356 -0.82257974
0002f0 c6 ea 71 be 51 c6 79 be 08 4e dd be d1 56 a3 3e
       -0.23624715 -0.24392058 -0.43223596 0.31902173
000300 15 f3 65 3e 90 d7 b9 3e 74 22 93 3e 39 47 89 3e
       0.2245601 0.36297274 0.28737223 0.2681215
000310 e9 29 77 3d 3b f8 20 3f 75 40 65 3d 3b c0 56 3f
       0.060342703 0.6287877 0.055969674 0.8388707
000320 19 ee 3a be e5 6c e8 3d bd f1 3a 3e 2a fa a1 3c
       -0.1825489 0.11348895 0.18256278 0.019772608
000330 6a 5d 06 3e 35 63 93 3e 4a 16 65 3e e4 77 5f 3e
       0.13121572 0.28786626 0.22371784 0.21823078
000340 c3 ee d3 3d 95 9b f2 3e a9 c4 71 bf 17 43 5e 3e
       0.103482746 0.47384325 -0.94440705 0.2170528
000350 ae 08 13 3f 38 37 a8 bd 62 95 17 bd 01 f2 35 3d
       0.5743512 -0.08213657 -0.037007697 0.044420246
000360 89 c5 4a 3c 20 5a cf 3e c9 27 2b bf fe 5e 43 3e
       0.012376198 0.40498447 -0.6685758 0.19079205
000370 71 1c ac bc 59 24 0c bd ef 72 38 3f ed 90 25 3e
       -0.021009656 -0.03421435 0.72050375 0.16168566
000380 4b 2d fa bb 64 49 fb 3d d1 d3 58 bd 25 54 22 3e
       -0.007634794 0.122698575 -0.05293638 0.15852411
000390 31 d5 bb 3e 6a 58 5e 3f 48 8d b2 3c 4b bb c3 3e
       0.3668609 0.8685366 0.021795884 0.3822883
0003a0 72 7a a5 3d ce 25 43 3e be ea 16 3f 2c 17 10 3e
       0.08079995 0.1905739 0.5895194 0.1407134
0003b0 0d 5f 31 3e 2c 2b 5c 3f f6 df 99 be 5f fa 3b 3f
       0.17321415 0.86003375 -0.3005368 0.7342891
0003c0 e4 60 a3 3e b0 05 89 be 08 cd 93 bc 11 39 42 bb
       0.3190986 -0.26762152 -0.018042102 -0.0029636065
0003d0 0a e5 89 3e bb ca 12 3f 32 70 9c 3e 07 44 80 bf
       0.26932555 0.5734059 0.30554348 -1.002076
0003e0 45 d2 ff bc 7c 73 bd 3e 5b b5 4c 3f 0c 55 35 3f
       -0.031228194 0.3700217 0.79964226 0.70832896
0003f0 6e 84 80 3e 8d 55 b3 3d ab 38 ab 3e 22 4a ed 3e
       0.25101036 0.08756552 0.33441672 0.4634562

net.2.bias f4 [256]
000000 39 12 84 be 9e c1 b8 bb a8 80 04 bd f4 f7 e5 bd
       -0.25795153 -0.0056383153 -0.03234926 -0.11228934
000010 09 60 99 bc 2e 3e 83 3e a0 9b ce 3d 02 63 81 3e
       -0.018722551 0.25633377 0.10088277 0.2527085
000020 e7 35 0f 3d 96 aa 78 3c a4 27 2d bc e5 fb aa bd
       0.034963515 0.01517739 -0.010568533 -0.08348826
000030 35 7b e1 3d 6f d0 8d 3c ee 62 91 bb 20 20 8a 3d
       0.11009828 0.017311303 -0.004436842 0.067444086
000040 b3 b6 65 be 34 6d e6 bd f1 c1 cd bc eb 71 12 3e
       -0.22432975 -0.112512976 -0.025116893 0.14301269
000050 9b 5b d9 bc 03 15 3f 3d f6 f5 a3 bc a9 eb c6 bd
       -0.026532939 0.046650898 -0.020014744 -0.09712917
000060 34 71 95 bd a3 0d 7e 3c ad c7 fc 3d e8 d5 27 bd
       -0.072969824 0.015506181 0.12342773 -0.04097548
000070 ec 11 c6 bc 0f 21 54 bc 00 31 27 bd aa c8 3c be
       -0.024178468 -0.012947335 -0.040818214 -0.18435922
000080 37 46 23 bb bb ff 3f 3b 09 de 7d 3c 41 e3 3e bd
       -0.0024913677 0.0029296714 0.015494832 -0.046603445
000090 98 66 5a be fa 07 71 3e 64 52 53 3e 62 58 61 be
       -0.21328199 0.23538199 0.20636898 -0.22006372
0000a0 f3 be 1a 3e 42 cf 85 3d 45 4f 61 3d 24 9c 51 3e
       0.15111904 0.06533672 0.055007238 0.20469719
0000b0 1d 24 54 3e 80 7d 93 3d d6 38 82 3d db 41 64 be
       0.20716901 0.072016716 0.06358497 -0.22290747
0000c0 38 29 72 bd 47 5f b1 bd 79 ae cb bd 67 db 17 be
       -0.05912134 -0.08660751 -0.099453874 -0.14829789
0000d0 52 e3 ce 3a 9a 5a 3f 3d a8 c1 0e be 02 8a 27 be
       0.00157843 0.046717264 -0.13941061 -0.1636124
0000e0 86 4c 55 3d b9 6b c3 bc 4d a8 eb bd e4 ab 4f bd
       0.05207493 -0.023855077 -0.1150671 -0.050701037
0000f0 0a d0 27 3e 52 c7 f0 3c 03 ba ea bb 75 50 c9 3c
       0.16387954 0.029391918 -0.0071632876 0.024574498
000100 31 1d 97 bd a9 bb 69 3e 51 16 7b 3e 57 e7 34 be
       -0.07378615 0.22825493 0.24520232 -0.17666374
000110 1a 15 4b bd ea ea ef bd 02 8a 47 bc 22 38 90 3e
       -0.04958067 -0.11714728 -0.0121789 0.28167826
000120 f8 0c f1 bd 3d 39 c3 bd e6 db 56 3d 25 64 54 be
       -0.11770052 -0.09532402 0.052455805 -0.20741327
000130 aa bd 0d be e0 17 4b bb 00 f6 36 bd 14 88 8d 3d
       -0.13841882 -0.0030989572 -0.044668198 0.069107205
000140 27 3a cc 3c 12 71 83 3d 5f 59 e4 bc 93 5e 78 3e
       0.024930073 0.06418051 -0.027874647 0.24254827
000150 c5 39 52 bd 9c 66 67 3e ac 3b 12 3e 5e b9 c3 bc
       -0.051324625 0.22597736 0.14280576 -0.0238921
000160 cd 5a ce bd f5 6e 96 bd cf 93 75 3e e4 61 d8 3c
       -0.100759126 -0.07345382 0.23982166 0.026413865
000170 a9 b2 7d 3e 46 c6 c5 3d 61 32 0b bc cc 30 84 be
       0.24775185 0.09656958 -0.008495898 -0.2581848
000180 0e e0 e2 bd 89 f4 b7 bc ff 0d 47 3e 82 0a 67 bd
       -0.11077891 -0.02245547 0.19438933 -0.056406505
000190 8c 7c 1d 3c a8 5b 36 bd f7 f9 a8 bd 24 7c 90 3e
       0.009612214 -0.044521004 -0.08250802 0.28219712
0001a0 4d 56 84 3e 74 17 49 bd 33 c5 23 3e cf 8c 4a be
       0.25847092 -0.049094632 0.15993194 -0.19780277
0001b0 ae f0 9a bb 2d 0c ad bd 6b c2 3f be a3 b2 17 be
       -0.0047283983 -0.08449588 -0.18726508 -0.14814238
0001c0 95 02 c3 3b 81 0d 33 be 1d bb 69 be d2 fb 0c bd
       0.0059512355 -0.1748562 -0.22825284 -0.034419842
0001d0 5b 93 fe bc 6a dd af bd 53 cf bb bd 47 06 a0 bc
       -0.031076124 -0.08587153 -0.09170403 -0.019534243
0001e0 ff a1 96 3d fb 38 86 bd 62 cf e1 bd 9c 9d 89 3e
       0.07355117 -0.06553837 -0.11025883 0.2687806
0001f0 cb 06 76 3e 1e 1a 79 bd 51 e2 1b bd e8 05 74 3e
       0.24026029 -0.060815923 -0.03805763 0.23830378
000200 5d 14 8a 3a d4 ac 65 bc f5 0a 93 3d 8e f1 77 3d
       0.0010534633 -0.014018256 0.07179824 0.0605331
000210 eb 8e 49 be f7 d6 40 be 8e 6e 83 be 6b 5f 35 3e
       -0.19683425 -0.18832003 -0.25670284 0.1771218
000220 20 08 61 be 6a 4c 72 bd 50 3a 62 3e f0 d7 10 3e
       -0.21975756 -0.059154905 0.22092557 0.14144874
000230 fd 96 91 bd f3 65 f2 3c c4 ef 84 3e 6d 59 0b bd
       -0.07108877 0.029589629 0.25964177 -0.03402083
000240 77 c0 5f be 32 ce 40 bd 84 b3 2d bc 12 ed 4f bd
       -0.21850763 -0.047071643 -0.010601882 -0.050763197
000250 d4 fc ed bd f8 03 5c bd 15 d8 00 be f5 40 61 bd
       -0.11620489 -0.053714722 -0.12582429 -0.05499359
000260 41 7c 87 be 49 12 c1 3d 31 09 07 3e 66 3c 7e 3c
       -0.26461986 0.09427316 0.131871 0.01551733
000270 2e 0e 07 3d 35 58 5a 3e ec 5a 89 3e 20 f2 6d 3e
       0.032972507 0.21322711 0.2682718 0.23236895
000280 d6 b4 48 3e 3b 57 2e be cd fe 23 3c 79 c4 56 bb
       0.19600233 -0.17025463 0.01000948 -0.0032770915
000290 70 a2 a0 bc 78 65 3b bc ac 0b c7 bd 8e 11 df 3c
       -0.019608706 -0.011437766 -0.09719023 0.02723005
0002a0 ea e4 b5 3c 31 cf 58 3c 6b 8a 27 3e 45 48 15 be
       0.022203881 0.013232992 0.16361396 -0.1457835
0002b0 77 d2 f1 3d da d6 7c be 9b 04 15 be 72 7e e5 bc
       0.11807721 -0.24691334 -0.14552538 -0.028014395
0002c0 38 45 96 bd db 9a 60 bd 27 68 75 bc 4a 3d b4 bd
       -0.07337421 -0.05483518 -0.014978445 -0.088007525
0002d0 b7 1b 05 be aa a7 35 be 28 64 cc bd 4b e3 05 3e
       -0.12998854 -0.1773974 -0.09980041 0.13074987
0002e0 12 e9 20 3c da 4e 0e be c1 2b 19 be b2 a1 ef bd
       0.009821193 -0.13897267 -0.14958097 -0.11700763
0002f0 f7 16 52 bd 48 37 a7 bd d1 ef e9 bd 6b d2 f4 bc
       -0.051291432 -0.08164841 -0.114226945 -0.029885491
000300 a0 01 68 be 05 b3 77 be 56 b0 95 bc de e2 26 3c
       -0.2265687 -0.24189384 -0.01827256 0.010185925
000310 d3 24 3c be 03 2c 8a bd 92 f0 0e 3d 54 78 c2 3d
       -0.18373422 -0.06746676 0.034897394 0.09495607
000320 c3 87 f8 3c cd 38 3b bb 4c 5f 13 bd 46 34 60 bd
       0.030338174 -0.0028567791 -0.035979554 -0.05473735
000330 dd b7 79 3e 08 09 85 3e 25 91 c7 bd 3a 28 c7 3d
       0.24386545 0.25983453 -0.09744481 0.097244695
000340 5b 21 6e bd e4 68 05 be 56 80 8b bc 0e 4a d8 bc
       -0.05813728 -0.13028294 -0.017028969 -0.0264025
000350 d2 f1 5f bd f4 24 41 3e 2d 77 8a bd 48 2d a3 bc
       -0.054673977 0.18861753 -0.06761012 -0.019919053
000360 81 25 47 3e 07 c6 48 bd 83 74 f9 bd 75 18 86 bc
       0.194479 -0.04901698 -0.12180426 -0.016369084
000370 3a 87 5d bd 92 ee 8f be a5 89 29 bd a3 0d 71 3e
       -0.05408404 -0.28111702 -0.041391034 0.23540358
000380 fe 44 7f 3e ca 82 45 3e 4f 3d 95 bd 28 8f 28 be
       0.24928662 0.19288173 -0.07287084 -0.1646086
000390 c5 3a e4 3d 83 e2 a5 bd 93 82 da bd 93 9c 48 be
       0.11144022 -0.08099844 -0.10669436 -0.19590978
0003a0 03 cc e9 bc 16 5f 49 bd 3a 7c f3 bd ee a0 67 3c
       -0.028539663 -0.049162947 -0.11888929 0.01413749
0003b0 30 0d 59 bd a3 90 68 bd d6 21 88 3e b3 70 36 bd
       -0.052991092 -0.05677856 0.26588315 -0.044541072
0003c0 a8 2b 17 3d a7 20 2b bd 55 64 2d 3d 11 bb 8e bc
       0.03690687 -0.041779187 0.042332012 -0.017423185
0003d0 05 e0 86 bd a7 a8 a1 3e 98 52 8a bd 6a cd ed bc
       -0.06585697 0.31573984 -0.06754035 -0.029028613
0003e0 f4 8a 68 bb 78 82 ff bd 39 ef a3 3d 73 3f 6c be
       -0.0035483213 -0.12476057 0.080046125 -0.23071079
0003f0 9e 52 b1 bc 3a 95 da bd f3 35 43 3d 4b 04 13 3e
       -0.02164584 -0.10672994 0.04765887 0.14357106

net.4.weight f4 [4, 256]
000000 47 c9 26 bf 6a 02 b2 be 4c 90 27 bf 59 bf a6 be
       -0.65150875 -0.34767467 -0.65454555 -0.32567862
000010 6b c0 cc be 38 1e af 3e fd f6 64 3f e5 6d 6c 3e
       -0.39990553 0.34202743 0.89439374 0.23088796
000020 be ce 40 bd 2e c9 10 3d f5 57 c2 be ec 37 ef be
       -0.047072165 0.03534811 -0.3795773 -0.46722353
000030 0d 04 f4 3e 6f 41 d6 be b9 78 c2 be 4d 54 19 3f
       0.4765934 -0.41846797 -0.3798273 0.5989426
000040 c2 11 09 be e1 3f bc be 45 ab d7 be a1 29 1e 3f
       -0.1338568 -0.36767486 -0.42122856 0.6178227
000050 3e d3 bd 3c e3 25 89 3e a7 df e3 be 60 8e 41 bf
       0.023172017 0.26786718 -0.4450657 -0.7560787
000060 5d 23 08 bf c8 24 aa be f0 c1 1d 3f ab 88 bc be
       -0.5317896 -0.33231187 0.6162405 -0.3682302
000070 23 86 9a be bb 6b fe be fc 51 6c bd f3 e8 1a bf
       -0.30180463 -0.49691567 -0.057695374 -0.605117
000080 5c 4b c4 be e0 c7 14 3f c3 51 e3 be 56 c3 c8 3e
       -0.38338745 0.58117485 -0.44398317 0.3921153
000090 33 d4 21 bf e0 80 a8 3e 35 8e 59 3e ba 3a 74 bf
       -0.63214415 0.32910824 0.21245654 -0.9540211
0000a0 ce 71 20 3f 1d e7 93 3e 01 d4 3f 3f ed 7d 6e 3e
       0.6267365 0.28887263 0.7493287 0.23290224
0000b0 2e 19 fa 3e fb 42 2a 3f 01 18 39 3f 07 c3 37 bf
       0.48847336 0.66508454 0.7230225 -0.71781963
0000c0 ee 0a 07 bd dc 9e e8 be 16 4f 01 bf 7a c2 ec be
       -0.032969408 -0.454337 -0.505113 -0.46242124
0000d0 98 c2 00 3c 98 ce 89 3e 13 ed e4 be fa 9d 2f bf
       0.007858895 0.2691543 -0.44712123 -0.6860043
0000e0 7b a1 75 be 08 86 18 bf 62 2b e8 be 6c 36 6f 3d
       -0.23987381 -0.59579515 -0.45345598 0.05840151
0000f0 66 18 12 3e c2 ec 36 be 26 6e db be a7 c4 14 bf
       0.1426712 -0.17863753 -0.42857474 -0.5811257
000100 61 14 df be 2f db bd 3e bc 00 a5 3e 64 9c 6b bf
       -0.43570235 0.37081286 0.32227123 -0.9203551
000110 31 9f d4 be 29 c5 34 bf f3 24 4b 3c a1 f8 92 3e
       -0.41527703 -0.7061334 0.012398946 0.28705314
000120 e4 2b f7 be dd 8c d0 be 7d 40 bb bd e5 f0 1c bf
       -0.48275673 -0.4073247 -0.091431595 -0.61305076
000130 c5 c2 e1 be e2 3e f7 3c cc 2f bb be 0d d6 e5 3e
       -0.4409391 0.030181352 -0.36559904 0.4488987
000140 23 7c 98 be 4b e8 30 3f e7 a3 22 be 06 9b 1d 3f
       -0.2978221 0.6910445 -0.15882836 0.6156467
000150 ba 2d c2 be 7d 97 9a 3e 07 a1 83 3f 53 c3 bd be
       -0.37925512 0.301937 1.0283517 -0.37063083
000160 c7 7c cc be c1 09 c9 be e2 19 87 3e 3e 3d 24 3d
       -0.39938948 -0.39265254 0.26386935 0.040097468
000170 02 95 64 3e 05 e7 1d 3f e3 1b 00 bf da 5b 37 bf
       0.22322467 0.6168063 -0.5004255 -0.7162453
000180 e4 59 b2 be 36 73 c4 be a0 55 29 3f ec b5 e9 be
       -0.34834206 -0.3836915 0.6614628 -0.45646608
000190 27 c2 f5 be da 50 53 3d 1d 90 c1 be 75 09 a6 3e
       -0.4799969 0.051590778 -0.37805262 0.3242909
0001a0 b3 d4 89 3e 31 bd af be 79 5e cc 3e f5 61 d8 be
       0.2692009 -0.3432403 0.39915827 -0.42262235
0001b0 cf d3 04 bf fa e2 07 bf 85 e6 6b bf b5 4a 31 bf
       -0.51885694 -0.53080714 -0.9214862 -0.6925462
0001c0 14 93 99 3e 89 b2 42 bf 72 bb 31 bf 60 99 90 be
       0.29995024 -0.76053673 -0.69426644 -0.28242016
0001d0 a5 a0 56 3e e3 7b 87 be ab f2 46 bd 1a f5 c5 be
       0.20959719 -0.26461706 -0.04857127 -0.3866356
0001e0 d4 3c c1 bd 9c 71 bd be e3 2e d8 be c5 a2 63 3e
       -0.0943543 -0.3700074 -0.42223272 0.2223006
0001f0 62 a4 09 3f de e1 87 be 49 48 fe be 4b 06 b0 3e
       0.53766453 -0.2653951 -0.49664524 0.343798
000200 0f 43 e5 be ab be d7 be 8b 3f e2 3e f9 5e 6c 3f
       -0.44777724 -0.42137656 0.44189104 0.92332417
000210 92 e1 d9 be 0f af 46 bf b1 32 21 bf 7e d8 eb 3e
       -0.4255491 -0.7761087 -0.62967974 0.46063608
000220 85 5a 4e bf fb 18 de be c5 d0 ab 3e 4a a3 ac 3e
       -0.8060687 -0.43378434 0.33557716 0.3371833
000230 de 24 db be 03 a4 0d bf f3 4c 91 3e 58 7c ff 3e
       -0.42801565 -0.5532839 0.2837902 0.49899554
000240 ad be 66 bf d1 41 a0 be e6 fc a4 be 9a 09 c6 be
       -0.901347 -0.31300214 -0.32224196 -0.386792
000250 19 1d 60 3e 92 13 4e 3f 16 84 d7 be aa e4 f5 be
       0.218861 0.8049861 -0.4209296 -0.4802602
000260 52 b2 40 bf 9c d6 de 3e bb 9e a9 3e 81 d0 0e 3f
       -0.75272095 0.4352311 0.33128914 0.557869
000270 38 6f 38 3c b4 b9 d6 3e 16 f0 8f 3e df d7 93 3e
       0.011256985 0.41938555 0.2811286 0.28875634
000280 07 d9 07 3f 1b eb 47 bf 68 2d d3 be 64 5f b9 be
       0.5306553 -0.7809312 -0.4124558 -0.3620559
000290 b1 29 06 bf 4c 59 cd be 59 ab b5 be 2f 09 61 3f
       -0.52407366 -0.4010719 -0.3548229 0.8790464
0002a0 51 bc f3 3e 1d 3e 22 3f d7 f0 12 3f ad 07 03 bf
       0.47604612 0.6337603 0.5739874 -0.5118359
0002b0 68 12 ba bd 6c b5 48 bf da ac 3a bf 72 ed 5d 3f
       -0.09085542 -0.7840183 -0.7292 0.8669044
0002c0 8e a3 1a bf 29 23 cc be 37 2d e8 be 3c 48 32 3f
       -0.60405815 -0.39870575 -0.45346996 0.6964147
0002d0 40 a5 63 bf b7 0a 5a bf 72 ab e2 be 28 ae 92 3e
       -0.88924026 -0.851726 -0.44271427 0.28648496
0002e0 00 90 a7 3c f2 08 37 bf 66 fa 87 3d ee 79 12 3f
       0.020454407 -0.71498024 0.066395566 0.572173
0002f0 83 2e b4 be 93 0c 02 bf 55 74 e8 be 6a 6b fd be
       -0.35191736 -0.50800437 -0.45401254 -0.49496013
000300 55 59 37 bf 97 2d 5c bf da 52 f8 be ec f7 2a 3f
       -0.71620685 -0.86007065 -0.4850071 0.6678455
000310 b0 5c ce be 97 91 b1 be ba 59 7d 3c 4a 02 d8 3d
       -0.4030509 -0.3468139 0.015463287 0.105473116
000320 66 47 fc 3c 4b 0f 89 be 5a da f7 3e 30 1b 55 be
       0.030795764 -0.2676948 0.48408777 -0.20811152
000330 67 0c 17 3f fc a8 78 3e 52 61 f4 be 2f 5d 0e 3f
       0.590033 0.24283212 -0.477305 0.55610937
000340 ca e6 0b bd 82 51 e4 be 74 88 84 3c 9d 37 48 be
       -0.034155644 -0.44593436 0.016178347 -0.19552465
000350 4b 54 ea be 1d 55 ab 3e dc 1e e7 3b 00 09 d0 be
       -0.45767435 0.33463374 0.0070532393 -0.40631866
000360 0e f5 1f bd 74 93 ea bc 52 ec c5 be bb 3d 9e be
       -0.03905206 -0.028634764 -0.3865686 -0.30906472
000370 78 e1 f4 be 0e d9 31 bf 28 05 c0 3e bd 6a 5b 3e
       -0.4782827 -0.69471824 0.37503934 0.21427436
000380 c1 f2 7f 3e 1b e4 0a 3f eb 0a 03 bf 51 fa 04 bf
       0.24994947 0.5425431 -0.51188534 -0.5194445
000390 9f f5 05 3f 70 51 d1 be 69 ba c3 be 71 5a 42 bf
       0.52327913 -0.40882444 -0.38228157 -0.7591925
0003a0 cb 77 9e be ff 4a bf be d7 3b e5 be ce 49 4c bd
       -0.3095077 -0.37361905 -0.44772217 -0.049875073
0003b0 f2 fc 9c be d1 42 06 bf a7 be c5 3e ad 76 e2 be
       -0.30661732 -0.52445704 0.3862202 -0.44231167
0003c0 d7 b7 f6 3e 30 2c f7 be 39 16 65 3f 63 4e 09 bf
       0.48187134 -0.482759 0.89487034 -0.53635234
0003d0 e1 7b d2 be f1 c8 ad 3e bb 36 3b 3d 69 ab 00 bf
       -0.41110137 0.3394237 0.045706492 -0.5026155
0003e0 70 c0 2c bf 8e 0a c7 be 53 30 b1 3e dd d2 1a bf
       -0.67481136 -0.3887524 0.3460718 -0.60478
0003f0 a5 89 25 be 5f 76 a0 be 69 e5 a8 3b 15 3f 53 3f
       -0.16165788 -0.3134031 0.005154301 0.8251813

net.4.bias f4 [4]
000000 31 6f 1c 3d 20 7b ad 3d ae 75 df 3d 25 37 17 3d
       0.038191978 0.0847075 0.109111175 0.036917824
