drafts/draft_rk/runs_lunarlander/dqn_trial17_seed42.pth (torch, 279705 bytes, 6 tensors)

net.0.weight f4 [256, 8]
0	0x3eb103d5	0.34573236
1	0x3e9c4966	0.3052475
2	0xbd64bed5	-0.055846054
3	0x3f430be1	0.7619
4	0xbe4dbe56	-0.20092139
5	0x3d41b1d4	0.04728873
6	0xbdce363f	-0.1006894
7	0x3e1990b6	0.14996609
8	0x3f169569	0.5882173
9	0xbe908fbd	-0.28234664
10	0x3f2a6fee	0.6657704
11	0xbdb98cf9	-0.090600915
12	0x3e4962f8	0.1966666
13	0x3e7584ca	0.23976436
14	0x3e5a5434	0.21321183
15	0xbd5ec7ac	-0.05438964
16	0x3e958a93	0.29207286
17	0x3df3433f	0.118780605
18	0xbe5d5cab	-0.21617381
19	0x3e88e07f	0.26733777
20	0xbe5bfe5e	-0.21483752
21	0xbe1f1878	-0.15536678
22	0xbe8cd907	-0.2750933
23	0x3eb3e444	0.3513509
24	0xbe6997eb	-0.22811858
25	0xbe273fe5	-0.16332968
26	0xbe374ead	-0.17901106
27	0xbf2d5695	-0.6771024
28	0x3ef5064d	0.4785637
29	0xbf195e33	-0.5990936
30	0x3ed543ad	0.41653195
31	0xbef8b209	-0.4857333
32	0x3e714460	0.23561239
33	0x3d74e695	0.059790213
34	0xbdef0a9e	-0.11671947
35	0x3f15309a	0.58277285
36	0xbe879e6c	-0.26488054
37	0x3eabc2af	0.3354697
38	0x3e2d0f89	0.16900457
39	0xbdb0b3d0	-0.086280465
40	0x3c14d596	0.009084126
41	0xbd39d639	-0.045370314
42	0x3ec792e0	0.38979244
43	0x3f0a850e	0.54109275
44	0x3cdecc4e	0.02719703
45	0xbec6d296	-0.3883254
46	0x3ea3835a	0.3193615
47	0x3df171ff	0.11789321
48	0xbc41c702	-0.011827232
49	0xbe8d8344	-0.2763921
50	0xbec8921b	-0.3917397
51	0xbeb9b5ff	-0.36271665
52	0xbe13fb5a	-0.14451352
53	0x3f1c6810	0.61096287
54	0x3c301f52	0.010749655
55	0x3e8ae6be	0.27129167
56	0xbae9603e	-0.0017805172
57	0x3bfa0b0c	0.0076307114
58	0x3f69ccf7	0.91328377
59	0xbef2da11	-0.47431996
60	0x3c7b3576	0.01533257
61	0x3c1e508e	0.00966276
62	0x3e3b04a6	0.18263492
63	0xbe37a750	-0.17934918
64	0x3e17321a	0.14765206
65	0xbdabdfa9	-0.08392269
66	0x3efbf9b8	0.49213958
67	0xbe17822a	-0.14795747
68	0xbefaeacb	-0.49007258
69	0xbe6c6161	-0.23084022
70	0x3e9e2c9c	0.3089341
71	0x3e4ee0be	0.2020292
72	0x3e6f1574	0.23348027
73	0xbde20ee8	-0.110379994
74	0xbf09d88b	-0.53846043
75	0xbf0ae9b3	-0.54262847
76	0xbec68fb5	-0.38781515
77	0x3e6713f2	0.22566202
78	0x3e203d27	0.15648328
79	0x3e98b447	0.2982504
80	0xbcefe954	-0.029286064
81	0xbe7a2b58	-0.24430597
82	0x3e9dc974	0.3081776
83	0xbe8436d6	-0.25823087
84	0xbe0b1455	-0.13581975
85	0x3ccd6ca6	0.025076222
86	0x3e9ca910	0.30597734
87	0xbe53fe0e	-0.20702383
88	0xbd97063b	-0.07374235
89	0x3daac16b	0.08337673
90	0x3e1701cd	0.1474678
91	0x3dcacca7	0.099023156
92	0x3e8b458e	0.27201504
93	0x3f1cc1c8	0.61233187
94	0x3ddd01f2	0.10791387
95	0xbe83a1b2	-0.257093
96	0x3ef494c5	0.47769752
97	0x3db5a4b6	0.08869307
98	0xbdc1bcf5	-0.09459869
99	0xbf079573	-0.52962416
100	0xbe3cfd04	-0.18455893
101	0x3d8e4d94	0.069483906
102	0x3c196f9c	0.009364989
103	0xbd252764	-0.04032077
104	0xbe823750	-0.25432825
105	0xbdaa675d	-0.08320496
106	0xbf2948e6	-0.6612686
107	0xbec66058	-0.3874538
108	0xbe3c1a77	-0.1836947
109	0xbea8e45e	-0.3298673
110	0x3eb89e54	0.36058295
111	0xbca41952	-0.020031605
112	0xbd40fb1d	-0.04711448
113	0xbeaa54f8	-0.3326795
114	0xbeb8d444	-0.36099446
115	0xbed81190	-0.422009
116	0x3cf0206f	0.02931234
117	0xbeb9a42f	-0.36258075
118	0xbecd1d3c	-0.40061367
119	0xbe45e9a5	-0.1932741
120	0x3db4d2d0	0.08829272
121	0xbdc2d79b	-0.0951378
122	0x3e44d6ff	0.1922264
123	0xbe6a8041	-0.22900487
124	0xbea24dcf	-0.31699988
125	0xbeea5798	-0.45769954
126	0xbf036b36	-0.51335466
127	0x3d2f0014	0.042724684
128	0x3eb2dc78	0.3493383
129	0xbcf540a3	-0.029938048
130	0x3ee99058	0.45617938
131	0x3ea5b185	0.32362
132	0xbefb2b3c	-0.49056423
133	0x3e7459d3	0.2386239
134	0xbe78680f	-0.24258445
135	0xbdbf082a	-0.09327729
136	0xbef64fbf	-0.48107716
137	0xbeb544ab	-0.35403952
138	0xbe5f2949	-0.21793093
139	0xbe4b809c	-0.1987328
140	0x3e283e74	0.16430074
141	0xbebf144c	-0.37320173
142	0x3ea962b0	0.33083105
143	0xbe4ce666	-0.20009765
144	0xbe57b794	-0.21066123
145	0xbdc9183c	-0.098190755
146	0x3f2f5f63	0.68504924
147	0x3fafc81e	1.3732946
148	0x3f033aac	0.512614
149	0xbe077ccf	-0.13231204
150	0x3dde9af1	0.108693965
151	0xbdbc37f7	-0.09190362
152	0x3e9ded6d	0.30845204
153	0xbe1e498e	-0.15457746
154	0x3f34c5ab	0.7061412
155	0xbee76cb1	-0.45200112
156	0xbdf25eb5	-0.1183447
157	0x3e881ff5	0.2658688
158	0x3e4dd56e	0.20100948
159	0xbe51bc04	-0.20481879
160	0x3eda624b	0.42653117
161	0x3e165f81	0.1468487
162	0x3e015240	0.12629032
163	0xbf160e1a	-0.5861527
164	0x3ea15cfa	0.31516248
165	0xbe15e337	-0.14637457
166	0xbdb7c2d2	-0.08972706
167	0x3e9bb5f4	0.30412257
168	0xbdf4f7d2	-0.119613305
169	0xbe4c0de2	-0.19927171
170	0xbec814e5	-0.3907844
171	0xbe3ea139	-0.18616189
172	0x3dd4c45a	0.103890136
173	0x3e3f0deb	0.18657653
174	0xbe2b1a0b	-0.16709153
175	0xbe4aefeb	-0.19818084
176	0xbe8ed27c	-0.27894962
177	0x3e97cbf3	0.29647788
178	0x3eb5b392	0.35488564
179	0xbf09578f	-0.5364923
180	0x3e0f8a76	0.14017662
181	0x3db193fc	0.08670804
182	0xbd5b73a1	-0.05357707
183	0xbea7a758	-0.3274486
184	0x3e236c6f	0.15959333
185	0x3e816b02	0.25276953
186	0x3e79806f	0.243654
187	0xbea540fd	-0.32276145
188	0xbd1f5c02	-0.038906105
189	0xbd7591a9	-0.059953365
190	0x3ce75698	0.028239533
191	0xbe243afb	-0.16038124
192	0x3e6b74f2	0.2299383
193	0x3e96d12e	0.29456466
194	0xbe5baab3	-0.21451835
195	0x3da865ec	0.08222565
196	0xbe020440	-0.12696934
197	0xbe33beea	-0.17553297
198	0x3e2b8782	0.16750911
199	0xbda7c543	-0.081919216
200	0xbebf6a89	-0.37385967
201	0xbe0b92d2	-0.13630226
202	0x3e593cd8	0.21214616
203	0x3e3564c9	0.17714228
204	0xbd1b0b05	-0.037852306
205	0xbeae165f	-0.34001443
206	0xbf1ecf3f	-0.6203498
207	0xbd9fff49	-0.07812364
208	0x3c72c061	0.0148163745
209	0x3e0d25ee	0.13784
210	0x3e7a2386	0.24427614
211	0x3e355f17	0.17712055
212	0xbecd5430	-0.40103292
213	0xbeda5066	-0.42639464
214	0xbda15025	-0.078766145
215	0x3ebb9e56	0.36644238
216	0xbb1a6c7a	-0.0023563192
217	0x3b590fe6	0.0033121048
218	0x3c253d7b	0.010085459
219	0x3b38d041	0.00282003
220	0xbf957c8d	-1.1678635
221	0x3d6fb8d5	0.05852588
222	0xbe2d97ec	-0.16952485
223	0xbd2d4edc	-0.042311534
224	0xbe687148	-0.22699463
225	0x3e5ebc63	0.21751551
226	0x3e6a1df5	0.2286299
227	0x3e99ab3a	0.30013448
228	0xbe99c91c	-0.30036247
229	0xbee818a7	-0.45331308
230	0xbecb39d9	-0.39692572
231	0x3ebec202	0.3725739
232	0x3e134a93	0.14383917
233	0x3e948953	0.2901102
234	0x3e98438a	0.29739028
235	0x3e786792	0.24258259
236	0xbe54fd9f	-0.20799874
237	0xbeda1bd9	-0.4259937
238	0xbecfb559	-0.40568045
239	0xbda65302	-0.08121301
240	0x3dd10286	0.102055594
241	0xbe063693	-0.13106756
242	0xbd751efb	-0.059844
243	0xbf6828f8	-0.90687513
244	0x3e383be4	0.17991596
245	0xbed76b7f	-0.420742
246	0xbea4a6f1	-0.32158616
247	0x3e168704	0.14699942
248	0xbcfb6971	-0.030689927
249	0x3e94b64d	0.29045334
250	0xbe12969a	-0.14315262
251	0xbf059f8a	-0.5219656
252	0x3dcba3a4	0.09943321
253	0xbee43b74	-0.4457661
254	0xbcaeeec0	-0.02135408
255	0xbe985523	-0.29752454

net.0.bias f4 [256]
0	0x3e1967d1	0.14981009
1	0x3e1d4716	0.15359148
2	0x3d2e6e02	0.04258538
3	0x3e867d94	0.26267684
4	0x3e4c7dbf	0.19969843
5	0xbe5f3bc3	-0.21800141
6	0xbe0f59ab	-0.1399905
7	0xbb4d5eb8	-0.0031336974
8	0x3c8aa75c	0.016925506
9	0x3e8cb1cc	0.27479398
10	0xbe1a61bc	-0.15076345
11	0xbec89208	-0.39173913
12	0x3dcf1fe7	0.10113507
13	0xbb9baec8	-0.00475106
14	0x3df5455b	0.11976119
15	0xbe43da7f	-0.19126318
16	0x3e836384	0.25661862
17	0x3e0fbd51	0.14037062
18	0x3e6eb50f	0.23311256
19	0xbd5ba8ec	-0.053627893
20	0x3e3e1606	0.18563089
21	0x3deef6a3	0.11668136
22	0xbd7a24df	-0.06107032
23	0x3e89b070	0.26892424
24	0xbed66716	-0.41875523
25	0x3ea53378	0.3226583
26	0x3da9851a	0.0827734
27	0x3974f062	0.00023359203
28	0x3e21ce3d	0.1580133
29	0x3daec18d	0.08533011
30	0x3e8be02f	0.27319476
31	0x3ea073ad	0.31338254
32	0xbe41e3c5	-0.18934543
33	0x3ea332b3	0.31874618
34	0x3d36b01c	0.044601545
35	0xbd453164	-0.048142806
36	0xbd8ce517	-0.06879633
37	0x3ebc5bdc	0.36788833
38	0xbd4919e4	-0.049096957
39	0xbd9c798a	-0.07640369
40	0x3e808ff5	0.2510983
41	0xbe5c5930	-0.21518397
42	0x3e8a97ef	0.2706904
43	0xbd474bc7	-0.04865625
44	0x3ddee4d7	0.108834915
45	0x3eab3b76	0.33443803
46	0xbc8d4046	-0.017242562
47	0xbc6dc82d	-0.014513058
48	0x3e876ec2	0.2645169
49	0x3d9d8533	0.07691421
50	0x3c3118d9	0.010809147
51	0xbeb66be6	-0.35629195
52	0x3eb96a45	0.3621389
53	0x3c856a43	0.016286021
54	0x3c73c236	0.014877846
55	0xbc85eec5	-0.016349206
56	0x3b5f4737	0.0034069547
57	0x3e7234e4	0.23652989
58	0xbd8b5e91	-0.068051465
59	0x3e8f546e	0.27994102
60	0x3dade5bd	0.08491085
61	0xbd2a1f13	-0.04153354
62	0x3e920583	0.2851983
63	0x3cb02ec0	0.021506667
64	0x3a1e1a44	0.00060311356
65	0x3e12f183	0.14349942
66	0x3ec63f44	0.38720143
67	0x3da1465c	0.07874748
68	0x3e84caf8	0.25936103
69	0x3ea0d9cd	0.3141617
70	0x3e5003cb	0.20313947
71	0x3e8799cc	0.26484525
72	0x3e28f696	0.16500315
73	0x3da830ee	0.082124576
74	0x3ec16334	0.37770998
75	0x3ecb71da	0.397353
76	0x3e47e483	0.19520764
77	0x3e810184	0.2519647
78	0x3ebaf943	0.36518297
79	0xbec5367b	-0.38518128
80	0x3eb38e19	0.3506935
81	0x3e6e9846	0.23300275
82	0x3e792df9	0.24333943
83	0x3da25eab	0.07928213
84	0xbe41fbc4	-0.18943697
85	0x3eaed7b0	0.34148932
86	0xbdead7be	-0.11466931
87	0x3e46df20	0.19421053
88	0x3e97f1cb	0.2967666
89	0xbeb5dc19	-0.35519484
90	0x3e19dc18	0.15025365
91	0xbdc02d76	-0.09383671
92	0x3e7d9328	0.24763167
93	0xbe3af0b9	-0.18255891
94	0x3e8ad516	0.27115697
95	0x3e85031a	0.2597893
96	0x3e59597a	0.21225539
97	0x3ee0dc78	0.43918204
98	0x3de5dc52	0.112236634
99	0xbeacfde7	-0.33787462
100	0x3e691806	0.2276307
101	0x3d9e1919	0.07719631
102	0x3d8f6a31	0.07002676
103	0xbecb105d	-0.39660922
104	0x3dfc5bbd	0.12322185
105	0xbe0f908e	-0.14019987
106	0x3ed154c0	0.40884972
107	0x3e92b2e2	0.28652102
108	0x3ed30312	0.4121328
109	0x3eaec5bd	0.34135237
110	0x3b644152	0.0034828973
111	0xbdb80784	-0.089858085
112	0xbdadb658	-0.08482045
113	0xbd1c1d7f	-0.038114067
114	0x3ebb2945	0.36554924
115	0x3e647d33	0.22313385
116	0x3e40a949	0.18814577
117	0x3c5e78d6	0.013578614
118	0xbd16510d	-0.03669839
119	0xbc0efe18	-0.008727573
120	0x3e9f5a18	0.31123424
121	0x3e5b6f1d	0.21429105
122	0x3e0618cb	0.13095395
123	0xbdfb236d	-0.12262616
124	0xbe9892f8	-0.29799628
125	0xbe2ff83d	-0.17184539
126	0x3e41ca6e	0.18924877
127	0x3d0a625c	0.03378521
128	0x3e3131ee	0.17304203
129	0x3e87f583	0.26554498
130	0xbe1cb77c	-0.15304369
131	0x3e3fde77	0.18737207
132	0x3cca12ee	0.02466723
133	0x3d9bffb8	0.07617134
134	0xbd97c596	-0.074107334
135	0xbec9e6b7	-0.39433834
136	0x3e19a049	0.1500255
137	0x3dcc36d9	0.09971399
138	0xbde0725a	-0.10959311
139	0x3ec5b64a	0.38615638
140	0xbdc2125f	-0.0947616
141	0xbe9bcb45	-0.3042852
142	0xbdc522d8	-0.096257865
143	0xbce36a6a	-0.027760703
144	0x3dceaf68	0.1009205
145	0xbc2da069	-0.010597327
146	0x3e506887	0.20352374
147	0xbe76c6b6	-0.2409924
148	0x3cbcc60e	0.023043659
149	0xbdcaa264	-0.09894255
150	0x3ce25d60	0.027632415
151	0x3ec83db2	0.3910957
152	0x3e6fc0b8	0.2341336
153	0xbe0d0cac	-0.13774365
154	0xbe47235a	-0.1944708
155	0x3c859d16	0.016310256
156	0xbe049151	-0.12946059
157	0x3e75bd6a	0.23998037
158	0x3d219f0a	0.039458312
159	0x3e8ac542	0.2710362
160	0x3e2fcb15	0.17167313
161	0x3a4ce2cc	0.0007815778
162	0x3e30e0a8	0.172732
163	0x3e1ae7b1	0.15127446
164	0xbe0262ac	-0.12732953
165	0x3ea037ba	0.31292516
166	0xbd98aa4a	-0.07454355
167	0x3e16b38f	0.14716934
168	0xbea62d0e	-0.3245625
169	0xbcf7b8f5	-0.030239562
170	0xbdf8b929	-0.121446915
171	0x3e284d87	0.16435824
172	0x3e8f2a07	0.27961752
173	0x3e230cc6	0.15922841
174	0xba3b6ebc	-0.00071499846
175	0x3d9227e0	0.07136512
176	0xbdbf0c73	-0.093285464
177	0x3dd4c056	0.10388248
178	0xbcc312d6	-0.023812693
179	0x3ed3831a	0.4131096
180	0x3e61dd17	0.22056995
181	0xbe65301e	-0.22381637
182	0x3dbf93e2	0.09354378
183	0x3d8e5cfc	0.06951329
184	0x3d725741	0.059165243
185	0xbe25c21e	-0.16187331
186	0x3e2f2918	0.1710552
187	0xbd3f3085	-0.04667713
188	0x3ef54185	0.4790155
189	0x3ea86518	0.32889628
190	0xbde7758c	-0.11301717
191	0xbe379108	-0.17926419
192	0xbdaf093c	-0.08546683
193	0xbd4372a8	-0.047716767
194	0x3d93b14c	0.07211551
195	0xbd8a1385	-0.06742004
196	0x3e2a6cc5	0.16643055
197	0xbe8c8f1a	-0.27452928
198	0xbe9584a5	-0.29202762
199	0xbe87ba2b	-0.26509222
200	0x3e8d22c7	0.27565596
201	0x3d292708	0.04129699
202	0xbe875165	-0.26429287
203	0xbc2e383f	-0.010633527
204	0x3abcc07b	0.0014400625
205	0xbe91fad8	-0.2851169
206	0xbd6c8103	-0.057740223
207	0x3e16effe	0.14739987
208	0x3d666c24	0.056255475
209	0xbd93522f	-0.0719341
210	0x3a86dd5d	0.001028936
211	0xbe0bb07f	-0.13641547
212	0xbd0e2043	-0.034698736
213	0x3d5065e8	0.050878435
214	0x3ec0d32f	0.3766112
215	0xbcbd64b7	-0.023119314
216	0x3e7a544b	0.24446218
217	0xbeb5364a	-0.35392982
218	0x3d76db9b	0.060268026
219	0xbe55d76e	-0.20882961
220	0x3ec95357	0.39321396
221	0x3ecf4f37	0.40490124
222	0x3d744fb8	0.05964634
223	0x3e793261	0.24335624
224	0x3ec9557a	0.39323026
225	0x3e8c03b1	0.27346566
226	0x3e971054	0.29504645
227	0xbebd1a17	-0.36933967
228	0xbe530093	-0.20605688
229	0xbe130cd6	-0.14360365
230	0x3e36630b	0.1781122
231	0xbe95c1b7	-0.29249355
232	0xbd8fd5a9	-0.07023174
233	0xbe011957	-0.12607323
234	0xba1dec5e	-0.0006024296
235	0x3e12ece8	0.14348185
236	0x3e5b2709	0.2140161
237	0xbe91c974	-0.2847401
238	0x3eb165b8	0.34647918
239	0xbcd52356	-0.026017826
240	0xbd0b05a3	-0.033940922
241	0x3eb7247b	0.3577002
242	0x3ec5b4d7	0.38614532
243	0x3d17ee4d	0.037092496
244	0xbe9cf50d	-0.3065571
245	0xbe4a355e	-0.1974692
246	0x3d0203ca	0.031741895
247	0x3e12b575	0.14327033
248	0x3e6d323b	0.23163693
249	0xbe0be847	-0.13662826
250	0xbe731763	-0.2373939
251	0xbe4526db	-0.19253103
252	0x3cd26423	0.025682515
253	0x3dc15c65	0.09441451
254	0xbe453e36	-0.19262013
255	0xbe29e9a2	-0.1659303

net.2.weight f4 [256, 256]
0	0x3d729b26	0.059229992
1	0x3dee7eef	0.116453044
2	0xbdb03b6c	-0.08605084
3	0xbe02983c	-0.12753385
4	0x3e0d99d1	0.13828208
5	0x3db4fe63	0.08837583
6	0x3eaa06cb	0.33208308
7	0xbe69c329	-0.22828354
8	0x3e0acfa0	0.13555765
9	0xbceeeb3a	-0.0291649
10	0x3daf5317	0.0856077
11	0xbe9dc5b8	-0.3081491
12	0xbc90d7b1	-0.017680975
13	0xbe1962e6	-0.14979133
14	0xbdfc2de0	-0.123134375
15	0xbe34b466	-0.17646942
16	0x3e08cedd	0.13360162
17	0xbb6c0026	-0.003601083
18	0x3e5fca5f	0.21854542
19	0xbda84d29	-0.08217842
20	0xbcee4395	-0.02908496
21	0xbc892b7f	-0.016744373
22	0xbe1a97f4	-0.15097028
23	0x3cb3211f	0.02186638
24	0xbc53a2e9	-0.012917259
25	0x3dcd1d7b	0.100153886
26	0xbcba2fbe	-0.022727843
27	0x3ccb522f	0.024819462
28	0xbd7187f0	-0.05896753
29	0xbac0ed5f	-0.001471918
30	0xbd895aca	-0.0670677
31	0xbda9f024	-0.08297756
32	0x3e4b9360	0.19880438
33	0xbc78fbea	-0.01519678
34	0xba31cbb1	-0.00067823665
35	0x3d2a1483	0.041523468
36	0x3e433470	0.19062972
37	0xbd00105f	-0.031265613
38	0xbd33968a	-0.043844737
39	0xbe457de9	-0.19286312
40	0x3ded02fe	0.11572836
41	0xbd023268	-0.031786352
42	0xbd4dfc03	-0.050289165
43	0x3b2337f8	0.0024905186
44	0xbdce0cbb	-0.10061022
45	0x3cfc4b27	0.030797554
46	0xbd189c9d	-0.037258733
47	0xbe7faf3d	-0.24969192
48	0xbd7ba945	-0.061440725
49	0x3daa0b48	0.08302933
50	0xbe7f046c	-0.2490403
51	0xbe8f9a54	-0.2804743
52	0xbcd78aba	-0.026311267
53	0xbcf96685	-0.030444393
54	0xbc89d64b	-0.016825816
55	0xbeb792a8	-0.35854077
56	0x3e0a9ac7	0.13535605
57	0xbdae8cd9	-0.08522958
58	0xbd365dd8	-0.04452309
59	0x3bb37d72	0.0054776007
60	0x3cdf68b4	0.027271606
61	0x3d1f7700	0.038931847
62	0xbc89010e	-0.016724136
63	0xbd8effd9	-0.06982393
64	0xbd4b892f	-0.049691375
65	0x3d86fadd	0.06590817
66	0x3da03f4c	0.07824573
67	0x3da438a9	0.080186196
68	0x3c7e06e5	0.0155045735
69	0xbd7e7989	-0.062127624
70	0xbd880d2d	-0.06643138
71	0xbb96ef26	-0.0046061454
72	0xbe27a265	-0.16370542
73	0xbcee632d	-0.029100025
74	0xbd7fcb67	-0.06244984
75	0xbd99b9de	-0.075061545
76	0xbca160c5	-0.019699464
77	0x3dc23b1a	0.09483929
78	0xbd2df6ca	-0.042471685
79	0xbdcd390d	-0.10020647
80	0x3d8b2c61	0.06795574
81	0xbc0edc2d	-0.008719486
82	0x3e666d18	0.22502553
83	0xbd3a650e	-0.04550653
84	0xbebd0f97	-0.36925957
85	0xbc733879	-0.014845007
86	0xbaaca0f1	-0.0013170523
87	0x3cf12a3e	0.029439088
88	0x3cf09252	0.029366646
89	0x3d9d71ed	0.07687745
90	0x3d67e7b5	0.056617457
91	0x3e1e468b	0.15456598
92	0x3e7e4836	0.24832234
93	0x3e3f2b00	0.18668747
94	0xbcdc7bff	-0.026914595
95	0xbc55ada4	-0.013041887
96	0xbce9526f	-0.02848169
97	0xbd0442d4	-0.032290295
98	0x3dceb124	0.10092381
99	0xbca8b3fd	-0.020593638
100	0x3d01c271	0.031679574
101	0x3d7f0c12	0.06226737
102	0x3ca6b218	0.020348594
103	0x3e13a8e0	0.1441989
104	0xbde7fbf7	-0.11327355
105	0xbdbb08b4	-0.09132519
106	0xbccbca87	-0.024876846
107	0x3dd37d6f	0.10326659
108	0x3d9f1717	0.07768076
109	0xbd76ce60	-0.06025541
110	0xbdc7ba52	-0.09752335
111	0x3dbb695f	0.09150957
112	0xbe3509ad	-0.17679472
113	0xbec5f0a1	-0.38660148
114	0xbc348335	-0.01101761
115	0xbc64b945	-0.013960187
116	0x3cd83576	0.02639268
117	0xbcd7ac6f	-0.02632734
118	0x3d44a321	0.048007134
119	0xba342154	-0.00068714214
120	0x3cc01478	0.02344726
121	0x3e2485f3	0.16066723
122	0x3dab931e	0.0837767
123	0x3dbc86db	0.09205409
124	0x3e8ce750	0.27520227
125	0xbe5bfb48	-0.21482575
126	0xbc7916e9	-0.015203216
127	0xbddc23d0	-0.10749018
128	0xbd3bea5e	-0.045877807
129	0x3e2a81f6	0.16651139
130	0x3ccae51c	0.024767451
131	0x3e08041d	0.13282819
132	0x3c971877	0.018444283
133	0x3d314793	0.04328115
134	0xbecd023f	-0.40040776
135	0xbd86e3ac	-0.06586394
136	0x3e1689a3	0.14700942
137	0x3d84c40b	0.06482705
138	0x3e146877	0.14492975
139	0xbc0df9cb	-0.008665512
140	0x3c6cc292	0.014450686
141	0x3d61b9af	0.055108722
142	0xbd23694d	-0.039895345
143	0x3db0515e	0.086092696
144	0xbc4c1cd0	-0.012458041
145	0x3d8447ba	0.06458993
146	0x3d27e8a8	0.040993363
147	0x3e0baf7f	0.13641165
148	0x3d8ca544	0.068674594
149	0xbe26f632	-0.16304854
150	0x3e8e5fac	0.27807367
151	0xbd346393	-0.044040274
152	0x3e1b74b2	0.15181234
153	0x3df4a04f	0.11944639
154	0x3d83479f	0.06410145
155	0xbe8cbfaf	-0.27489993
156	0x3b9be4ca	0.0047574984
157	0xbd2f50e1	-0.04280174
158	0x3c225062	0.00990686
159	0x3e12f64f	0.14351772
160	0x3dbb4613	0.09144225
161	0xbeb8b110	-0.36072588
162	0x3d9f3f11	0.07775701
163	0xbd6940b3	-0.056946468
164	0x3e37e331	0.1795776
165	0xbd170a3b	-0.03687499
166	0xbe14e9f8	-0.14542377
167	0xbd3f2149	-0.046662603
168	0x3e301ef2	0.17199305
169	0x3e4cb709	0.19991697
170	0xbe187d7e	-0.14891621
171	0xbc9f67ed	-0.019458735
172	0x3df7803c	0.12085006
173	0xbcc7055a	-0.024294544
174	0xbe2bbf83	-0.16772275
175	0xbe55be9e	-0.20873496
176	0x3cd7fb2c	0.026364885
177	0x3d32bd94	0.043637827
178	0x3dd3f7e1	0.103500135
179	0xbd194aaa	-0.03742472
180	0xbd940cf6	-0.072290346
181	0xbe8e3a83	-0.27779016
182	0x3ce0f8ae	0.02746233
183	0xbd50bb48	-0.050959855
184	0xbd23ec9f	-0.04002058
185	0xbe007e7f	-0.12548254
186	0xbda1e23a	-0.079044774
187	0xbf2b7f85	-0.66991454
188	0x3d63eaa5	0.055643696
189	0x3d10e842	0.03537775
190	0xbeda5a32	-0.4264694
191	0x3d42a624	0.047521725
192	0x3de5c4de	0.1121919
193	0x3d90ae3c	0.070644826
194	0x3d463656	0.048391663
195	0xbe5b7d77	-0.2143458
196	0x3da9a7ee	0.08283983
197	0x3e28c519	0.16481437
198	0xbe707b76	-0.23484597
199	0xbd97a64e	-0.07404767
200	0xbdc675bf	-0.09690427
201	0xbd681bf1	-0.056667272
202	0x3d55f8c6	0.052239202
203	0xbda8d4e0	-0.08243728
204	0xbdffe1b5	-0.12494222
205	0x3e2f4fc0	0.17120266
206	0xbe6244b3	-0.22096519
207	0x3e317b37	0.17332159
208	0xbbeb2436	-0.0071759475
209	0xba8d94cb	-0.001080179
210	0xbe97ee61	-0.29674056
211	0xbdba7812	-0.09104933
212	0x3e2aba2b	0.1667258
213	0xbcea3f48	-0.028594628
214	0x3d738e49	0.059461866
215	0xbe01be00	-0.12670135
216	0x3e58d5b7	0.21175276
217	0xbdc55996	-0.09636228
218	0x3d80df95	0.06292645
219	0xbe90320d	-0.28163186
220	0xbd187a79	-0.037226174
221	0x3db47885	0.0881205
222	0xbde06e52	-0.10958542
223	0x3d0822ac	0.03323619
224	0x3d2f1217	0.04274186
225	0x3d6b4701	0.05744076
226	0x3cebe175	0.02879403
227	0xbc05ded3	-0.008170801
228	0x3d757448	0.059925348
229	0x3e619007	0.22027598
230	0x3dbbc04e	0.091675386
231	0xbd8c394c	-0.06846866
232	0xbd91274c	-0.070875734
233	0x3c03e3e4	0.008049939
234	0xbe89c8ac	-0.26910913
235	0x3e0b3c6c	0.13597268
236	0x3e2e58a6	0.17026004
237	0xbe3ab69d	-0.18233724
238	0xbd87f457	-0.06638401
239	0x3d31dbfe	0.04342269
240	0xbe089b44	-0.13340479
241	0xbd2d1608	-0.04225734
242	0x3dc15d1e	0.09441589
243	0xbe673d32	-0.22581938
244	0xba13141a	-0.00056106003
245	0xbc87dd29	-0.01658495
246	0xbd41ae09	-0.047285113
247	0x3e7ae6f3	0.24502163
248	0xbe2570c5	-0.161563
249	0x3cf99acf	0.030469326
250	0xbc05e3e2	-0.008172007
251	0xbd9a118f	-0.0752288
252	0x3decb45f	0.115578406
253	0xbda3cea3	-0.07998397
254	0xbe09764b	-0.13424031
255	0x3d875665	0.06608275

net.2.bias f4 [256]
0	0x3b291be0	0.0025803968
1	0x3d1bc88e	0.03803306
2	0x3dafaa7e	0.08577441
3	0xbd89bb79	-0.06725211
4	0x3c75dd14	0.015006322
5	0x3e05cd43	0.13066582
6	0x3cb86529	0.022509174
7	0x3dec34c5	0.115335025
8	0x3d1988d0	0.03748399
9	0x3d25a3a8	0.040439278
10	0x3d1da5e4	0.038488284
11	0xbcb529b4	-0.022114612
12	0xbd465582	-0.04842139
13	0x3d8917c2	0.066939846
14	0x3baf594e	0.005351222
15	0xbd49a235	-0.04922696
16	0xbe664aa5	-0.22489412
17	0xbd85b3f6	-0.065284654
18	0x3d5339ed	0.051568914
19	0x3c06fb3b	0.008238609
20	0xbd79f43c	-0.061023936
21	0x3cb456a7	0.022013975
22	0x3b867c38	0.0041041635
23	0x3c969895	0.018383304
24	0xbcc1a86f	-0.023639886
25	0x3dd25222	0.10269572
26	0xbda22b63	-0.079184316
27	0xbb280064	-0.0025634998
28	0x3cc198a3	0.023632353
29	0x3cf2958f	0.02961233
30	0xbcf1ed9d	-0.029532248
31	0x3bd9ec8d	0.0066505135
32	0x3daa74f4	0.08323088
33	0xbc86ce77	-0.016455872
34	0x3dc333ec	0.09531388
35	0xbc6a6f55	-0.01430877
36	0xbca6377b	-0.020290127
37	0x3db70918	0.08937281
38	0x3d86c196	0.06579892
39	0x3c9795da	0.018504072
40	0x3c1d9ff5	0.009620656
41	0x3d0f30f5	0.0349588
42	0x3ca9fa6a	0.02074929
43	0x3bd9ba50	0.0066445246
44	0x3d411641	0.047140364
45	0x3cc53fcc	0.024078272
46	0x3ce49c9f	0.027906714
47	0x3cc89d5d	0.0244891
48	0x3d4765c2	0.04868103
49	0xbcea4b2d	-0.0286003
50	0x3d01bd5d	0.03167473
51	0xbd3824ed	-0.04495709
52	0x3ccc00fd	0.024902815
53	0x3d365eb5	0.044523913
54	0xbd156f40	-0.03648305
55	0x3d59e752	0.05319912
56	0x3dea4b89	0.114401884
57	0x3daae275	0.083439745
58	0xbd540600	-0.051763535
59	0xbd3e71e4	-0.046495333
60	0x3d2f28c8	0.0427635
61	0xbe177eba	-0.14794436
62	0x3d59d8a1	0.05318511
63	0x3da827e0	0.082107306
64	0xbcbac0ae	-0.022796955
65	0x3df66c89	0.1203242
66	0x3de78a8d	0.11305723
67	0x3c997bb3	0.018735742
68	0xb98f3286	-0.00027312728
69	0x3d3ad201	0.04561043
70	0x3db898c4	0.09013513
71	0x3e261c93	0.16221838
72	0x3cc2d5b3	0.02378354
73	0xbcdc0812	-0.026859317
74	0x3d931174	0.07181063
75	0xbd31e1dc	-0.043428287
76	0xbd81705d	-0.0632026
77	0xbc02755c	-0.007962551
78	0x3b75e1fe	0.0037518735
79	0xbc800fca	-0.015632529
80	0x3c905a59	0.017621206
81	0x3c724509	0.014786967
82	0x37df7ff7	2.664326e-05
83	0x3d9470d8	0.07248086
84	0x3e035caa	0.12828317
85	0x3da12f8f	0.07870399
86	0x3c803a9c	0.015652947
87	0x3c81efb6	0.015861373
88	0xbd361bc4	-0.044460073
89	0xbca239b1	-0.0198029
90	0x3dbe9143	0.0930505
91	0xbc230197	-0.0099491095
92	0x3de3d414	0.11124435
93	0x3df2cd80	0.11855602
94	0x3d2a0a82	0.041513927
95	0x3cffc42b	0.03122147
96	0xbd3577df	-0.04430377
97	0x3d4e8e7e	0.05042886
98	0x3d13f653	0.036123585
99	0xbc5ab54a	-0.013348887
100	0x3db30df8	0.08742899
101	0xbd365ba8	-0.044521004
102	0xbc082b4f	-0.008311107
103	0x3e0fb830	0.14035106
104	0x3d9046e4	0.07044771
105	0x3cb5caf6	0.022191506
106	0x3e300af1	0.17191674
107	0x3d38513b	0.044999342
108	0x3d8c8de0	0.06862998
109	0xbcdcd074	-0.026954867
110	0x3b5250f8	0.0032091718
111	0x3d3546b3	0.044256877
112	0x3d025bdc	0.031825885
113	0x3d6ba2b9	0.05752823
114	0x3d72ab36	0.05924531
115	0x3d197828	0.037468106
116	0xbd02353c	-0.03178905
117	0xbafd97fd	-0.0019347664
118	0x3b8e1f5a	0.0043372335
119	0x3c7d0613	0.015443343
120	0x3ceec07f	0.029144524
121	0xbc8c9ef9	-0.017165648
122	0xbc8c8e12	-0.017157588
123	0x3dfecd0d	0.12441454
124	0x3d41f697	0.047354307
125	0x3cb4e145	0.022080073
126	0x3d30e7fb	0.043189984
127	0x3dc1c325	0.09461049
128	0x3d5a2981	0.053262237
129	0x3d8030ef	0.06259333
130	0x3df25b06	0.118337676
131	0xbccc7d6a	-0.024962146
132	0xbd421505	-0.047383327
133	0x3d8d6d8d	0.06905661
134	0xbd0aa3a7	-0.033847477
135	0x3e2f1b15	0.17100175
136	0x3bd033cd	0.0063538314
137	0xbc2ae6e0	-0.010431021
138	0x3d9a0f99	0.07522506
139	0xbd28d1d8	-0.041215748
140	0x3bd7cf0d	0.0065859617
141	0x3da1ab25	0.07893971
142	0x3de18b7c	0.11012933
143	0xbb6db2f0	-0.0036269985
144	0x3c952773	0.018207287
145	0x3d1344f8	0.035954446
146	0x3d0fe72a	0.035132565
147	0x3c8db814	0.01729969
148	0x3c4cc161	0.012497277
149	0xbd7a9a7f	-0.061182495
150	0x3d40b1b7	0.047044482
151	0xbca0892f	-0.019596664
152	0xbccb51fc	-0.024819367
153	0x3d0ff53a	0.035145976
154	0x3d306020	0.043060422
155	0x3d9279d9	0.07152147
156	0xbd46ccee	-0.04853528
157	0x3ccb2333	0.024797058
158	0x3e024b44	0.12724024
159	0x3da2b35d	0.07944367
160	0x3da402a6	0.08008318
161	0x3cfc9edc	0.030837469
162	0xbcb5f6c3	-0.022212392
163	0x3ce20eca	0.027594943
164	0x3cea73e3	0.028619712
165	0x3d2b4e32	0.04182262
166	0xbb61b58b	-0.0034440483
167	0xbcced02e	-0.025245752
168	0xbc92da43	-0.01792634
169	0xbc92761a	-0.01787858
170	0xbcca6412	-0.02470592
171	0x3cf1e5c9	0.029528515
172	0x3d958e24	0.07302502
173	0x3ce79c82	0.02827287
174	0x3d85b892	0.065293446
175	0xbc700cf6	-0.014651528
176	0x3cd391f8	0.02582644
177	0x3d179db9	0.03701565
178	0x3ca93412	0.020654712
179	0x3c883912	0.016628776
180	0x3d48d598	0.049031824
181	0x3c77ac3f	0.01511675
182	0xbd7dcff3	-0.061965894
183	0xbcfe9536	-0.031077009
184	0xbc2e2074	-0.010627855
185	0x3d3fd858	0.04683718
186	0xbcd5f4c2	-0.026117686
187	0xbda93102	-0.082613006
188	0xbbcdc5a3	-0.0062796636
189	0x3d2eb73b	0.04265521
190	0x3b5f4818	0.003407007
191	0x3b4ac105	0.0030937803
192	0xbd3a7ae0	-0.04552734
193	0xbd14d57d	-0.03633641
194	0x3d818ea3	0.06326034
195	0x3e0a082e	0.13479683
196	0xbd7b3bf0	-0.061336458
197	0xbbb97d7c	-0.005660711
198	0x3da3e79a	0.08003159
199	0xbd063d65	-0.032773394
200	0x3d602af2	0.054728456
201	0x3d014da6	0.031568192
202	0xbda5f1b9	-0.081027456
203	0xbb922bdb	-0.0044607944
204	0x3df11b3c	0.11772773
205	0x3df032a1	0.11728407
206	0xbd132078	-0.035919636
207	0x3df6d2ad	0.12051902
208	0xbcd1a413	-0.025590932
209	0x3d1bf5d4	0.038076237
210	0xbcab60ac	-0.02092012
211	0x3d562bff	0.05228805
212	0x3d5e2390	0.054233134
213	0x3d591503	0.052998554
214	0xbd6c30ef	-0.057663854
215	0x3c16a4c9	0.009194561
216	0x3dbef31e	0.09323715
217	0xbd48dd4b	-0.049039166
218	0xbd7bf222	-0.061510213
219	0x3cdd8117	0.027039094
220	0x3d002b3d	0.031291235
221	0xbd533a65	-0.05156936
222	0xbd2d6257	-0.042330112
223	0x3d206c03	0.039165508
224	0x3dd8d9a6	0.10588388
225	0x3bc2f4a6	0.0059495745
226	0xbc3960fe	-0.011314629
227	0xbd6b10eb	-0.05738918
228	0x3df56c4b	0.11983546
229	0xbce4cad0	-0.02792874
230	0xbd4f2f18	-0.05058202
231	0x3d350557	0.044194546
232	0x3b062ebd	0.0020474636
233	0x3d0a4be4	0.03376378
234	0xbd36652b	-0.044530075
235	0x3d25e536	0.040501796
236	0x3b8d1664	0.0043056477
237	0x3bd2ccc8	0.0064331032
238	0x3e101ab3	0.14072685
239	0x3dc7427a	0.09729476
240	0xbcd05da7	-0.025435282
241	0x3cbaa111	0.02278188
242	0x3d469b9f	0.048488256
243	0x3d78ef84	0.060775295
244	0x3bd36144	0.006450804
245	0x3d9deeee	0.07711588
246	0x3ca38f06	0.01996566
247	0x3c4d25cd	0.012521219
248	0x3d548069	0.051880274
249	0xbd2eb3fa	-0.042652108
250	0xbd616a3b	-0.05503295
251	0xbab2163d	-0.001358695
252	0x3d09c6e8	0.033636957
253	0xbd81b2f1	-0.063329585
254	0x3e297006	0.1654664
255	0x3dee3eb2	0.11633052

net.4.weight f4 [4, 256]
0	0x3e2b7758	0.16744745
1	0xbe7bcdda	-0.24590245
2	0xbecd7049	-0.4012473
3	0xbe97b0fa	-0.2962721
4	0xbea6473f	-0.3247623
5	0x3e7dbba4	0.2477861
6	0x3ea8c2d4	0.32961142
7	0x3e0d4202	0.13794711
8	0xbd40cebe	-0.047072165
9	0x3eda8893	0.42682323
10	0xbecc35ff	-0.39884946
11	0xbeba1ec7	-0.36351606
12	0x3f2515cc	0.64486384
13	0xbe9c1386	-0.30483645
14	0xbebfb84b	-0.37445292
15	0x3e1b169b	0.15145342
16	0xbeb0b49a	-0.34512788
17	0xbeb2f9ec	-0.349563
18	0xbe50c465	-0.20387419
19	0x3e736eb2	0.23772696
20	0x3f147afc	0.5800016
21	0x3f155575	0.5833352
22	0xbe9f2650	-0.31083918
23	0xbedc55d1	-0.43034223
24	0xbf23be90	-0.6396265
25	0xbe4ec4fb	-0.2019233
26	0x3f15bf16	0.584947
27	0xbea7fee3	-0.3281165
28	0xbe77c912	-0.24197796
29	0xbed690b3	-0.41907272
30	0x3d8d60d6	0.069032356
31	0xbe96e173	-0.2946888
32	0xbe4b3191	-0.19843127
33	0x3f2b01cb	0.6679961
34	0xbea4ce3f	-0.32188603
35	0x3e431ba9	0.1905352
36	0xbe00c743	-0.12576012
37	0x3e7885cd	0.24269791
38	0x3ea3635b	0.3191174
39	0xbe61ead1	-0.22062232
40	0x3e90d5ee	0.28288215
41	0x3e6c42d4	0.23072368
42	0x3ef30b6f	0.4746966
43	0x3e787c8a	0.24266258
44	0x3ee14a0b	0.44001803
45	0x3edcbd8d	0.43113366
46	0x3eef340f	0.46719405
47	0xbe1c10cc	-0.15240782
48	0x3e4908da	0.19632283
49	0xbed3ef19	-0.41393355
50	0x3f4a3caa	0.78998816
51	0xbe1db155	-0.15399678
52	0x3f070dce	0.5275544
53	0x3f74e0b0	0.95655346
54	0xbe446a35	-0.1918114
55	0xbdea425d	-0.11438439
56	0xbeb58521	-0.35453132
57	0xbecaa07b	-0.39575562
58	0xbeca1c73	-0.3947483
59	0x3d6d46f5	0.057928998
60	0x3e678af3	0.22611599
61	0xbec7fb32	-0.39058834
62	0xbe8f180a	-0.27948028
63	0xbecfe83c	-0.40606868
64	0xbe911348	-0.28335023
65	0x3e653413	0.22383146
66	0x3e949e2d	0.2902693
67	0xbed22817	-0.4104621
68	0xbeb6fe77	-0.35741016
69	0x3dbe8bb5	0.09303991
70	0x3e877a78	0.26460624
71	0x3ea64d9f	0.32481095
72	0xbe9da55f	-0.3079023
73	0xbe506cfd	-0.20354076
74	0xbe900e72	-0.2813602
75	0xbe1849bd	-0.14871879
76	0xbe8c55f0	-0.27409315
77	0x3ec3af3e	0.38219637
78	0xbe850fa3	-0.25988492
79	0x3ebea40d	0.37234536
80	0x3ef774e8	0.4833138
81	0x3d5ca6f9	0.053870175
82	0x3dcc1e72	0.099667445
83	0x3e9d063e	0.30668825
84	0xbe5fc5de	-0.21852824
85	0x3e6a8ca7	0.22905217
86	0x3e7e4cb2	0.24833944
87	0xbedf61a3	-0.43629178
88	0xbebbcc5b	-0.36679348
89	0xbec49638	-0.38395858
90	0x3e38c3a3	0.1804338
91	0x3d8c283e	0.06843613
92	0x3e0e79f1	0.13913704
93	0x3e8a131b	0.269677
94	0xbf145682	-0.579445
95	0xbe2d7b5f	-0.16941594
96	0xbea443a3	-0.32082853
97	0xbe60c53a	-0.21950236
98	0x3e86be7a	0.26317197
99	0xbeaa8b2e	-0.3330931
100	0xbe8bc5bc	-0.27299297
101	0x3d5350da	0.051590778
102	0xbe5d1c58	-0.21592844
103	0x3e36fe44	0.17870432
104	0x3e8e7dfc	0.27830493
105	0xbe85ef14	-0.26158965
106	0x3e91cd95	0.2847716
107	0xbd9c487b	-0.07631012
108	0xbed78be4	-0.42098916
109	0xbe5675d6	-0.20943388
110	0xbed9be0c	-0.42527807
111	0x3eb84a53	0.35994205
112	0x3f73f679	0.9529796
113	0xbde44b0d	-0.11147127
114	0xbea7de16	-0.32786626
115	0xbe75cb29	-0.2400328
116	0x3f20b9f3	0.62783736
117	0x3ee7165d	0.4513425
118	0xbe9992d5	-0.29994836
119	0xbea50c71	-0.32236055
120	0xbed6bbbf	-0.41940114
121	0xbebf7424	-0.37393296
122	0x3ed530c4	0.41638768
123	0x3e00fdd0	0.12596822
124	0x3f194297	0.59867233
125	0xbec454c9	-0.38345936
126	0xbea38ed7	-0.31944916
127	0x3e911976	0.28339738
128	0xbe915b8f	-0.28390166
129	0xbe8ea2a8	-0.27858472
130	0x3e2463e9	0.16053738
131	0x3f38e751	0.7222796
132	0x3f347648	0.7049298
133	0xbecf4e8d	-0.40489617
134	0xbe3ac785	-0.18240173
135	0x3e8fa72d	0.28057232
136	0xbeaba056	-0.33520764
137	0xbeb5d76c	-0.35515916
138	0x3e847e4c	0.25877607
139	0x3eecc437	0.4624345
140	0x3f0a921c	0.54129195
141	0xbeb4b07d	-0.352909
142	0x3e3822e2	0.17982057
143	0x3ecadbdb	0.3962086
144	0xbe41a9ca	-0.18912426
145	0xbe8a0a89	-0.26961163
146	0xbe9ef20d	-0.31044045
147	0xbeb35297	-0.3502395
148	0x3efcdd50	0.49387598
149	0x3f04deec	0.5190265
150	0xbe1bf101	-0.15228654
151	0xbe7ecbf6	-0.24882492
152	0xbe6e8ef7	-0.23296724
153	0x3e80ac5e	0.25131506
154	0x3e53e3f6	0.20692429
155	0x3e89992b	0.2687467
156	0xbf562d12	-0.8366252
157	0x3f2c911a	0.6740891
158	0x3e2d0278	0.16895473
159	0x3e502ea8	0.20330298
160	0x3dcdf20b	0.10055932
161	0xbea5a471	-0.3235202
162	0x3eb70bca	0.35751182
163	0xbec800b8	-0.39063048
164	0xbea70435	-0.32620397
165	0xbed1fd69	-0.4101365
166	0x3f653fb6	0.8955034
167	0x3ecf76bd	0.40520278
168	0x3f15a441	0.58453757
169	0x3ed4dfea	0.41577083
170	0x3ef93d86	0.4867975
171	0x3f05525a	0.52078784
172	0xbe6d3419	-0.23164405
173	0xbe730d65	-0.23735578
174	0xbdb35e0c	-0.087581724
175	0x3f09609d	0.53663045
176	0xbeedb229	-0.46424988
177	0x3d21cc02	0.039501198
178	0xbeae8696	-0.34087056
179	0x3e3cc943	0.1843615
180	0x3ea8dc02	0.32980353
181	0xbe6f9c61	-0.23399498
182	0xbef85252	-0.48500305
183	0x3f40c714	0.7530377
184	0x3f0494ca	0.51789534
185	0xbd788283	-0.06067134
186	0x3d91a354	0.071112305
187	0x3eb53bea	0.35397273
188	0xbeb428fb	-0.35187516
189	0xbe96fe27	-0.29490778
190	0xbe8a7623	-0.27043256
191	0xbed84125	-0.422372
192	0xbe9b20de	-0.30298513
193	0xbeb5f7fc	-0.3554076
194	0xbec498c1	-0.38397792
195	0x3e22748b	0.1586477
196	0x3ee8ce3b	0.4546984
197	0xbea45d37	-0.32102367
198	0x3f09408b	0.5361411
199	0x3e4efd25	0.20213754
200	0x3e6f00ca	0.23340145
201	0xbed81180	-0.4220085
202	0xbea258b1	-0.3170829
203	0x3ef18155	0.47168985
204	0x3df910d2	0.12161411
205	0x3e1b279c	0.15151829
206	0xbece8f8e	-0.403439
207	0x3e8789bc	0.2647227
208	0xbe103d09	-0.14085783
209	0xbe6e01c7	-0.23242866
210	0xbcc26b08	-0.023732677
211	0xbe37780f	-0.17916892
212	0x3f490424	0.78521943
213	0x3ed4dba9	0.41573837
214	0x3f02f5a8	0.5115609
215	0xbee298db	-0.44257244
216	0xbea34df8	-0.31895423
217	0xbcea9374	-0.028634764
218	0xbea41141	-0.32044414
219	0xbe8279d5	-0.25483575
220	0xbebc880d	-0.36822549
221	0xbde0cfd8	-0.10977143
222	0x3ed4b0f6	0.4154126
223	0x3f0adfcc	0.54247737
224	0x3e3b7417	0.18306004
225	0x3e403e6d	0.18773814
226	0xbefddb3d	-0.49581328
227	0xbe9aac2f	-0.3020949
228	0x3e5164f1	0.20448662
229	0xbe95d292	-0.29262215
230	0xbeb7cbe5	-0.35897747
231	0xbe6263a5	-0.22108324
232	0xbe99170d	-0.299004
233	0xbe9ea296	-0.30983418
234	0xbecf99c3	-0.40546998
235	0xbe902af7	-0.2815778
236	0xbea817da	-0.32830697
237	0xbedaafd1	-0.42712262
238	0x3e9f2b8d	0.31087914
239	0xbe9adbe3	-0.30245885
240	0x3e75f54a	0.24019352
241	0xbebbf460	-0.3670988
242	0x3f266c31	0.65008837
243	0xbedf3524	-0.4359523
244	0xbe9baec6	-0.3040678
245	0x3f1ff814	0.6248791
246	0x3eded851	0.4352441
247	0xbe2a9252	-0.1665738
248	0xbef5dd63	-0.48020467
249	0xbe0b7726	-0.1361967
250	0x3ec2bff2	0.38037068
251	0x3dfa8dc9	0.122340746
252	0xbe03e055	-0.12878545
253	0xbef73d1d	-0.48288813
254	0xbe77f035	-0.24212725
255	0x3dfb03b3	0.12256565

net.4.bias f4 [4]
0	0xbc3f07db	-0.011659588
1	0xbb06cc13	-0.0020568415
2	0x3d1c4288	0.038149387
3	0x3c8b5f3d	0.017013187
