drafts/draft_rk/runs_lunarlander/dqn_double_solved.pth (torch, 279693 bytes, 6 tensors)

net.0.weight f4 [256, 8]
000000 36 25 12 3e 89 5c 96 3e a5 6d 7c be 5c 20 2e 3f
       0.14272007 0.29367474 -0.24651201 0.68018126
000010 40 a6 8a be 7b af 58 3e 7d a1 91 bd 48 6a 5f bb
       -0.27079964 0.2116069 -0.071108796 -0.0034090448
000020 3a 61 26 3f d5 17 84 be f9 0e 49 3f 01 52 6f 3e
       0.64992106 -0.25799432 0.7853847 0.23371126
000030 aa c8 13 3f 1c 23 64 3e d4 c8 72 3d 91 63 34 3e
       0.57728064 0.22279018 0.059273556 0.17616107
000040 68 9c c1 3e bd 98 26 3d ba b0 0a bd d7 d1 bb bc
       0.3781464 0.040673006 -0.033859946 -0.022927208
000050 86 c9 2e bf 83 28 de bd 17 08 da be 9d c4 a1 3e
       -0.6827625 -0.10847571 -0.42584297 0.31595317
000060 78 ba d0 be 26 86 4c be ab 53 f7 bb e4 4f 1b bf
       -0.40767264 -0.19973049 -0.007547816 -0.6066878
000070 e8 70 e6 3e df 0d e7 be 37 71 c5 3e e1 57 1a bf
       0.45008016 -0.4512777 0.3856294 -0.6029034
000080 97 98 c8 3e 8d d4 ba bd 2f 4a 37 3e 75 29 25 3f
       0.39178917 -0.09122572 0.17899393 0.64516383
000090 d2 67 f8 3c a8 c0 b2 3e 4a e2 a6 3e 2b 7f 4a 3d
       0.030322943 0.3491261 0.3259452 0.049437683
0000a0 fd c6 ae bd d1 0f df be ea 70 b1 bd f4 d5 d5 3f
       -0.08534048 -0.43566754 -0.08664115 1.6705918
0000b0 a4 65 02 bf 17 35 b6 be ca ae 11 3f ee 81 b8 bd
       -0.5093634 -0.3558738 0.5690733 -0.09009157
0000c0 4f 50 b5 3e a5 4f 21 bd 6d 62 b5 be dc 94 c4 be
       0.35412833 -0.039382596 -0.35426655 -0.3839482
0000d0 9e 2b 22 bf 1e 1b 6a 3e 80 3d 1f 3e e3 37 86 3e
       -0.63347805 0.22861907 0.15550804 0.26214513
0000e0 13 79 38 3c bf c1 ba bc 23 90 64 3f 5d de 9f be
       0.011259335 -0.022797463 0.89282435 -0.31224337
0000f0 71 96 a7 bd 2c 4b 13 bf d9 aa ce 3b b1 8a 74 bb
       -0.08182991 -0.5753658 0.0063069877 -0.0037314112
000100 78 d7 27 3d 35 4b 1e bd e9 5f 0c 3f f7 4e d1 be
       0.04097697 -0.03864594 0.5483385 -0.40880558
000110 b8 24 f6 be 11 34 65 be 4d e7 a9 3e 35 70 22 3e
       -0.4807489 -0.22383143 0.3318428 0.15863116
000120 b9 97 28 3f 34 29 60 be 04 42 02 bf 0f 78 2b bf
       0.6585651 -0.21890718 -0.5088198 -0.6698007
000130 4e b2 eb be 06 07 78 3e 5f 20 bb bc 7f 06 56 3e
       -0.46034473 0.24221429 -0.022842584 0.20900916
000140 90 d9 d1 be 21 62 5e bf fb a5 85 3e a6 cf 94 be
       -0.409863 -0.8686848 0.26103196 -0.29064673
000150 de 2b 18 3f 59 01 e9 be fc 9c 5d 3e a5 87 15 bf
       0.59441936 -0.4550884 0.21641916 -0.584101
000160 ee 51 fc bd f0 44 ff 3d 77 ca 8a 3e df 67 3c bd
       -0.12320314 0.12464321 0.27107593 -0.045997497
000170 63 46 6f 3f 07 67 40 3f 53 7c 15 bf a0 8e 73 bf
       0.93466777 0.7515721 -0.5839283 -0.95139503
000180 cb 23 80 3e fc 5b 74 bb bc 03 84 be 1b bb 12 bf
       0.25027308 -0.0037286272 -0.257841 -0.5731675
000190 5d 99 85 be 3b 69 1a 3e 6f 1b f4 be 91 35 4c bf
       -0.2609357 0.15079205 -0.4767718 -0.79769236
0001a0 86 74 a0 bb 42 f4 34 be 26 dc a1 be 77 59 e4 be
       -0.004896703 -0.17671302 -0.31613272 -0.44599506
0001b0 fb f0 91 be 00 f6 e5 be e9 ad 15 3f 4d 2f 52 3d
       -0.28504166 -0.44914246 0.5846849 0.05131464
0001c0 94 0e d9 3d 0d 61 4c bf 05 e3 23 be 36 71 29 bf
       0.10598484 -0.7983559 -0.1600457 -0.6618837
0001d0 6b 6d 5d 3e 01 5f 09 bf 44 61 dc bd df 9a 68 bd
       0.21623771 -0.5366059 -0.107607394 -0.05678832
0001e0 cc 11 97 bd 4a c8 b5 3d 9c 5f 9a be 80 6e 89 be
       -0.07376441 0.08876093 -0.3015107 -0.26842117
0001f0 5f 6d 0f be 5a 1d f2 be e9 45 39 bf 60 5e 13 be
       -0.14006566 -0.47288018 -0.723723 -0.1439147
000200 0f 20 22 3e 1a f1 96 bd bf cb a6 3e cb ad 78 3e
       0.15832542 -0.07370205 0.3257732 0.24285047
000210 dc f0 ad bf a5 29 5f bd 5f 94 bd be c7 e2 f6 bd
       -1.358913 -0.054483075 -0.3702726 -0.12054973
000220 14 c3 c1 be c3 25 2b bf 4b a0 6b 3e 8c 14 c6 be
       -0.37844145 -0.66854495 0.23010366 -0.3868755
000230 28 78 38 3e af aa 7f be 85 6c 1b 3f b0 14 b5 be
       0.18014586 -0.24967454 0.6071246 -0.35367346
000240 e1 2d 69 bd 72 58 f5 3c a1 8f 1e 3f 8f 04 0c 3f
       -0.05692852 0.0299494 0.6193791 0.54694456
000250 15 f4 90 3e 5a 46 25 bf c1 12 af 3e 07 03 88 be
       0.2831122 -0.6456047 0.34193996 -0.2656481
000260 27 97 f6 3d cc 7a a0 be dc 3b c4 3e c0 e4 34 bf
       0.12040549 -0.31343687 0.3832692 -0.70661545
000270 95 ce 90 3c 0f 47 ca 3e 7d 0e 0e 3e da 2c e1 be
       0.017676631 0.39507338 0.13872714 -0.43979532
000280 24 82 0f 3f 65 e0 da 3d 0f 1b b8 3d d4 eb cb be
       0.56057954 0.10687331 0.08989536 -0.3982836
000290 67 22 da 3e 85 3c 86 be c8 b7 c9 be f4 bc ac 3e
       0.42604372 -0.26218048 -0.39398026 0.3373791
0002a0 ee 1e 1a 3e 35 4d be be 92 44 79 3e 54 c3 5e be
       0.15050861 -0.3716828 0.24342564 -0.217542
0002b0 7b 5f 2b 3f 9c ca 6a 3e b5 21 03 be e5 e6 1e bf
       0.66942567 0.22928852 -0.12805827 -0.6207107
0002c0 3a db bf be 1b d1 76 3e f2 9b ab 3e 9c d0 0e bf
       -0.37471944 0.24103205 0.33517414 -0.5578706
0002d0 58 17 22 3e 73 ef 13 3e e4 a4 0b bf e0 cb 0d bf
       0.15829217 0.14446811 -0.5454848 -0.55389214
0002e0 b5 5a d2 bd 9c 0b 1e 3d 0e 41 d2 3e 1e 0f fb bd
       -0.10271207 0.03858529 0.41065258 -0.12258743
0002f0 dc 48 d0 be 96 a7 20 be c4 6e ea bd 8b 51 42 3c
       -0.40680587 -0.15688929 -0.11446908 0.011860262
000300 34 0b 8b 3d 74 ef 9e 3e bc 9a fb bc 33 8e 18 bd
       0.06789246 0.31042063 -0.030713432 -0.037244987
000310 27 ea 13 3d 64 4f e6 be 4c 65 f6 3d d3 4b ca 3e
       0.036111977 -0.44982445 0.120310396 0.39510974
000320 03 d4 79 be fb b1 8c bd 28 5f 10 3e c4 f4 95 3e
       -0.24397282 -0.068698846 0.14098799 0.29288304
000330 a1 41 e5 bd b1 f2 07 bf d9 e8 32 be 1b d9 91 bf
       -0.11194158 -0.5310469 -0.17471637 -1.139438
000340 6d f0 5d bb 91 dc 0f 3e 16 60 28 3e 13 70 0d 3e
       -0.0033865229 0.14048983 0.16442904 0.13812284
000350 74 79 bd be 3c d4 07 bf d5 2e 83 be 59 cc 1f 3f
       -0.37006724 -0.5305822 -0.25621668 0.62421185
000360 5a 01 13 be b0 4e 25 3d 01 a0 2a 3e 9b d4 71 be
       -0.14355984 0.040358245 0.16662599 -0.23616259
000370 81 0d 69 bf 64 20 96 3e 2f 94 69 bf 1f 19 d0 be
       -0.9103623 0.29321587 -0.91241735 -0.40644166
000380 50 69 74 be cb be 59 3e dc 7e ee 3e 48 e1 22 3e
       -0.23868299 0.21264188 0.4658116 0.1590625
000390 85 03 c6 be eb a5 e5 be d0 13 2d bf 19 9d e9 3e
       -0.3867456 -0.44853148 -0.67608356 0.45627668
0003a0 98 4c c7 bc 29 97 94 3e e3 88 8a 3e 7b 32 c7 3e
       -0.024328515 0.29021576 0.2705756 0.389057
0003b0 77 cd f8 3e 75 0c 2a bf a4 ae 5d bf 11 e0 65 bf
       0.48594257 -0.6642526 -0.86594605 -0.89795023
0003c0 79 d9 a9 3e 49 7d 2e bd ee d4 ef bd a8 3e c8 be
       0.3317373 -0.04259995 -0.11710535 -0.39110303
0003d0 70 aa 84 3e 0d 07 57 be 91 fc a4 be bd 52 a2 3e
       0.25911283 -0.20998783 -0.32223943 0.3170375
0003e0 fd 4f a0 3b 1c ea 6d 3e 38 61 09 bd 4f 7c c2 be
       0.004892348 0.23233837 -0.03353998 -0.37985465
0003f0 1d 3e c8 bb 37 cb e7 be 4d f9 20 bf fc 81 83 be
       -0.00611092 -0.45272228 -0.628804 -0.25685108

net.0.bias f4 [256]
000000 a3 53 f1 3d 79 06 47 3e b6 5b fc bc e5 5c de 3d
       0.117835306 0.19436063 -0.03080545 0.10857562
000010 ba f5 50 bd 0d b8 b2 be b1 8f ee bd 61 1b 19 bb
       -0.051015593 -0.34906045 -0.11648501 -0.0023362266
000020 36 04 b1 bc fe f0 75 3e fb 80 d9 bd df bc 20 be
       -0.021608453 0.24017712 -0.10620304 -0.15697049
000030 7a 41 a7 3d 2f 9a 09 3e a5 46 86 3e ca 35 a7 3c
       0.081667855 0.13437723 0.26225773 0.02041139
000040 50 e4 53 3e c8 61 93 3e 78 ec 76 3e 09 c8 88 be
       0.20692563 0.2878554 0.24113643 -0.26715115
000050 9d 96 cd 3d 2d 69 92 3d ff 13 d1 bd 14 f4 c8 3d
       0.10038493 0.07148967 -0.10208892 0.09812179
000060 fa ac e7 be a8 77 a5 3e a7 dd 83 3d 64 08 c7 3d
       -0.45249158 0.32317853 0.06438761 0.09718397
000070 87 c9 fe 3d 0d 91 e5 bc 87 9e 78 3e 31 e1 7f 3e
       0.12440782 -0.028023267 0.24279223 0.24988247
000080 14 4c 19 bf 49 74 06 3e 53 8d 7b be b0 64 6c bd
       -0.5988171 0.13130297 -0.2456563 -0.05771321
000090 79 73 af bc c0 e9 90 3e 6e 0e ab be 2c 3b f8 bd
       -0.021417366 0.28303337 -0.33409446 -0.12120661
0000a0 73 bc 86 3e 86 b8 38 be 80 81 d8 bb 42 02 bb bd
       0.2631565 -0.1803914 -0.0066072345 -0.0913129
0000b0 c4 0b 6a 3e 92 84 a2 3e 4c 64 c4 bd 13 ed 1d be
       0.2285605 0.31741768 -0.095894426 -0.15422468
0000c0 2b 5c 53 3e 4b c9 fc 3b 8f 5b 19 3c 37 32 52 be
       0.20640628 0.0077144257 0.009360208 -0.20526968
0000d0 87 b5 90 3e 29 86 5d 3d f5 6e 8e 3d 08 4c a6 be
       0.28263494 0.054083023 0.06954757 -0.32479882
0000e0 f0 b0 44 3d ca 34 04 3e 4a fe 26 bc 44 6f 9c 3e
       0.048020303 0.12910762 -0.010192463 0.3055364
0000f0 fc b8 9d bd 57 ca 91 bb 72 d5 70 3d 23 13 df bc
       -0.077012986 -0.0044491696 0.058797307 -0.027230805
000100 d6 64 b6 bc da b9 1c 3d 1b 00 a4 3e 5c 08 aa 3a
       -0.02226488 0.03826318 0.3203133 0.0012972462
000110 c6 43 5f 3e 4c 6b 28 3e d1 9d c0 3d be 3a 23 3e
       0.21803197 0.1644718 0.09405101 0.15940377
000120 8c ab 08 3e 51 da 98 3d dd 34 3b 3e 72 6e 92 3e
       0.1334669 0.074635155 0.18281884 0.28599888
000130 0a ab d2 3d 68 f9 d5 bc 3a 97 cc 3e b5 14 6b be
       0.10286529 -0.026119903 0.39959127 -0.22957118
000140 10 f9 6b 3e cc b5 49 3e 73 99 70 3e 73 ed 5b bc
       0.23044229 0.19698256 0.23496036 -0.0134233115
000150 d8 6d ab bd 27 e4 97 3e d9 d2 04 3e 46 2c 70 3d
       -0.083705604 0.29666254 0.12971057 0.058635972
000160 9c 73 1d 3e 1a d9 e5 be 6b 1a 1e 3d c8 4f 8a 3c
       0.15376133 -0.44892198 0.038599413 0.016883746
000170 2d bb bb 3d 1b 02 6f be 92 99 ce 3d d0 ee 3d 3e
       0.0916656 -0.23340647 0.10087885 0.18548131
000180 f5 ef d3 3d 2f ea 84 3e 15 ee 40 3e f3 71 18 be
       0.103485025 0.25959918 0.18840821 -0.14887218
000190 8b 81 59 3e 72 e5 05 3e 8c 4c f7 3d 5d 75 07 bf
       0.21240823 0.13075808 0.12075147 -0.5291346
0001a0 ac 54 4f 3e 18 48 23 be 42 70 7e 3e 23 e0 d7 3d
       0.20247144 -0.1594547 0.2484751 0.105407976
0001b0 36 22 51 3e 3b 1e 96 3e 88 40 c7 3a 32 bc 0a be
       0.20423207 0.2931994 0.0015201727 -0.13548353
0001c0 21 31 92 bd 40 52 5f bd e5 88 5c 3e bc 0d 5c 3e
       -0.07138277 -0.0545218 0.21536596 0.21489614
0001d0 40 3f 86 3e 1c 4c a6 3d e3 61 70 be 56 53 0d be
       0.2622013 0.081199855 -0.23474841 -0.13801321
0001e0 38 9c 75 3e 22 c5 66 3e cd a3 68 3d 89 84 55 3d
       0.23985374 0.22536138 0.056796838 0.05212835
0001f0 66 1f d3 be 31 8c e2 be 48 8a 31 3e bc aa 21 3d
       -0.41234893 -0.44247583 0.17337906 0.039469466
000200 35 ff 28 3e 55 4c 1c 3e 6d bd 83 be 6b 33 38 3e
       0.16503604 0.15263493 -0.25730458 0.17988364
000210 f5 13 83 bd 4d b0 c4 3d 93 08 64 be 59 71 88 be
       -0.06400291 0.09603939 -0.22268896 -0.26648977
000220 85 bb 49 3e 7b b9 cc 3d 9d b1 6a be e1 49 0e 3e
       0.1970044 0.09996315 -0.22919317 0.1389537
000230 8e ba f4 be 02 f3 27 bf 3b 3f 4f bd 4d e5 0c bd
       -0.4779858 -0.65605175 -0.05059741 -0.034398366
000240 d8 19 ac 3d 63 82 c3 3d 54 76 c9 3d 52 75 21 be
       0.08403367 0.09546354 0.098370224 -0.1576741
000250 e1 e4 8d 3d e6 a5 53 3e 3e 03 3f 3d 1b 40 b2 3e
       0.06928421 0.20668754 0.04663395 0.34814534
000260 fb 3f ee 3d 38 7f ed be 69 83 0c be 72 25 06 3e
       0.11633297 -0.46386123 -0.13722004 0.13100222
000270 35 89 0c be 8c bb 02 3e d7 f2 14 3d 04 55 24 3e
       -0.13724215 0.12766856 0.036364403 0.16048056
000280 20 8d 11 3e 6a 93 59 bd fb df 2b 3e 5b b6 c8 3d
       0.14213991 -0.0531191 0.1678466 0.098004065
000290 b1 81 1a bc fe e8 0a 3e c0 96 5c be 17 2b fb 3b
       -0.009430335 0.13565442 -0.21541882 0.007665049
0002a0 e9 82 11 bf 42 62 53 be 33 ea 3e 3b 8a bb cb 3d
       -0.5684038 -0.20642951 0.0029131293 0.099478796
0002b0 c4 5d 6b 3e 56 a9 86 3d 0f 8c 6b 39 31 88 6a 3d
       0.22984987 0.06575267 0.00022463522 0.05725879
0002c0 35 85 9a bd 6e 60 f7 3d 04 e1 17 bd 37 e3 af 3e
       -0.075449385 0.120789394 -0.037079826 0.3435304
0002d0 86 1b e8 3d 1b f2 cd bd 2b 42 50 bd 25 c0 2e be
       0.11333375 -0.100559436 -0.050844353 -0.17065485
0002e0 94 ce 33 bd 39 c7 9b be 93 84 15 bc 41 cc ac be
       -0.04389818 -0.30425432 -0.009125846 -0.33749583
0002f0 83 10 d9 3e b4 ed a2 3e 95 88 4c bc a3 29 5f be
       0.4239541 0.31821978 -0.012483736 -0.21793227
000300 ba 82 d4 3d 25 c6 84 bd 56 3c be 3d c3 37 81 be
       0.103764966 -0.064831056 0.09288852 -0.25237855
000310 50 08 0f 3e 14 6d 9c be e5 a0 cf bc ce 06 9e bd
       0.13968015 -0.3055197 -0.025345275 -0.07716142
000320 b5 6c 60 3e 47 2c ba 3c 0e 1d 7d be 1a 85 a2 bd
       0.21916468 0.022726191 -0.24718115 -0.07935543
000330 e6 ab 82 bd 65 de ea be 0c 06 59 3e f7 37 0e 3e
       -0.06380443 -0.458728 0.21193713 0.13888536
000340 db ff f3 3c db cb 63 be aa c4 b2 3c 1b 01 af be
       0.029785087 -0.22245733 0.021822292 -0.3418053
000350 9a aa b6 bc 3e eb 21 3d c1 fe 60 3e 73 05 76 bd
       -0.022298146 0.039530985 0.21972181 -0.06006379
000360 a0 56 22 3e 10 c2 f7 bd b6 4e ff ba 44 68 ee be
       0.15853357 -0.12097561 -0.0019478414 -0.46563923
000370 8b 4a 5b 3e 89 4e e7 3d a3 fa 58 bb 5e fe 04 3e
       0.21415155 0.11294276 -0.0033108376 0.12987658
000380 9e 88 40 3e e1 66 78 3e b1 ad 38 3e 38 15 18 be
       0.18802115 0.24257995 0.18035008 -0.14851844
000390 62 50 42 be 59 64 35 be 10 ba e4 3d 8c 71 ff bd
       -0.18975976 -0.17714061 0.11168301 -0.12472829
0003a0 cb f1 49 be 05 e4 91 be 85 48 4d be 8f ea 38 3d
       -0.19721143 -0.28494278 -0.20047195 0.045145568
0003b0 ea ed f6 bc 2f f8 8e be 3c 0c 4d 3e 06 ac 6f bd
       -0.030142743 -0.27923724 0.20024198 -0.058513664
0003c0 2f 7d 71 bc ca 63 87 3e 36 3d 9c 3e 55 10 92 3d
       -0.014739319 0.2644332 0.3051545 0.07132021
0003d0 12 01 11 be a5 ff 29 be 71 43 d6 3c 73 16 a3 bc
       -0.14160565 -0.16601427 0.026155205 -0.019908166
0003e0 24 78 18 3e b9 f2 3d be 3f 3a f1 be f6 fb 37 be
       0.1488958 -0.18549623 -0.4711475 -0.17967209
0003f0 2e 5c a8 3d 00 d9 98 3d 08 1b 31 be eb 63 96 be
       0.08220707 0.074632645 -0.17295468 -0.29373106

net.2.weight f4 [256, 256]
000000 0a e6 27 3b 1f 0e 60 bd 09 33 5a bd d0 63 8f bd
       0.0025619292 -0.054700967 -0.053271327 -0.070014596
000010 b5 d2 ea bc 51 0d 20 3d 5c ca a5 3c 6c 00 af bc
       -0.028664926 0.0390752 0.020238094 -0.021362506
000020 be 2a d3 bb ac 70 62 3c 0f 61 f3 bb a8 7b 4e bd
       -0.0064443043 0.013820808 -0.007427342 -0.050410897
000030 0a ec 2f bd 1d 1b 80 bd 90 35 b1 bc c3 6d 79 bd
       -0.042949714 -0.062551714 -0.021631986 -0.060895693
000040 bd 64 80 bc 1d 6a 0a bd 6b 77 33 3d 47 75 3c 3d
       -0.015673036 -0.033792604 0.043815058 0.046010282
000050 ad 17 fb 3c 07 0f 04 bb 69 7a cb bc 57 d3 3a 3c
       0.030650938 -0.0020150559 -0.024838643 0.011402926
000060 c7 53 6b bd 52 9c f7 bc 8c 2c 00 bd 68 9b 9b bc
       -0.057452943 -0.030225907 -0.031292483 -0.018995002
000070 f5 28 9f bd 11 22 ac 3c c5 3e 08 3d 33 54 21 bd
       -0.07771484 0.021012338 0.033262987 -0.03938694
000080 c7 01 af 39 03 5b 38 bc dc c8 d4 bb 85 08 70 bc
       0.00033379925 -0.011252168 -0.006493671 -0.014650469
000090 cd 3e 12 3d c5 87 2c bc 8f 3f 6d bd 60 2c b8 bc
       0.035704423 -0.010530417 -0.057921942 -0.022482097
0000a0 b6 31 e1 3c 6d 43 8e 3c ec 89 7c bc 4c 1e e4 bc
       0.027489524 0.017366135 -0.0154137425 -0.027846478
0000b0 65 2c fb bc 59 68 2b bd 84 40 13 bd 31 2f 06 bc
       -0.030660817 -0.04184756 -0.0359502 -0.008189962
0000c0 9a 9d 4f 3b 1d e8 32 3d 41 b5 8c bc f1 dd 88 3b
       0.0031679631 0.04367839 -0.017176272 0.004176848
0000d0 80 03 ad 3c 07 5f b6 3c 48 92 03 3c a8 f6 2b 3b
       0.021119833 0.02226211 0.008030482 0.0026239548
0000e0 b9 55 ff ba 0e c4 6e bd 2c e7 8f bc dd c8 ff bc
       -0.0019480503 -0.05829244 -0.017566286 -0.031223709
0000f0 c3 ac 39 3d 15 9b 54 3d 1f 84 f9 bb 2a bb 53 3d
       0.045330774 0.05190571 -0.007614627 0.051692165
000100 63 44 55 bd b1 7a 0b 3d ca b3 47 3d 9e ba a3 bc
       -0.05206717 0.034052555 0.048755445 -0.019986447
000110 a7 4b 8d bd 2a 5f 26 bd a4 1e af bc c2 cd 9b bc
       -0.06899195 -0.0406181 -0.021376915 -0.019019011
000120 32 51 9f bd 18 4d 06 bc f4 57 3f bd 88 bc 14 bd
       -0.07779159 -0.0081970915 -0.046714738 -0.03631261
000130 6a 3d 17 bd 80 33 58 bc e6 db 7c bd d8 35 14 bd
       -0.036923803 -0.013195872 -0.06173315 -0.036184162
000140 df b7 55 bc b6 0a b3 3c 64 f2 20 3d e5 8a 8a bd
       -0.013044327 0.021855693 0.03929366 -0.06764773
000150 e8 ff d6 3c 20 10 23 bd b1 d6 6a bd 9b 1c b8 bb
       0.026245072 -0.0398103 -0.057333652 -0.0056186444
000160 e1 f5 4a bd 64 09 8f bd 35 4e 7a bd 8c 35 7a bd
       -0.049550895 -0.06984213 -0.06110974 -0.061086223
000170 4a e6 f4 3c 9d be c3 3c 98 a8 15 bd e9 d2 3c bd
       0.029894967 0.023894602 -0.036537737 -0.046099577
000180 e9 6e 53 bd b6 bc 6b bd 84 b6 37 bd ce a3 c5 3c
       -0.051619444 -0.057553016 -0.044851795 0.02412596
000190 23 77 51 b9 bf 08 18 bd 0a 3d 30 3d 1c 6c 4c bd
       -0.00019976175 -0.037117716 0.04302696 -0.04990779
0001a0 24 f3 86 bd d5 79 a4 bb 95 b3 36 bd 78 b4 f0 b9
       -0.06589344 -0.0050194063 -0.044604857 -0.00045910827
0001b0 c2 8d 03 3d 35 be 41 bd 4c 5a 27 bd 2d f9 a4 3b
       0.032117613 -0.047300536 -0.0408576 0.005034587
0001c0 29 ff 97 bd c2 c9 14 3d d3 57 0c bd 9c 21 1a 3c
       -0.07421715 0.036325224 -0.034263443 0.009407427
0001d0 7e b1 5d bd bc 43 3c bd 6d 48 6a 3b f2 e9 ad 3b
       -0.054124348 -0.045963034 0.0035748736 0.0053074295
0001e0 ae 92 0f 3d fe 51 07 3d f3 aa b2 bc 88 53 e5 bc
       0.035051994 0.03303718 -0.02181003 -0.027993932
0001f0 72 64 d2 3b 5a 66 8f bc bf 5e 87 bc db b8 7e bd
       0.0064206654 -0.01750486 -0.01652467 -0.06218801
000200 e6 ce 7b bd a7 9a cb 3c 06 bb 63 bd 33 c3 f4 3c
       -0.06147661 0.024854017 -0.05559828 0.029878234
000210 f4 33 55 bc 59 ea 93 bb 34 ac 68 3d c6 e9 62 bd
       -0.013012875 -0.0045140204 0.05680485 -0.055398725
000220 e4 da bb bc 4b 13 ed bb ac eb ae 3c 4f 48 87 bd
       -0.022931524 -0.007234966 0.021352611 -0.06605589
000230 f6 e4 53 3a 52 3d 23 bd b8 bf 3f 3c a6 ea 11 3d
       0.0008083129 -0.0398534 0.011703424 0.03562417
000240 bb 6a 41 bc 4a f5 a2 bb 0b a7 d1 bc 2b 8b 43 3d
       -0.011805232 -0.0049730884 -0.025592348 0.047740143
000250 5e cc ef 3c 41 7c b8 bb 28 b4 64 bd 7d 78 21 bd
       0.029272255 -0.0056300466 -0.055835873 -0.039421547
000260 97 c3 3a 3d d8 9a df 3c c7 74 00 3d 6e dd 5d bd
       0.045596685 0.027295515 0.031361368 -0.05416625
000270 9a f2 2e 3d fa 43 34 bc 6b 58 f0 3c 3a a2 09 3d
       0.04271183 -0.011002535 0.029339036 0.033601977
000280 58 8b 43 3b 74 5e 39 bd b7 e1 32 3d 54 48 56 bd
       0.0029837694 -0.045256093 0.04367229 -0.05231507
000290 3b f3 14 3d be c4 a4 bd d0 2b c7 bc 0f ce 89 bd
       0.036364775 -0.08045338 -0.024312884 -0.06728756
0002a0 67 5c fd bc dc 5c b3 3c 0e 9e 67 bd 83 8e 91 bd
       -0.03092785 0.021894865 -0.056547217 -0.0710726
0002b0 e8 81 d8 3c 17 56 76 3c ed 37 a2 bb b1 06 7d bd
       0.026429132 0.015035174 -0.0049505145 -0.06177396
0002c0 43 bd 0c bd 90 c6 a5 bc 99 33 94 3c 26 ff dd bc
       -0.03436018 -0.020236284 0.01809101 -0.027099203
0002d0 37 fb 1a bd 8f a0 3c bd c3 ae 09 bd 1b b6 75 3c
       -0.037837233 -0.046051558 -0.03361393 0.014997031
0002e0 e6 ef 24 3d 40 32 3f bc 89 cc e2 bc 80 6e 3d 3d
       0.040267847 -0.011669695 -0.02768542 0.04624796
0002f0 1e 2a 4c 3a bf 5e 2e bd 71 f1 c9 bc b8 d0 3d bc
       0.00077882584 -0.042570826 -0.024651261 -0.011585407
000300 a6 91 21 3c 1b ee a2 3c 9a 8f 29 3d 5c 9a e8 bb
       0.009861385 0.019888928 0.041396715 -0.007098479
000310 87 b5 0b 3d c8 f7 cf bc 04 65 07 bd 8e 0a 13 bd
       0.034108665 -0.025386706 -0.03305532 -0.035898738
000320 a5 6d 84 bd e2 71 17 bd 3a f8 97 bd a1 32 08 bc
       -0.064662255 -0.03697384 -0.07420392 -0.008312852
000330 9c b9 95 bc ec 9a 04 bd f4 91 7b bd 0e 10 16 3d
       -0.018276982 -0.032374308 -0.06141849 0.036636405
000340 c7 99 17 bd a8 d0 a3 3c f0 47 32 3d 8a 48 28 bd
       -0.037011888 0.019996956 0.043525636 -0.041084804
000350 b0 4c 75 bb 53 25 fd 3c 2d 32 31 3d ff 8c 46 bc
       -0.0037429743 0.030901587 0.043260742 -0.012118577
000360 d0 70 f8 3c de 54 80 bd e3 2c 72 bd 92 c8 f9 3c
       0.03032723 -0.06266187 -0.05912484 0.030491147
000370 e5 7b db bc ea 7a 37 3d 5b 3f 14 bb 59 12 ef bc
       -0.026792476 0.044794954 -0.002262077 -0.029183554
000380 72 4f 21 3d 07 6c 0f 3d 1c 82 a5 39 e7 0d 52 bd
       0.039382406 0.035015132 0.00031568191 -0.05128279
000390 a6 38 e9 bb c6 d3 d9 bc 5a 96 01 3d db 15 44 bb
       -0.0071173487 -0.02659024 0.031637527 -0.0029920253
0003a0 15 21 b5 bb f2 d5 be 3c 7c 98 a9 3c 35 b4 62 bd
       -0.0055276253 0.023295376 0.020702593 -0.05534764
0003b0 71 16 47 3d 33 e7 09 3d ba 00 31 bd 98 96 33 3d
       0.048605386 0.033667754 -0.043213584 0.04384479
0003c0 5f be 3d 39 ef af 8c bc 52 12 82 bd 5f 9a 8a bc
       0.00018095363 -0.017173735 -0.063511506 -0.016919313
0003d0 5d ee 9a bd 19 10 82 3c 52 bd f5 3c 44 f4 17 bd
       -0.075649954 0.015876817 0.029997502 -0.037098184
0003e0 7a ca 18 3d e9 64 dd bc 60 8f bc bb e6 5e 3e bd
       0.03730247 -0.027025657 -0.0057543963 -0.04647722
0003f0 30 34 b8 3a c3 d3 8c 3b 52 0f c4 3b 46 80 be bc
       0.0014053639 0.004297705 0.0059832716 -0.023254525

net.2.bias f4 [256]
000000 06 7a 29 bd bc c4 97 3c c5 97 be 3d a3 de ff bd
       -0.041376136 0.018526427 0.093062915 -0.124936365
000010 e3 2b 93 3d 20 c0 e8 3d 40 e4 8a bc 68 ce fe 3d
       0.07186105 0.1136477 -0.016954541 0.124417126
000020 b5 30 1b 3d a1 95 63 bb 14 3c c4 3c 78 bd 8f 3b
       0.037888248 -0.0034726637 0.023954429 0.0043866
000030 15 ad 1f bd 0c 39 5e 3d df 4b 1e 3d 6c 42 a7 bd
       -0.038983423 0.054253623 0.038646575 -0.08166966
000040 ec 44 8f bd a0 9e b3 bd f4 50 bb 3d aa 05 7a 3b
       -0.06995568 -0.0877049 0.091463 0.0038150349
000050 ce 88 65 3d 31 a4 c4 3b 55 2e 70 3a 73 89 78 3d
       0.05603867 0.0060010185 0.00091621774 0.060677957
000060 77 a4 d6 3c 60 fa f5 3d 3b fa 65 bc 30 ff bb ba
       0.02620147 0.12010646 -0.01403671 -0.001434302
000070 72 80 84 bc 35 e1 84 3d 99 88 3d bd ad 3a f8 bd
       -0.016174529 0.06488267 -0.046272848 -0.121205665
000080 f5 7c cb 3c 57 72 95 3d 13 f2 5e bc c8 ca 84 bd
       0.024839858 0.07297199 -0.01360752 -0.0648399
000090 ab d8 4d 3c 92 21 c5 bb bc a4 1f 3c 6a 9d 22 3c
       0.012563865 -0.006015965 0.009743866 0.009925226
0000a0 57 19 3b 3c ee b0 8e 3d 31 3c 1d 3d 01 d7 d5 3c
       0.011419616 0.069673404 0.03838748 0.026103498
0000b0 c8 a6 82 3d 87 0a 3d 3d d0 f8 52 3c 81 69 82 3d
       0.06379467 0.046152618 0.012876704 0.063677795
0000c0 75 e6 96 bc 74 81 35 bc 2d 92 05 bd a7 d8 a0 bd
       -0.018420437 -0.011078227 -0.032610107 -0.07853823
0000d0 ed c7 ce bb 94 24 1d bd f6 98 25 bd d1 bc 7f 3d
       -0.006310454 -0.03836496 -0.040429078 0.06243593
0000e0 9c c2 ef 3d ba e4 3b 3d c3 c7 ad bd 3d 6a 44 bd
       0.11707041 0.045872428 -0.08485367 -0.04795288
0000f0 7c 92 04 3e e1 f9 6a bd 6f 6f fc 3c 7a 80 da 3d
       0.12946504 -0.05736721 0.030814854 0.10669036
000100 a9 57 ad bc 9e 15 06 3e 6f 41 cf 3d e4 2a 23 3d
       -0.021159964 0.13094184 0.10119902 0.039835826
000110 30 d2 c0 bb de 19 87 ba 34 65 ae 3d dc 77 7e 3c
       -0.0058844313 -0.0010307392 0.08515397 0.015531506
000120 16 bc 1f be 4a 8c 1e bd a5 c6 03 3e b2 3d 52 bc
       -0.15599093 -0.03870801 0.12868746 -0.012832092
000130 bc 22 86 3c 56 8e 47 3d 63 59 cc bc b0 9b 2d 3d
       0.016373985 0.048719727 -0.024944967 0.042384803
000140 df 25 ec 3d 0c b4 81 3d 70 d5 84 3a db 53 77 3d
       0.11530661 0.06333169 0.001013441 0.060382705
000150 8d c7 42 3b 66 e5 de bc 16 60 35 bc d7 1b 81 3c
       0.0029720992 -0.027208995 -0.011070272 0.015760345
000160 73 f7 f0 bc 32 5e 26 bd 63 ce c7 3d 0b e0 3e 3c
       -0.029414868 -0.040617175 0.09756162 0.011650096
000170 ab 98 ab 3d 7c bb 6c 3e b4 28 b3 3d a8 3b 1e bd
       0.083787285 0.23118395 0.08747998 -0.03863111
000180 1d ef a7 bc 32 f2 33 3d 0c 1c 39 3d 6a 48 29 3a
       -0.02049976 0.043932147 0.045192763 0.0006457629
000190 c5 ab e5 3d 51 5c 77 bd 33 3f 02 bd d1 99 11 3e
       0.11214403 -0.060390774 -0.031798553 0.14218833
0001a0 8b 9f 0a 3e 7a d6 9d bd 3e bf 37 3e d9 b2 6b bd
       0.13537423 -0.07706924 0.17944047 -0.05754361
0001b0 30 60 ce 3d ea 6f ba bd df 5b 95 3c 12 67 0c 3d
       0.1007694 -0.09103377 0.018232284 0.034277983
0001c0 ba e1 90 bc 92 0b c1 3d 8e 1d 7d bc df 19 a4 be
       -0.01768576 0.09426035 -0.015448941 -0.32050988
0001d0 9a 9d 4c bd ea c3 41 3d 8d 2e 99 bc 17 7f b0 3d
       -0.049954988 0.04730598 -0.018698955 0.086179905
0001e0 71 4a 9e 3d 18 d1 4e bd 99 b7 7f bd fe 6c 0d 3e
       0.07729042 -0.050492376 -0.06243095 0.13811108
0001f0 89 a8 88 3c 09 01 d9 bc 12 3a 1e 3d 71 d3 96 bc
       0.016681926 -0.026489751 0.0386296 -0.01841137
000200 50 f1 99 3d ef d4 4d 3d 97 e3 8d 3c a4 da fb bb
       0.0751673 0.050251897 0.017320437 -0.007685976
000210 59 52 b7 3b 4c 68 07 3e c6 f9 e6 bc 8a ea e2 3d
       0.0055945334 0.1322338 -0.028195273 0.11079891
000220 19 87 06 39 36 70 1f bc f9 e6 58 bd 07 c6 ca 3d
       0.00012829564 -0.009731343 -0.052954648 0.09901052
000230 43 a4 1a 3c 3c e0 97 3d 6e 19 c4 3d cc cf 90 bd
       0.009438577 0.07415816 0.09575163 -0.07070884
000240 82 d4 b4 bb e5 03 48 3c 59 e0 a5 3c d5 f5 98 3b
       -0.005518497 0.01220796 0.020248579 0.0046679773
000250 7a b2 cf bc 07 88 43 bd 2a 0a ad 3d 59 cf 84 bd
       -0.025353659 -0.047737148 0.08449204 -0.06484861
000260 f6 d0 ea bd 35 bb 54 3d 80 ee 05 bd 57 13 a3 3c
       -0.114656374 0.051936347 -0.032698154 0.019906683
000270 1e 87 89 3c af 86 f1 3c 2f 14 fb 3d ab 7a b9 3d
       0.016788062 0.029483167 0.12259709 0.090566
000280 62 33 83 3d 47 da c8 3c cf ce bc 3d bc 86 c1 3c
       0.06406285 0.024518145 0.09219133 0.023623817
000290 ba 53 d5 3c ea 43 67 3c 67 70 43 bb 88 4e c7 3c
       0.0260409 0.014115313 -0.0029821636 0.024329439
0002a0 db 63 19 bd dc 7d 69 3b 65 bc dd 3c 1d a4 75 ba
       -0.037448745 0.0035627997 0.027067373 -0.0009370463
0002b0 3b f7 03 bc c5 05 28 be aa fd e0 3c 35 92 43 bd
       -0.00805455 -0.16408451 0.027464706 -0.047746856
0002c0 d6 65 74 3d f9 5e 15 3d 66 7e 8a 3d c4 ad 0f 3d
       0.05966743 0.036467526 0.0676239 0.035077825
0002d0 74 83 31 3d 29 da be 3c a3 98 ee bd cc 9b 8e bd
       0.043338254 0.023297386 -0.11650207 -0.0696331
0002e0 65 2b 76 3d e6 11 82 bc b3 25 9d bd ae c2 87 bd
       0.060099978 -0.015877675 -0.07673206 -0.06628929
0002f0 0e 58 a1 bc e6 1a 6e 3d c5 c2 30 3b e8 ff 97 3d
       -0.019695308 0.05813112 0.002697156 0.07421857
000300 39 7d 45 bd f1 af c4 bd a7 82 bf 3d aa 34 01 3d
       -0.048215125 -0.09603871 0.09351092 0.031544365
000310 db ed 54 bc 3c c6 bf bc 7f 4a 17 3e c9 ae bc 3d
       -0.012996162 -0.023409955 0.14774512 0.09213025
000320 89 7a 8a 3d 17 bf 0d 3d e2 63 7a bd 08 6a 13 3c
       0.06761653 0.034606066 -0.061130412 0.008997448
000330 9c 78 c2 3d 1c ed 18 bb 78 e3 25 bd ac 4d ac bc
       0.09495661 -0.0023334688 -0.040500134 -0.02103313
000340 30 3d 8d bd 80 3d 63 bd c9 ae 16 bd 89 b1 d7 bb
       -0.06896436 -0.055478573 -0.036787782 -0.006582443
000350 1e 71 8a 3c 32 6e 00 3d 3a 5f 8f bd f7 0d dc bc
       0.016899642 0.03135509 -0.07000585 -0.026862128
000360 2b d3 ec 3d ab 56 82 bd 53 b0 d7 bd 1e 58 97 bc
       0.115637146 -0.06364187 -0.10531678 -0.018474635
000370 ed ff f1 bc b7 e5 80 bd e5 3c 9f 3c a3 b8 d8 3d
       -0.02954098 -0.06293815 0.019438216 0.10582092
000380 bf 03 d4 3d 7b 84 ce bc 13 40 a3 3c 3a db f1 bc
       0.10352277 -0.025209656 0.019928014 -0.02952348
000390 ad 4e 67 3c 81 a1 6a bd 06 f7 09 be cd 59 3d bc
       0.014117879 -0.05728293 -0.13473138 -0.011557055
0003a0 ea 2d 59 bb fe 2d e1 3c 1d 7b 69 be bb 7e 78 bc
       -0.003313894 0.027487751 -0.2280087 -0.015166934
0003b0 e3 3d b5 ba 3b ce b0 bb 1e 26 16 3e 63 30 53 3d
       -0.0013827648 -0.0053956783 0.14662978 0.051559817
0003c0 e4 13 64 bb bb 10 2f 3d 57 26 97 3c 9b 74 0e 3d
       -0.0034801895 0.042740565 0.018450899 0.034779172
0003d0 e5 7c 2e bd 16 d8 91 3c 0d 76 2e bd ea d8 52 bb
       -0.042599577 0.017803233 -0.04259305 -0.0032172748
0003e0 2e 32 bf 3d 59 c3 a4 bd fb 8d 2b bd a6 8b ae 3c
       0.09335743 -0.08045072 -0.04188345 0.021306824
0003f0 6d 41 e4 3d ee ec a0 bd 5d a7 27 3d 86 ea d7 3d
       0.111452915 -0.07857691 0.040931094 0.10542779

net.4.weight f4 [4, 256]
000000 fa cc ff 3c cb b7 3b be e1 07 29 bf 70 a9 43 be
       0.03122567 -0.1833183 -0.6602765 -0.19107604
000010 42 e3 e1 be 8a 4c a4 3e 82 6c cc 3e 8f 38 b4 3d
       -0.44118696 0.32089645 0.39926535 0.0879985
000020 30 62 e4 bc c0 d6 f5 3d 04 77 72 be c9 00 69 be
       -0.02787885 0.12003851 -0.23678213 -0.22754206
000030 46 33 5a 3c 93 d1 d1 be e6 c8 32 bd eb b8 02 3d
       0.013317889 -0.40980205 -0.043648623 0.031914633
000040 d0 01 58 3f 6e 38 94 be a0 c0 4f be 9b fa 0b 3e
       0.84377766 -0.28949302 -0.20288324 0.13669817
000050 fa 31 ab 3e 7d 2a 5d 3e c5 c8 71 be 80 4e 07 be
       0.33436567 0.21598239 -0.23611744 -0.13213539
000060 03 ab 19 bf 43 0e fd bd c5 2a 29 3f 64 76 5e be
       -0.6002657 -0.12356236 0.66080886 -0.2172485
000070 43 89 2d be dc 0a 1a bf fc 51 6c bd af 46 3a bf
       -0.16946892 -0.6017282 -0.057695374 -0.72764105
000080 e2 e4 3c be 95 00 98 3e 1b 76 4c bf 41 80 38 bd
       -0.18446687 0.29687944 -0.79867715 -0.045044187
000090 a1 61 56 3f 64 98 60 3d aa 18 32 3d df 03 f1 be
       0.8374272 0.05483283 0.043480553 -0.47073266
0000a0 06 6c f9 3e ab 0e 9a be 32 6c ee 3e 06 9e 2c 3f
       0.48715228 -0.30089316 0.4656692 0.67428625
0000b0 05 eb e2 3e 0c 8e b9 3c 1d bc 76 3d 11 f9 59 be
       0.4431993 0.022650741 0.060237993 -0.21286418
0000c0 61 5b a4 3e 07 0f 12 3f 6a 59 09 bf ce f5 d3 bc
       0.32100967 0.5705418 -0.5365206 -0.025874045
0000d0 b3 63 43 bb be 34 3b be 07 01 84 be 06 df c6 bd
       -0.0029814064 -0.18281838 -0.25782034 -0.09710507
0000e0 af 43 8d be 86 32 a7 be 7e b8 7a bd 97 4e 72 3d
       -0.275907 -0.32655734 -0.0612111 0.05915698
0000f0 4a 0c 1b 3f 62 1a a6 bc ac c2 cd 3e b9 63 1e bf
       0.60565627 -0.020276252 0.40187585 -0.61870915
000100 d4 4f dd 3c 8b 07 f2 3e 0d 9d 65 3f e3 7d 0a bf
       0.027015604 0.4727138 0.89692765 -0.5409834
000110 0f 3a 89 be e0 4f ac 3e 44 ca 8f 3e 29 5e 02 be
       -0.26802108 0.3365469 0.28084004 -0.12731232
000120 c6 86 40 be 6a 36 2c bd 87 1c 14 be 74 7a 27 be
       -0.18801412 -0.04204408 -0.14464007 -0.16355306
000130 fd 53 c1 be 5c 21 03 3f 21 0d 76 be be dd a8 3e
       -0.3775939 0.5122278 -0.24028446 0.32981676
000140 87 ad a0 3e 7f d4 80 3f dc f6 ca be 8c 3c e7 3e
       0.3138239 1.0064849 -0.39641464 0.4516338
000150 9c d2 91 be ba 1b 43 3c 62 33 fb 3e eb d3 61 be
       -0.28480995 0.011908466 0.4906264 -0.22053497
000160 58 ca 7f be 3b e1 7b be 25 3e 3a 3e 05 e2 80 bd
       -0.24979532 -0.24597637 0.18187769 -0.0629311
000170 f9 c4 f8 3d dc 81 8d bd 2c 18 12 bf d7 61 6f 3d
       0.121469446 -0.06909534 -0.57068133 0.058442917
000180 6c e3 ee be 5e 75 53 be 4a 79 60 3e 4d 61 88 be
       -0.46657884 -0.20650241 0.21921268 -0.26636735
000190 49 cd ea be 1d 47 13 3d 88 c3 7b be 4c b2 1d 3e
       -0.45859745 0.03595649 -0.24586308 0.15400046
0001a0 d2 1a 08 3f 63 f4 5c be 55 5f 58 3f 0b e7 a1 3e
       0.53165925 -0.21577601 0.84520465 0.31621584
0001b0 2d c6 1d bf 98 88 8d be f8 a8 2c be 5e 92 9e bc
       -0.6163052 -0.27643275 -0.16861331 -0.019356903
0001c0 70 c6 d0 3e 00 70 49 bc b3 27 5f bc c2 99 89 3f
       0.40776396 -0.012294769 -0.013620305 1.0750048
0001d0 76 c4 32 3f a6 77 4c 3f 4a c4 5b bf 2d a0 4f bd
       0.69831026 0.7987007 -0.8584639 -0.050689865
0001e0 45 dc bf 3c 91 b1 3b be e7 32 92 be 58 56 b1 3d
       0.023420462 -0.18329455 -0.2855446 0.08659047
0001f0 aa 20 eb 3e 46 eb 32 3d 15 3f 6f be 51 77 55 3d
       0.45923358 0.043681405 -0.23363908 0.052115742
000200 7e 15 50 be 58 1a 50 3d 83 20 25 bd 03 33 11 3d
       -0.20320699 0.050806373 -0.04031421 0.03544904
000210 e5 47 17 3f 4a 28 22 bf 0b c1 b6 3c a7 52 ee 3e
       0.5909408 -0.63342726 0.022308847 0.46547434
000220 a7 0f 37 bd e8 e4 d9 be f5 8f 1e 3f 79 17 38 3f
       -0.04469266 -0.42557454 0.6193841 0.71910816
000230 cc ce be 3c 40 16 0f bf 2e 36 6f 3e 17 ca 0d bd
       0.023291968 -0.55893326 0.23360512 -0.034616556
000240 52 a2 8e be c7 05 89 be 90 00 6e be c8 99 38 bf
       -0.27858216 -0.2676222 -0.23242402 -0.7210965
000250 5a dd 0d 3d 1d c3 27 3f b5 31 1c be 1c 55 23 bd
       0.034634925 0.65532094 -0.15253337 -0.03987609
000260 88 ab 3e bf 02 6c 21 3f a3 e9 dd 3e 2f ca e5 3e
       -0.74480486 0.6305543 0.43342313 0.44880816
000270 c8 87 23 3b 92 26 f4 3c 68 02 5c 3e 68 ad 5d 3e
       0.0024952758 0.029803548 0.21485293 0.2164818
000280 cf 2d b5 3e 50 ef 5a be e3 6e 46 3e b2 7b 4c be
       0.35386512 -0.21380353 0.19378237 -0.19969061
000290 35 bf c8 be e4 94 91 be 1f 83 0c 3f 9d 40 fb 3e
       -0.3920838 -0.28433907 0.54887575 0.49072734
0002a0 b3 cb be 3c 7b 67 4f 3f 28 6d 0d 3f 4f bb ca ba
       0.02329049 0.81017274 0.55244684 -0.0015467199
0002b0 a3 4a b8 3d c5 d2 b9 be e4 b6 67 3c 29 46 e8 3c
       0.08998611 -0.36293617 0.014142726 0.028353767
0002c0 0a 01 0b bf 02 cc 21 3d e3 82 e6 be cc eb 56 3e
       -0.5429846 0.039501198 -0.45021734 0.20988387
0002d0 92 37 92 3f e3 39 93 be 88 e1 3a bf 48 08 0d 3f
       1.1423209 -0.28755102 -0.73000383 0.5509076
0002e0 59 f5 ae 3f 97 a5 69 bd b1 9e 24 3c 53 e0 a0 bc
       1.3668624 -0.057042684 0.010047601 -0.019638216
0002f0 00 d3 80 be df 91 f7 be b6 76 9c 3f de 1c 0a bf
       -0.2516098 -0.48353478 1.2223728 -0.539503
000300 f3 4a 25 be ea 6d 1b bf 7d 18 bb be ca 16 64 3c
       -0.16141872 -0.6071459 -0.3654212 0.013921449
000310 ad 05 06 3f 37 64 49 be ee 7c a5 3e be b9 a5 3e
       0.5235241 -0.19667135 0.32321876 0.32368273
000320 94 e6 24 3f af f0 cc bd be de 2f bd 70 02 d8 3e
       0.64414334 -0.10006844 -0.042937033 0.4218936
000330 02 a7 73 3e 38 49 3d bd 5b 58 f7 be 9c 48 25 3f
       0.23794177 -0.046212405 -0.48309597 0.6456392
000340 96 81 d7 bc f5 7a b4 be 08 6b c2 bc 13 78 df bd
       -0.026306909 -0.3525006 -0.023732677 -0.10911574
000350 41 ee eb 3e ea 97 b2 3f e6 81 1c 3f ec 84 89 be
       0.4608021 1.395261 0.6113571 -0.26859224
000360 5b dc f2 bd 0a ec 69 bc 88 e8 82 be 7f e5 48 be
       -0.11858436 -0.0142774675 -0.25568032 -0.19618796
000370 6b 48 05 bf 9f 10 2f be 9d 00 bd 3e 32 5f ea 3d
       -0.52063626 -0.17096184 0.3691453 0.11443938
000380 2e 66 7e 3e 49 5b df 3e 41 de 2c bf 18 4d 02 bf
       0.24843666 0.43624333 -0.6752663 -0.50898886
000390 64 f1 0c 3f 89 23 89 be e3 3d 98 be a8 b1 80 be
       0.5505583 -0.26784924 -0.29734716 -0.2513554
0003a0 8e ba cf bb 22 ae b7 be 3d a7 2c bf 65 c9 d3 be
       -0.0063393777 -0.3587504 -0.67442685 -0.4136459
0003b0 3c 6b e3 3e 2b 38 f5 be a7 52 e7 3e 20 06 c0 bb
       0.4441775 -0.47894415 0.45180246 -0.005860105
0003c0 28 46 f7 3e 72 97 07 bf a7 17 55 3d fd 54 79 be
       0.48295712 -0.5296546 0.05202451 -0.24348827
0003d0 95 91 0b bf e4 59 db 3e 8c 3e 13 3f fc 00 3b 3f
       -0.54519016 0.4284202 0.57517314 0.7304838
0003e0 35 ba fc be 77 f6 41 be fa e2 2b 3f 64 4d 6b 3d
       -0.49360815 -0.18941675 0.67143214 0.057446852
0003f0 86 ac 1a be a2 79 47 be 7a 31 9c 3c 21 8e e6 3e
       -0.15104875 -0.19479993 0.019066561 0.4503031

net.4.bias f4 [4]
000000 0b 14 8f bc ef e6 84 3d 33 56 b6 3d 50 40 4b bd
       -0.017465612 0.064893596 0.0890316 -0.04962188
