drafts/draft_rk/runs_lunarlander/dqn_trial11_seed42.pth (torch, 279705 bytes, 6 tensors)

net.0.weight f4 [256, 8]
000000 1c ca 8e 3e 86 cd ba 3e b3 60 00 bd 2a ca 3c 3f
       0.27888572 0.36484927 -0.03134222 0.7374598
000010 5d 2c dd bd b4 6f 78 bd 9d bf e7 bd b7 0e 26 3e
       -0.10799477 -0.060653403 -0.11315844 0.16216551
000020 b0 c1 aa 3e d3 25 e3 bc 3b 01 a7 3e 22 97 ae be
       0.33350897 -0.027727997 0.32618126 -0.3409968
000030 06 2e 00 be ef 8f c8 bd 33 f5 1e 3e 46 70 a9 bd
       -0.12517557 -0.09793078 0.15523224 -0.082733676
000040 96 60 37 3f df 34 91 be 31 c8 3d 3e e5 cd 82 3d
       0.71631753 -0.2836065 0.18533398 0.063869275
000050 75 7b a5 be 42 30 c9 bb 87 07 a3 bc e5 32 19 3e
       -0.32320753 -0.006139786 -0.01990105 0.14960821
000060 8c 91 21 bf a9 f4 13 be 81 f6 8a be eb 97 ad be
       -0.6311271 -0.14448799 -0.27141193 -0.33904967
000070 18 69 55 3f c4 6e 86 3d cb 5a cf 3b 75 7f cd be
       0.83363485 0.065640956 0.006327962 -0.40136304
000080 52 5a 81 3e cd 8a bd 3d fc 20 3e 3d 73 e1 b4 3e
       0.2526422 0.0925499 0.046418175 0.35328254
000090 cd 2a c9 be 05 b7 ae 3e a4 88 4a 3e 94 39 33 bd
       -0.39290467 0.34124008 0.19778687 -0.043756083
0000a0 85 d1 50 be b0 fb 63 be 3c 47 20 3f a2 57 22 3e
       -0.20392425 -0.2226398 0.62608695 0.15853742
0000b0 d0 93 31 bd fd 5a e2 bc 60 79 8c 3e 83 96 14 3e
       -0.043353856 -0.027631277 0.27436352 0.1451054
0000c0 4d 8f d4 bc d0 83 86 bb 2f ec f5 be cf f3 0a bf
       -0.025947237 -0.0041050687 -0.48031756 -0.5427827
0000d0 dc 7f 43 3d 26 b7 58 3e 68 06 91 3e 36 4f 65 3e
       0.047729358 0.21163616 0.283252 0.22393498
0000e0 e1 1b 0d bf eb 1c 2e be 18 47 12 3f d8 ec 9d be
       -0.55120665 -0.17003219 0.5713973 -0.3084476
0000f0 69 f8 f6 3d 00 b2 6c be 58 94 a0 be 10 02 0e 3e
       0.12059099 -0.23114777 -0.31363177 0.13867974
000100 c5 e9 cb bd 90 40 a3 be a5 a6 25 3d e4 ea 7a be
       -0.099566974 -0.31885195 0.040442128 -0.24503666
000110 7d 51 15 bf 81 95 22 bf 01 97 74 3e 2e 63 6d 3e
       -0.58327466 -0.63509375 0.23885728 0.23182365
000120 68 60 2a 3f 14 ab 59 be 6a 2b ec be 2b bf f2 be
       0.66553354 -0.21256667 -0.46126872 -0.47411475
000130 bf 0e 64 be e3 f2 a3 3d 8e b7 0d 3e 31 ed aa 3e
       -0.2227125 0.08005311 0.13839552 0.33384088
000140 45 8e c2 be 1d 9f ad 3d 44 5d ce 3e 60 45 ff 3d
       -0.37999168 0.08477614 0.4030553 0.12464404
000150 da 10 c3 3d 9b be 1a 3e 51 c3 7b 3e bf 97 0d bf
       0.095246986 0.15111773 0.24586226 -0.5530967
000160 ba ae c3 be cd 3d 17 bf ad 3b e2 3d ed 2d 1c bd
       -0.38219243 -0.59078676 0.110465385 -0.038129736
000170 79 4f 5c bd 98 dd dc 3e 87 40 bc 3d 2e a4 23 bf
       -0.05378673 0.43137813 0.09191995 -0.63922393
000180 a7 f1 24 3f 18 c0 5f 3d d5 12 91 3d 55 72 bc be
       0.6443123 0.054626554 0.0708367 -0.36805978
000190 00 38 d3 bd d5 3c 87 be 1f 2d 42 be 19 4e 17 bf
       -0.103134155 -0.264136 -0.18962525 -0.5910354
0001a0 0b 93 36 3e 78 77 47 be 7a be 59 be 2f fa bc be
       0.1782953 -0.19479167 -0.21264067 -0.36909625
0001b0 b0 58 b6 3e 05 24 a8 be 92 ec d8 3e 37 56 8f 3d
       0.35614538 -0.3283998 0.4236799 0.06998866
0001c0 ce f9 2b 3e cf c3 b4 bd 36 0f 9d be df 2d 1c bf
       0.16794512 -0.0882641 -0.30675668 -0.61007494
0001d0 c0 db 87 3d 7d 8c 87 be 0c ff d6 bd 75 b4 d8 be
       0.06633711 -0.26474372 -0.10497865 -0.42325178
0001e0 e3 02 1d 3d 0f 6c 71 be 5d ba 15 3e fe 2b cd be
       0.03833283 -0.23576377 0.14621873 -0.40072626
0001f0 24 b5 95 be 96 06 01 bf 78 c2 31 bf db 98 0b bc
       -0.29239762 -0.50400674 -0.6943736 -0.00852033
000200 cb 73 1d bd 50 b1 17 be a1 ec 07 be a4 6b 0e 3e
       -0.038440507 -0.14813733 -0.1327386 0.13908249
000210 32 ad 89 bf 14 17 d8 be 64 de 92 be b9 ba 5f bd
       -1.075598 -0.42205107 -0.28685296 -0.054621432
000220 c6 28 31 be 8c 3a 5e be 9a 92 64 bd 72 ea d2 be
       -0.1730071 -0.21702021 -0.055803873 -0.41194493
000230 9e 1a 32 3d d1 80 90 be c4 6b a5 3e 1c 7d 94 be
       0.043482415 -0.2822328 0.3230878 -0.290017
000240 65 0b ad bb 4d e1 6e 3e 25 e7 82 3d 63 81 48 3f
       -0.0052808993 0.23328133 0.063917436 0.7832243
000250 9b 9c 4d 3e 95 02 94 be 20 76 95 3d a0 a6 86 bd
       0.20079271 -0.2890822 0.07297921 -0.0657475
000260 1c 1e 56 be ad 2f 42 be 1e 16 bf 3e a2 eb e6 be
       -0.20909923 -0.189635 0.37321562 -0.4510165
000270 5b 3d 9a be 1f 98 ea bd ed dd de 3c 77 4a 00 bf
       -0.30124936 -0.11454796 0.027205432 -0.50113624
000280 b8 97 38 3f 47 e9 4e 3e ab 41 92 3e 97 76 ed be
       0.72106504 0.20206176 0.28565726 -0.4637954
000290 3e b2 64 3e 67 15 f2 3d 93 96 1c be 4a 82 a1 3e
       0.22333619 0.118204884 -0.15291815 0.31544715
0002a0 84 f5 48 3e 6d 99 30 be 3b b4 cb 3d e6 02 a6 bd
       0.19624907 -0.17246027 0.099464856 -0.081060216
0002b0 81 f3 bf 3e 0b 39 02 3f 38 5f bb bb db 3e 31 bf
       0.37490466 0.5086829 -0.005718138 -0.69236535
0002c0 f0 8d 0a bf ec e4 a2 3e b4 b5 e3 3e d4 bf c8 be
       -0.5412283 0.3181528 0.44474566 -0.39208853
0002d0 9e a2 3f be 0b 77 92 bc e2 ba 08 be 04 00 f2 be
       -0.18714377 -0.01787903 -0.1335254 -0.47265637
0002e0 fa d2 72 3e e2 3e bd 3e bf 78 48 3e 9f dc 3e be
       0.23713294 0.36962038 0.19577311 -0.18638848
0002f0 f5 15 3f bd 62 7e 1d bd 64 29 55 bd f7 55 35 bd
       -0.0466518 -0.038450606 -0.052041426 -0.044271436
000300 4f bc 8f 3e 92 da d1 3e c5 3c 91 3d 63 0d 9a 3e
       0.28073356 0.40987068 0.07091669 0.30088338
000310 45 aa af 3d c9 bc 6e be bf f7 f4 bb 6e 8f 93 3d
       0.08577398 -0.23314203 -0.0074758227 0.072050914
000320 dd 80 3b be 64 e6 49 be 03 67 eb be b2 d8 1e 3e
       -0.18310876 -0.19716793 -0.4597703 0.1551235
000330 17 be ee 3e a0 1e f2 be b3 c7 3a bf c3 89 cd be
       0.46629402 -0.4728899 -0.72960967 -0.40144166
000340 a2 01 cf b8 48 c2 46 3e 5b c2 0a bd 65 5f 04 3e
       -9.870833e-05 0.1941005 -0.033876758 0.12927015
000350 b9 99 83 be 9f 4f 29 bf 3c 70 88 bd fb 68 e4 3e
       -0.2570322 -0.6613712 -0.06662032 0.44611344
000360 8e 39 20 bd 02 ce c5 b8 23 b7 ac 3c 98 ab 6e ba
       -0.03911739 -9.432064e-05 0.02108342 -0.0009104549
000370 83 64 ac bf b5 a2 11 bc 74 58 cd be 9c c7 c5 bb
       -1.3468174 -0.00888889 -0.40106547 -0.006035758
000380 ac b4 cf bd ab 72 74 3e 16 1c 3d 3e 5c 1d 8a 3e
       -0.10141882 0.23871867 0.18467745 0.26975524
000390 fe 18 3e be b4 6a 1d bf 20 02 6b be b2 31 cd 3e
       -0.18564221 -0.6149094 -0.2295003 0.40076977
0003a0 61 92 3b 3e c4 b5 91 3e 4b 29 99 3d 7a 3b 77 3e
       0.18317558 0.2845899 0.07478579 0.24143782
0003b0 91 cd cc be 0c 3a 05 bf fa de 3f bf 21 3f 4a be
       -0.40000585 -0.520417 -0.7494961 -0.19750644
0003c0 44 3c a2 3e 79 4a 7c 3d a5 a5 61 3d bf 8d 19 bf
       0.31686604 0.06159446 0.05508961 -0.5998191
0003d0 2d 5d 75 3e df d6 b0 be c7 9f c3 be 7d fa a7 3d
       0.23961325 -0.34538934 -0.38207838 0.08202074
0003e0 36 b1 14 bd 2d 5a c9 3e 2e a6 f9 bd e1 0a b7 be
       -0.036301814 0.3932661 -0.121898994 -0.35750487
0003f0 36 a6 4a 3e d8 ce 0f bf 91 ed 12 be 07 39 71 be
       0.19789967 -0.56174994 -0.14348437 -0.2355691

net.0.bias f4 [256]
000000 31 75 7d 3e 4f 84 af 3e 3e 96 90 be 34 2a 53 3e
       0.24751736 0.3428063 -0.28239626 0.20621568
000010 3f dd 6b 3e d7 f1 d6 3c 65 48 3f bd 70 57 c9 bd
       0.23033617 0.026238365 -0.0466999 -0.098311305
000020 48 dd 1a 3c 3c 65 3b 3e 93 58 62 bc 25 94 fa be
       0.009452172 0.18300337 -0.013815063 -0.4894115
000030 97 9e 37 be 0a 6b ff bd a9 e2 9d 3e bf 49 a4 be
       -0.17931591 -0.12471588 0.3083699 -0.32087514
000040 4f 01 92 3e 0f da 4d 3e d5 3f c1 3e 75 65 0a 3a
       0.28516623 0.20102714 0.37744012 0.00052794005
000050 75 73 2d 3e e0 17 f7 3d f4 7f 19 3d 50 67 a3 3e
       0.16938575 0.12065101 0.03747554 0.3191476
000060 0c 28 e5 be 1e a2 f4 3d 18 81 83 3d bb b7 b8 b8
       -0.44757116 0.11944984 0.06421107 -8.808026e-05
000070 f7 34 65 3e 8d 48 31 3e 3c 15 b3 3e d1 0c c2 3e
       0.22383486 0.17312832 0.34977138 0.37900403
000080 08 cf 9c be cc 5d 8f 3e ab 02 c9 3c 99 86 2f be
       -0.30626702 0.2800125 0.024537405 -0.17141189
000090 82 69 78 3c 90 12 e1 3e 5b ed 65 be a7 22 37 be
       0.015161874 0.43959475 -0.22453825 -0.17884313
0000a0 fa a1 8b 3e 35 cc f3 be a5 3b 84 3e f8 7c c0 bc
       0.27272016 -0.47616735 0.25826755 -0.02349709
0000b0 1b 00 86 3d e4 e2 f0 3e 4b 1c e7 3d 50 3b 42 3d
       0.06542989 0.47048104 0.11284693 0.047419846
0000c0 40 8b 90 3e a6 49 a4 3d 33 0d 3c be 51 47 92 be
       0.2823124 0.0802186 -0.1836441 -0.28570035
0000d0 b7 2e ca 3e f5 ab 54 3d f0 84 59 3e 4b e4 6c bd
       0.39488766 0.051921804 0.21242118 -0.057834905
0000e0 38 3f 9f be ba 89 85 3e c6 06 48 be 50 61 bf 3e
       -0.3110292 0.2608164 -0.19533834 0.3737893
0000f0 08 40 25 3e db d8 e1 3d ac a6 a7 3e f8 2a f4 3c
       0.16137707 0.1102769 0.32744348 0.029805645
000100 d6 d0 6a 38 f3 72 6f 3e 9f 0c dc 3e 49 62 6c 3a
       5.598444e-05 0.23383693 0.4297838 0.0009017331
000110 8a 0b 85 3e b2 e9 b9 3e f1 2d 5b 3e 3d 5d 99 3e
       0.25985366 0.36311108 0.21404244 0.29953948
000120 7c d9 82 3e 03 74 52 3e 60 9a e6 3e 1b 5b da 3e
       0.25556552 0.20552067 0.45039654 0.42647633
000130 4c 5a 85 3d 89 f3 06 3a 19 b4 c5 3e e6 6c 0b bf
       0.065113634 0.0005147984 0.38613966 -0.5446304
000140 64 4b 87 3e 66 b4 4e 3e 40 a3 b5 3e 82 1a 78 3d
       0.26424706 0.20186004 0.35476112 0.060572155
000150 a1 38 86 be 85 26 d0 3e d8 88 c1 bc aa b4 7c 3e
       -0.2621508 0.40654388 -0.023624822 0.24678293
000160 43 8c c5 bc 98 c9 92 bd 6a a6 4d 3e f1 1f 9e 3d
       -0.024114734 -0.07167357 0.20083013 0.07720936
000170 85 6f 7e 3b f1 83 3b be 93 25 a3 3e e4 92 c4 3e
       0.0038823795 -0.1831205 0.31864604 0.3839332
000180 0c bf 8a 3e ee 63 00 3f 81 fd 7c 3e b7 31 74 be
       0.27098882 0.5015248 0.24706079 -0.2384709
000190 08 1f ab 3e ba 6b 6f 3e dd 61 30 3e 6a 8c 1c bd
       0.33422112 0.23380938 0.17224832 -0.038219847
0001a0 00 03 65 bc bc 43 2f bd be a8 fa 3e db d3 a0 3e
       -0.013977766 -0.042789206 0.48956865 0.31411633
0001b0 d3 fa eb 3e bb cd c0 3e bf fe 70 bc d8 b7 56 be
       0.460898 0.3765696 -0.014709174 -0.20968568
0001c0 49 f1 64 be 20 24 78 be 87 7a b0 3e c5 d7 87 3e
       -0.22357668 -0.2423253 0.3446848 0.26531807
0001d0 a9 3d b9 3e fd e6 df 3d 77 95 8b bd 33 b4 d5 bd
       0.36179855 0.109327294 -0.068156175 -0.10434761
0001e0 74 05 14 3f 54 ea 90 3e 44 15 62 3e 72 27 9f be
       0.5782082 0.28303778 0.22078425 -0.31084782
0001f0 7f 44 b1 be 98 ac 9d be 63 5d a7 3e c6 ea 11 3c
       -0.3462257 -0.3079574 0.32688436 0.008906072
000200 23 a8 3b 3e b9 ae 96 3c 6a 93 02 be 7a 84 f3 3d
       0.18325858 0.018393861 -0.12751547 0.11890502
000210 cc c6 f6 bb c5 d8 53 3e 38 d9 22 3b a0 5d bb be
       -0.0075310227 0.2068816 0.002484871 -0.36594868
000220 48 ba 0c bd 30 c3 89 3e 0a 19 53 be 32 f4 c5 3e
       -0.03435734 0.2690673 -0.2061502 0.3866287
000230 b3 e6 89 be e6 3d fc be e9 21 77 bc 04 4a 73 3e
       -0.26933822 -0.49265975 -0.015083768 0.23758703
000240 82 93 ed be 03 ca 11 3e a6 cc a8 3e 43 b9 0b bf
       -0.46401602 0.14237218 0.32968634 -0.5457956
000250 1c eb 55 3e 0c ee 6a 3e 80 82 66 3e cd bc f5 3e
       0.20890468 0.2294237 0.2251072 0.47995606
000260 de 5b ba 3e 5c 38 8d 3c 00 95 8f be 96 b5 85 3d
       0.36398214 0.017238788 -0.28043365 0.065287754
000270 96 8e 10 bc d2 bd 8d 3e dd 07 a3 bc e7 f1 b3 3e
       -0.008823058 0.27683884 -0.01990121 0.35145494
000280 62 23 a7 3e 0b df 05 ba 94 d5 5d 3e 17 05 4f 3e
       0.32644182 -0.00051067834 0.21663505 0.20216785
000290 ad 68 a9 be 52 d3 03 3f 77 85 a2 bd 04 98 b9 3e
       -0.33087674 0.51494324 -0.07935613 0.3624879
0002a0 51 51 37 be c1 de 46 be 6c 97 8c bd ef 8b 8f 3e
       -0.17902113 -0.19420911 -0.06864819 0.28036448
0002b0 19 f7 90 3e 3c d0 5f 3e fe 89 86 3e 8c b4 40 3d
       0.2831352 0.21856779 0.26277155 0.047047183
0002c0 55 19 a0 bd a9 16 2b 3e ba 05 b6 bd 7f 85 f7 3e
       -0.07817332 0.16707863 -0.08887811 0.48344037
0002d0 0d a3 b7 3e 12 6f 9e be 63 f2 a7 3a 79 1b 21 3d
       0.35866585 -0.30944115 0.0012813326 0.03933284
0002e0 d6 7b 19 3e 23 bb 59 be 23 2c 54 3e 20 32 af be
       0.14988646 -0.21262793 0.20719962 -0.3421793
0002f0 7f e7 12 3f af 77 01 3f 8e 57 95 bc 1e 7f c9 be
       0.57384485 0.5057325 -0.018230226 -0.39354795
000300 2c a5 d4 3d a2 91 a5 be ff fe 06 3e 5d e2 c0 be
       0.103830665 -0.32337672 0.13183211 -0.376727
000310 3e 04 12 3e 84 62 a9 be ce a6 e1 be da cb 81 be
       0.14259431 -0.33082974 -0.44072574 -0.2535084
000320 b3 f3 14 3f ee 9d 8e 3d 8d 48 c9 be 85 d1 96 3b
       0.58184355 0.069637164 -0.39313164 0.0046026134
000330 da 7a 25 3a 02 28 fb be ed 57 29 be 97 c0 98 3e
       0.0006312557 -0.4905396 -0.16537447 0.29834434
000340 d2 ad 2e 3e 8c b2 85 be f7 67 77 3b df 39 b5 be
       0.17058495 -0.26112783 0.0037751177 -0.35395715
000350 22 97 6b be 83 70 85 3d 27 2d dc 3e 29 6d 4d 3d
       -0.23006871 0.065156005 0.43003199 0.05015293
000360 cb f1 69 3e ea ea 01 be 03 cd 22 be 9c 5f 9a be
       0.22846143 -0.12687269 -0.15898518 -0.3015107
000370 92 2b fc 3e a6 05 f4 3e cc 3d 8a be f7 6b 8a 3e
       0.49251992 0.4766056 -0.27000272 0.27035496
000380 5d 90 e6 3e 71 cb 8e 3e da 88 e8 3d bd 3b d3 bd
       0.45032015 0.27889588 0.11354227 -0.103141285
000390 43 fa ae bd e4 91 8b bd d5 47 66 3e 11 46 9e be
       -0.085438274 -0.06814936 0.22488339 -0.3091283
0003a0 65 91 17 be 3e e6 8a be ca 12 86 be 6d 56 c3 bb
       -0.14801557 -0.27128786 -0.2618621 -0.0059612305
0003b0 3d d3 5c 3d ef 65 d3 be 0f 3f 6d 3e f6 88 dd 3d
       0.05391239 -0.41288707 0.23168586 0.10817139
0003c0 e5 03 9b be 32 22 81 3e 84 fb ef 3e c6 b4 c7 3d
       -0.3027641 0.252214 0.4687158 0.09751277
0003d0 cf b4 59 be 05 16 1e be 70 56 0a 3e 4d fc ac 3e
       -0.21260379 -0.15438087 0.13509536 0.3378624
0003e0 bb 68 44 bd 76 8f 40 be e4 9d b2 be ef 8f df be
       -0.04795144 -0.18804726 -0.34886086 -0.436645
0003f0 99 d3 1b be c1 46 86 bd 29 63 59 be 04 09 4b be
       -0.15217437 -0.06556464 -0.21229233 -0.19827658

net.2.weight f4 [256, 256]
000000 71 17 2b 3e 19 95 a7 3d b2 b2 09 bf 0f 2e d3 be
       0.16708161 0.08182735 -0.5378829 -0.41246077
000010 a5 7f 86 3e ad 94 9b 3e f7 38 92 3e 20 f8 ab be
       0.2626926 0.30386868 0.28559086 -0.33587742
000020 5a 86 ef 3d d8 65 14 39 b8 ac ef be 61 73 4a 3e
       0.116955474 0.0001415232 -0.4681146 0.19770576
000030 78 07 07 be a1 55 19 3e 27 13 99 3e 9e bb 84 3e
       -0.13186443 0.14974071 0.29897425 0.2592439
000040 f6 6e 8c 3d a0 ef f0 3d 1f cd 3a 3e 28 0f 80 3e
       0.068571016 0.11764455 0.1824231 0.25011563
000050 2a b6 ed 3a 4c e3 9d 3e d4 c7 d9 bd bb b9 2b 3d
       0.0018135954 0.30837476 -0.10633817 0.041925173
000060 70 4d 28 3e 6a 09 9f 3d 34 73 34 3e d8 1b 0f bf
       0.1643579 0.077654675 0.17622072 -0.5590186
000070 88 59 cb 3d 7f ea 57 3e 9e 4a d2 3d c5 1f 40 bd
       0.09929186 0.21085547 0.10268138 -0.046905298
000080 9f be b3 3e a8 b0 36 3b 85 03 47 3e 6c 17 a6 3e
       0.3510637 0.0027876291 0.19434936 0.32439744
000090 2b 02 9b 3e 93 52 be 3c d5 21 cc 3b cc da 2d bf
       0.30275092 0.023232734 0.006229619 -0.6791198
0000a0 be f7 17 3e 00 25 8c 3e 25 39 02 bd 56 e2 eb bd
       0.148406 0.2737198 -0.03179278 -0.115177795
0000b0 bc 7c d7 bd 47 12 24 3d 5b cd 49 be ef ef 24 bd
       -0.10521838 0.040056493 -0.19707243 -0.04026788
0000c0 1c c6 90 bc de b4 9e 3d f3 21 f6 3d 72 3b 81 3e
       -0.01767259 0.077493414 0.12018194 0.25240666
0000d0 0e f3 1b 3d de 48 79 bd e5 b4 9e bb 69 95 bc b8
       0.038073592 -0.060860507 -0.0048433417 -8.9923684e-05
0000e0 85 9a 9d 3e bf 54 84 bd 9e ec 73 3e f6 57 4e 3e
       0.30781952 -0.064614765 0.23820731 0.20150742
0000f0 5f d8 8b 3e 5f b1 04 3e a4 9a c2 3c 9c 6a 0b be
       0.27313516 0.12958287 0.023755379 -0.13614887
000100 e7 50 09 bf 3e 14 63 3d 30 7f ba 3d 33 4b f6 be
       -0.5363907 0.055439226 0.0910629 -0.48104247
000110 50 d2 73 3d ab e4 7b bc 6f 8e 04 3c 9a 0f 56 bc
       0.05952674 -0.015374343 0.008090599 -0.013065243
000120 fe f5 96 bd a7 20 17 3e 8d ad 97 b9 3f cb b8 bc
       -0.07371138 0.1475855 -0.0002893027 -0.022557853
000130 17 7c b0 bd 55 e1 02 bf 83 3e d8 3d e7 7e 41 3d
       -0.08617418 -0.5112508 0.10558798 0.047240164
000140 b6 ee 6d 3c 24 1a c0 3c d0 37 39 3e 3e e7 53 3e
       0.014522245 0.023449965 0.18087697 0.2069368
000150 08 1b f0 be d3 4f 4d bc ed cf 4c bd a9 48 e3 3d
       -0.46895623 -0.012531239 -0.05000298 0.11097843
000160 e6 03 1e be ec 63 fe 3e 06 ee f6 3d 8c 36 dd bd
       -0.15431175 0.4968561 0.12057118 -0.108014196
000170 04 5b 47 be 2e 71 8d be f3 79 6a bc aa d4 5e 3d
       -0.19468313 -0.27625412 -0.0143113015 0.05440203
000180 1f cf 12 bd 46 2a 00 bd 89 0c 3e bd f9 a1 db 3e
       -0.035842057 -0.031290315 -0.046398673 0.42897013
000190 75 cf c2 3c 07 d3 74 3e 83 27 74 3e 9f 3a 6f 3e
       0.023780564 0.23908626 0.23843198 0.23362206
0001a0 be d2 22 3e 34 3f 1c 3e ff 39 3f bc 5d fa 4f 3e
       0.15900704 0.15258485 -0.011671542 0.2031035
0001b0 6a f1 75 3d 1a 38 0c bc 39 3a b1 3d 77 98 a5 bd
       0.060044684 -0.0085582975 0.08653683 -0.08085721
0001c0 86 00 9a 3e 3c b3 ae be 3d 91 d6 bb 1c 50 87 3d
       0.30078524 -0.3412112 -0.0065480755 0.066070765
0001d0 31 23 aa 38 bc f7 78 bd 1e 6a 11 be 79 6a 01 3d
       8.1127866e-05 -0.060783133 -0.14200637 0.03159568
0001e0 8e 7d ec 3d cb f5 47 3e 92 eb ea 3d 8d 2a c4 3e
       0.11547385 0.19527356 0.11470713 0.38313714
0001f0 12 9e d6 3e 8a 12 c0 3e 55 3a 50 3d 76 34 5c 3d
       0.41917473 0.37514144 0.05083688 0.05376097
000200 b8 7a 71 bd b7 96 96 be 73 3a 94 3b 53 21 83 3e
       -0.058954924 -0.2941186 0.0045235693 0.25611362
000210 a0 b2 14 be b2 25 35 3e d3 7e 39 bf be b8 cf 3e
       -0.14521265 0.17690161 -0.72459143 0.40570635
000220 8a f3 a2 bd a2 00 c7 3d 77 c5 2f bd 99 00 0f bd
       -0.07956608 0.097169176 -0.042912927 -0.03491268
000230 65 03 48 3e 68 6f 8a 3e 9c 18 fd bd b8 9d 35 3e
       0.19532545 0.2703812 -0.123582095 0.17735946
000240 31 ca cb bd 1e 28 d6 be c0 e1 bb 3c 51 20 67 bd
       -0.09950674 -0.41827482 0.022934794 -0.056427304
000250 82 fc 89 3e 7c b9 ae 3e a7 18 40 be 1f 37 9c bc
       0.2695046 0.34125888 -0.18759404 -0.019069253
000260 63 08 19 3e a4 a8 a6 3e bf 3b 52 bd ef c8 80 3e
       0.14944606 0.32550538 -0.05132651 0.251533
000270 72 c0 98 bd cd 0d e2 bb e4 e7 0b 3e b3 a2 62 3e
       -0.07458581 -0.006898618 0.13662678 0.22132377
000280 a7 a9 b6 3d 19 a0 da be 17 05 fe bd 63 70 0e bd
       0.08919077 -0.4270027 -0.124033146 -0.03477515
000290 05 f2 83 3e 52 ab 8e ba 4f 4d e4 3d 91 63 65 3d
       0.25770584 -0.0010884798 0.11147558 0.056003157
0002a0 82 6e 52 be 7f 00 22 be 53 46 f2 be 4f f9 0b 3e
       -0.20549968 -0.15820502 -0.47319278 0.13669322
0002b0 5b e7 49 3e 09 6b 1c 3e ac e3 8a 3e 9d 19 72 3d
       0.19717161 0.15275206 0.27126825 0.059106458
0002c0 57 ee 44 3e 72 aa 99 3e 19 58 78 3e 52 e8 7c bc
       0.19231544 0.30012852 0.24252357 -0.015436249
0002d0 c8 ce 27 3d ec 95 b4 3e 46 39 e1 be b0 ea 95 3e
       0.040968686 0.3527063 -0.4398901 0.29280615
0002e0 9e a9 27 3e d0 1d ad bd d9 32 e0 bc a4 db 84 bf
       0.16373298 -0.08452952 -0.027367996 -1.0379529
0002f0 5e 44 17 3d f0 5f e8 3c 43 e1 a0 be 19 b0 a2 3e
       0.036930434 0.028366059 -0.3142186 0.31774977
000300 72 d8 67 3c b9 90 1e 3d e2 f5 91 3e 6d c5 6f 3e
       0.014150726 0.038712237 0.28507906 0.23415156
000310 ad e8 60 3e e8 44 b8 3e 96 93 a9 3e 7c ba ec 3e
       0.21963759 0.3599007 0.33120412 0.46236026
000320 f8 a4 7c 3c 8a d7 b8 3d 03 75 ba 3e ab 0a 40 be
       0.015420191 0.09025486 0.36417398 -0.1875407
000330 ca 54 3c be f6 b6 a6 3e a1 66 97 3e 77 4e 86 3e
       -0.1839172 0.32561463 0.29570487 0.2623174
000340 d7 7d de 3c fd 5a 5d 3e 7e f8 18 bf 5a b2 02 3e
       0.027159614 0.2161674 -0.5975417 0.12763348
000350 90 b1 57 be cf 2c 16 3d 26 ff 96 3d a7 3d 65 bd
       -0.21063828 0.036663827 0.073728845 -0.055967
000360 ca 0d 93 3d fb 44 b0 3e b4 cc 6c be ae 94 81 3e
       0.071803644 0.34427628 -0.23124963 0.25308746
000370 43 00 de 3c f2 4b d5 3d 68 6a b3 3e a7 6f 1c 3e
       0.027099734 0.10414876 0.3504212 0.15276967
000380 2d 58 94 3d da 49 3b 3e b9 aa 34 bd b0 f7 6c 3e
       0.07243381 0.18289891 -0.044108126 0.2314136
000390 f9 15 60 3e 2d 91 ac be 6a fa c9 3d 12 ee 9f 3e
       0.21883382 -0.3370451 0.09862216 0.3123632
0003a0 ca 73 e8 bc 70 2f a3 3e d0 2b 12 3f b6 bc 27 bf
       -0.028375525 0.3187213 0.570981 -0.65522325
0003b0 97 75 69 3d 71 5c c8 3e a7 3b 9a bd 5d 98 4a be
       0.056996908 0.39133027 -0.07530909 -0.19784684
0003c0 e7 98 a9 3e 5c 5b bd bc 15 fb be 3d 0e f4 e9 bd
       0.33124468 -0.023114853 0.09325234 -0.11423503
0003d0 53 e5 de 3d b3 b4 97 3e be ea 73 3e 87 86 b6 3d
       0.10883584 0.2963005 0.23820016 0.08912378
0003e0 02 2a fe bd 76 6e 87 3e 34 5a db 3e 1f e1 81 3e
       -0.12410356 0.26451463 0.42842257 0.25367066
0003f0 ac 00 bd be 91 8f 03 be 23 39 70 3e 6e 4b a5 3e
       -0.36914575 -0.12847735 0.23459296 0.3228411

net.2.bias f4 [256]
000000 f8 b7 c9 b9 a9 58 10 3c e3 39 07 3e 4e 29 3b bd
       -0.00038474775 0.008810201 0.13205676 -0.045693688
000010 c9 62 9b 3d e9 c4 48 3e de d9 21 3d b0 85 2f 3e
       0.07587201 0.19606365 0.039514415 0.17140841
000020 20 28 13 3d eb fa 10 3e 5c d0 73 3d 35 dc 04 bc
       0.035926938 0.14158218 0.05952488 -0.008109142
000030 60 15 4c bc 56 de 46 3d 4f 57 b7 3b 44 f8 5d 3d
       -0.012456268 0.04855188 0.005595125 0.054191843
000040 d7 ff 2e bd ed bb 28 bd f9 88 40 3d 69 9b be 3c
       -0.042724457 -0.041194845 0.047005627 0.023267465
000050 48 a4 7c 3c fc 08 a9 3d 63 4b 60 bc da c1 be 3d
       0.015420027 0.08253667 -0.013689849 0.09314318
000060 09 fc 91 bb 8f 9f c8 3d 87 1a b7 bb 4e b4 69 3c
       -0.0044550938 0.097960584 -0.005587879 0.014264179
000070 5f 4c 47 3d 12 ff d7 3d 13 f5 06 be 81 4c 91 3c
       0.048656818 0.10546698 -0.13179426 0.017736675
000080 4e c3 98 3d 76 45 e8 3c 49 c8 1c 3d c6 5d 01 3d
       0.074591264 0.028353434 0.038276944 0.03158357
000090 2e 5a a4 bc ad 14 20 3e eb dc 07 3e 90 a0 eb bb
       -0.020062532 0.15632887 0.13267867 -0.0071907714
0000a0 45 9e 35 3c 38 67 0b 3e cd 22 c3 3d 50 e6 03 3e
       0.011085098 0.13613594 0.09528122 0.12880826
0000b0 78 f3 1c 3e b8 c4 3f 3e d3 f0 f6 3d 30 24 90 3c
       0.15327251 0.18727386 0.12057652 0.01759538
0000c0 b4 73 cc bd 04 a8 98 3c 1b aa 79 3d b2 af d2 3d
       -0.09983006 0.018634804 0.06095324 0.102874175
0000d0 c1 a7 22 bd f5 f6 97 3d c8 2c 0e bd a7 0e 44 3d
       -0.039710764 0.0742015 -0.034710675 0.047865536
0000e0 27 66 d4 3d 05 2a bc 3d 1f 2e 45 bd 10 e0 5a 3c
       0.103710465 0.09187702 -0.048139688 0.013359085
0000f0 49 93 37 3e bc eb 22 bd ee a3 d8 3d d1 dd b8 3d
       0.17927279 -0.039775595 0.10578142 0.09026683
000100 35 d2 9f bc 26 8e 35 3e d0 f9 f3 3d 75 d6 06 3d
       -0.019509414 0.17730007 0.11912882 0.032919366
000110 4b 1c ca 3b 9a ff 7e 3d 5b 98 27 3e 24 9b 5b 3e
       0.0061679236 0.06225548 0.16366713 0.214459
000120 ec bf f9 bc c1 0c 46 3b 38 95 8a 3d a8 bb 0c bc
       -0.030487023 0.0030220004 0.067667425 -0.008589663
000130 f3 9f 20 bd 68 73 da 3d 05 ea d4 3c 14 5e 0d 3d
       -0.03921504 0.10666543 0.025990495 0.034513548
000140 86 87 fd 3d e7 9f 9a 3d 01 8e ef 3c 55 8b 43 3e
       0.12379365 0.0755003 0.029242517 0.1909612
000150 ac 20 4c bc b0 a3 07 3e e0 33 0b 3e b4 11 43 3d
       -0.012458961 0.13246036 0.13594007 0.047624305
000160 ed 15 18 bd ca 9a 94 3b ac 8c 22 3e 80 5b 10 bc
       -0.037130285 0.004535054 0.15873975 -0.008810878
000170 9b 88 2d 3e f4 97 b8 3d 52 3c 86 3d 7e ce 35 bc
       0.16946642 0.09013358 0.06554474 -0.011096595
000180 3f 1a 46 bd 85 aa 8c 3d 31 85 82 3d ea 10 5e 3c
       -0.048364874 0.068684615 0.063730605 0.013553837
000190 b3 14 a7 3d a8 5b 36 bd b2 5f a9 b9 7e ab 52 3e
       0.08158245 -0.044521004 -0.0003230549 0.20573232
0001a0 a9 a7 4d 3e 35 b5 0f 3d 62 16 75 3e ce 96 8b bd
       0.20083489 0.035084922 0.2393432 -0.06815873
0001b0 5a 49 80 3d 78 87 90 bc 1a 04 0c 3d c4 19 ea 3d
       0.06263991 -0.017642722 0.0341836 0.11430696
0001c0 0b a3 3a 3c 19 02 c0 3c 0e 75 13 bd 64 41 39 be
       0.011391412 0.0234385 -0.036000304 -0.18091351
0001d0 ea 08 68 3c dc e8 cb 3d d0 2b b0 ba e1 36 56 3d
       0.0141622815 0.09956524 -0.0013440792 0.05229843
0001e0 ce dc 63 3d 65 9d 8c 3b c9 4c 10 bb 3e c0 39 3e
       0.055630498 0.004291224 -0.0022018424 0.18139741
0001f0 1d b9 0d 3e 79 26 55 3d 15 c4 61 3d 27 d7 c1 3d
       0.13840146 0.052038644 0.05511864 0.09464865
000200 be 70 fb 3d 85 c6 86 3d 18 90 3c 3e 0a 51 42 3a
       0.12277363 0.06580833 0.18414342 0.00074125885
000210 6c 62 b4 3d 4f 86 36 bc 01 04 e1 bd a1 66 52 3d
       0.08807835 -0.01114042 -0.10987092 0.051367406
000220 fc d6 03 be da 11 12 3c f2 2a 17 3e ea 2b 94 3d
       -0.12874979 0.008915389 0.14762476 0.072349384
000230 d2 fe 30 3d 67 db 9e 3d f3 fb 31 3e d7 ed 42 bc
       0.043211766 0.077566914 0.17381267 -0.011897526
000240 0b c0 47 3c 69 e3 64 3d b1 97 86 3d 26 74 a9 3c
       0.012191783 0.055880938 0.065719016 0.020685267
000250 38 23 1e 3d 5d 21 a7 bd 11 d2 37 3d 9d bb 77 bd
       0.038607806 -0.081606604 0.04487807 -0.060481656
000260 8b 7f ed bc 81 24 23 3e e7 b4 c6 3d fd 08 06 3e
       -0.028991481 0.15931894 0.09702473 0.13089366
000270 2a 8c ae 3d e9 52 b5 3d c2 7b 3b 3e ad 6f 07 3e
       0.08522828 0.088537045 0.18308929 0.13226195
000280 ed bc 08 3e ad 8c b3 3d b5 ea c8 3d 83 c4 83 3d
       0.1335332 0.08767066 0.09810392 0.06433966
000290 40 41 05 3c 57 f6 52 3d bc d6 92 3c 3b 43 c4 bc
       0.008133233 0.05150446 0.017924659 -0.02395784
0002a0 e0 dc 08 3d d6 b4 e2 bc ed f3 30 bd 24 6d 6f 3d
       0.033413768 -0.02767412 -0.043201376 0.058453694
0002b0 f1 a6 81 3d 8c ad 35 bd 92 a1 93 3d 20 37 18 bd
       0.0633067 -0.04435496 0.072085515 -0.037161946
0002c0 76 02 2d 3d b2 a1 22 3d 61 a6 64 3d 11 85 c3 3d
       0.042238675 0.039704986 0.055822734 0.09546865
0002d0 c9 35 24 3e 30 0e ec 3c 6f 82 b1 bc f3 20 c0 b8
       0.16036142 0.028815359 -0.02166864 -9.161411e-05
0002e0 be 7a 5b bc 9b 62 53 3d 61 f7 ce bc a0 2b 14 bd
       -0.013395963 0.05160771 -0.025264444 -0.036174417
0002f0 4f e0 bc 3c f4 59 b1 3c b6 06 09 3d 5c 78 1a 3d
       0.023056177 0.021649338 0.033453666 0.03771244
000300 e4 d3 c2 bb 58 64 ac bc 16 24 c8 3d a3 93 4e 3e
       -0.0059456695 -0.021043941 0.09772508 0.20173506
000310 b4 52 05 bc 33 2f 72 3b 29 0e b1 3d 88 d7 6f 3d
       -0.008137394 0.0036954402 0.08645279 0.058555156
000320 16 4e 91 3d 71 cf 85 3d c2 6f 6a 3c 4a 8b d7 3d
       0.07094972 0.06533707 0.014308872 0.10524614
000330 84 a7 32 3e 62 eb 36 3e 61 74 58 bd aa 2a 4c 3e
       0.17446715 0.17863229 -0.052845363 0.1993815
000340 e7 01 12 3d 6a 88 97 bd cd 2b b3 bc 79 a2 bf 3c
       0.035646345 -0.07399066 -0.021871472 0.023392903
000350 2f 24 c0 bd 45 f4 3e 3e 03 64 b9 bd 1b fb d7 3c
       -0.093819015 0.18647869 -0.09052279 0.026364854
000360 94 87 c0 3d 67 70 a7 3d bb 60 7b bd 72 82 46 3d
       0.094008595 0.08175736 -0.061371546 0.048464246
000370 15 69 9d 3c a2 6d c7 bc 98 2c a1 bb 9a 2c 26 3e
       0.019215146 -0.02434427 -0.004918646 0.16227952
000380 9d bb 2a 3e 3d 80 f4 3d 0a 59 99 3c ae be 21 bd
       0.16673131 0.11938522 0.018719215 -0.039488487
000390 1a 07 04 3e 55 cb ae bc 8d 58 b6 bc bc ab 69 3d
       0.12893334 -0.02133719 -0.022259021 0.057048544
0003a0 4a cb d5 3c 66 ec aa bc 42 3c d8 bc f3 99 34 3d
       0.026097912 -0.020864677 -0.02639592 0.04409213
0003b0 25 f5 04 bc f1 3b d8 3c 45 d1 53 3e 4f 8d c4 3d
       -0.008115088 0.02639577 0.20685299 0.09597265
0003c0 93 6a a2 3d 31 0c 23 3d bf 55 b1 3d 65 f8 2c 3d
       0.07930484 0.03980655 0.08658933 0.042229075
0003d0 2e 72 d1 3c 88 e1 6f 3e 22 29 1d bd de 0a e0 3d
       0.02556714 0.23425877 -0.038369305 0.10939573
0003e0 76 df b5 3d 74 09 29 bc b3 19 82 3d e3 54 d3 3d
       0.088805124 -0.010317195 0.06352558 0.10318925
0003f0 e3 d5 c3 bb a6 6f 21 bd a5 d0 eb 3d b3 9e 23 bd
       -0.005976425 -0.039413117 0.11514405 -0.03994627

net.4.weight f4 [4, 256]
000000 b6 ac ab be 98 41 34 bf 2b c0 fb be 53 4d c0 be
       -0.33530205 -0.7041259 -0.4917005 -0.37558994
000010 45 a4 8b be 59 a6 9d 3e 0f 2c eb 3e a6 1f 5f 3e
       -0.27273765 0.30790976 0.45932052 0.21789417
000020 be ce 40 bd a1 56 a7 3e b6 90 e4 be b6 93 00 bf
       -0.047072165 0.3268328 -0.44641656 -0.5022539
000030 cc a8 18 3f 94 fb 05 bf aa cd 9e be bd af 8e 3e
       0.59632564 -0.52337 -0.31016284 0.27868453
000040 1c 61 fc be 22 6c e2 be 41 41 a0 be 06 51 2c 3f
       -0.4929284 -0.44223124 -0.31299785 0.6731113
000050 53 c6 0c 3f 9d 22 45 3f 44 4b 07 bf cb 2d 14 3f
       0.5499012 0.7700594 -0.5284922 0.57882375
000060 f3 45 34 bf f4 b3 88 be 6b 2b d3 3e 71 5a d3 be
       -0.70419234 -0.26699793 0.41244063 -0.4127994
000070 ae 89 ab be fc f4 22 3e 1a 87 f2 be 8f 88 b7 be
       -0.3350348 0.15913767 -0.473687 -0.35846373
000080 ed 5e 80 be 27 4d 09 3f 9b 67 d5 be 32 1b 5d 3f
       -0.25072423 0.5363335 -0.41680607 0.8636962
000090 f2 61 ca be 0e ea a3 3e 84 5f 4f 3e 38 f9 a5 be
       -0.3952785 0.32014507 0.2025128 -0.324167
0000a0 91 02 e2 3e db be 2d 3e 6f 87 e5 3e 5f 7d 6f 3e
       0.44142583 0.16967337 0.4482989 0.23387669
0000b0 a6 ae 60 3e e6 a5 99 3e cb da d3 3e 55 0d 81 be
       0.21941623 0.30009383 0.41377863 -0.25205484
0000c0 96 58 26 3f c8 96 be be be 63 12 3f 07 30 20 3e
       0.6497892 -0.37224412 0.57183444 0.15643321
0000d0 23 5f 0f bf 3a 7f e7 3e a1 6f ef be bb 3a b2 be
       -0.5600454 0.45214254 -0.46764854 -0.34810433
0000e0 cf fd 30 be 52 48 25 bf 64 d6 f3 be 34 82 95 3e
       -0.1728432 -0.6456348 -0.47624505 0.292009
0000f0 9d dd 52 3e f1 3e 58 be e3 61 84 be d1 d5 18 bf
       0.20592351 -0.2111776 -0.25855932 -0.5970126
000100 82 f7 d1 3c 91 5e a4 3e fe af ac 3e da 04 ed be
       0.025630716 0.32103398 0.3372802 -0.46292764
000110 ba 9c 07 bf 18 b8 4f 3f d8 6f 8d 3e 4c 0e 89 3e
       -0.5297352 0.8114028 0.27624393 0.2676872
000120 cb 25 e6 be 95 97 b1 be ee f4 f5 bd c2 e5 b5 be
       -0.4495071 -0.3468596 -0.12009607 -0.35526854
000130 cf 06 e7 be 0b 8c d2 3e d8 38 c5 be 7e d0 93 3e
       -0.45122382 0.4112247 -0.3851993 0.28870004
000140 90 8b 70 3e 25 fe 10 3f 83 bf 17 be bb 40 76 3e
       0.23490739 0.56637794 -0.1481915 0.2404813
000150 30 c1 f0 be 93 df 9e 3e d2 68 3c 3e 1f af dc be
       -0.4702239 0.3102995 0.18399361 -0.43102357
000160 4c db fc be 67 3e dc be a3 9b 7b 3e 13 8c ae 3e
       -0.4938606 -0.4301636 0.2457109 0.34091243
000170 82 70 62 3e 39 5b 6b 3f 57 1a fc be f1 2b e2 be
       0.22113231 0.9193607 -0.49238846 -0.4417415
000180 13 6e da be b7 01 b7 be 06 f0 4b 3f 59 7b e7 be
       -0.42662105 -0.35743496 0.7966312 -0.45211294
000190 8a db ac be da 50 53 3d c8 0d bd be 48 1a 88 3e
       -0.33761245 0.051590778 -0.36924577 0.2658255
0001a0 88 6c 51 3e 8f ae b9 be 44 2a a2 3e 39 54 17 be
       0.20451558 -0.3626599 0.3167287 -0.14778222
0001b0 0f 57 ff be a3 43 29 bf 9a 89 e8 be 6b 0e 2c be
       -0.49871108 -0.6611883 -0.45417482 -0.16802375
0001c0 d1 32 5f 3e 38 38 19 bf a8 a8 09 3e 13 c2 95 bd
       0.21796729 -0.5985141 0.13443244 -0.07312407
0001d0 a7 a4 d6 3e 02 df dd 3e 9a fb c4 be ee 77 d5 be
       0.41922495 0.43334204 -0.38473207 -0.41693062
0001e0 f6 86 1b be 6f e3 d9 be cd 29 a4 be 1b 2e 5c 3e
       -0.15188202 -0.4255633 -0.3206314 0.21501963
0001f0 fb b3 98 3e bc 0d bb be 42 e5 ea be 35 7d da 3e
       0.29824814 -0.36533916 -0.45878035 0.4267365
000200 38 df 58 3f c7 5f 11 bf 4a 06 70 3e cb 3e fb 3e
       0.84715605 -0.5678677 0.23439899 0.49071345
000210 a4 f1 8a 3e 7a 83 b8 be 6c 4b a7 be fa 98 32 3d
       0.27137482 -0.3603781 -0.3267473 0.04360292
000220 80 9c 0e bf 54 62 e8 be f7 59 a5 3e 13 0f 9e 3e
       -0.5570755 -0.45387518 0.322952 0.30870876
000230 ec a4 9c be e3 34 25 bf a5 3a 8a 3e 2b c0 e7 3e
       -0.30594575 -0.64533824 0.26997867 0.452638
000240 cf 8d ad be f0 40 72 be 9d cc bb be de f7 f0 be
       -0.33897254 -0.23657584 -0.36679545 -0.47064108
000250 cc 5c 5b 3e 8d 28 3a 3f be 30 89 be 0b 79 00 bd
       0.21422118 0.72718126 -0.26795 -0.031365436
000260 41 1e c6 be c1 1e 7c 3e f0 56 a1 3e a9 ff aa 3e
       -0.38694957 0.24621107 0.3151164 0.33398178
000270 31 b7 eb 3e b8 90 a6 3e 76 1b 89 3e 57 60 83 3e
       0.460382 0.32532287 0.26778764 0.2565944
000280 f8 1b 42 3e f6 37 e4 be e8 9e 3b 3e 73 b0 e2 be
       0.18955982 -0.44573945 0.18322337 -0.44275245
000290 af 3b dd be 0b 09 cb be 4c f9 c5 3e 24 28 4d 3f
       -0.43209597 -0.39655337 0.3866676 0.80139375
0002a0 38 1e db 3e 03 9e 1d be 30 f9 dd 3e d7 37 ae be
       0.42796493 -0.15392308 0.43354177 -0.34026977
0002b0 bb fd 59 be 67 24 07 3f f7 95 5a be 54 33 08 3d
       -0.21288197 0.5278992 -0.2134627 0.033252075
0002c0 38 80 0a bf 02 cc 21 3d e1 cc ee be 9b f8 91 3e
       -0.54101896 0.039501198 -0.46640685 0.28509983
0002d0 49 a7 75 3e aa 51 b0 be 44 d2 05 bf 81 84 9d be
       0.23989595 -0.34437305 -0.52273965 -0.30765155
0002e0 28 bb 05 3f a4 c1 66 be 38 3e ad be 70 d7 51 be
       0.522387 -0.22534806 -0.33836532 -0.20492339
0002f0 58 61 d8 be d3 78 ab be 4e 18 a9 be 6c 8f e4 be
       -0.42261767 -0.3349062 -0.33026356 -0.44640672
000300 e0 29 b1 be 8f b2 e4 be 03 9e cf be 38 21 8c 3e
       -0.3460226 -0.4466748 -0.4055024 0.27369094
000310 28 46 df 3e b7 c0 cd be 92 cc 94 3e ad 37 21 3e
       0.43608212 -0.40186092 0.29062325 0.15743895
000320 d5 2a eb 3e 56 bf c4 be db d8 14 bf 5c da cb 3e
       0.45931116 -0.38427228 -0.58143395 0.39815032
000330 9c db 4e 3e 44 c2 70 3e 82 17 04 bf 20 99 a0 3e
       0.20200962 0.23511606 -0.5159837 0.31366825
000340 77 0d 8a be c0 85 a5 be 08 6b c2 bc b5 fa 3b be
       -0.26963398 -0.32328606 -0.023732677 -0.18357356
000350 2e 73 a0 be f3 d2 6d 3e 25 ca 89 3c 74 85 f8 be
       -0.31337875 0.23225002 0.016820023 -0.48539317
000360 a4 b6 42 be 22 d1 61 3e 46 e5 e3 be bf e5 b1 be
       -0.19014984 0.22052434 -0.4451086 -0.34745595
000370 df 92 07 bf 2a ba d4 be aa 4e df 3e c8 03 53 3e
       -0.5295848 -0.41548282 0.43614703 0.20606911
000380 7e 6c 7e 3e 98 a4 54 3e 90 f7 ee be 57 76 e9 be
       0.24846074 0.20765913 -0.4667325 -0.455981
000390 a4 a5 8d 3e f3 61 ee be a3 62 da be 10 e8 ea be
       0.27665436 -0.46559104 -0.4265338 -0.45880175
0003a0 ff 23 73 be a7 97 e9 be e1 9f a7 be 57 c7 05 bf
       -0.237442 -0.45623514 -0.32739165 -0.52257293
0003b0 7b 8d 4d 3e 37 d4 0e bf bd 35 97 3e 99 71 be be
       0.20073502 -0.55792564 0.29533187 -0.37196043
0003c0 03 bb 42 3e f1 21 06 bf 5a 28 89 3e 19 18 0b bf
       0.19016652 -0.5239554 0.26788598 -0.54333645
0003d0 9a 68 02 bf 8d 90 a6 3e 98 91 39 3e e0 c6 39 3e
       -0.5094086 0.32532158 0.18121946 0.18142271
0003e0 92 b7 de be 9d 2a a9 be 51 78 65 3e 41 aa 10 bf
       -0.43499428 -0.33040324 0.22409178 -0.56509787
0003f0 d2 be 9a be 28 08 e0 be 65 64 42 3f 72 f4 2d 3f
       -0.3022371 -0.43756223 0.7593444 0.6795112

net.4.bias f4 [4]
000000 3c b8 00 3d 5d 67 0b 3d 6f 49 5f 3d 6c 17 ca 3c
       0.0314257 0.03403412 0.05451339 0.024669372
