drafts/draft_rk/runs_lunarlander/dqn_trial15_seed42.pth (torch, 279705 bytes, 6 tensors)

net.0.weight f4 [256, 8]
000000 a2 ed bd 3e 05 4f 8b 3e 5d 4c e9 bd 94 39 3c 3f
       0.37095362 0.27208725 -0.11391518 0.7352536
000010 af 92 ab be 46 b7 d0 3c fc 08 8f bd a7 46 77 3d
       -0.33510348 0.025478017 -0.069841355 0.060370114
000020 9a fa 5c 3f 5a 98 19 be 2a 0d 26 3f e2 a8 a7 3b
       0.8631989 -0.14999524 0.64863837 0.005116568
000030 0f 81 ca 3e d1 22 9f 3e 0e 69 e0 3d cd fa e2 bd
       0.3955159 0.3108125 0.109575376 -0.11082993
000040 b5 6a 9e 3e 6c e7 b6 3d f3 da 51 bc da 6f c1 3d
       0.30940786 0.08930859 -0.012808549 0.09445162
000050 2a 8e ae be 9a 86 4b be 70 e6 6e be 72 3c c4 3e
       -0.34092838 -0.19875565 -0.23330092 0.38327366
000060 94 39 16 bf 24 54 4f bd 9d 30 7e be 61 99 d9 be
       -0.5868161 -0.050617352 -0.24823232 -0.4249983
000070 2c 59 9b 3e 9e 33 56 be c3 48 b6 3e c6 30 cf be
       0.3034147 -0.20918128 0.35602388 -0.404669
000080 02 27 09 3e f2 21 75 3d 17 5e c9 bd 35 dd a2 3e
       0.13393787 0.059846826 -0.09832399 0.31809393
000090 13 aa f3 bd a0 59 f9 3e 00 38 92 3e 64 84 85 bd
       -0.118976735 0.4870119 0.2855835 -0.06519392
0000a0 71 8c b0 3d 3f 15 8a be d2 5c 0e 3f 5a 78 99 3f
       0.08620537 -0.26969334 0.5561038 1.1989853
0000b0 d8 19 3a 3c 23 eb 37 be c9 7f e6 3e 8d 63 f4 3d
       0.011358701 -0.17960791 0.45019367 0.1193305
0000c0 bd 95 ad bd 4e c4 9f be bc 99 07 bf e5 9d b9 be
       -0.08475826 -0.31204456 -0.52968955 -0.36253276
0000d0 05 15 54 bd 62 d5 b5 3e 21 6e b4 3d 7a c7 6c 3e
       -0.05177786 0.3551436 0.08810068 0.2312297
0000e0 a8 cb 06 bc 45 7c 1b 3c 8d 54 1c 3f ed dd ec be
       -0.008227266 0.009490077 0.61066514 -0.46263066
0000f0 05 45 a9 bc 78 81 82 be f5 2f 83 3e 18 06 81 be
       -0.020662794 -0.25489402 0.25622526 -0.25199962
000100 0d 62 96 3c bc 39 83 3d 56 0d d8 3e 14 b2 b8 be
       0.018357301 0.06407496 0.42197675 -0.36073363
000110 35 3d fb be c0 50 a2 be 3a 1d ad 3e fe 5d 46 3e
       -0.49070135 -0.31702232 0.3381136 0.19371793
000120 73 ec ac 3e 51 0a bb bd a3 f7 ce be 7c 1a 01 bf
       0.33774146 -0.09132827 -0.40423307 -0.50431037
000130 85 b2 c8 be 5b d5 aa 3e 30 2e 18 3e f8 fc 98 3e
       -0.391987 0.33365902 0.14861369 0.298805
000140 b3 d0 1e 3e c7 00 a2 be 0b bf e3 3e e3 b4 02 bf
       0.155093 -0.31641218 0.44481692 -0.5105726
000150 97 eb 18 be f5 0e e0 3b ff 77 95 3c b4 65 b1 bd
       -0.1493362 0.0068377205 0.018245695 -0.086619765
000160 35 ab 73 be a5 79 73 3e 19 86 4c bc 64 69 f8 bd
       -0.23795779 0.23776872 -0.012483143 -0.12129477
000170 0a 66 47 3e dd df 2d 3f 92 df 2a bd 9f 5f 32 bf
       0.19472519 0.67919713 -0.04171712 -0.69677156
000180 43 8e a7 3e 67 87 0c 3e 7e ef 20 be c1 c5 0b bf
       0.32725725 0.13723527 -0.15716359 -0.54598624
000190 5b e7 a1 be 2e 12 1e 3d 7b ce 11 bf be 75 00 bf
       -0.31621823 0.038591556 -0.5695569 -0.5017966
0001a0 9f c3 38 be 6f 96 ca be 2f 16 12 bf b9 05 88 be
       -0.18043374 -0.39567897 -0.570651 -0.26566866
0001b0 b7 1e 52 be f7 a3 67 be ac 37 cd 3e 08 16 4e 3d
       -0.2051953 -0.22621141 0.40081537 0.05031398
0001c0 7e d8 11 3e 0b 54 f8 be 92 49 f1 bd 3d 03 d9 be
       0.14242741 -0.4850162 -0.117816105 -0.42385283
0001d0 40 98 07 3e bf ea 2d bf 3d d7 d5 bd 78 fe 8b be
       0.13241673 -0.6793632 -0.10441444 -0.27342582
0001e0 0f e4 8c 3d a7 a4 ea bd ad bc 35 3d b7 96 9f be
       0.06879436 -0.11457186 0.04436939 -0.31169674
0001f0 19 6b c1 be aa 81 0f bf 53 21 2a bf 40 52 c6 bb
       -0.37777022 -0.56057227 -0.664571 -0.0060522854
000200 8a cf 72 3e f1 b6 76 bc 19 a0 ea 3e a2 ec 90 3d
       0.23711982 -0.015058265 0.4582527 0.07076384
000210 62 b7 87 bf 13 e0 a0 bc e4 58 06 be 11 3e bb 3d
       -1.0602839 -0.019638097 -0.13119847 0.091426976
000220 5c 80 19 bf 91 ed bd be 39 5e 9f be da 1e 0b bf
       -0.59961486 -0.3709531 -0.31126574 -0.5434395
000230 73 c4 1c 3e 01 63 a5 be 8b 13 09 3e 3d 73 8b be
       0.15309314 -0.32302096 0.13386361 -0.27236357
000240 1e 6c 2c be 9c 61 62 be 45 88 b8 3e 7b 98 cd 3f
       -0.16838118 -0.22107548 0.36041465 1.6062158
000250 74 b5 82 3e a6 79 8a be 5f b9 af bc 9a 0b 4f 3c
       0.25529063 -0.27045935 -0.021450697 0.012637043
000260 a9 47 28 3e a5 4c 81 be 10 e4 26 3f db ff 23 bf
       0.16433586 -0.25253788 0.65191746 -0.6406228
000270 0d d8 30 be 61 02 9e 3d a7 91 99 bd e7 11 84 be
       -0.17269917 0.077152975 -0.07498484 -0.25794908
000280 c7 50 e9 3e 2f 5d 33 3e 0c 84 12 3e 31 5b 13 bf
       0.4556944 0.17516015 0.14308184 -0.5756102
000290 13 49 8b 3e 79 3f 2b be 6e 09 25 be ba a0 84 3e
       0.2720419 -0.16723432 -0.16116878 0.25903875
0002a0 dd 45 04 bc fd 1b 48 bd e4 ab 98 be 07 90 2b 3e
       -0.008073297 -0.048854817 -0.29818642 0.16754161
0002b0 c1 cb 95 3f 76 7f 00 be 62 a2 32 bf 95 6d c6 3d
       1.1702806 -0.12548622 -0.69779027 0.0968887
0002c0 e4 26 16 bf d1 03 b5 3e 40 16 8c 3e 17 2c fa be
       -0.5865309 0.35354474 0.27360725 -0.48861763
0002d0 ff 2c 2e 3d b8 f3 89 3d 23 d3 05 bf c0 c5 05 bf
       0.04252338 0.06735939 -0.52275294 -0.5225487
0002e0 16 c0 9f 3e ee b6 00 3e bf be bd 3e 4b 1c 8b 3b
       0.31201237 0.12569782 0.3705959 0.004245316
0002f0 7b 2e 54 bf 94 9f 6d 3d 4a 59 70 3e 61 0a 4a be
       -0.82883424 0.058013514 0.23471561 -0.19730522
000300 57 b6 db 3e be d0 9f 3e c3 2c be 3e a4 9e ec 3c
       0.42912552 0.31213945 0.37143525 0.02888424
000310 b5 64 5f bd 77 0d 1b be 4c 4b c5 3d 58 1b 7f 3e
       -0.0545394 -0.15141855 0.09633502 0.24912775
000320 ea da 87 be 41 d9 27 be 8c b8 c8 3e 4c 9b 25 3e
       -0.26534206 -0.1639147 0.39203298 0.16172522
000330 14 ea 28 bd 97 70 a0 be 2e 63 58 bf 84 6a e7 3d
       -0.04123886 -0.313359 -0.84526336 0.11299613
000340 e5 83 59 3d 08 91 17 3e 41 d4 59 3e f6 9f 3b 3e
       0.0531043 0.14801419 0.21272375 0.18322739
000350 bb 00 96 be af 59 e2 be 2b e5 23 be bd 11 0c 3f
       -0.29297432 -0.44209048 -0.1600539 0.54714566
000360 59 cf 5b 3b 49 51 cc 3a ec 85 15 3c b0 4f a4 ba
       0.0033540337 0.001558819 0.009126168 -0.0012535956
000370 94 8b 97 bf bb 41 91 3d da 99 95 bd 06 6c 93 3d
       -1.1839471 0.07092615 -0.073047355 0.07198338
000380 36 c4 06 bc 75 ef 12 3e f3 2b 5b 3e b7 40 69 3e
       -0.008225491 0.14349158 0.21403484 0.22778593
000390 1a 5c ee be b7 3a 21 bf a2 84 2b bf c2 69 0b 3f
       -0.46554643 -0.62980217 -0.66999257 0.5445825
0003a0 b6 4d 90 3d d0 21 98 3e d8 3f 76 3e 9b 5a 7d 3e
       0.07046072 0.29713297 0.24047792 0.24741594
0003b0 e7 15 2f be 78 ac e6 be 93 54 01 bf 1b 13 41 bf
       -0.17098199 -0.45053458 -0.50519675 -0.7541978
0003c0 95 4c 87 3d e3 b7 a0 bd 94 bd 8c bd 41 83 32 bf
       0.06606404 -0.078475736 -0.06872097 -0.6973153
0003d0 d9 69 67 3e 25 47 d2 be 8e 84 74 be d3 10 4b 3d
       0.22598971 -0.41069904 -0.2387869 0.04957659
0003e0 3e c3 de bd f1 ba 89 3e 81 7b 93 bd 4e 94 e4 be
       -0.10877083 0.26900437 -0.07201291 -0.44644397
0003f0 cd e9 0a 3e 46 51 eb be 4b 3f 9b bd 9f 9f 5d be
       0.1356575 -0.45960444 -0.075804316 -0.21642922

net.0.bias f4 [256]
000000 6f a9 0e 3e 32 3d 06 3e f0 da a4 ba 35 be 36 3e
       0.13931821 0.13109282 -0.0012577455 0.17845996
000010 58 7c 77 3e eb 0e a1 be 15 99 58 be 26 1e 92 bb
       0.24168527 -0.31456694 -0.21152146 -0.0044591604
000020 cb d5 c2 bc 2e ea 5b 3e d2 24 6e be 24 37 3e be
       -0.023783585 0.21476051 -0.23256233 -0.18575722
000030 50 dc 73 3d 71 c4 32 be 6f 3d a2 3e 2e 0e a1 be
       0.05953628 -0.17457749 0.31687495 -0.3145613
000040 84 ed 77 3e e0 3a 4b 3e 01 d6 68 3e 53 6b ca bd
       0.24211699 0.19846678 0.22737886 -0.09883752
000050 37 a7 2a 3e 0e 84 8b 3d 83 a3 34 3c e3 09 6f 3e
       0.1666535 0.06812297 0.011025312 0.23343615
000060 bb 71 c4 be dc 6d aa 3e f4 05 c4 3d 08 91 10 ba
       -0.3836802 0.3328694 0.09571448 -0.00055147754
000070 94 08 2b 3e 2e b9 b1 3d 22 78 79 3e 0c 69 a7 3e
       0.16702491 0.08677898 0.24362233 0.32697332
000080 28 82 aa be 7a 16 a9 3e c7 74 64 be 8c 55 62 be
       -0.33302426 0.3302496 -0.22310172 -0.22102946
000090 04 0e df 3d 3c 05 af 3e 3f 91 80 be cb 37 b4 be
       0.10891345 0.3418368 -0.25110814 -0.35198817
0000a0 e6 ba 84 3e 10 9e bc be 1e 10 96 3e 07 f1 d0 bc
       0.25923842 -0.36839342 0.2930917 -0.025505556
0000b0 d8 11 f5 3d e1 9d aa 3e 7d 7d 7f bd d3 09 06 be
       0.11966294 0.33323577 -0.062375534 -0.13089685
0000c0 c5 d3 84 3e 5f 18 11 3e 59 4c 4d 3d 23 f1 17 3c
       0.25942817 0.14169453 0.05012164 0.0092738
0000d0 ab e2 b4 3e ca 9c 37 3c e3 b7 1f 3c 9e 65 13 3c
       0.35329184 0.011206815 0.009748432 0.008996395
0000e0 be ad 3e 3d ae 3a 6e 3e 53 7a c3 bd 3a 4f af 3e
       0.046552412 0.23264572 -0.09544816 0.34240133
0000f0 e5 42 bb 3d a3 16 13 3c 57 19 65 3e 5f a9 a8 bc
       0.091436185 0.008977565 0.22372948 -0.020588575
000100 8b 33 67 3d 32 73 32 3e 10 55 a7 3e 9a 03 41 bc
       0.05644564 0.17426756 0.32682085 -0.011780644
000110 1a 2b 38 3e ed 78 89 3e bd db 3e 3e 70 c6 93 3e
       0.17985192 0.26850072 0.18638511 0.28862333
000120 0d 14 31 3e 25 c4 37 3e 72 bd a6 3e 86 60 c2 3e
       0.17292805 0.17945917 0.3256641 0.37964267
000130 03 35 97 3d e0 e8 77 3e bb 60 b0 3e 8a a8 a9 be
       0.07383158 0.24209929 0.344488 -0.33136398
000140 86 50 a1 3e c9 e8 5f 3e e6 eb a4 3e 66 10 ef bd
       0.31506747 0.21866144 0.32211226 -0.1167305
000150 98 10 56 3d ef 9b c4 3e e3 74 69 be 41 a2 c4 3d
       0.05226192 0.38400218 -0.22798495 0.0960126
000160 49 54 63 3e 5e 30 e5 be 1f b0 e2 3c 29 3f 42 3d
       0.22200121 -0.44763464 0.027671872 0.047423515
000170 75 61 97 3e ce 36 f7 bd a4 5f 49 3e 63 7d 52 3e
       0.2956654 -0.12071 0.1966539 0.20555644
000180 95 67 0f 3e d2 2a ca 3e 70 59 10 3d 6d f1 a6 be
       0.14004357 0.39485794 0.035241544 -0.32606068
000190 4a 3f 36 3e 23 4c 56 3c 10 ad 3a 3e b3 70 c9 be
       0.1779758 0.013079676 0.1823008 -0.39343795
0001a0 f6 88 d7 3c 59 76 fb bd c5 63 b8 3e a5 6e 79 3e
       0.026310425 -0.122784324 0.36013618 0.24358614
0001b0 03 79 8f 3e 71 c5 9b 3e 3d b9 a8 3d 79 ac 75 bd
       0.28022012 0.30424073 0.082384564 -0.059978936
0001c0 bb f3 c9 bd 54 97 de bc 14 01 7a 3e 12 5f 1c 3e
       -0.09860941 -0.027171768 0.24414474 0.15270641
0001d0 78 ee a4 3e b4 d3 f0 3c 20 90 86 bd 43 6a 91 bd
       0.32213187 0.029397823 -0.065704584 -0.07100346
0001e0 4f 36 8a 3e 38 04 63 3e cb f0 80 3d 80 9d 1f bd
       0.2699456 0.22169578 0.062959276 -0.038968563
0001f0 2b 9e 05 be dc 5b 84 be bb 83 0e 3e a5 19 8f 3d
       -0.13048618 -0.25851333 0.13917439 0.06987313
000200 aa 6d 56 3e 67 ec 14 3e 36 d0 c3 bd d1 20 4a 3e
       0.20940271 0.14543305 -0.095611975 0.19739081
000210 27 40 56 bc 94 c1 7d 3d a2 2d c6 38 9a 60 db be
       -0.013076819 0.06195219 9.4498755e-05 -0.4284714
000220 15 ea 4e 3e 83 ce c1 3d 58 f4 4d bd 6e 62 ff 3d
       0.20206483 0.09463217 -0.050281852 0.12469946
000230 f9 4e ca be 34 5b b4 bd d9 28 97 bd ff 47 f3 bd
       -0.39513376 -0.08806458 -0.07380838 -0.118789665
000240 fe e5 f3 3d 85 d6 91 bc f9 ce 42 3e 3b 14 ea bd
       0.11909102 -0.017802486 0.19024266 -0.1142964
000250 d5 23 0a 3d 0c f4 ed 3c 87 4d f4 3d 52 a0 c1 3e
       0.03372558 0.029047035 0.1192885 0.37817627
000260 0e 8d 6d 3e b6 11 88 be 7d 68 aa be 66 2f f2 3d
       0.2319834 -0.26576012 -0.33282843 0.11825447
000270 27 9e 31 be 6b ca 56 3e 33 75 a7 3d 0f b0 a6 3e
       -0.17345487 0.20975654 0.08176651 0.32556197
000280 23 29 2d 3e 36 d0 4a 3c 1b 70 bb bc 13 9d a1 3d
       0.16910224 0.012378743 -0.022880604 0.07891288
000290 de 46 07 bc 9b a4 5d 3e 3e ec 87 be 79 56 1f bb
       -0.008256642 0.21644823 -0.26547426 -0.0024313016
0002a0 cd e0 af be 55 c8 15 be 9b 69 4a be e0 38 1c 3e
       -0.34351197 -0.14627202 -0.19766848 0.15256071
0002b0 74 5b 42 3e d2 7a dc 3d a5 f8 45 be 10 25 c1 3a
       0.18980199 0.107656136 -0.19333132 0.0014735777
0002c0 19 4a 6b bc d9 be 12 3e a8 3d 02 be 04 41 d7 3e
       -0.014360928 0.14330615 -0.12718832 0.4204179
0002d0 a4 86 19 3e fc 1d db be b5 4b dd 3d 66 96 f0 3d
       0.14992768 -0.42796314 0.108054556 0.11747436
0002e0 14 43 c4 bc ac 1d 70 be 27 62 33 3e 6c 54 2d 38
       -0.023957767 -0.23448819 0.17517911 4.132504e-05
0002f0 b0 47 ee 3e f3 e8 8c 3e c8 eb 9a bd 76 80 a2 be
       0.46539068 0.27521476 -0.07564503 -0.31738633
000300 64 0e 0f 3e f7 99 80 3d 79 14 af 3d 40 52 e9 bd
       0.13970333 0.062793665 0.08548827 -0.11392641
000310 3e 63 20 3e 35 6b a0 be fa 8e b7 be 6f 44 6c be
       0.15662858 -0.31331792 -0.3585127 -0.2307298
000320 13 61 9a 3e 1e c7 92 3d 41 00 8d be b5 da 78 be
       0.30152187 0.07166885 -0.27539256 -0.2430218
000330 14 0d 5c bd cc ca b1 be 38 38 87 3e db b0 56 3e
       -0.05372341 -0.34725034 0.2641008 0.20965903
000340 df 86 7e 3b d2 60 ad bd fe 17 55 3b ca e4 55 be
       0.0038837714 -0.08465733 0.003251552 -0.20888057
000350 13 49 ec b9 38 7b 19 3b 92 08 b4 3e 26 55 43 bd
       -0.00045067872 0.0023419391 0.3516279 -0.047688626
000360 8d 61 45 3e 1b 18 f4 3d 8c 33 c8 bd c2 a5 d7 be
       0.19275494 0.1191866 -0.09775457 -0.4211865
000370 c7 3b d4 3e a2 82 b8 3e bd d6 c0 3d 9b 09 65 3e
       0.41451856 0.36037165 0.09415958 0.22366945
000380 af 90 a7 3e b3 4f 5d 3e 97 2f 39 3e e6 f6 ec be
       0.32727572 0.21612434 0.1808456 -0.4628212
000390 4e e4 bb be 20 58 9c be 86 8d 19 3e 3b 73 bf be
       -0.3669762 -0.30535984 0.14995393 -0.373926
0003a0 30 86 24 be 33 95 10 be d4 82 ba be 51 9b 9c 3d
       -0.16066813 -0.14119415 -0.3642794 0.07646812
0003b0 30 1c da 3d b2 78 2f be a2 a7 9c 3e 4e f2 73 bd
       0.106499076 -0.17135885 0.30596644 -0.05955725
0003c0 93 ff ea bc 42 79 9d 3e 04 be dd 3e 49 61 84 bd
       -0.02868632 0.30756575 0.43309033 -0.06463868
0003d0 62 3c 02 be b5 0d 09 be 3a 80 9d 3d 0f e2 86 3d
       -0.12718347 -0.13384135 0.07690473 0.06586086
0003e0 63 0f 04 3e a7 26 6a be 15 87 93 be a0 e4 b1 be
       0.12896495 -0.22866307 -0.28813997 -0.3474474
0003f0 99 1f 9f 3c 04 ec 45 3d cf f9 47 be dc e4 7a be
       0.019424247 0.048320785 -0.19528888 -0.24501365

net.2.weight f4 [256, 256]
000000 a9 ad 21 3e 59 0f 80 bc a0 08 90 bd e3 d0 4d be
       0.15788902 -0.015632318 -0.07032895 -0.20099215
000010 82 94 72 3e 1b 25 c4 3e 45 37 0a 3e fa 62 52 bd
       0.23689464 0.3830956 0.13497646 -0.051363923
000020 e4 3f 8c bc eb 2a 50 3c 6b 9a f7 3d 76 b7 8f be
       -0.01712031 0.012705545 0.1209 -0.28069657
000030 c5 62 ac bc fa 24 df 3c 41 c0 02 3d 95 9f dd 3d
       -0.02104319 0.027239311 0.03192163 0.108214535
000040 d9 0a 11 3e af b0 93 be 87 e9 e6 3e 0e f0 c9 3d
       0.14164294 -0.28845736 0.45100042 0.0986024
000050 8c 85 81 bc 16 c4 36 3d ac d0 a1 be 7d 2c 9b 3d
       -0.01581075 0.044620596 -0.31604517 0.07576845
000060 7c 8c dd 3d 73 4f f4 3d d7 3e ae bc 49 ea 3a 3c
       0.10817811 0.11929216 -0.021270199 0.011408397
000070 b7 e3 46 bd aa 3c d8 bc cc a2 06 bc f9 e7 aa bd
       -0.04855701 -0.026396114 -0.008217525 -0.083450265
000080 a4 5d 85 3e 3e 52 da 3c 2a d8 3d 3e 49 13 95 3e
       0.26048005 0.026650544 0.18539491 0.29116276
000090 50 a4 6e 3d 6d 0b 06 bd 96 1c 10 be 72 c4 1c be
       0.05826217 -0.03272574 -0.14073405 -0.15309313
0000a0 e4 26 3f 3e cf c7 ce 3e 12 bd fa bc f5 05 a0 bb
       0.1866718 0.40386817 -0.030607734 -0.0048835226
0000b0 84 c8 39 be 07 85 be bc af dd 74 bd 8a d0 19 be
       -0.18142897 -0.023256792 -0.059781726 -0.15020958
0000c0 ff 47 c2 bd 50 7d 3e 3e ae da 2a bd 0e fe d1 bd
       -0.094863884 0.1860249 -0.041712455 -0.10253535
0000d0 25 0d 72 bc d7 8c 34 bd c8 c0 20 bf 2c 78 e3 be
       -0.014773642 -0.044079628 -0.6279416 -0.4442762
0000e0 65 f2 df 3d 65 bc b8 bd 78 4a 75 bc 43 83 17 3e
       0.10934905 -0.090203084 -0.014971368 0.14796166
0000f0 76 93 a4 3c 3c 13 5d bd c9 47 aa 3b 7d 24 2e bd
       0.020089846 -0.05397342 0.0051965457 -0.042515267
000100 a5 38 c1 bd 3f 87 e0 3c 58 e9 db 3d 34 c4 d6 be
       -0.09434632 0.02740824 0.10737866 -0.41946566
000110 d9 1b 3f 3d e1 17 88 bd e5 8e 5f bd 93 b6 1b bc
       0.046657417 -0.066451795 -0.054579634 -0.009503978
000120 f1 31 30 be d0 8a 2a 3d 5f ba 90 bd d4 aa 61 bd
       -0.17206551 0.04163629 -0.070667975 -0.055094555
000130 c9 26 8d bb 9d 19 fc 3e 84 f2 92 3d 2a db 29 bd
       -0.004307602 0.4923829 0.071751624 -0.041468777
000140 69 6a 0b 3e fa 93 32 bd d9 44 9a 3e 6c 61 da bd
       0.13614811 -0.043598153 0.30130652 -0.10663113
000150 f6 9c 1e be 54 82 83 3d eb 4a 36 be cd 87 3c 3d
       -0.15489563 0.064213425 -0.17802016 0.046027947
000160 c4 e4 c7 3d 5e 67 08 3c 2b 8f 3b 3e 6c c6 66 be
       0.097604305 0.008325426 0.18316333 -0.2253663
000170 d2 0f 85 3e 2c e3 f6 bd 95 0e 59 bd 30 6d bd bd
       0.25988632 -0.12055048 -0.052992422 -0.092493415
000180 62 cb 06 3d e3 a9 15 bd 58 04 15 3d d5 fd b8 3d
       0.032908805 -0.03653897 0.036381096 0.090327896
000190 01 74 1a 3e 74 a4 e1 3d f3 38 74 3d 67 81 9c 3e
       0.15083314 0.11017695 0.059624624 0.30567476
0001a0 0a b4 95 be f9 dc 97 3e 5f 8c 80 3c 8a c6 e6 3d
       -0.2923892 0.29660776 0.015691934 0.11268337
0001b0 09 2b 32 3d 26 21 8d bd 2d d1 e9 bb de 82 22 3d
       0.043498073 -0.06891088 -0.0071355314 0.039675586
0001c0 5f 20 10 be 7f da 04 bf 68 4a 6f bb 3f 5d 94 bd
       -0.14074849 -0.518959 -0.0036512855 -0.07244348
0001d0 71 cc e6 bb fb 2d a4 3d 10 bf 8c 3d 6f 61 42 bd
       -0.0070434143 0.080165826 0.0687238 -0.0474562
0001e0 f9 f6 b5 3d 7b 52 08 3e d2 cf 35 3e b5 d4 1e be
       0.08884997 0.13312714 0.17755058 -0.15510829
0001f0 91 48 93 3e 06 9c 0a 3e d8 4c 0b 3d 0b 03 a5 3c
       0.287663 0.1353608 0.03400883 0.020143053
000200 c1 03 ea ba 10 e6 8e 3c e5 48 7c 3d 67 d4 f8 3d
       -0.0017853902 0.017443687 0.061592955 0.121498875
000210 8c e2 f6 3d 18 d5 01 bd 3f a9 0a bf 31 10 e2 3c
       0.12054929 -0.031697363 -0.541645 0.027595611
000220 8e a7 e4 bd 0f 0b f8 3d a9 88 d4 bd be 4f 1e bd
       -0.11164771 0.12111484 -0.10377628 -0.038650267
000230 83 96 88 bd 0c 6b 83 3c 9d 10 88 be 33 71 d0 3c
       -0.06669333 0.016042255 -0.26575175 0.025444603
000240 8e d5 0b 3c f0 e2 80 3e 82 78 bc 3c 1c b9 1c bd
       0.008534802 0.2517314 0.023006681 -0.03826247
000250 6c cf bc 3c ec 2d 55 3e 29 68 8d 3e 7c e1 10 bd
       0.023048125 0.20818299 0.2761853 -0.03537129
000260 ad f2 1f 3e 1e 59 cc 3e a4 60 16 3e 72 0d 87 be
       0.15619917 0.3991174 0.14685303 -0.26377445
000270 45 b1 4a bd 33 df 9d bd 67 6b eb bc 5b a4 18 3e
       -0.049485464 -0.077085875 -0.028737737 0.14906447
000280 9f cc da bd 61 d3 56 be f1 36 ae 3a bd 3d c1 bd
       -0.106835596 -0.20979072 0.001329152 -0.09435604
000290 3e 4b 9d 3d 44 33 61 bd 25 5a f5 bd 6e 74 3b be
       0.07680367 -0.05498053 -0.11980084 -0.18306133
0002a0 9d ed 2d 3e 9f a4 1c 3e a9 b4 83 bd 99 10 43 bc
       0.16985174 0.15297173 -0.064309426 -0.011905813
0002b0 2d be 0d 3e a3 69 a8 3d 9e 6c eb 3d ab de 89 be
       0.13842078 0.082232736 0.114953265 -0.26927695
0002c0 2a 9c 6e 3e fb 9a e3 3d 35 00 a0 3d 33 44 85 bc
       0.2330176 0.111135446 0.078125395 -0.016267871
0002d0 2b bf f1 bd 1e 40 58 be 04 2d c1 3c 47 89 9e 3c
       -0.118040405 -0.21118209 0.023581035 0.019352568
0002e0 ef 68 c4 be 7d bf 3a bd e2 7c 84 bd cc 10 ef be
       -0.38361308 -0.045592774 -0.06469132 -0.46692502
0002f0 a8 41 bf 3d c1 04 ca 3d a8 71 09 be d7 67 94 3e
       0.09338695 0.09864188 -0.13422263 0.28985474
000300 4c df 15 3e 8a a7 55 3d 71 91 5f 3d 30 09 c7 bd
       0.14635962 0.05216173 0.054582063 -0.09718549
000310 98 58 80 3d 0b cc 3c 3d f7 c1 03 3c fb 6c 85 3d
       0.06266898 0.046093028 0.00804185 0.06514927
000320 fd 9b 90 bd 66 62 a7 3d a6 94 c1 3c dc 98 eb 3d
       -0.070610024 0.08173065 0.023630451 0.11503765
000330 b3 3c 0d 3d 85 21 51 3d 65 4f 8b 3d 17 e6 de 3d
       0.034481715 0.051057357 0.06802253 0.1088373
000340 27 0e bb bd ad cb fc 3e 2c 8f 11 3e 33 4a df be
       -0.09133559 0.49374142 0.14214772 -0.43611297
000350 61 ed 9a 3d d2 c9 b8 3c d5 b3 68 3d 6b 0b fc bd
       0.07564808 0.022557173 0.056812126 -0.12306865
000360 fd 74 51 3e 7c c0 0f be 86 e5 a9 3d 98 ac c5 3d
       0.20454784 -0.1403827 0.08295731 0.0965206
000370 2b dc c2 3c dc b2 e0 3d 5c d5 84 be 84 db 88 3d
       0.023786625 0.10971615 -0.2594403 0.06682494
000380 66 ad 1b 3d 2d e2 4c 3d 41 ef 48 3d 30 65 4d be
       0.038007163 0.050020386 0.049056295 -0.20058131
000390 85 45 e1 3d 1b d1 fd 3e 36 b9 c0 3d d7 26 1d 3e
       0.10999588 0.49573597 0.09410326 0.15346847
0003a0 03 c8 45 bc a2 4b 2e 3d bb b2 41 3e 05 b1 e7 be
       -0.012071612 0.042552598 0.18915837 -0.45252243
0003b0 f4 65 81 3e db a0 96 bd d1 0e 12 3d 67 51 c7 bd
       0.25273097 -0.073548995 0.03565866 -0.09732323
0003c0 a7 f5 f3 be d7 f9 a8 3d 80 d1 e0 bc 83 c6 d1 be
       -0.47648355 0.08250778 -0.027443647 -0.40971765
0003d0 76 62 7d be 5d b3 b1 3d 15 cc 5b bc a5 a3 3d 3e
       -0.24744591 0.08676789 -0.013415356 0.18519457
0003e0 c4 7e c2 bd 99 c1 1d be f4 3b 94 3e 6f 23 7d 3e
       -0.09496835 -0.15405883 0.2895199 0.24720548
0003f0 c1 07 e4 3d ac 61 f5 bd f0 00 88 3d 31 0f a3 3d
       0.111342914 -0.1198152 0.06640804 0.07961882

net.2.bias f4 [256]
000000 3c 4a b3 3c 3d c3 31 3d 0f aa c0 3d 1e ff 05 be
       0.021885984 0.043399084 0.09407436 -0.130856
000010 26 fd d9 3d 03 1e 2b 3e 43 fa dc 3c 55 d1 23 3e
       0.10643987 0.16710667 0.026974803 0.15997823
000020 7c 89 ea 3c be d7 0c 3e ae 26 2a 3d 94 4b 9e bc
       0.02863001 0.13754174 0.041540794 -0.019323148
000030 f4 ba f6 bc bb 5f 36 3d b2 89 38 be 94 86 ad 3c
       -0.030118443 0.04452489 -0.18021277 0.021182336
000040 09 11 72 bd db e6 a3 bd ba 0d 20 3d dd 78 1b 3d
       -0.059098277 -0.080030166 0.03907559 0.03795706
000050 36 90 27 bd db f8 b4 3d 39 6d 24 bc 02 be 45 3d
       -0.040909015 0.08836528 -0.010035806 0.04827691
000060 2f d2 97 bb 1c 0c fa 3c 78 53 40 3d 2b b6 3e 3c
       -0.00463321 0.030523352 0.046954602 0.011640112
000070 c1 e9 7d 3c 78 e4 94 3d 4d f4 cc bd 9b c2 db bc
       0.015497626 0.072701395 -0.10007534 -0.026826194
000080 9d b5 90 3d 41 dc 10 3d 3a 63 3b 3d 22 2c 7f bd
       0.0706589 0.0353663 0.045748927 -0.062297948
000090 f5 8b 48 3c 24 06 01 bc 7c a9 19 3e 15 a9 94 3b
       0.0122404 -0.007874999 0.1500606 0.0045367577
0000a0 59 09 c3 3d cf 15 0d 3d 4b c0 2b 3e a4 b8 5d 3d
       0.09523267 0.034444626 0.16772573 0.054131165
0000b0 ef a3 06 3e 8a 85 89 3c 4d f0 8e 3c 57 26 9e 3c
       0.13148473 0.01678731 0.017448569 0.019305391
0000c0 db 5f 8b bd e4 11 f8 bc 4c c8 0b 3e 24 77 a0 bd
       -0.06805392 -0.030281968 0.13650626 -0.07835224
0000d0 ac 8f f5 3d e0 35 ab bc db f2 35 bd 6b b5 47 3d
       0.11990294 -0.020899713 -0.04442106 0.048756998
0000e0 86 e0 0a 3e c5 a9 4f 3d 27 fc d1 bd df 2a 6a bd
       0.13562211 0.050699014 -0.10253172 -0.05716979
0000f0 7b e4 18 3d 14 72 13 bc ca 03 14 3e 64 d7 a4 3d
       0.03732727 -0.008999366 0.1445457 0.08048895
000100 4d c6 a2 bc 94 85 d7 3d 5f 27 13 3e 97 1b d6 bb
       -0.019869948 0.10523525 0.14370488 -0.0065340507
000110 20 b6 4e bc f0 30 cb bc 91 7d 4b bc 70 03 f7 3d
       -0.012616664 -0.024803609 -0.012420074 0.120612025
000120 e9 2b 06 3b df 34 2b bd 00 5c 7f 3d 91 51 7b bc
       0.002047295 -0.04179847 0.062343597 -0.015339271
000130 46 1a 5e bd b0 a3 53 bb 00 3a 33 bd 2c 34 91 bd
       -0.054224275 -0.003229361 -0.043756485 -0.07090029
000140 38 ce db 3c f8 fd 3f 3c 71 cd 10 bd 86 10 35 3e
       0.026831731 0.011718266 -0.035352174 0.17682084
000150 da d3 80 3d b8 a2 b1 bc 76 c7 fc 3c e7 04 ca bc
       0.062904075 -0.021684036 0.03085683 -0.02466054
000160 60 bf 20 bd f1 c6 2e bd 84 1d 0c 3e e9 df 5c 3d
       -0.03924501 -0.042670194 0.13683134 0.053924475
000170 57 c1 22 3e 14 7f 10 3e c9 bb 45 3d 72 1d 76 bd
       0.15894066 0.14110976 0.04827479 -0.060086675
000180 76 c9 1f be ce 34 11 3d 80 d1 0a 3d 1d 28 71 bc
       -0.15604195 0.03545075 0.0338912 -0.014719036
000190 ee 39 5a 3d a8 5b 36 bd 0f e8 0e bd be bf 43 3e
       0.053277902 -0.044521004 -0.034889277 0.19116113
0001a0 6c be e3 3d a3 3a f6 3c 0c 09 5c 3e b6 ff 93 bd
       0.111203045 0.030057257 0.21487826 -0.07226507
0001b0 0a 67 99 3d 11 ee 7e bd 9c ab 09 3d 21 89 36 3d
       0.07490356 -0.062238757 0.033610925 0.04456437
0001c0 60 fc d0 3d 76 32 1e 3d 26 24 a4 bd 5e bf 93 3c
       0.10204387 0.038622342 -0.08014707 0.018035587
0001d0 bd ef 67 bd 42 1d 25 3e c3 5a 21 3d 0a 50 51 3c
       -0.056625117 0.16124442 0.039393198 0.01277543
0001e0 9c fb ba 3d 0e e1 47 bd f2 88 3c bd c8 76 e7 3d
       0.09130022 -0.048798613 -0.04602904 0.113019526
0001f0 8d ed 60 3d 45 a3 73 bd e3 f2 0e 3c 32 f9 8c 3d
       0.054914046 -0.059481878 0.008724901 0.06883468
000200 56 32 74 3c 0f af 47 3d f2 cf 3b 3d 1e aa 0d 3c
       0.014904579 0.048750933 0.04585261 0.008646516
000210 de 04 37 bc c8 3b 33 3d 0b 3a 0d be d2 f0 e8 3d
       -0.011170594 0.043758184 -0.13791673 0.11374058
000220 95 6d d1 bd 0e 36 b1 bc 2e 6c b7 bc d2 a1 6c 3d
       -0.10225979 -0.02163222 -0.022390451 0.05777151
000230 72 5a 13 3d 4f 74 b4 3d 00 20 16 3e 1f 52 65 bd
       0.035974927 0.088112466 0.14660645 -0.05598652
000240 6c 00 16 bb 21 62 89 bb cd 74 03 ba 19 3a c4 bc
       -0.0022888435 -0.004192606 -0.0005014658 -0.023953484
000250 a3 cf d5 bc a5 51 d6 bd d8 4a 57 3d 72 f5 9d bd
       -0.026099985 -0.10464791 0.05256161 -0.077128306
000260 a4 e6 63 bd 5f b7 89 3d 87 46 e9 3d 57 5f 19 bd
       -0.055639878 0.067244284 0.11390405 -0.03744444
000270 6c 03 66 3c 05 e2 9a 3d 41 aa 2f 3e ed 90 05 bd
       0.014038902 0.07562641 0.1715479 -0.032608915
000280 c9 3f fb 3d d4 1f bf 3d eb 7e 13 3d 01 46 28 3d
       0.122680254 0.093322426 0.03600971 0.041082386
000290 4d e5 09 3d 3d 3e 2b 3d 68 30 8a bc 18 5c 76 3d
       0.033665944 0.041807402 -0.016868785 0.06014642
0002a0 79 a1 fa bc 0b b8 88 bd db e6 3f 3d e2 9b 5d 3c
       -0.030594574 -0.066757284 0.04685102 0.013525935
0002b0 33 62 be 3d 76 72 51 bd 83 6f a4 3d 80 57 f5 3c
       0.09296074 -0.05113455 0.08029082 0.02994895
0002c0 1e e6 df 3c 45 4e 02 3d 00 e1 7c 3d 49 8a 9d bd
       0.027331408 0.031812925 0.061738014 -0.076923914
0002d0 40 4f 84 3d 8e 25 a6 3c 6e f3 f2 bc c5 64 e0 bc
       0.06460428 0.02028158 -0.029657092 -0.0273918
0002e0 17 f7 a0 3b 24 2c 04 3d 48 cb 71 bd f8 c6 d0 bd
       0.004912268 0.03226866 -0.059031755 -0.101942
0002f0 fc a4 5f bb e2 1b a8 3c 05 25 48 bc cc 49 19 3d
       -0.0034125438 0.020521108 -0.012215857 0.037423894
000300 01 2c 34 bd 22 78 8d bc c8 f4 ff 3c 77 69 9b 3c
       -0.043987278 -0.017269198 0.03124465 0.018971188
000310 b4 75 01 bd 2d 9e 69 bd 00 1b 62 3d 15 d3 29 bd
       -0.03160639 -0.057035614 0.05520153 -0.04146107
000320 2f a7 b7 3d 1a ea 14 3b bb 24 9f bd 2a 2d 2c 3c
       0.089674346 0.0022722543 -0.07770678 0.010508815
000330 bc 2d 1e 3e 0b 50 1e 3e d7 ee 3f bd 3d e5 b4 3d
       0.15447134 0.15460221 -0.046858635 0.08832786
000340 34 81 83 bd b0 32 45 bd ac ce 2d bd e1 b8 28 be
       -0.06421128 -0.048144042 -0.042433426 -0.16476776
000350 3e c6 98 bc d6 98 cf 3d 52 91 6b 3d 14 e8 dc bc
       -0.018649217 0.10136573 0.057511635 -0.026966132
000360 3b 38 84 3d 29 f7 5a bd 75 e5 c5 bd 22 e3 25 3d
       0.064560376 -0.053458367 -0.09662906 0.040499814
000370 50 d8 b4 3c f9 0c 04 bd f8 bb 79 bd e3 f6 a7 3d
       0.022075802 -0.032238934 -0.060970277 0.08201387
000380 a2 72 10 bc 51 66 31 3d 0b 8c 9e bb dc 35 9f bd
       -0.008816393 0.043310467 -0.0048384718 -0.07773945
000390 82 e2 12 3e ae 02 c5 bc c1 01 23 bd c7 2b e7 3c
       0.14344218 -0.02404913 -0.039796595 0.028219117
0003a0 f7 17 4c 3c 98 1c 82 bd 9a 4d 44 bd 86 6e b5 3c
       0.012456886 -0.0635311 -0.04792557 0.022147428
0003b0 c7 23 c3 3c d1 f6 7e b9 9a fb 3e 3e 1d f8 6a 3d
       0.02382077 -0.00024315274 0.18650666 0.057365526
0003c0 7d 51 9e bc d4 31 cf 3c e7 db 3d 3d fc 22 66 3d
       -0.019325966 0.025292315 0.046352293 0.056185707
0003d0 33 11 4c 3d d8 02 0c 3d d6 cf e4 3c 7b 0b 14 3c
       0.04982109 0.0341824 0.027931135 0.00903594
0003e0 05 21 82 3d c6 5b 09 bd 9c a7 60 3d 13 0f c0 3c
       0.06353954 -0.033534788 0.054847345 0.023444688
0003f0 44 f6 bd 3b ce 8d 85 bd 65 5e 4f 3e 72 f4 d9 bc
       0.0057971794 -0.06521188 0.20250852 -0.026605818

net.4.weight f4 [4, 256]
000000 9c 8f b9 bd 8e 9d 84 be 85 52 d2 be db 39 8d be
       -0.090605944 -0.25901455 -0.41078582 -0.27583203
000010 09 a0 63 be 6d f8 bb 3e 32 f6 82 3e 5f 67 5f 3e
       -0.22229017 0.3671297 0.25578457 0.21816777
000020 be ce 40 bd 34 ad 30 3f 2a 09 b7 be 12 9e cb be
       -0.047072165 0.69014287 -0.3574918 -0.39769036
000030 71 de 96 3b cf 7e bd be f4 e2 46 be 42 3d 20 3e
       0.004604154 -0.3701081 -0.19422513 0.15648368
000040 0d df 2a 3d 48 d8 b0 be 98 15 83 be 80 c0 ae 3f
       0.041716624 -0.3454001 -0.25602412 1.3652496
000050 86 80 77 3d 6a 5a 4f 3f 88 8b c4 bc cb 8c ae bd
       0.060425304 0.80997336 -0.023992315 -0.08522948
000060 cc f4 e1 be aa 8a 84 bd 09 2d 0b 3e a4 d8 ad be
       -0.44132078 -0.064717606 0.13591398 -0.33954346
000070 d7 32 73 be 45 2e 0a bf 48 a3 12 bf ea b6 aa be
       -0.23749863 -0.5397685 -0.572804 -0.33342677
000080 e4 ae 43 be 2d 4d 6a 3f d9 f3 af bc 5d 4b b2 bc
       -0.19109684 0.9152401 -0.02147858 -0.021764452
000090 90 c2 38 be 32 a5 65 3d 24 d7 d5 3e 87 c2 e5 be
       -0.1804297 0.056065746 0.41765702 -0.44874975
0000a0 15 33 eb be 16 9d b2 be 03 67 9f 3e 72 fe f6 3e
       -0.4593741 -0.34885472 0.3113328 0.48241
0000b0 03 8a de 3e 84 25 2c 3f fa ce 2c 3d 19 2c 1c be
       0.4346467 0.67244744 0.042189576 -0.15251197
0000c0 91 36 90 3a de 67 e5 3e 68 e6 a2 3e af d6 73 be
       0.001100259 0.44805807 0.3181641 -0.23812364
0000d0 91 fa c4 3e c0 f1 c4 bc b9 b5 59 be 17 99 ac 3e
       0.38472417 -0.024041057 -0.21260728 0.33710548
0000e0 b1 41 2e be 0e dd f4 be 98 98 ef be c0 f8 78 3d
       -0.17017247 -0.478249 -0.46796107 0.0607841
0000f0 1b b9 55 bd 45 4e ae 3f 65 f8 8b be 85 90 ed be
       -0.052178483 1.3617636 -0.27337947 -0.46399322
000100 66 7b c7 3c 32 e1 d6 3e 3b 38 b8 3e 48 cb f3 be
       0.024350833 0.41968685 0.359804 -0.4761603
000110 fb 91 ba be 3f f2 e0 39 a2 1e 60 3c bc 3d 38 3f
       -0.364395 0.00042905097 0.013679178 0.719692
000120 73 63 9b be 9f ee 63 be 0c f6 08 be 17 9b a0 bd
       -0.3034931 -0.22258995 -0.1337511 -0.07842081
000130 d6 d5 07 bf 71 e7 04 3d 87 f5 a8 be 92 4b 26 3f
       -0.5306066 0.032447282 -0.32999822 0.6495906
000140 ed 3b 97 3f db e7 3d 3d 90 e2 4b be 5b ac 84 3e
       1.1815163 0.046363693 -0.19910645 0.25912747
000150 a4 9c 88 bd d0 5c 51 3c de 73 37 3e 18 75 8b be
       -0.06670502 0.012778476 0.17915294 -0.27237773
000160 91 8a bf be a6 77 b1 be 16 44 89 3e 04 95 01 bf
       -0.37410405 -0.34661597 0.26809758 -0.50618005
000170 98 c5 63 3e e9 84 8c 3e 1c 68 d6 be 4f 55 37 bf
       0.22243345 0.27445152 -0.41876304 -0.71614546
000180 86 ff 94 be 31 2d 82 be d9 53 09 3f 5b 4f c2 be
       -0.291012 -0.25425103 0.53643566 -0.37951168
000190 98 c0 8c be da 50 53 3d b5 d3 63 be 2b 71 8a 3e
       -0.27490687 0.051590778 -0.22248729 0.27039465
0001a0 56 3a b6 3e 95 49 91 be cd 0f ea 3e 06 f4 d9 bd
       0.35591382 -0.2837645 0.4571518 -0.10642247
0001b0 a8 30 d7 be 31 7e 45 bd db b8 c3 be ac 0f 84 be
       -0.4202931 -0.04821605 -0.3822697 -0.25793207
0001c0 44 93 db 3e c7 e9 90 3e 39 ab 15 bf 7b e5 5d 3d
       0.42885792 0.28303358 -0.5846439 0.054173928
0001d0 ae 1a fb 3e 8b d3 d2 3e e3 96 2c be 4d 20 79 be
       0.49043792 0.4117702 -0.16854434 -0.24328728
0001e0 81 a5 40 be d2 a7 d7 be f6 fd 9a 3e 14 12 e3 3e
       -0.18813135 -0.42120224 0.30271882 0.4434973
0001f0 1b 24 15 3f 31 9a b2 be 25 b5 b9 be ca 0d 8c 3e
       0.5825822 -0.34883264 -0.36271015 0.2735427
000200 03 91 ec be 31 5b e3 be c3 5f ec 3e e2 03 09 3d
       -0.46204385 -0.4440551 0.4616681 0.03345097
000210 d1 17 50 3f fc dc b6 3e f4 c7 66 3e 27 64 43 3f
       0.8128634 0.35715473 0.22537214 0.76324695
000220 ae fb c6 be 8b 59 ae be c1 45 4a 3d 81 97 d1 3e
       -0.3886389 -0.3405269 0.04938293 0.409359
000230 18 c0 a6 be b6 08 df be 21 00 ae 3e 72 a0 13 bd
       -0.3256843 -0.43561333 0.33984473 -0.036041684
000240 dc 6e ee be e5 b8 3d bf 7a 65 a1 be ef bd ee be
       -0.46568954 -0.7411025 -0.31522733 -0.46629283
000250 33 ad f6 3c b0 12 52 3f fd 54 2c be f3 cf 23 bd
       0.030111885 0.82059765 -0.16829295 -0.039993238
000260 53 0f 9d be 61 2f dd 3e 68 fa c2 3e a4 7b 12 3d
       -0.30675754 0.4320021 0.3808167 0.035762444
000270 fe b3 bc 3b a2 78 27 3f 7b c4 86 3e ad df 19 3c
       0.0057587614 0.65418446 0.26321778 0.009391707
000280 54 b5 1a 3e b6 18 cb be c2 e5 32 3f 4c 76 b2 be
       0.15108234 -0.3966729 0.6988183 -0.34855878
000290 bd fa e1 be 08 f6 ac be a0 52 86 3d 7c e9 df 3e
       -0.4413661 -0.33781457 0.06558728 0.43732822
0002a0 ae 9c 18 3d 1e d6 74 bd 30 6c b0 3e b5 c8 b3 be
       0.037258796 -0.05977451 0.3445754 -0.35114065
0002b0 24 2b 5d be 0f 08 91 be 74 37 fb be 46 fe 70 3f
       -0.21598488 -0.2832646 -0.49065745 0.9413799
0002c0 d9 fe 08 bf 02 cc 21 3d ca 93 bc be 2f c7 12 3f
       -0.53513867 0.039501198 -0.36831504 0.5733518
0002d0 fc 9c b4 3e 9f bd a1 be 55 96 de be 04 62 e5 be
       0.3527602 -0.31589982 -0.4347407 -0.44801342
0002e0 cd 8f db 3c 2a 09 48 be 4c 34 19 3c 3a 83 6f be
       0.026801968 -0.19534746 0.009350847 -0.23389903
0002f0 88 2b 8f be b4 57 e2 be 0b d1 f4 3e 1a 22 bd be
       -0.279629 -0.44207537 0.47815737 -0.3694008
000300 8e 3a 33 be 48 46 c5 be c3 29 cb be 85 c6 cc 3e
       -0.17502806 -0.38530183 -0.396803 0.39995208
000310 91 58 c8 3e 32 20 bf be cc ec 35 3e 8b 2f 1d 3e
       0.3913007 -0.3732925 0.17766112 0.15350167
000320 b3 7b ce 3e 39 9d a6 3e 40 4c bf be ef f3 22 3f
       0.4032875 0.32541826 -0.37362862 0.63653463
000330 18 eb 88 3e a2 19 68 3e 00 e5 e3 be 6c bb 2f 3f
       0.26741862 0.22666028 -0.4451065 0.6864536
000340 78 0b 36 bd 48 f1 08 be 7b 6b 15 bd 6d c1 2e bf
       -0.04444453 -0.13373291 -0.036479454 -0.68263894
000350 fa f8 50 be 71 9c 06 3f ad be 89 3f 04 c5 c7 be
       -0.20407477 0.5258246 1.0761315 -0.39017498
000360 62 3c ae 3e 74 93 ea bc 1b d0 b1 be 89 95 7c be
       0.34030443 -0.028634764 -0.34729084 -0.24666418
000370 dd 5d c8 be 8a 9d d5 be 85 6b 51 3d 5a 7f dd 3e
       -0.39134112 -0.41721755 0.05112793 0.43261224
000380 84 92 0a bd 72 7a cd 3e 2f 89 e2 be 71 f3 72 be
       -0.033831134 0.4013248 -0.44245288 -0.23725678
000390 25 d6 28 3f 7a 35 9d be 47 a7 ac be 05 c4 4b be
       0.6595176 -0.30704862 -0.33721372 -0.19898994
0003a0 a4 d6 5c be d8 7c 73 bd af 3c bb be d4 ab a3 be
       -0.21566254 -0.059445232 -0.36569735 -0.31967032
0003b0 ee 21 90 be 41 3f eb be 7c cb 9f 3e 20 06 c0 bb
       -0.28150886 -0.45946696 0.31209934 -0.005860105
0003c0 26 77 5a 3e ce 8e d8 be 06 81 4f 3f ab ae dd be
       0.21334514 -0.4229645 0.8105625 -0.43297324
0003d0 c5 3c bf be ff 5c 15 3f 1b f0 bc 3e bb 49 cd be
       -0.3735105 0.58345026 0.36901936 -0.40095314
0003e0 6a 52 df be 1b 63 41 be d4 e6 ba 3e 3e d1 5a 3d
       -0.43617564 -0.18885462 0.36504233 0.053422205
0003f0 e3 38 46 be 1c 2c 97 be a4 32 e0 be 7b 86 18 3f
       -0.19357638 -0.2952584 -0.43788636 0.595802

net.4.bias f4 [4]
000000 83 a0 00 3d ad 57 a5 3d 22 c4 90 3d 45 b3 b7 3c
       0.031403076 0.080733635 0.07068659 0.02242435
