drafts/draft_rk/runs_lunarlander/dqn_seed42.pth (torch, 279609 bytes, 6 tensors)

net.0.weight f4 [256, 8]
000000 b4 54 3e 3e aa b8 9e 3e 0e 08 29 bd 6f a7 3a 3f
       0.18586999 0.31000262 -0.041267447 0.72911733
000010 23 2c f1 bd 3b ac 2e be c2 32 17 be db c5 07 3e
       -0.117759965 -0.17057888 -0.14765456 0.1325907
000020 0e 35 43 3f fd 34 6b be 1c b6 54 3f 8c b3 7a 3d
       0.7625283 -0.22969432 0.83090377 0.061206385
000030 db c4 ff 3e 54 d5 2c 3e ea 28 b9 3d 40 88 12 be
       0.49954876 0.16878253 0.09041007 -0.14309788
000040 c6 bd fb 3e 44 ad aa 3d 5f 6b 04 be 30 4a 1f 3e
       0.49168223 0.08333829 -0.12931584 0.15555644
000050 a5 89 9f be 2d 1b cb be db b2 83 be bf 1d c6 3e
       -0.31159702 -0.3966917 -0.25722393 0.3869457
000060 a8 2b 07 bf ce 00 91 bd 57 12 88 be 0a ce af be
       -0.5280099 -0.070802316 -0.26576492 -0.34336883
000070 3f 48 e4 3e 43 02 32 bf 58 89 eb 3e c4 e0 df be
       0.4458637 -0.695347 0.46003222 -0.4372617
000080 95 da c1 ba ac 49 b0 bc 11 c2 b9 be 65 ff 5f 3f
       -0.0014789874 -0.021519504 -0.36280873 0.87499076
000090 3e 0a ff 3d f2 e2 2a 3e 6b 14 c0 3d 43 53 92 bd
       0.124531254 0.16688135 0.093788944 -0.07144787
0000a0 08 86 89 3d ec f5 41 3e 94 79 93 3d 82 57 e2 3e
       0.067150176 0.18941468 0.072009236 0.44207388
0000b0 67 14 6c be 23 bf cf be f7 a9 c0 3e 4f 70 d8 bb
       -0.23054658 -0.40575513 0.37629673 -0.006605185
0000c0 c1 ac 55 3d 9a 89 b2 be 28 34 b1 be 3a 3f f2 be
       0.052166704 -0.34870607 -0.34610105 -0.47313863
0000d0 db 29 41 3d af e1 18 3f 1b 4e 4c 3e 81 5e 33 3e
       0.047159057 0.59719366 0.1995167 0.17516519
0000e0 0f 66 93 3c e9 c1 bc 3c 9f 29 40 3f d5 ce c9 be
       0.017993001 0.023041682 0.7506351 -0.39415613
0000f0 4c 38 b0 3e 85 d2 ca be a3 08 7f 3d a0 46 7d bd
       0.3441795 -0.3961374 0.062264096 -0.06183493
000100 76 97 44 be 91 3d 4c be eb 36 19 3f 1e bb 13 bf
       -0.19198403 -0.1994536 0.59849423 -0.57707393
000110 50 74 80 be ae 1f 4a bf d1 96 f5 3e dd 58 3d 3e
       -0.2508874 -0.7895459 0.47966626 0.1849093
000120 61 2a e1 3e 8d 61 30 be fd e0 c6 be 2f 80 03 bf
       0.43977645 -0.17224713 -0.38843527 -0.5136747
000130 42 7a 6c be 14 e2 96 3e 64 9e f8 3d 28 d1 9a 3e
       -0.23093513 0.2946936 0.121395856 0.302377
000140 82 c0 4d be 11 ad 34 bf 90 19 d8 3c cb e9 1f bf
       -0.20092967 -0.7057658 0.026379377 -0.62466115
000150 a3 18 7f bd ef ba 9d 3d 8e 62 03 3e 90 f5 c1 bd
       -0.062279355 0.077016704 0.12830564 -0.094706655
000160 a4 4c 30 3d 2c a5 cd 3d 1c 6f ba 3e 3f 91 4d be
       0.04304184 0.1004127 0.36412895 -0.20074938
000170 1f 2c 99 bd 88 45 38 3f b2 4f 95 3e 7b 5c 41 bf
       -0.074791186 0.71981096 0.29162365 -0.7553174
000180 5e e2 cf 3e c8 c6 58 3d 6c 4c 92 be 8f c4 0b bf
       0.40602392 0.052923948 -0.2857393 -0.545968
000190 d7 81 92 be 47 e2 6f 3d dc a5 02 3d 23 92 bf bd
       -0.28614685 0.058565404 0.031896457 -0.09354045
0001a0 00 6d cb be 41 d5 03 bf a0 e8 b5 be 72 cd fa be
       -0.39731598 -0.51497275 -0.3552904 -0.48984867
0001b0 0f c7 d6 be 40 a0 06 bf 34 6c 09 3f 53 52 85 bd
       -0.41948745 -0.5258827 0.5368073 -0.06509843
0001c0 89 18 55 3d 90 32 11 bf 52 0f 46 be 71 2d ab be
       0.05202535 -0.5671778 -0.19341782 -0.33433107
0001d0 16 11 3f 3e 9b 47 03 bf 63 20 5d be 91 72 cf be
       0.18658862 -0.51281136 -0.21594386 -0.40517095
0001e0 e2 1e 30 3d 73 07 b4 3b 12 30 0b 3e 4d a8 68 be
       0.042998202 0.005494052 0.13592556 -0.22720452
0001f0 c6 11 f4 be 97 ab 1d bf 36 93 08 bf de 2c ea 3c
       -0.4766981 -0.6158995 -0.53349626 0.028585847
000200 f9 64 11 3e fa 40 8c bd ab 2e 46 3f 3a e2 cb 3e
       0.14198674 -0.06848331 0.7741496 0.39821035
000210 ea 94 57 bf 67 a5 23 3d 5b b8 02 3e d3 d5 22 bd
       -0.842116 0.03995266 0.12765639 -0.0397547
000220 f2 65 a0 be bd 9d 1b bf ac cd 7b 3d d6 56 14 bf
       -0.31327778 -0.60787565 0.06147544 -0.57945
000230 aa 51 d9 3d 04 67 a2 be 65 bf 19 3f cf 49 bc be
       0.10611279 -0.3171922 0.6005767 -0.3677506
000240 f7 9c 5d be ea a0 ef bd 51 21 29 3f ea 44 80 3f
       -0.21641909 -0.11700614 0.6606646 1.0021031
000250 e8 5a 5d 3f 98 93 14 be 53 c4 89 3c 56 11 4b 3d
       0.86466837 -0.14509428 0.016817247 0.04957708
000260 29 d3 52 3e 3d 71 bb be 9e ea e2 3e 1f 67 27 bf
       0.20588364 -0.3660983 0.44319624 -0.65391725
000270 5d bb 45 be ff ac ce 3e fa cb 90 3d 18 bf f4 be
       -0.19309755 0.4036636 0.070701554 -0.47802043
000280 4a a7 a5 3e 23 23 04 3e 38 4d 07 3e 3f 81 02 bf
       0.32354194 0.12904029 0.1321305 -0.50978464
000290 43 5d cb 3e 28 3a 9b be a7 83 69 be 2e bc 97 3e
       0.3971959 -0.30317807 -0.22804128 0.29635757
0002a0 37 7d b9 3d cc 37 ac bc b8 20 87 bc 97 ee da bc
       0.09057086 -0.0210227 -0.016495094 -0.026725097
0002b0 d9 f3 8d 3f 8d 07 dc 3d 4f 46 b0 bd 57 22 de be
       1.1090041 0.10743628 -0.0860716 -0.43385574
0002c0 d2 38 9a be df 8a 83 3e f4 52 58 3f b7 3d 95 be
       -0.30121475 0.25691888 0.84501576 -0.29148647
0002d0 42 6c 8d 3e a3 17 e3 3e e2 a5 a5 bd d0 41 45 bd
       0.27621657 0.4435397 -0.0808828 -0.048158467
0002e0 a9 3a 1d 3e c2 ea 37 3e 43 75 a0 3e 44 53 25 be
       0.15354408 0.17960647 0.31339464 -0.16145045
0002f0 ef f9 9b bd 8d 9a a5 3d 3d be ef 3a 5e 18 ec bd
       -0.076160304 0.08086119 0.0018290948 -0.11528085
000300 ef ca 93 3e 06 22 c5 3e 7f 5e 7d 3c 27 bc bf 3c
       0.28865764 0.3850252 0.015464424 0.023405148
000310 2d 4e 15 bd 11 14 1f be 46 78 2b 3e 53 23 ad 3e
       -0.036451507 -0.15534998 0.167451 0.33816013
000320 79 c7 73 be 8a 21 69 bd 36 cb 79 3e 9e e8 a8 3e
       -0.23806562 -0.05691675 0.24393925 0.32989973
000330 11 2c 04 3e 55 58 12 bf 53 2f ce be 77 b6 f4 be
       0.12907435 -0.57166034 -0.4027048 -0.4779546
000340 fb bc 17 bd f7 53 0a 3e 5e 81 83 3e 52 dc 1f 3e
       -0.03704546 0.13508593 0.25684637 0.1561139
000350 84 e3 d6 be 29 4e 0b bf b2 4d 53 bc c7 d0 d2 3e
       -0.41970456 -0.5441614 -0.012896942 0.4117491
000360 b7 c7 a3 39 79 78 40 ba 9c cb 7d 3c c6 a9 09 bb
       0.00031238582 -0.00073421706 0.015490439 -0.0021005734
000370 1b 77 87 bf a9 61 99 3d e8 a7 c1 be 69 2b 9b bd
       -1.0583223 0.0748933 -0.37823415 -0.07576639
000380 8f 81 27 be 74 7a 4c 3e 5f 33 a0 3e b6 ec 84 3e
       -0.16358016 0.19968587 0.31289193 0.25961846
000390 1f d5 9b be 70 c3 12 bf c0 9b b2 be 5d db de 3e
       -0.30436036 -0.57329464 -0.34884453 0.43526736
0003a0 ff 36 99 bd 9d 2d 73 3e 9f 82 12 3f ae 3b 89 3d
       -0.07481193 0.23747869 0.5723056 0.06700836
0003b0 31 7d c6 3e b7 eb de be 3f be 07 3e 97 5d c6 be
       0.38767388 -0.4353921 0.13256167 -0.38743278
0003c0 d0 ec a7 bd 9a 77 a3 be 08 b6 ee be 62 00 98 be
       -0.08199465 -0.31927186 -0.46623254 -0.29687792
0003d0 0b 77 f0 3d 4b f1 21 bf 1f 76 fc bd be c1 91 3e
       0.11741456 -0.6325881 -0.12327217 0.28468126
0003e0 2c a0 9c bd be a8 6b 3e cb 15 f8 bd 83 f5 c6 be
       -0.07647738 0.23013589 -0.12113532 -0.38859186
0003f0 50 34 00 3e 85 39 16 bf ff 6c ef bc 4a 49 8e be
       0.12519956 -0.5868152 -0.029226778 -0.2779029

net.0.bias f4 [256]
000000 f5 09 3b 3e 33 ea 4a 3e 2e b9 07 ba 73 07 18 3e
       0.18265517 0.19815902 -0.0005177435 0.14846592
000010 37 5a b2 3d f3 d2 a6 be 5c 0e 7d be c1 9b 94 3d
       0.08708613 -0.32582816 -0.24712509 0.0725627
000020 70 df 9f bd 83 b5 67 3e b2 f5 38 be 25 f8 b3 be
       -0.07806289 0.22627835 -0.18062475 -0.35150257
000030 08 40 00 bc d2 a3 3d be d4 a4 7d 3e d1 6f 64 be
       -0.007827766 -0.18519524 0.24769908 -0.2230828
000040 1e 34 72 3e 3f 25 9a 3e 85 1c 8f 3e f1 03 e1 bd
       0.23652694 0.30106542 0.27951446 -0.1098708
000050 51 e6 3f 3e 8d df 4d bc 23 96 b6 bd 7c dd 79 3e
       0.18740202 -0.012565506 -0.08915355 0.24400896
000060 95 8a ba be 7e 93 a4 3e 94 56 c6 3d 18 c9 d7 b8
       -0.36433855 0.32143778 0.09684482 -0.000102894555
000070 1b 73 2c 3e 14 3d 0e 3e 14 da 47 3e d3 74 9b 3e
       0.16840784 0.13890487 0.19516784 0.30362567
000080 3d 2d 44 be 4c e9 b4 3e 72 3b 70 3d 21 d3 ab bd
       -0.19157882 0.3533424 0.05865044 -0.08389879
000090 63 d0 a8 3d 9a 90 be 3e 08 93 65 be 02 09 93 bd
       0.082428716 0.37219697 -0.22419369 -0.071794525
0000a0 4d d0 7c 3e 0d ed 27 be 5c c4 54 3e 0f 47 8e bd
       0.24688835 -0.16399021 0.2077803 -0.06947147
0000b0 39 54 07 3e 45 c6 bf 3e 7f 57 4e bd cb 4d cf bd
       0.13215722 0.37455955 -0.05037641 -0.1012226
0000c0 8e 08 7d 3e 5a 58 9c 3d c7 35 b1 3c db 68 d8 bb
       0.24710295 0.07634039 0.021632088 -0.0066042966
0000d0 a3 37 ad 3e ae 52 c0 3c c9 37 60 3d 39 88 10 3e
       0.3383151 0.023476925 0.0547407 0.14114465
0000e0 8b 7b 34 3d 92 d5 6e 3e f1 c1 c0 bd 9c b5 a3 3e
       0.044063132 0.23323658 -0.094119914 0.31974494
0000f0 21 4d ec 3a 59 82 b6 bc 02 2b 1f 3e 6e c7 11 bd
       0.0018028357 -0.022278951 0.1554375 -0.03559058
000100 f9 f0 c0 bd 38 d3 03 3e 01 3f b1 3e 2f 4a 7a 3d
       -0.09420962 0.12873542 0.3461838 0.061105903
000110 ec 16 97 3e e5 b2 8e 3e 84 6f 9b 3d 32 d4 44 3e
       0.29509676 0.2787086 0.07589629 0.19221571
000120 f4 b5 2a 3e f0 11 93 3d c2 e2 0d 3e c1 42 be 3e
       0.16670972 0.07181156 0.13856032 0.37160304
000130 9b be 3c 3e f8 85 42 3e b9 fb b2 3e e5 eb 8c be
       0.18432085 0.18996418 0.34957674 -0.27523723
000140 92 7e b4 3e 99 16 62 3e d7 88 a0 3e df bb 86 3d
       0.35252815 0.22078933 0.313544 0.06578802
000150 31 86 bb bd 79 ba b8 3e 7e 2f 60 be 92 45 e7 3e
       -0.09156454 0.36079767 -0.21893117 0.45170265
000160 fd 14 82 3e 80 21 44 be 6b 2f 32 3d 7d 40 91 bd
       0.25406638 -0.19153404 0.043502253 -0.07092378
000170 4f dd b6 3e d9 97 d5 bd 3c 05 82 3e 54 5a 3b 3e
       0.3571572 -0.10429353 0.2539462 0.18296176
000180 d9 8c 3f 3e 67 55 cb 3e 96 f1 ff 3d ae 4d 97 be
       0.18706073 0.39713594 0.12497251 -0.29551452
000190 c6 53 1a 3e 40 eb 5f 3e 72 cf f9 3d ee 33 76 be
       0.1507102 0.21867085 0.1219777 -0.24043247
0001a0 bf 2f cd 3d 01 d3 28 bd 5f ef b2 3e 86 f6 38 3e
       0.100188725 -0.041216854 0.3494825 0.18062791
0001b0 2e f5 9a 3e 16 30 a7 3e c1 00 2a 3d c8 fa b5 bd
       0.30265182 0.32653874 0.041504625 -0.08885723
0001c0 b9 ca 14 be 7e 8d ee b9 b4 be ad 3e 0d 9e 7a 3e
       -0.14530458 -0.00045500317 0.33934557 0.24474354
0001d0 8b ce 97 3e 22 e7 8e 3d b6 ff 3d be a1 46 90 3c
       0.29649767 0.06977679 -0.18554577 0.017611803
0001e0 c7 84 4f 3e f3 bd 62 3e 29 c9 05 3e 67 78 ab bd
       0.20265494 0.22142772 0.13065018 -0.08372574
0001f0 de 69 9e be 5e 39 c1 be 4f dc 0a 3e 42 30 8f bd
       -0.30940145 -0.3773908 0.13560604 -0.06991626
000200 ff a1 46 3e 25 83 57 3e a6 57 26 be 8f d9 77 3e
       0.19397734 0.21046121 -0.16244373 0.24204086
000210 d6 62 28 be 7a 07 e5 3c 9e d8 2a 3a 46 95 d5 be
       -0.16443953 0.027957667 0.0006517264 -0.4171545
000220 9c 82 bb 3d 63 57 ba 3d d7 1c f9 3c dc a4 76 3e
       0.09155771 0.09098699 0.03040926 0.24086326
000230 76 54 8e be 4c 81 53 bd 14 72 a7 bd 2b c5 20 be
       -0.27798814 -0.05163698 -0.081760556 -0.15700214
000240 f2 2d 35 3e 30 ac 1e 3e 37 4b 01 3e 25 3b 1c be
       0.17693308 0.15495372 0.12626348 -0.15256937
000250 b0 35 41 3e eb c6 df bb 4c dd 00 3e db ea b3 3e
       0.18868136 -0.006829133 0.12584418 0.35140118
000260 6f cc 75 3e 5c 4d 7f be 0c 83 7b be ae 28 ae bb
       0.24003766 -0.24931854 -0.24561709 -0.005314908
000270 39 21 fc bd fd b0 64 3e 9e 5e 2f 3d 29 4e 9a 3e
       -0.12311024 0.2233314 0.042814843 0.30137756
000280 8f 5a 46 3e 24 75 0f 3b ff ee 90 bd 89 77 b1 3d
       0.19370483 0.002188989 -0.07076835 0.08665378
000290 51 8d 98 bd 36 31 a1 3e be 82 52 be 74 a0 19 3d
       -0.07448829 0.31482857 -0.20557687 0.037506536
0002a0 72 83 c0 be 1b 7b 79 bd 9e f9 79 bd c1 7a 2c 3e
       -0.37600285 -0.06090842 -0.06102907 0.16843702
0002b0 dc 31 18 3e 94 a0 db 3d f2 bb 09 3d dc 4e 9d ba
       0.1486277 0.10723987 0.033626504 -0.0012001651
0002c0 94 87 1d bd 2b 94 05 3e d8 ff 0a be 67 35 d7 3e
       -0.038459376 0.13044803 -0.13574159 0.4203293
0002d0 53 e2 18 3e fa 48 9e be 96 67 19 3e 8d 17 3c 3e
       0.14930086 -0.30915052 0.14980921 0.18368359
0002e0 02 e4 3e 3d 73 9e 82 be ea 58 9e 3d e7 b9 16 be
       0.046604164 -0.25511512 0.07731803 -0.14719354
0002f0 cb cc d7 3e f4 d7 95 3e 11 c9 4f bd 4f a7 87 be
       0.42148432 0.29266322 -0.05072886 -0.26494834
000300 8a ba 05 3e c1 a6 92 bc 98 b0 ae 3d fc cf 99 be
       0.1305944 -0.01790178 0.08529776 -0.30041492
000310 f9 57 30 3e be d8 a0 be 36 a9 ba be 74 07 0c be
       0.17221059 -0.3141536 -0.36457223 -0.13674718
000320 9e d4 8f 3d f6 fb 3a 3c e7 f2 a0 be 4b c1 20 be
       0.070229754 0.011412611 -0.3143532 -0.15698735
000330 60 61 58 bc 3c 13 08 be 20 8e 42 3e c4 d7 6d 3d
       -0.01320681 -0.13288587 0.18999529 0.0580671
000340 ac da 07 3e f9 ba 15 be d1 93 10 ba 05 2b 5b be
       0.1326701 -0.14622106 -0.00055151904 -0.2140313
000350 30 f4 8f bd 7b 1a f2 3b e9 11 b5 3e 76 42 10 bd
       -0.07028997 0.0073884106 0.35365227 -0.035219632
000360 0e bd 84 3e 9e f6 c1 be 4a 92 dc bd f8 ea e3 be
       0.25925487 -0.37883466 -0.1077009 -0.44515204
000370 06 60 aa 3e d2 bf b5 3e 37 4b a2 3c 49 d6 7e 3e
       0.33276385 0.3549791 0.019811256 0.24886431
000380 98 08 9c 3e 26 31 ca 3d 89 0e 58 3e 0d ef 03 bf
       0.30475307 0.098726556 0.21099295 -0.5153664
000390 30 d1 05 be 04 df 23 be df 52 4f 3e 48 6e c7 bd
       -0.1306808 -0.16003042 0.20246457 -0.09737831
0003a0 98 9e 27 be 6c 17 7b be 3b e9 cb bd 62 9a 12 3e
       -0.16369092 -0.24520653 -0.099565946 0.14316705
0003b0 07 22 b7 3d da b8 74 be 87 7e 99 3e c8 79 9a bd
       0.08942037 -0.2389864 0.29979345 -0.07542759
0003c0 74 e7 a4 bd d0 7e a0 3e a7 f6 88 3e a9 3d 86 3d
       -0.08051959 0.3134675 0.2675068 0.065547295
0003d0 21 c7 8b 3d 7f 23 35 be 1d 2c 6a 3d 73 aa 20 3e
       0.0682509 -0.17689322 0.057170976 0.15690021
0003e0 d7 ff 27 3e ce 57 73 bd db 78 f0 bd a6 46 91 be
       0.16406189 -0.05940991 -0.11741801 -0.28374213
0003f0 0d ea e3 3b 81 92 13 3e b0 3f 3d be 6a 5f 7f be
       0.0069553913 0.14411356 -0.18481326 -0.24938741

net.2.weight f4 [256, 256]
000000 6d 58 14 3e f6 06 d1 bd 41 53 07 bd 74 0d f4 bd
       0.14486857 -0.10206406 -0.03303838 -0.119166285
000010 d1 76 17 3e bf c6 95 bb 95 c8 54 3e 66 73 2b bd
       0.14791419 -0.0045708115 0.20779641 -0.0418581
000020 5b 7c e0 bc d4 0f 99 3c 19 db d4 3e 5d d1 1f be
       -0.027403047 0.018684305 0.41573408 -0.1560721
000030 e7 07 e9 bd fa 39 65 3e b8 61 f2 bd 0b 39 20 be
       -0.113784604 0.22385398 -0.118350446 -0.1564676
000040 d6 90 69 3d 11 fb 53 3c 4c 64 54 3d 01 10 6b 3e
       0.057022892 0.012938277 0.051853463 0.22955324
000050 dd a2 52 3c b2 fe 1a be 67 ab 80 bd 29 41 a5 3d
       0.012856212 -0.15136221 -0.062826924 0.08069069
000060 d5 26 2c 3e fd 11 42 3d 92 bb ee 3c 85 cb 23 be
       0.16811688 0.047380436 0.029142175 -0.15995605
000070 4e b5 29 bc ed ef e0 3d cd 37 93 bd f8 a7 73 bd
       -0.010358168 0.10983262 -0.071883775 -0.05948636
000080 ba f3 bd bc c2 de 4f 3c 4b 46 8a 3d e0 b2 72 3e
       -0.023187507 0.012687387 0.067516886 0.23701048
000090 7c 24 00 3d a8 5b 92 bd b9 8a dd 3c 0b 10 37 3c
       0.031284794 -0.07146388 0.027043687 0.011173259
0000a0 58 10 d2 3d b8 e5 da bd 29 3b da 3c d5 4b cd 3d
       0.102570236 -0.106883466 0.026639538 0.100242294
0000b0 f6 33 88 bc 61 33 ed bc b9 95 1e bd c8 cb 26 be
       -0.01662634 -0.028955163 -0.038717005 -0.16288674
0000c0 59 d1 8b 3a 75 9b 1b 3e 41 86 c3 3a 22 f0 9f bc
       0.0010667249 0.15196021 0.001491733 -0.019523684
0000d0 d8 21 9d 3b 07 b1 8c 3d 22 e2 17 3d b4 cd 24 be
       0.0047952943 0.06869703 0.03708089 -0.16094095
0000e0 43 b5 12 3e 46 5f 8c bc fe 36 cb 3d 12 9b 65 bc
       0.14326958 -0.017135274 0.09922598 -0.014014022
0000f0 1a fb 29 bc 93 34 44 3e d3 96 17 3d 11 3f 15 3d
       -0.010374809 0.1916068 0.03700907 0.036437098
000100 3f 6a 1b 3b b7 87 32 3d 27 c4 ed 3d 5a a9 9e bd
       0.002371445 0.04358646 0.11609679 -0.07747145
000110 c3 0c 33 3d 83 92 42 bc f4 67 89 bc e8 1a ba bd
       0.043713342 -0.011875751 -0.016773202 -0.09087163
000120 be 68 ec bd 52 a4 62 bc 4a 10 da bd 26 43 62 bd
       -0.115434155 -0.013833122 -0.10647638 -0.05523982
000130 d0 a4 83 3d 49 db 63 be 55 67 d9 bc e9 81 18 be
       0.0642792 -0.2225162 -0.02653853 -0.14893307
000140 75 e8 38 3c cf 0c 96 bd bd 7e 43 3e f2 70 9b bd
       0.011285891 -0.07326662 0.19091316 -0.07589902
000150 b6 d3 2d bf f6 b9 c7 3a 5a 41 94 bd e0 13 8e 3d
       -0.6790117 0.0015237916 -0.07239027 0.069373846
000160 89 31 fc ba 86 22 62 be 4d 75 8b 3d d5 31 11 bd
       -0.0019240837 -0.22083482 0.06809483 -0.035447914
000170 68 bf 54 3d ff 6d 92 3d 7e 58 88 bd 5e a3 3f be
       0.05194035 0.07149886 -0.066575035 -0.18714663
000180 b1 38 0a 3d d3 1c 4a bd af f5 b5 bd 82 f8 49 ba
       0.03374547 -0.049343895 -0.08884751 -0.0007704572
000190 bb 46 6d 3d 23 4d c7 3d 27 73 5c 3d 65 87 91 3c
       0.057928782 0.097315095 0.053820755 0.017764756
0001a0 89 95 0e be a7 c9 86 3e 57 89 1b 3d 8f d6 01 3e
       -0.1392423 0.26325724 0.037972774 0.12679504
0001b0 56 2f 97 3d 0c 42 ec bc 22 7d 01 3b cb a8 77 3b
       0.073820755 -0.028840087 0.0019758423 0.0037789817
0001c0 50 14 28 bd e7 d9 87 be ca d7 fe 3c 3b 75 6d 3d
       -0.041034997 -0.26533434 0.031108756 0.057973128
0001d0 e0 db 92 bc 36 91 08 be 26 ec 77 be a2 57 74 3d
       -0.01792711 -0.13336644 -0.24211177 0.059653886
0001e0 a5 50 5d 3c 54 54 16 3d 2c 2c d7 3d cd ef 97 3c
       0.013507997 0.036701515 0.10506472 0.018546963
0001f0 6a 3e 8d 3e 94 44 ff 3d 99 4c f3 3b 85 20 d3 3c
       0.2758668 0.12464252 0.0074249026 0.025772342
000200 30 e8 1a be 2b 94 0f be c1 ea cd bc f3 40 83 3d
       -0.15127635 -0.14021365 -0.025136353 0.064088725
000210 96 99 a5 3d 81 5d 3f 3d 54 b5 66 bf 73 b8 84 3e
       0.08085935 0.04672003 -0.90120435 0.25921974
000220 46 c5 50 bd f4 2f 0f 3e 2a e7 c1 3d 9e 80 39 3d
       -0.050969385 0.13983136 0.09467919 0.045288675
000230 43 58 d9 3d 0c db c4 bd 04 83 26 3c 3f c3 dc 3d
       0.10612538 -0.096120924 0.0101630725 0.10779428
000240 ea b2 21 b9 14 0d be 3d e0 5b a0 bc 4b 03 8d bd
       -0.00015420807 0.09279838 -0.01957506 -0.06885394
000250 58 3b 93 3d fd 00 8c bd a3 b4 16 bd b4 b6 1f 3c
       0.07189053 -0.06836126 -0.036793362 0.00974815
000260 6d 83 e3 3d 50 91 64 bd 4f 2d 00 3e 16 6f 8e be
       0.11109052 -0.055802643 0.12517284 -0.27819127
000270 9c b5 28 bd a2 d3 0f b9 06 1c a0 3d ce 94 03 3e
       -0.04118882 -0.00013716382 0.07817845 0.12849733
000280 ec 5c 91 bd db 36 a5 be 2a 5f 26 3d c4 ae a3 bc
       -0.070978016 -0.32268414 0.0406181 -0.019980796
000290 1b c8 9c 3d d2 3a 4a bd 69 81 c4 bd 5f 7f 29 be
       0.076553546 -0.0493725 -0.095949955 -0.16552494
0002a0 2f 5b 3c 3e 94 0a f4 3d 02 ad 6e be 68 93 15 3c
       0.18394159 0.1191608 -0.23308185 0.009129383
0002b0 50 fe cb 3d d5 18 25 3d c0 18 56 3c de ec 0f 3e
       0.09960616 0.040306885 0.013067424 0.14055201
0002c0 94 ea 59 be a8 f7 4b 3d 75 45 cf 3d 86 18 a1 3c
       -0.2128089 0.04979673 0.1012067 0.019665014
0002d0 77 b5 75 bd 86 76 e3 bd ec 59 5e 3d 52 78 6e bc
       -0.05998751 -0.11106591 0.054284975 -0.014555054
0002e0 fe 34 f5 3c 2e cd a2 bd 15 ca bd bd 94 26 03 be
       0.029932495 -0.07949291 -0.0926706 -0.12807685
0002f0 b4 10 47 bc c5 53 df 3d c2 33 9f bd 1e bf 79 3d
       -0.012149978 0.1090465 -0.07773544 0.06097328
000300 1f 32 27 3e 16 3f 71 3c 51 88 f2 3d e7 27 57 bd
       0.16327713 0.0147245135 0.118424065 -0.05252829
000310 0b 8b 4d 3d 6a 4c 75 bd 51 99 22 3e 77 11 7a bd
       0.05018143 -0.059887327 0.15878798 -0.061051812
000320 87 29 aa bd 67 c5 31 bc 92 f7 84 3d f2 b8 36 3e
       -0.08308702 -0.010850287 0.06492533 0.17843989
000330 ec 0d 50 3c c7 96 20 3d 91 a3 b9 bd 4b 4a 99 3c
       0.012698632 0.039206292 -0.09064401 0.018712183
000340 28 59 7c bd ef cc 1a 3d ad 6b d3 3d 58 5d c2 bd
       -0.061608464 0.037793096 0.10323272 -0.0949046
000350 b7 ee b1 3b 9d a9 1c 3e 62 e7 a3 3d c9 e4 e5 3d
       0.0054300684 0.15299077 0.08003117 0.11225278
000360 aa c4 2d 3d f7 57 bd 3d 63 cb 44 3d a7 e7 89 3d
       0.04242388 0.092452936 0.048045527 0.06733637
000370 d2 89 4e bd 99 26 08 3e d1 d8 aa be c5 e0 34 bc
       -0.050424404 0.13295974 -0.33368543 -0.011039917
000380 30 e4 76 3d 55 2c 6f bc 12 a4 2a bc 18 f0 35 3d
       0.06027621 -0.014597972 -0.010415094 0.044418424
000390 8b 7d 42 3c a4 d0 04 3e 33 48 19 3e e9 4d 9b bc
       0.011870752 0.12970215 0.14968948 -0.018958049
0003a0 39 75 05 3d dc 0b d6 3d a7 7a ba be 9a cc da bd
       0.032582495 0.10451481 -0.364217 -0.10683556
0003b0 6a 75 26 3e 52 12 59 be b5 e9 75 3c e2 66 b1 3d
       0.16255727 -0.21198395 0.015009333 0.086622015
0003c0 3b 21 ba 3e 9c 58 2a 3d e8 c1 e6 bd 71 b8 df bd
       0.36353478 0.04158841 -0.112674534 -0.10923851
0003d0 5f ca 39 be b6 7e b9 bd 3e e2 67 3d fb 00 f5 3c
       -0.18143605 -0.09057371 0.056612246 0.029907694
0003e0 07 58 33 be 50 cf 36 3e 81 b4 29 bc 88 90 04 3c
       -0.17514049 0.17852521 -0.010357977 0.0080911
0003f0 3b 1b d2 3d f9 0f 95 3c ed 97 d6 3d 49 a7 1f 3e
       0.102591 0.018196093 0.10478196 0.15591158

net.2.bias f4 [256]
000000 6b e2 e5 bb 6d ff 1e 3d 83 ff 99 3d e7 5f 42 be
       -0.0070155165 0.03881781 0.07519438 -0.18981896
000010 e2 ba eb bd d9 85 23 3e 36 20 36 bc 95 92 4b 3d
       -0.115102544 0.15969028 -0.011116078 0.04970034
000020 e1 9a 0d 3d 62 98 7c 3d 56 49 7b bc ba 2e f1 bc
       0.034571532 0.06166876 -0.015337309 -0.029441226
000030 be 59 8b bd 7f 03 c5 3d 13 92 e0 bd 7d 7e 3e bd
       -0.06804226 0.096198075 -0.109653614 -0.046507347
000040 d4 f5 e1 bc cc 70 81 bd ab e1 63 3c 63 d1 00 3d
       -0.02758304 -0.063203424 0.013908784 0.031449687
000050 50 16 8f 3d 07 34 9e 3d ef d9 a9 bd 64 6c 5a 3d
       0.06986678 0.07724767 -0.08293521 0.053326026
000060 dc 17 61 bb 2c dd 03 3e 8b d7 9c bd 56 f2 14 be
       -0.0034346497 0.12877339 -0.07658299 -0.14545569
000070 70 22 37 3c cf fb 80 3d ba 15 2d bd 21 fd d0 3c
       0.011177644 0.06298029 -0.04225705 0.025511326
000080 78 0e 1c 3d 5e 9e 99 3b 22 f2 18 3d 01 9a 1e bd
       0.038099736 0.0046880683 0.03734029 -0.03872109
000090 fa cf c9 ba 96 98 51 3d 7a 1f 46 3e c6 e9 70 bc
       -0.0015397065 0.051170908 0.19347945 -0.014704173
0000a0 a7 f1 56 3e 56 68 1d 3d b4 21 8b 3d 00 1b 23 3d
       0.2099062 0.03842958 0.06793538 0.03982067
0000b0 f0 0f b7 3d b0 0e 98 3d bc cc 2c 3c 30 61 ab 3d
       0.08938587 0.074246764 0.010546859 0.083681464
0000c0 ec 80 51 bc 2c 60 8c bc a3 4a b7 3d 78 7e 15 be
       -0.012787085 -0.017135702 0.08949783 -0.14599025
0000d0 ff 93 a6 ba 7b c9 11 bd 56 19 95 bd 7f 05 fd 3c
       -0.0012708901 -0.035592537 -0.07280223 0.03088641
0000e0 77 69 de 3d 3d 01 fc 3c cc 09 0d be 3f f5 5f bd
       0.108599596 0.03076231 -0.13773268 -0.054677244
0000f0 54 03 47 3d 59 33 81 bd 9d 94 04 3e 22 c5 92 3d
       0.04858716 -0.06308622 0.12947316 0.07166506
000100 ba 2a a0 bc ed 6c cc 3d 85 a4 1a 3e 76 ed a4 3c
       -0.019551624 0.099817134 0.15101822 0.020132761
000110 18 e1 50 bd dd 49 43 b9 85 df 8d bc 92 16 35 3d
       -0.050995916 -0.00018624165 -0.017318496 0.044210978
000120 61 ae 4e bd 2d 4f 65 bd 49 b1 f7 3d 1f 3d 2b bd
       -0.05045927 -0.05598371 0.12094361 -0.041806336
000130 4c 2c 7e bd 64 fc 77 3d 61 75 47 3c 66 d7 c4 bb
       -0.062053964 0.060543433 0.012173981 -0.006007123
000140 2c 49 60 3c 09 19 54 3c af ea e6 bd 8a 65 0e 3e
       0.013689321 0.012945422 -0.11275231 0.13905922
000150 30 45 e2 3d f6 a4 70 3c 21 46 df 3c 02 57 5d 3c
       0.11048353 0.014687767 0.02725512 0.013509514
000160 f3 44 3f bd 9b fb 88 bc d0 48 fa 3d 59 d4 8f 3d
       -0.046696614 -0.016721537 0.12220919 0.07022924
000170 2c 2a 0f 3e a2 f0 e0 3d 83 df 77 3d 9d ec 04 bd
       0.13980931 0.10983397 0.06051589 -0.032452215
000180 53 7d a5 bd 25 3d 25 3d 0c f3 00 3d 25 61 d7 bc
       -0.08080544 0.040341515 0.031481788 -0.02629144
000190 6e 83 5d 3d a8 5b 36 bd ff 40 d0 bb 97 da 32 3e
       0.05408042 -0.044521004 -0.0063554044 0.17466198
0001a0 ec be 29 3e a2 16 ec 3c 35 23 47 3e d9 eb d8 3d
       0.16576737 0.028819386 0.19447024 0.10591859
0001b0 da 05 8b 3d 3a 97 83 bd b5 2a 40 3c 9c aa 3c 3d
       0.067882255 -0.064253286 0.011728932 0.046061143
0001c0 51 d1 e9 39 d7 2f 36 3d f1 52 b3 3d fe bb 56 3d
       0.00044597176 0.044479217 0.08756054 0.052425377
0001d0 6a c4 c1 bc a5 15 31 3e fc 7c 41 bd c4 77 0b 3d
       -0.023653228 0.17293413 -0.047238335 0.034049764
0001e0 b5 02 bf 3b 9c d5 d9 bd 0c 1a 8f ba 28 4e b4 3d
       0.00582918 -0.10636446 -0.0010917797 0.088039696
0001f0 93 72 12 3d 07 74 f8 bc 7b 16 d0 3c 17 3a b3 3d
       0.035753798 -0.030328764 0.025401345 0.08751314
000200 2b 47 3b 3d ca b1 82 3c cb e7 a3 3d 44 fb 2b bd
       0.045722168 0.015953917 0.080031954 -0.041987672
000210 6e c4 48 bc 6d df 4d bd 57 32 fc bd a8 07 31 3d
       -0.012253864 -0.050261904 -0.12314289 0.043220192
000220 bd 7d 07 bd 6e cc 2b bd 15 b0 81 3c 06 44 55 bd
       -0.033078898 -0.041943006 0.015831033 -0.052066825
000230 49 ff 42 3c 4a a9 5a 3d 22 a3 0e 3e 7a 2f 0d bd
       0.011901685 0.053384103 0.13929418 -0.034469105
000240 74 32 3b bd f4 e6 02 3d b2 22 10 3d a5 7b 60 bc
       -0.045702413 0.031958535 0.035189338 -0.013701354
000250 c3 2d ca bc 52 b6 c7 bd 7e 68 47 3d 51 67 82 bd
       -0.024680024 -0.09751572 0.048683636 -0.06367362
000260 f6 7c c1 bd ea ee 97 3d c4 12 e1 3d 45 64 24 3d
       -0.094476625 0.07418616 0.109899074 0.040134687
000270 68 fb de 3c 7c 94 60 3c e1 b0 b4 3d 10 ca 6d 3d
       0.02721949 0.013707276 0.088227995 0.05805403
000280 be 9e 03 bb dc ff a2 3c cb ce c7 3d 93 1d e4 3c
       -0.0020083631 0.019897394 0.097562395 0.027846133
000290 d2 fe b3 3d 05 df bb bb 20 54 72 bd ee f5 4d 3d
       0.087888375 -0.005733373 -0.05916226 0.050283365
0002a0 58 2b c3 3b 54 8d bb 3c 24 79 70 bd e8 80 06 be
       0.0059560947 0.022894539 -0.05870928 -0.13135111
0002b0 68 d9 96 3d ed 4e db bc aa 35 cf 3d 7d 33 41 3d
       0.07365686 -0.026771033 0.101176575 0.047168244
0002c0 35 91 90 3c 11 7d 0e 3d d0 20 20 3d c4 2f 7a 3c
       0.017647365 0.03478724 0.039093792 0.015270177
0002d0 5a 76 6a 3d ec 0f f2 3c 22 fa 13 bd 9b 83 a3 bd
       0.057241775 0.029548608 -0.036127217 -0.07984086
0002e0 b8 8f 0c 3c d6 a2 6e 3d f4 98 6d bd 0a 6e 26 bd
       0.008579187 0.05826076 -0.058007196 -0.040632285
0002f0 dd 18 36 bc ad 89 7c 3c 9d c5 db 3c 07 1e bb 3c
       -0.011114326 0.015413684 0.026827628 0.022841467
000300 82 d8 36 bd 9c cd 78 bd 11 68 35 3d dc 8e 2b 3e
       -0.04464007 -0.06074296 0.0442887 0.16753715
000310 96 ec 27 bd 0a f8 92 bd 54 51 05 3d a2 60 2a bd
       -0.04099711 -0.07176216 0.032548264 -0.041596062
000320 e2 b9 9e 3d fd 35 6d 3d e2 97 5b bd 0a e0 65 3c
       0.07750298 0.057912815 -0.053611644 0.014030466
000330 75 31 cd 3d 56 b0 0a 3e 70 42 a5 bd 9e 47 29 3d
       0.10019199 0.1354383 -0.080693126 0.041328065
000340 e6 a4 78 bd 46 da 98 3a ac 60 ab bc 2f 4a 1f be
       -0.060704134 0.001166173 -0.02092012 -0.15555643
000350 df d1 24 be 59 ae 91 3d 3e 44 67 bd a8 11 34 bd
       -0.16095684 0.07113332 -0.056461565 -0.04396215
000360 6c 53 0f 3e 49 ae 54 bd 36 f0 ce bd 33 52 f1 3c
       0.13996667 -0.051924024 -0.1010441 0.029458141
000370 21 74 69 3c bf 6f 23 bd 0e 11 2e 3d 65 6d 8f 3d
       0.014248879 -0.03990149 0.042496733 0.07003287
000380 a9 21 d3 3d 09 e6 e2 3b fa cf 65 3c 44 02 09 bd
       0.103091545 0.006924395 0.014026636 -0.033449426
000390 9e fa 86 3d 1d 15 06 bd e0 07 a3 bd 16 51 24 3d
       0.0659077 -0.03273498 -0.079604864 0.040116392
0003a0 cb 63 d7 bb 25 9b 89 bd ec 59 61 bd 23 9b a3 3b
       -0.0065731755 -0.067190446 -0.055017397 0.004992859
0003b0 e3 28 38 3d aa 42 a6 bc 3d 7c 34 3e 0a 3a 80 3d
       0.044960868 -0.02029546 0.17625518 0.0626107
0003c0 e4 19 fb bc d4 fd 92 3c 70 8e 8d 3c 52 0a 21 3d
       -0.030651994 0.0179433 0.017279834 0.039316483
0003d0 2b f4 b0 bd a5 07 4e 3e 7a 44 46 3a fd cc cf 3c
       -0.08640321 0.20120104 0.00075633044 0.0253663
0003e0 b5 c2 c0 3d f8 c6 6e bd 99 78 5d bc 73 83 84 3d
       0.094121374 -0.05829522 -0.013517522 0.064703844
0003f0 5a a6 6c 3c 4e c0 ac bd 88 e7 3f 3d af e2 d3 3d
       0.014443958 -0.08435117 0.046851665 0.10345971

net.4.weight f4 [4, 256]
000000 5c d7 bc 3d 3f 3b 14 3d 6f 0e e0 be ef 61 95 be
       0.09220764 0.036189314 -0.43761012 -0.2917628
000010 81 d6 c6 be 29 d4 91 3e b3 f3 0f 3f 17 02 91 3e
       -0.38835528 0.28482178 0.5623123 0.28321907
000020 be ce 40 bd a9 dd 00 3f 32 27 c2 be 9b c6 c7 be
       -0.047072165 0.50338227 -0.3792053 -0.3901871
000030 56 7c e3 3e 92 7a 00 bf 07 f4 af be 2a c6 d3 3e
       0.44430798 -0.5018703 -0.34365866 0.41362125
000040 90 47 02 bf 7a df b3 be 20 22 8e be 51 99 42 3d
       -0.50890446 -0.35131437 -0.2776041 0.047509495
000050 be 7c 76 3e 81 b2 0c 3f ce bf aa be 91 2c c0 be
       0.24071023 0.54959875 -0.3334946 -0.37534
000060 25 b4 b9 be bc 24 84 be c7 93 7a 3e 1d 56 da be
       -0.36270252 -0.25809276 0.24470435 -0.42643824
000070 67 80 85 be 31 2a 09 bf fc 51 6c bd ca 3a b7 be
       -0.26074526 -0.53580004 -0.057695374 -0.3578704
000080 c2 8f 91 be 37 76 ee 3e 3f bf aa bc 26 38 22 3f
       -0.2842999 0.46574566 -0.020843146 0.63366926
000090 88 1a c9 bd 57 64 80 3f 50 68 e6 3e a1 55 bd be
       -0.098195136 1.0030621 0.4500146 -0.36979392
0000a0 97 8e dc be c0 d6 b5 3e bd 6c 87 3e 63 86 f4 3e
       -0.43077537 0.35515404 0.26450148 0.4775878
0000b0 ca cc aa 3e 04 d0 07 3f 64 7a 4b 3d 1c 74 38 be
       0.33359367 0.5305178 0.049677268 -0.18013042
0000c0 79 fa 17 3f ce a8 f0 3d e9 4d 81 3f 72 b7 8a be
       0.59366566 0.11750947 1.0101901 -0.27093083
0000d0 98 c2 00 3c 26 0a ba 3e 6b 0d 8d be b6 f1 4a be
       0.007858895 0.36335868 -0.275493 -0.19818768
0000e0 b9 4c c8 be ac f4 d4 be c0 d7 d0 be 6c f8 69 3d
       -0.39121035 -0.4159292 -0.40789604 0.05712168
0000f0 6d e8 8e 3e 27 36 aa bc 30 c5 02 bf 13 5e d4 be
       0.27911702 -0.020777775 -0.51082134 -0.41478023
000100 88 bf cc 3c 3b 4d a7 3e 03 dd ca 3e d2 38 c2 be
       0.024993673 0.3267611 0.39621744 -0.37933975
000110 65 17 c6 be 0f aa a5 3e 99 f3 59 3c ea 29 f0 bb
       -0.38689724 0.32356307 0.013302707 -0.0073292153
000120 f2 28 46 be 30 ca 7d be 79 57 3b be 88 c6 c1 bd
       -0.19351557 -0.2478416 -0.18295087 -0.09461695
000130 37 4e 7f be ef fa 37 3f 62 4e 8e be ca 37 60 3f
       -0.2493218 0.7186727 -0.27794176 0.8758513
000140 cc e2 f7 bb af 72 29 3d de 8e 79 be 83 cc a9 3e
       -0.007564878 0.041369136 -0.24370906 0.33163843
000150 94 c3 04 bf 64 3e 0f 3f d6 25 a6 3e 71 28 9a be
       -0.5186093 0.55954576 0.32450742 -0.3010898
000160 3f ea cc be 15 49 a7 be ff fe 60 3e c8 04 61 be
       -0.40022466 -0.32672945 0.21972273 -0.2197448
000170 38 47 6f 3e 94 2e a8 3e 01 c3 a9 be f0 ab 9d be
       0.23367012 0.32848036 -0.3315659 -0.3079524
000180 10 6a b2 be fe fe 8c be 6b b2 dd 3e d5 8d b6 be
       -0.34846544 -0.27538294 0.43300185 -0.35655084
000190 f4 50 91 be da 50 53 3d 75 c9 8b be 20 01 75 3e
       -0.28382075 0.051590778 -0.27302137 0.2392621
0001a0 e4 c5 1b 3e fa d8 82 be a5 bf a1 3e 9d bf f7 bd
       0.15212208 -0.25556165 0.31591526 -0.12097094
0001b0 92 1f c2 be d5 16 31 bd d5 cb a3 be 60 ec 89 be
       -0.3791471 -0.043234665 -0.3199145 -0.26938152
0001c0 d1 15 42 3f e5 43 4b bd fd 3c 3c bf a4 4b 1a 3f
       0.7581454 -0.049625296 -0.7353056 0.6027167
0001d0 63 85 8b 3f bf ba dd 3e 89 87 8b be 1d e7 76 be
       1.0900081 0.43306538 -0.27251843 -0.241116
0001e0 a7 d8 bb be 31 3c d2 be d9 a2 27 3f 8a 5b f2 3e
       -0.3668873 -0.41061547 0.6548286 0.47335464
0001f0 50 15 1a 3f 1e 7a 27 3d af 90 b3 be a3 e3 a4 3e
       0.6018877 0.040887944 -0.35071322 0.32204923
000200 80 14 bb be 1c a2 54 be 96 cf 12 3f a5 ba 8a 3f
       -0.36539078 -0.20764965 0.57348 1.0838209
000210 65 71 03 3f 4b 5e 3e be cb 2b ac be c0 2f 33 3d
       0.513449 -0.18590657 -0.3362716 0.04374671
000220 7a 1d 79 be a5 e4 b6 be 35 6e 2c 3f c3 ce 20 3f
       -0.2432765 -0.35721317 0.6735566 0.62815493
000230 5c 05 1a bf 9f dc d3 be 56 51 70 3e 7b 78 a7 3e
       -0.6016443 -0.41379258 0.23468527 0.32709107
000240 68 3f bc be 65 e3 fa be 65 29 91 be 99 79 cc be
       -0.36767125 -0.49001613 -0.28351894 -0.39936522
000250 4a 9d 17 3d 87 66 53 3f 0b 65 68 be fd 9d c9 bc
       0.037015237 0.8257832 -0.22694795 -0.024611467
000260 f0 3c 8c be 7c 05 e6 3e 63 b4 a2 3e ce e4 4b 3f
       -0.27390242 0.4492606 0.3177825 0.79646003
000270 95 e0 18 3c ab c0 4d 3f b4 ed 04 3f 92 f5 92 3e
       0.009330888 0.80372113 0.51925206 0.2870298
000280 ed 85 c8 3e 72 14 99 be 47 07 2f 3f 21 78 98 be
       0.39164677 -0.2989841 0.6837048 -0.2977915
000290 b3 11 00 bf 54 16 c2 be bb 92 02 bd f5 0e 83 3e
       -0.50027007 -0.3790766 -0.031878214 0.2559735
0002a0 39 bc 04 3f 03 96 6b 3f 66 bf 28 3e 9e e4 69 be
       0.51849705 0.92025775 0.16479263 -0.22841117
0002b0 55 38 46 be d3 26 be 3f 58 f0 40 be e7 0b f3 3e
       -0.19357426 1.4855598 -0.18841684 0.47470018
0002c0 0c f7 fe be 02 cc 21 3d ff a3 c6 be e3 47 52 3e
       -0.49797857 0.039501198 -0.38796994 0.20535235
0002d0 29 d4 1c 3f ac 5b a3 be 12 84 c5 be b3 a3 dc be
       0.6126123 -0.31905878 -0.38577324 -0.43093643
0002e0 00 90 a7 3c 46 44 2b be d6 6b 6e bd 75 a2 cf bd
       0.020454407 -0.16725263 -0.05820831 -0.10138408
0002f0 72 d4 97 be ad c4 94 be 52 da 2f bd c6 dc 99 be
       -0.2965427 -0.29056302 -0.042932816 -0.3005125
000300 b8 eb 7b be 68 df ca be d7 17 c8 be 06 55 8f 3e
       -0.24601638 -0.3962357 -0.39080688 0.27994555
000310 c0 f8 bd 3e f1 26 c0 be b6 ac 5f 3c c3 9a bd 3e
       0.37103844 -0.3752971 0.013652017 0.37032136
000320 a1 08 02 3f 23 94 17 3e f6 c6 c8 be a2 7e 1a 3f
       0.50794417 0.14802603 -0.39214295 0.60349476
000330 ac 7c 52 3e da e7 5f 3e a9 2b e5 be 4e 77 36 3f
       0.20555371 0.21865788 -0.44759873 0.71275795
000340 4a 22 27 bd 4b a3 97 be 08 6b c2 bc d6 9e 1f bf
       -0.040804185 -0.2961677 -0.023732677 -0.6235174
000350 ce 59 8e be c2 99 f2 3e 26 0c 08 bc 6c e3 c6 be
       -0.2780289 0.47382933 -0.008303678 -0.38845384
000360 78 7d df be 74 93 ea bc fd 89 ad be a4 c4 74 be
       -0.43650413 -0.028634764 -0.3389434 -0.23903137
000370 f3 a8 ae be d1 bc 10 be 1c 5e 54 3f 12 73 28 3f
       -0.34113273 -0.14134528 0.829561 0.65800583
000380 70 95 7e 3e e9 46 94 3e ba d5 a7 be 62 fe 97 be
       0.24861693 0.2896035 -0.32780248 -0.29686266
000390 b4 72 ba 3e 70 36 9c be 1f 07 c0 be c7 f6 34 be
       0.36415637 -0.30510283 -0.37505433 -0.17672263
0003a0 5b 93 6c be 72 2a 52 bd 5e d5 be be 01 25 fe be
       -0.23103087 -0.05131001 -0.3727216 -0.49637607
0003b0 86 c8 bf be 54 dd 01 bf 9a 8e 99 3e a1 20 a2 be
       -0.37457675 -0.50728345 0.2999161 -0.3166552
0003c0 26 7d a1 3e 43 80 c5 be 87 49 27 3f 05 48 dc be
       0.31540793 -0.38574418 0.6534657 -0.43023697
0003d0 d8 15 dc be 76 13 9b 3e 7f a2 8e 3e d8 0c bc be
       -0.42985415 0.30288285 0.2785835 -0.3672855
0003e0 69 75 be be 3b c1 48 be 0c 0b 18 3f 7b 36 22 bd
       -0.37198952 -0.19604962 0.59391856 -0.039602738
0003f0 e7 8e 9e be d8 f0 97 be 69 1d f7 ba 20 db 51 3e
       -0.309684 -0.29675937 -0.0018853369 0.20493746

net.4.bias f4 [4]
000000 c7 06 62 3c 55 ea 5c 3d 73 51 87 3d 71 3c 86 3c
       0.013795561 0.053934414 0.06607332 0.016386243
