drafts/draft_rk/runs_lunarlander/dqn_best_gif_seed42.pth (torch, 279717 bytes, 6 tensors)

net.0.weight f4 [256, 8]
000000 90 cb d4 3d 45 02 c6 3e 8e 4b 09 bd 78 2e dc 3e
       0.10390389 0.38673607 -0.03351932 0.43004203
000010 63 73 c2 be 34 66 67 be bd b1 82 be b3 71 46 3e
       -0.37978658 -0.22597581 -0.2552623 0.1937931
000020 fd 26 85 3f 86 39 3f be d2 d2 14 3f 55 94 2b bc
       1.0402523 -0.18674287 0.58134186 -0.010472377
000030 37 6a 6e 3d 9a 4c 12 be 9a 5c e3 3d 91 c6 5f be
       0.058206763 -0.14287034 0.11101647 -0.21853091
000040 06 ad b0 3e f0 38 4d bc 94 83 09 bc ed 78 58 3f
       0.34507006 -0.012525782 -0.008393187 0.8455952
000050 d5 1a 89 be 7f 9e 2e 3e 47 eb 38 be 36 38 02 3f
       -0.26778284 0.17052649 -0.18058501 0.5086702
000060 37 20 fb be e1 27 2c be b9 2a 31 be 35 3a b6 be
       -0.49048015 -0.16812088 -0.17301454 -0.35591283
000070 cf de 56 3e 14 95 9f 3d cc 9f c3 3e 69 50 de be
       0.20983432 0.07792106 0.38207853 -0.43420723
000080 05 27 b6 3c 92 6d a6 3d 9c ca 21 be 62 7d 6b 3e
       0.022235403 0.08126368 -0.15799946 0.22997048
000090 f0 25 26 bc b2 a9 32 3f b3 a2 04 3f b2 06 bf bd
       -0.010140881 0.69790184 0.5181076 -0.09327449
0000a0 00 4f 76 3e 43 db b8 bd 3c 2e 6a 3f 1c db 30 3f
       0.24053574 -0.09026196 0.914768 0.69084334
0000b0 89 d7 40 3d b5 b8 5a be b6 c8 66 3e 8e a1 3a 3e
       0.04708055 -0.21359523 0.22537503 0.1822569
0000c0 2f 9c 5d be 10 43 61 be 9f 33 78 be 10 63 47 bf
       -0.2164161 -0.21998239 -0.24238442 -0.7788553
0000d0 5a b1 08 be fc 68 82 3e a9 ab 6a 3e 2c 4c ad 3e
       -0.13348904 0.25470722 0.22917046 0.33847177
0000e0 44 b4 47 3b 36 3c c4 3c 2e 2d ac 3f 15 3a 2d bf
       0.0030472437 0.023954492 1.3451288 -0.6766675
0000f0 ea 72 87 bb 65 ec 53 be 3c 32 b7 39 d5 3d b7 39
       -0.004133572 -0.20695646 0.00034941908 0.00034950548
000100 41 b3 34 bc 42 10 63 bd 30 58 8c 3e f3 9d a6 bc
       -0.011029066 -0.055435427 0.27411032 -0.020338988
000110 55 bd 1c bf f2 38 a6 be bd 23 0c 3f ef 7e da 3e
       -0.612264 -0.3246532 0.5474203 0.42674968
000120 85 58 ee 3e 29 5f 3d be 05 ac 88 be a8 5d 0d bf
       0.4655191 -0.18493332 -0.2669374 -0.55221033
000130 17 58 15 bf 61 bb b8 3e 60 f0 69 3e 80 bf cc 3e
       -0.5833754 0.3608046 0.22845602 0.39989853
000140 73 d8 80 be 25 16 29 be fa 63 19 3e ee ab 1c bd
       -0.25165138 -0.16512354 0.14979544 -0.038249902
000150 af fa e1 3e 10 19 97 3e a2 c2 99 3e 80 b6 98 bf
       0.4413657 0.2951131 0.30031306 -1.1930695
000160 f6 4f 35 bd c8 0d 3e 3e 28 0d a5 3e a1 17 53 3c
       -0.04426571 0.18559945 0.322366 0.012884052
000170 2e 4c 3f bc 3c f7 37 3f 7a 85 e9 3c ce 42 92 bf
       -0.0116758775 0.71861625 0.02850603 -1.1426637
000180 fa 6a 28 3e 4c 3d 03 bd 7d 56 23 bd f8 14 29 bf
       0.16447058 -0.03204088 -0.039877404 -0.6604762
000190 60 88 82 be 9d 2d 9d 3d 61 04 db be 87 ee 0d bf
       -0.2549467 0.07674716 -0.42776778 -0.5544209
0001a0 b7 b2 97 3d 76 9f d1 be b0 47 6e be c9 3c 2e bf
       0.07407134 -0.40941972 -0.23269534 -0.680615
0001b0 2f 74 a4 3d a0 77 ca be 4f 32 0a 3f f5 fc b4 bb
       0.08029973 -0.39544392 0.53983015 -0.005523319
0001c0 b9 fa 0a bc ca 03 10 bf 9e 7c 91 bd a8 1c 20 bf
       -0.0084826285 -0.5625578 -0.07103847 -0.62543726
0001d0 7f 2a 31 bc fc 54 67 be 1c 00 79 be 20 be 71 be
       -0.0108133545 -0.22591013 -0.24316448 -0.23607683
0001e0 9d fd 29 3d 4e 2a a3 be 90 50 46 3d b7 20 8f be
       0.04150163 -0.31868213 0.048416674 -0.27954647
0001f0 a0 eb e8 be 8f a1 46 bf a5 77 93 3e e4 04 82 3e
       -0.45492268 -0.7759027 0.2880222 0.25394356
000200 85 df 4e 3e 5e 3f 1d be ef 5a dc 3e d7 5c 1a 3e
       0.20202453 -0.15356204 0.43038127 0.15074478
000210 05 c3 f2 bf 91 c2 74 3e 9e 70 9c 3e 06 93 58 bd
       -1.8965765 0.23902346 0.3055467 -0.052874587
000220 71 7e 85 bf 50 18 80 be cf d1 6f be f2 f1 27 bd
       -1.0429212 -0.2501855 -0.2341988 -0.04100222
000230 ab 10 36 bd af cb 07 be 77 2a 31 3f 76 37 0e be
       -0.04444949 -0.13261293 0.6920542 -0.13888344
000240 8e 38 68 be ec f9 52 3e 7c 76 a1 3e ab 33 02 3f
       -0.22677824 0.2060315 0.3153571 0.5086009
000250 e6 8b 32 3f b5 4d 18 bf 31 f0 ba 3e b0 cd b3 be
       0.6974472 -0.5949357 0.36511377 -0.35117865
000260 65 26 fe 3e f1 6e 1f be 47 83 37 3f 10 25 04 bf
       0.49638668 -0.15569665 0.7168469 -0.5161905
000270 8b 2c 01 3d 61 cf 64 3e d4 42 08 3e 69 e7 7a be
       0.03153662 0.22344734 0.13306743 -0.24502338
000280 15 c4 1f 3e c0 2a 27 3e c4 3b 23 3e ea 00 f5 be
       0.15602143 0.16324902 0.15940768 -0.4785226
000290 6a ef c5 3d 84 87 34 be 57 a9 d8 be 32 e7 c1 3e
       0.09664805 -0.1762982 -0.42316696 0.378717
0002a0 b3 44 f7 3b 4a bd 6b be 5a 9d 8b be 19 de b5 bd
       0.0075460314 -0.23021427 -0.27268487 -0.088802524
0002b0 e6 6f 22 3f d3 6b b0 3e b6 54 e1 3e 50 2d 41 bf
       0.63451993 0.34457263 0.44009942 -0.75459766
0002c0 be 72 16 bf e4 ee 48 3e af 04 2d 3f 4f d2 51 bf
       -0.5876883 0.1962238 0.6758527 -0.8196153
0002d0 fb 03 37 3f 3f 03 1a 3f 9c 88 b2 bf 9f 4e be 3e
       0.7149045 0.60161203 -1.394794 0.37169358
0002e0 8e f5 3d 3e e9 03 93 3e fb f6 b2 3e b7 0c fc be
       0.18550703 0.2871392 0.34954056 -0.4922845
0002f0 33 7c aa be 35 24 62 bd 0a 31 23 be a1 6f b9 be
       -0.3329788 -0.05521031 -0.15936676 -0.3621798
000300 15 cf 5f 3f 39 a2 86 3e 58 26 d6 3e af 89 22 be
       0.8742536 0.2629564 0.4182613 -0.15872835
000310 0d 75 4b be 7a 7a b0 bb e2 04 9a 3e 95 d2 a2 3e
       -0.1986887 -0.005385694 0.3008185 0.31801286
000320 bd 91 83 be 69 a8 2a bc 37 1d 8e 3e ae 13 b9 3e
       -0.25697127 -0.010416129 0.27756664 0.36147827
000330 1c 36 16 3d 35 8e 48 bf 9d 0e af bf ef fc e8 be
       0.036672696 -0.7834199 -1.3676335 -0.45505473
000340 74 d8 36 bd 48 e0 80 3e 8a df 02 3e 49 52 5a 3e
       -0.04464002 0.25171113 0.12780586 0.21320452
000350 1e 8e 9a be 62 04 1b bf 85 8f b6 be 13 fe 24 3f
       -0.30186552 -0.6055356 -0.35656372 0.64450186
000360 98 ac e6 3b f9 e6 53 3b f3 61 ba 3b ee de b1 3a
       0.0070396177 0.0032333715 0.005687946 0.0013570467
000370 37 1d 9a bf af 5f 3b 3d e0 52 00 bf d8 e0 61 bd
       -1.2040166 0.045745548 -0.5012646 -0.05514607
000380 e4 42 f6 bd 13 76 92 3e 4d 66 24 3e 48 59 a0 3e
       -0.12024477 0.28605708 0.1605465 0.31318116
000390 6b 44 17 be 08 9e 36 bf b6 b5 c3 be ee cb 21 3f
       -0.14772193 -0.71334887 -0.38224572 0.63201797
0003a0 ee a8 ba 3e 18 5b 07 3f 79 89 88 3d 60 26 08 3f
       0.36457008 0.52873373 0.06666846 0.53183556
0003b0 6b b0 5a 3e 5c 45 25 bf cb 5b e4 3c b3 28 9f be
       0.2135636 -0.6455896 0.027875802 -0.3108574
0003c0 ad 68 39 3d 9c ff bf be b6 29 d9 be df 86 31 bf
       0.045265842 -0.37499702 -0.42414635 -0.6934642
0003d0 1a 6b b8 3c 7a 9a 12 bf 70 cb 56 be 9a df 7a 3d
       0.022512008 -0.5726696 -0.20976043 0.0612484
0003e0 33 37 34 bd 26 17 87 3e ca 04 a1 bd e1 c6 db be
       -0.043997955 0.26384848 -0.078622416 -0.4292517
0003f0 29 26 91 3d 3a e3 2e bf 0a a9 18 bf 41 76 9e be
       0.070873566 -0.6831547 -0.59632933 -0.30949596

net.0.bias f4 [256]
000000 ec 0d 83 3e 63 6d c9 3d ad 0c 3c be b8 4b 69 3e
       0.2559656 0.09835317 -0.1836421 0.2278279
000010 fc dd 58 3e 7f 69 54 be de f7 8f 3c 80 1a b6 b9
       0.2117843 -0.20743369 0.017574247 -0.0003473349
000020 89 bc 06 3d b5 89 68 3e 1b 56 4f be 9a 74 8a be
       0.032894645 0.22708781 -0.2024769 -0.27042085
000030 87 44 38 3d 32 a1 b0 bd ff 7c e3 3e be 79 2e be
       0.044987228 -0.086244956 0.44431302 -0.17038628
000040 34 ce e7 3d 06 91 e0 3c 7b 91 63 3e d0 e8 67 3d
       0.11318627 0.027412903 0.22223465 0.05661851
000050 06 a5 39 3e af 12 0a 3e 27 11 08 be 1e 5e 81 3e
       0.18129358 0.1348369 -0.13287793 0.25267118
000060 68 90 98 be c0 df b2 3e 2e c1 19 3e e1 c0 94 b9
       -0.29797673 0.34936333 0.15015098 -0.00028372466
000070 a6 f2 4e 3e 57 f5 52 3c a5 49 96 3e a4 4d b2 3e
       0.2020975 0.012875876 0.2935306 0.3482486
000080 f7 d5 e8 be ef 8b c0 3e b2 42 c4 bc 7a 4a 3b be
       -0.45475742 0.3760676 -0.023957584 -0.1829013
000090 a3 da bb 3d a4 89 d1 3e b7 12 6e be 50 1e 26 bd
       0.09172561 0.40925324 -0.23249327 -0.040556252
0000a0 17 a3 9d 3e 78 83 58 be a4 3f 93 3e bc 8f bb bd
       0.3078849 -0.21143901 0.2875949 -0.091582745
0000b0 f1 77 83 3e be ef ac 3e 8d e9 48 bc 37 fc 27 be
       0.25677446 0.3377666 -0.012262714 -0.16404806
0000c0 67 60 57 3e 61 ca 1f 3d 17 be df 3d fd 1e 9b bd
       0.21032868 0.039011363 0.10924929 -0.0757427
0000d0 85 0f b5 3e 7c e2 27 3e b2 a7 43 ba fe e0 6e be
       0.35363403 0.1639499 -0.0007463648 -0.23328015
0000e0 ee f4 93 be cc 4d a0 3e c2 ce f6 bd 61 19 b2 3e
       -0.28897804 0.31309354 -0.12051155 0.34784988
0000f0 6e 1e ee bc cb 9f 89 bd a2 a3 61 3e 53 d2 74 bc
       -0.029067244 -0.06719931 0.22035077 -0.014942723
000100 e4 a9 33 bd fc a8 7e 3e 25 5a c8 3e ec 17 02 3d
       -0.043863192 0.2486915 0.39131275 0.031761095
000110 a2 04 d2 3e f3 45 99 3e 32 67 98 3e d4 48 ab 3e
       0.4101916 0.2993618 0.29766232 0.33454
000120 dd bb 69 3e 87 4a 62 3d a9 c9 b9 3e bb 6c b8 3e
       0.2282557 0.055246856 0.36286667 0.36020455
000130 6d d5 39 3e 25 18 7d 3e 88 3b d9 3e 9b 35 98 be
       0.18147822 0.24716242 0.4242823 -0.29728398
000140 a0 7e bc 3e a0 f9 c2 3e ee d7 82 3e db d0 b2 3c
       0.36815357 0.38081074 0.25555366 0.021828106
000150 aa da c0 bb 19 b5 aa 3e 37 a7 9f be 4d b6 02 3e
       -0.005885442 0.33341292 -0.31182262 0.12764855
000160 fa 93 86 3e 05 49 26 bf 6f 1f 20 3e a6 a8 92 bd
       0.26284772 -0.6495517 0.15636991 -0.071610734
000170 b9 3d 7f 3e 77 62 82 be bf 4b 10 3e 76 a3 cd 3e
       0.24925889 -0.25465748 0.14091395 0.40163773
000180 e4 4f 7d 3e 0a d2 e6 3e 39 79 4b 3e 10 22 a5 be
       0.24737507 0.45082122 0.19870462 -0.3225255
000190 a0 78 94 3e ba ae 37 3e c6 ee 63 3e f7 75 c5 be
       0.2899828 0.17937747 0.22259054 -0.38566563
0001a0 a9 e4 b7 3d 6d 35 3e bd bc e5 e8 3e 8c 48 8f 3e
       0.0897916 -0.04643767 0.45487773 0.27985036
0001b0 3c ea 10 3e 3e b1 ac 3e 69 80 8c be 05 93 7d bd
       0.14151853 0.33728975 -0.2744172 -0.061907787
0001c0 c8 a7 a6 bd ee 00 09 be c8 5d ba 3e b7 cf 8a 3e
       -0.081374705 -0.13379261 0.36399674 0.271116
0001d0 44 08 91 3e 41 5d ab 3d 71 d2 fd bd 5c 7a 8b be
       0.2832662 0.08367396 -0.12393654 -0.2724179
0001e0 23 ed 61 3e eb c5 bb 3e dc 53 05 3e ef c9 d6 3d
       0.22063117 0.36674437 0.13020271 0.104877345
0001f0 9d b8 c4 3b db d2 35 be dd 89 36 3e 01 95 c3 3c
       0.006003453 -0.17756216 0.17826028 0.023874762
000200 5c 48 6f 3e 55 ca 77 3e d1 b1 64 be bc a8 23 3e
       0.23367447 0.24198277 -0.22333457 0.15982336
000210 ba f2 2e be 55 90 88 3e 20 2f 51 bc 49 62 27 bf
       -0.1708478 0.26672617 -0.012767583 -0.65384346
000220 ab a1 82 3b 07 c4 1e 3e 6a d9 bf be 7c db 81 3e
       0.0039865575 0.15504466 -0.3747056 0.25362766
000230 02 e1 93 be a0 68 c3 be b3 29 11 be ba 0b 8a bd
       -0.28882605 -0.3816576 -0.14176063 -0.06740518
000240 f1 cc 70 3e ef f6 15 bd 0f 28 8b 3e 9c bd 99 be
       0.23515679 -0.036612447 0.27179 -0.30027473
000250 4b 99 68 3e eb 1d 2f 3d df 42 eb 3d 57 49 bf 3e
       0.22714727 0.04275314 0.11487364 0.3736064
000260 8b 31 64 3e 43 cf 39 3e c8 e1 78 be b2 5e 88 3c
       0.22284524 0.1814547 -0.24304879 0.016646717
000270 d1 1f dc bd 34 31 89 3e bb 0f a8 3c 2b 28 e0 3e
       -0.10748256 0.26795352 0.020515313 0.43780646
000280 fe 78 3c 3e 98 28 ac bb a6 79 26 3e 01 6d 23 3e
       0.1840553 -0.0052538626 0.16257343 0.1595955
000290 94 fd ba bc da f7 a8 3e 73 fd 93 be c1 bc 98 bc
       -0.022825994 0.33001596 -0.28904304 -0.018644692
0002a0 ff 3a 34 bf 65 a5 73 be 3d 11 12 be f2 40 13 3e
       -0.7040252 -0.23793562 -0.14264388 0.14380243
0002b0 f5 c2 36 3e 2c 77 3d 3d a8 16 5f 3e 07 b2 1a 3e
       0.17847808 0.04625623 0.21785986 0.15106975
0002c0 2a 44 4c be 66 1d b9 bd 27 f4 d5 bd fb c8 c7 3e
       -0.19947878 -0.090388104 -0.10446959 0.39020523
0002d0 00 09 6e 3e 4d 68 ac be 4f 99 b2 3d 66 b9 d6 3d
       0.2324562 -0.33673325 0.087206475 0.10484581
0002e0 ed a7 6e bd d6 2f c1 be 6f f2 2e 3e 1f e9 36 be
       -0.058265615 -0.37731808 0.17084669 -0.17862366
0002f0 4c b6 f3 3e 62 4f ac 3e 2e 23 8c be a3 b2 fd be
       0.4760002 0.33654314 -0.2737059 -0.49550352
000300 c7 78 21 be 95 30 60 be a7 8f 82 3e 13 02 b6 be
       -0.15768729 -0.21893533 0.25500223 -0.35548458
000310 07 ca a1 3d 9e 65 9b be 50 78 e5 be 78 60 0d bd
       0.07899862 -0.30350965 -0.44818354 -0.034515828
000320 56 75 0e 3c d5 8a 0b 3e 20 cc 85 be a5 82 ed bd
       0.008694967 0.13627179 -0.26132298 -0.11597184
000330 11 23 a4 bd 4b 34 9d be 1d af 82 3e e1 22 8d 3e
       -0.08014501 -0.3070396 0.25524226 0.27565673
000340 ac 4f da bd 59 b6 17 be a8 ef ac b8 5f 69 89 3d
       -0.106597275 -0.14815654 -8.2462386e-05 0.06709551
000350 32 fd 70 bc 1b 82 cd bd fc e8 c0 3e 6f c9 13 be
       -0.014708804 -0.10034581 0.37677753 -0.1443231
000360 f4 12 3b 3e ab 3e 66 3d b7 df 3a be 2d d7 c8 be
       0.18268949 0.05621211 -0.18249403 -0.39226666
000370 32 93 9d 3e e0 c1 eb 3e 35 73 ce 3d 49 75 9a 3e
       0.30776364 0.46046352 0.10080568 0.30167606
000380 05 af c0 3e 2f 27 b6 3e 44 5c a9 3e c9 a5 f5 be
       0.3763353 0.3557677 0.33078206 -0.47978047
000390 43 4e 14 3d b2 be 1c be 3a 61 4b 3e da 68 a1 bd
       0.03620745 -0.1530712 0.19861308 -0.07881327
0003a0 b5 1e 24 bc 42 64 8a bc 20 0f 21 bf c2 74 3c 3e
       -0.010017087 -0.01689351 -0.62913704 0.18403915
0003b0 ed fd bc 3d 85 39 34 be 0e 21 cc 3e 8d 7e 12 3c
       0.0922812 -0.17600067 0.3986897 0.008941305
0003c0 2e 42 1e bd a0 ef a3 3e 0b 9e df 3e 49 15 9d 3d
       -0.038637333 0.32018757 0.43675265 0.076700754
0003d0 10 9f 15 be aa 50 ba bc 8b 2c 43 3d 3f 07 9a bc
       -0.14611459 -0.022743542 0.0476499 -0.018802283
0003e0 ca ff 17 3e 89 b3 7c be 19 12 05 be cb aa 92 be
       0.1484367 -0.24677862 -0.12995185 -0.2864593
0003f0 32 ca 24 bd 77 aa b1 3d d2 27 72 be 6b 05 b5 bd
       -0.04023189 0.08675092 -0.23648003 -0.08838924

net.2.weight f4 [256, 256]
000000 60 66 9b 3e 25 af 88 be e8 ad da 3d cf 56 43 3d
       0.30351543 -0.26696125 0.10677701 0.04769021
000010 64 b6 0c 3d 54 92 35 be 6a a5 06 3e 78 a8 85 bf
       0.03435363 -0.17731601 0.13149038 -1.0442038
000020 2e 80 fc 3c 5d 33 3f bd 17 6e a0 3d 06 98 00 bf
       0.03082284 -0.046679843 0.07833498 -0.5023197
000030 db 1d 35 be 7b 84 1c 3d 9f 8c 2b 3c f3 f4 7f 3c
       -0.1768717 0.03821228 0.010470538 0.015622365
000040 c0 32 5a be eb 90 bd 3d 70 cf 87 3e c7 13 01 3d
       -0.21308422 0.092561565 0.2652545 0.031513
000050 9e ea cc bd 10 09 7e 3d 20 6b 0d bf bc a8 95 bd
       -0.10005687 0.06202036 -0.55241585 -0.07307574
000060 ef b2 94 bb a4 ea df bb 24 72 39 3d c3 3f 24 3e
       -0.004537932 -0.0068333913 0.04527487 0.16039948
000070 ad dc 84 bd 1d 5f 5a bd 28 df 09 3c 6c 4b 05 be
       -0.06487403 -0.053313363 0.008415021 -0.13017052
000080 80 3d fb 3d 63 0e 0f 3e c5 b2 1f bf ac 60 fb bc
       0.122675896 0.13970332 -0.62382156 -0.030685745
000090 33 5e 23 3e 52 39 30 3e 56 5a 8c 3c cd 10 88 be
       0.15953903 0.17209366 0.01713292 -0.26575318
0000a0 ef 44 97 3e 2d 69 b0 3d fc 4d 07 3e 56 5c 9b 3d
       0.2954478 0.08613811 0.13213342 0.07585971
0000b0 c9 62 00 3e 59 ed 73 3e b0 ec 5e be 16 fa b5 be
       0.12537684 0.2382101 -0.21769977 -0.35542363
0000c0 ec de 83 3c f1 29 fc bd c3 67 42 3d cf c6 de bd
       0.016097508 -0.12312687 0.047462236 -0.108777635
0000d0 75 16 42 bc 63 d4 17 be b7 5e 87 be a6 bb 10 3f
       -0.0118461745 -0.14827113 -0.2643945 0.5653633
0000e0 b4 9b 20 3e df fb e4 bd 81 28 90 bc 0b ff 97 3e
       0.15684396 -0.11180853 -0.017597439 0.2968677
0000f0 f8 db 7a 3e 3f 47 29 be 93 d7 45 bb 48 67 1b 3e
       0.24497974 -0.16531084 -0.0030188307 0.15176117
000100 12 3d 2a bd c3 2b e7 3d c7 ab f7 3b 78 db b6 3e
       -0.041562147 0.11287644 0.0075583193 0.35714316
000110 18 cf e9 bd 5f 63 48 bd 93 26 6f be 0a be 92 3d
       -0.11416453 -0.048922893 -0.23354559 0.07165153
000120 82 e9 ae bd 5a 33 f6 3d c1 a4 56 bd a9 5e 9a bd
       -0.08540632 0.12021513 -0.052403215 -0.07537586
000130 40 7e 1c be 9f 67 47 be a4 79 0a 3e 8a 86 f6 bd
       -0.15282536 -0.19473122 0.13522965 -0.1203738
000140 d3 24 2b 3e 4e c6 e8 bd 46 3a c5 3e 96 36 a7 bc
       0.16713266 -0.113659486 0.38521022 -0.02041177
000150 15 10 cc be 87 f9 6b bd 8f 0b 8c 3e 8c a1 1a bd
       -0.3985602 -0.057611015 0.27352569 -0.03775172
000160 ca 57 93 3e f9 d3 e2 3e 32 9d b3 3e 8c e8 5a 3b
       0.28777915 0.44302347 0.35080868 0.003340277
000170 ce f5 6e 3e d5 ec fb 3e 00 4f 15 bf 39 47 ef bb
       0.23335955 0.49204126 -0.5832367 -0.0073021916
000180 15 f8 97 3d 5b cb 20 3c 90 90 89 bc b9 94 a0 be
       0.07420365 0.009814109 -0.016792566 -0.31363466
000190 21 3f f9 3d eb 52 dc bc 1a 1c bf 3e 39 84 44 3e
       0.12170244 -0.026895007 0.37326127 0.19191064
0001a0 81 2f e9 bd 35 66 45 3d 3f 40 2e 3d 44 60 0c 3e
       -0.11386014 0.048193175 0.04254174 0.13708597
0001b0 ef 0f 38 3e 0e 67 8f bd 4d 9f d1 3e 0b 27 10 be
       0.17974828 -0.07002078 0.4094185 -0.14077394
0001c0 36 f5 93 bb 8c 2d 09 3e 0a 8a 04 3c 88 fb 31 3e
       -0.0045153154 0.13396281 0.008089552 0.17381108
0001d0 f8 63 18 3e 06 da 13 be f3 91 2f be 68 5d 07 3f
       0.14881885 -0.14438638 -0.17145519 0.528769
0001e0 a1 e7 52 3e d0 c0 1e 3e 48 31 86 3d 01 1a 62 3d
       0.20596172 0.1550324 0.065523684 0.05520058
0001f0 eb 63 3c 3e 05 22 1c 3e af c1 62 be 89 97 eb bc
       0.1839749 0.15247352 -0.22144197 -0.028758781
000200 d7 cc 99 be c3 74 ad 3e 76 f2 97 bd 6d 94 df 3d
       -0.30039093 0.33878145 -0.07419293 0.10916982
000210 64 df 46 3e cb cf 13 3e e6 44 a2 3e 79 74 5f 3c
       0.19421154 0.14434735 0.3169319 0.013638609
000220 48 ae b2 3d 52 d1 70 3e 06 eb 03 be a9 68 32 3d
       0.08724648 0.2351735 -0.12882623 0.043556843
000230 0b 3e d1 bd 96 9e 23 3f 13 37 b3 bd a4 8c 9c 3c
       -0.10216912 0.6391386 -0.08750739 0.019110031
000240 c3 8f ae 3d 4d fa 08 bf b9 39 43 3d 61 fd 0b bf
       0.08523514 -0.5350693 0.04766247 -0.546835
000250 ea a2 09 3e 07 2a e7 bd 3f 20 52 3e 46 9d e5 bd
       0.13441053 -0.11287313 0.20520113 -0.11211638
000260 81 d2 a2 3e 7b a2 d7 3d 91 7d cc be 15 a8 44 3d
       0.31801227 0.105290376 -0.3993955 0.048011858
000270 2f 60 ec be c5 37 a9 3c d9 7b 87 3e 2c d5 81 3e
       -0.46167132 0.020656476 0.26461676 0.2535795
000280 68 13 01 be 75 3d 24 3c bb de 46 3e 76 11 6f be
       -0.12605059 0.010024418 0.19420902 -0.23346505
000290 0a c7 3e be fb f2 09 3e c5 59 87 3e 40 b4 20 bf
       -0.18630615 0.13471596 0.26435676 -0.6277504
0002a0 58 20 7d 3e 4e ca 08 be 8d 3d 12 be 85 fc f9 3d
       0.2471937 -0.13358423 -0.14281292 0.122063674
0002b0 9f 94 2d 3e 73 8c bd 3e 51 ae bb be ba e6 ee 3d
       0.16951226 0.37021217 -0.3665643 0.11665101
0002c0 03 a1 81 3e 43 33 7e 3d 6a ab 25 3e 37 96 57 3b
       0.25318155 0.062060606 0.1617867 0.0032895932
0002d0 43 8f a1 bb 35 1c 9d 3d 06 b5 36 be 61 b3 03 be
       -0.004930408 0.07671396 -0.17842492 -0.12861396
0002e0 18 96 11 3d 6d 6a 2b bd 8c b2 20 bd 6e fc 36 bf
       0.03554353 -0.041849542 -0.039232776 -0.7147893
0002f0 19 fb 92 3d ba ed 43 bd db 5b 45 3f 81 8b 56 3f
       0.07176799 -0.047834136 0.77093285 0.83806616
000300 09 83 33 bd 19 85 bd 3d fe 13 52 bc 4d 7d ad be
       -0.043826137 0.09253902 -0.012822149 -0.3388466
000310 14 10 05 3f 44 da a9 3b 94 cf 3f 3c e2 2d cd 3c
       0.5197766 0.00518349 0.011707205 0.025046293
000320 af 55 fe bd f4 67 06 3e 87 e2 84 3d d1 8d 96 3e
       -0.124186866 0.13125592 0.06488519 0.29405072
000330 73 8a 89 3c 35 b5 b4 3d 6b fd c9 3c da 10 fe bc
       0.01678965 0.08823625 0.024656972 -0.031013895
000340 74 5d b7 3e 3b c1 04 3f 0c f1 1c 3f 30 9f 82 be
       0.35813487 0.51857346 0.6130531 -0.25512075
000350 73 0b 8f be c8 5d 6d be 78 c4 3e bc c1 f2 57 be
       -0.27938423 -0.23180306 -0.0116435215 -0.21088697
000360 74 be a7 3e dd a0 0d 3e ed da f5 3d 69 f4 63 be
       0.32762492 0.13830896 0.120046474 -0.22261204
000370 0e f3 91 3d ca 05 27 3e 71 e7 bf bd fa f8 b7 3e
       0.07126437 0.16310802 -0.09370316 0.35932142
000380 41 c9 81 3d ef 58 44 3d dc a1 a0 3c 7d b3 6f bd
       0.06337214 0.047936376 0.01960843 -0.058520783
000390 7c d1 45 be 82 69 7e 3e 91 4c b4 3d b7 2b 9f bd
       -0.19318193 0.24844936 0.088036664 -0.0777201
0003a0 4e d5 10 3e 99 b3 0b bd 81 dc 3d 3e d3 a7 97 3e
       0.1414387 -0.034106825 0.18541147 0.29620227
0003b0 5f ea 11 bd a8 82 8a bd 15 d7 26 3c d1 55 17 be
       -0.035623904 -0.06763202 0.0101831155 -0.1477883
0003c0 2f e2 f0 3d 58 e9 b2 bb 4d 68 52 bd 29 a3 4a bd
       0.11761891 -0.0054599456 -0.051369 -0.049472008
0003d0 98 75 e2 3c a0 c6 09 3c 28 b1 2a bd 97 b5 85 3e
       0.027643964 0.008409172 -0.041672856 0.26115105
0003e0 10 b9 1f 3e 9f d1 5c be 02 94 20 3e 72 60 06 be
       0.1559794 -0.21564339 0.1568146 -0.13122728
0003f0 e3 02 b8 3e 8e bb 91 3c 73 a0 9f 3d 60 5c e9 3d
       0.35939702 0.017789628 0.07794275 0.11394572

net.2.bias f4 [256]
000000 46 43 9b 3d ff 68 23 3c 94 7b ef 3d 43 a1 a2 bd
       0.07581191 0.0099737635 0.116934925 -0.079409145
000010 25 19 88 bc b6 29 8a 3d 3f b4 56 3c 0c 29 15 3e
       -0.016613552 0.06746237 0.013104497 0.1456644
000020 d8 08 16 3d ef 3b a1 3d 0d 30 13 3d fc 41 eb 3d
       0.036629528 0.078727596 0.035934497 0.11487195
000030 e9 07 94 3c e7 34 e5 3d e6 d1 22 3d 55 0b 2a be
       0.018070178 0.11191731 0.039750956 -0.16605885
000040 5a 5f ed bd 2e 48 0f be 99 d1 e2 3d 22 c6 e5 bb
       -0.115904525 -0.13992378 0.11075134 -0.0070121447
000050 ea f2 46 be d7 4b 42 3d a2 6d ab 3b 5a 3d ac bb
       -0.19428602 0.047435608 0.005231575 -0.005256337
000060 a2 35 8a bd 3e 0c c9 3d be 5c 2e 3d 57 fd 92 bd
       -0.06748511 0.09816788 0.042568915 -0.07177227
000070 a5 5a 0e 3d cd 52 8b 3d 03 ee 44 bd fe 5e 8e 3c
       0.034754414 0.06802902 -0.04807855 0.01737928
000080 55 6d b2 3d 6f 71 99 3d d8 7a 2b 3d 90 bc 7c 3d
       0.0871226 0.07492339 0.0418652 0.061703265
000090 8c f1 25 bd b9 8f 71 3d 28 61 27 3e 54 9c 00 3c
       -0.04051356 0.058974955 0.16345656 0.0078497715
0000a0 41 2b 91 3d 5d 0f 63 3d 3a af 08 3e bf 57 af 3c
       0.07088328 0.055434573 0.13348094 0.021404145
0000b0 3b 9d e1 3d ef e6 a9 3d c9 09 d2 3d bd 92 bd bc
       0.110163175 0.08296 0.102557726 -0.02314126
0000c0 05 e5 86 bd 32 57 e7 3a fa 64 a6 3d 51 7f 30 bd
       -0.06586651 0.0017649888 0.081247285 -0.04309017
0000d0 37 0c 09 3e b5 d7 45 bc 2c db ed bd 15 77 05 3e
       0.13383566 -0.012075354 -0.11614069 0.13033707
0000e0 c0 fb f2 3d 31 b3 c4 3c ca 10 e0 bd da 10 a0 3d
       0.11864424 0.024011226 -0.10940702 0.07815714
0000f0 64 a1 a8 bc 1b 9d 90 bd ff 42 09 3e ac 43 7d 3d
       -0.02058477 -0.070612155 0.13404463 0.061832115
000100 d1 d6 a5 bc d5 f6 7b bc 1f 46 fe 3d 13 88 ab 3d
       -0.020244034 -0.015378674 0.12415718 0.083755635
000110 56 53 c8 bd 31 fd df 3c 8d d2 8c 3d 31 7f d3 3c
       -0.0978152 0.02734241 0.06876097 0.025817486
000120 7d fc 70 bd 12 80 a7 bd af d8 b3 3d 0e ee a5 bd
       -0.05883454 -0.08178724 0.087815635 -0.08102046
000130 6c d3 21 bd 5e be f7 bb 8b 86 9e bc 7c dd 67 bc
       -0.03950827 -0.0075605353 -0.019351264 -0.014151927
000140 3b ae ce 3d 16 0b 46 3c 51 a2 30 be 84 09 16 3e
       0.100918256 0.012087604 -0.17249419 0.14652067
000150 78 f7 9e bc 96 88 d9 bc ba df c9 3d f2 9d 83 bd
       -0.019405112 -0.026554387 0.098571256 -0.0642661
000160 5c 11 15 be 66 c8 86 bc 08 d4 d1 3d 8f c3 d7 3d
       -0.14557403 -0.01645298 0.1024552 0.10535347
000170 24 89 87 3d 65 e4 96 3d 7b b1 5f 3d f9 d0 b0 bc
       0.066179544 0.073677815 0.054612618 -0.02158402
000180 86 2f f4 bd c4 8f ac 3c 63 43 46 bc b3 cd d6 bc
       -0.11923127 0.021064647 -0.012101027 -0.026221132
000190 84 cc 26 bd 64 97 57 bd 3f bc cd bd 49 d1 30 3e
       -0.040722385 -0.05263461 -0.10045671 0.17267336
0001a0 4a 56 1b 3e eb 27 63 bd e9 bc 3d 3e 54 0f 44 bd
       0.15169635 -0.05545799 0.18529095 -0.04786618
0001b0 90 6f 5f 3d d3 f6 27 3d fe f5 24 bd 0a 90 95 3d
       0.054549754 0.041006874 -0.04027366 0.07302864
0001c0 ed b9 c4 3d 4d 4c b8 3d 85 8d 94 3c 85 e5 e4 3d
       0.09605775 0.08998928 0.018133888 0.1117659
0001d0 54 fc e4 bd 33 d9 e2 3d ff c5 a0 3c dc 6e 19 3e
       -0.1118094 0.11076584 0.019625662 0.14983696
0001e0 50 cb 0a 3e 44 35 e1 bd a1 b3 25 bd ce 77 c2 3d
       0.1355412 -0.10996488 -0.04045451 0.09495507
0001f0 0f b9 e5 3d ef 13 88 bd 88 cb 87 3c c5 01 bb 3d
       0.11216938 -0.06644427 0.016576543 0.09131197
000200 fe c6 95 3d 71 45 a1 3c 0d 5e f9 3d f7 2a 90 bd
       0.073133454 0.019686433 0.12176142 -0.07039445
000210 e4 c7 d5 3b 07 35 a6 bb 54 1a 4d 3d 68 9e 07 3e
       0.006524073 -0.0050722393 0.050073937 0.13244021
000220 43 21 e3 3c 74 87 bb bc 60 0b 96 bc a8 72 57 bc
       0.027725821 -0.022891738 -0.01831597 -0.013149895
000230 9d 7e ec 3d df fd d9 3c fa 39 8d 3d 6b 28 7f bd
       0.11547587 0.026610313 0.06895824 -0.062294405
000240 c7 0e 08 be 19 dd 7d 3d 1f 76 02 3d 71 78 34 bc
       -0.13286887 0.061978433 0.03185093 -0.011015044
000250 03 b8 ef bc 89 93 31 bd 66 2d 8d 3d 18 f0 63 bd
       -0.029262548 -0.04335359 0.06893425 -0.055648893
000260 2d 45 41 be 96 31 0a 3e a2 00 43 bd 66 25 e8 3b
       -0.18874045 0.13495478 -0.047608025 0.0070845364
000270 e2 2c fc 3c 9a b7 14 3c 0e 75 2b 3e cb 85 0d 3d
       0.03078312 0.009076977 0.16743872 0.034551423
000280 6d 4e 9f 3d f4 65 7d 3c d1 04 39 3d b5 f0 55 3d
       0.077786304 0.015466202 0.04517061 0.05223151
000290 62 2c dd 3c 5c 15 91 3d 35 cd fa 3c fc 12 de 3d
       0.026998702 0.07084152 0.030615428 0.10843465
0002a0 dc 06 b0 3c cb a2 88 bd 23 75 4c bd 11 ba 1c 3e
       0.021487646 -0.06671675 -0.049916398 0.15305354
0002b0 54 7a cf bc e7 0c 75 3c aa 4c c4 3d 52 09 0c bd
       -0.025326885 0.014956689 0.09584935 -0.034188576
0002c0 cf 9f b6 3d ee 49 bf 3c a2 5d 5a 3d 95 35 35 3d
       0.089172 0.023350682 0.05331195 0.044240553
0002d0 62 2b ea 3c 72 c0 8b 3d 5b 25 e9 bc 09 8c 27 3d
       0.02858514 0.068238154 -0.028460195 0.040905032
0002e0 dc 1e f1 3b 71 6c 31 3c 6d 83 82 bd 37 fc 2d bd
       0.007358415 0.010829077 -0.06372724 -0.04247686
0002f0 67 f9 b4 bd 12 22 0c 3d 17 2a c7 3d 8b 34 14 3d
       -0.08836632 0.03421218 0.09724825 0.03618292
000300 0a 10 8e 3d e7 dc 39 bc aa c8 9f bd b3 1d f5 3d
       0.06936653 -0.011344171 -0.078019455 0.11968555
000310 6f 23 46 bc 2f c5 24 bd be dc 31 3d d2 da 2f bc
       -0.012093409 -0.04022711 0.043423407 -0.010733323
000320 cc 33 18 3e 41 43 cf bd 69 af b1 3b f3 02 b7 3c
       0.14863509 -0.101202495 0.005422522 0.022340273
000330 25 11 05 3e 39 84 78 3d 41 00 89 bc 11 5d 25 3e
       0.12994821 0.060672972 -0.016723754 0.16148783
000340 00 5e 96 3d f3 3d 34 3d 84 fe ee bc b5 d0 72 3d
       0.07342148 0.044004392 -0.029174097 0.05928107
000350 47 ff e2 3d c2 11 0a 3e c8 ef 2d 3e bf 40 09 3c
       0.110838465 0.13483337 0.16986 0.008377253
000360 bd db 82 3e b6 c0 4f bd 10 56 20 be 9c 95 be 3d
       0.25558272 -0.050720893 -0.1565783 0.093058795
000370 8f f7 0e 3d f1 81 88 bc 8e 8b 3b bd 7e ec 4c 3d
       0.03490406 -0.016663523 -0.045787387 0.050030224
000380 08 76 34 3d 3b f7 64 bc 8a ab 77 3c 91 30 f9 3c
       0.044057876 -0.01397496 0.015116582 0.030418666
000390 81 ad 14 3e 5a d5 e9 bd 67 bf 5b bd 8f 3d 46 3d
       0.14519311 -0.11417647 -0.053649332 0.04839855
0003a0 c5 82 49 3d 7b da 0f 3d 70 ff 11 be c4 ee 2a 3c
       0.049196977 0.03512047 -0.14257598 0.010432903
0003b0 f4 ad 48 3d 5d 03 27 bc 1e ef 1a 3e c0 7c 96 3d
       0.04899402 -0.010193673 0.15130278 0.07348013
0003c0 5f 4d e9 bc c2 da 71 3c 20 67 18 3e 13 e5 a8 3d
       -0.028479276 0.014761629 0.14883089 0.082468174
0003d0 56 55 8b 3c fb 7d 3c 3e 3d ff 3f 3e 5d 8a 7b 3d
       0.017008465 0.18407433 0.1874971 0.06141125
0003e0 f9 33 b7 3d 0b b7 7e bd 3c f7 60 3d a7 c5 66 3c
       0.0894546 -0.062186282 0.05492328 0.01408521
0003f0 da c5 d1 3c d9 60 55 bd bf eb 5a 3e 2b fd 1e 3e
       0.025607038 -0.052094314 0.21378992 0.15526263

net.4.weight f4 [4, 256]
000000 53 c9 24 3d 34 6c 8d be d5 3b 6a bf 15 c7 c5 be
       0.04023106 -0.27621615 -0.91497546 -0.3862845
000010 af 8a 31 bf c3 f7 c1 3e e3 95 9f 3e bf f1 c8 3e
       -0.6935224 0.3788434 0.31169042 0.39246938
000020 8d b5 61 bd 74 d1 3b 3f bf 3d a6 be 1c 65 bb be
       -0.05510478 0.73366475 -0.32468984 -0.36600578
000030 41 8b 0a 3f dc f2 06 bf 6d 48 dd be c8 48 4d 3f
       0.54118735 -0.52714324 -0.4321932 0.8018918
000040 12 e2 95 3e 10 31 a5 bf 1a 0a b2 be d5 1a be be
       0.2927404 -1.2905598 -0.34773332 -0.37129846
000050 e1 05 8d 3f 03 7e bb 3e af 53 62 bf a4 34 99 3e
       1.1017419 0.36619577 -0.8840894 0.29922974
000060 2a dc d7 be 76 d9 a8 be e3 ae d4 3e 93 95 12 bf
       -0.4216016 -0.3297841 0.41539678 -0.5725948
000070 88 ec 86 be 61 c9 af be 84 12 59 bd de 75 7f be
       -0.26352334 -0.34333327 -0.052996174 -0.24947307
000080 60 16 9a be c9 4e f5 3e e7 17 ad bc 93 61 b0 3e
       -0.30095196 0.4791167 -0.021129562 0.34449443
000090 50 11 4a be 8b c0 03 3f 74 81 33 3f bb 0c ba be
       -0.19733167 0.5146567 0.70119405 -0.36337838
0000a0 c4 19 35 3f 02 03 c2 be b4 d3 da 3e 83 cb c7 be
       0.7074244 -0.3789292 0.42739642 -0.39022455
0000b0 83 54 b4 3e 34 94 17 3f 79 3a 27 3f 9a 08 41 bf
       0.35220727 0.59210515 0.653236 -0.7540375
0000c0 7b c6 8e bb 61 8e 11 3e 57 ce 72 3f f4 13 10 3f
       -0.004357157 0.1421447 0.948461 0.56280446
0000d0 73 77 66 be c1 26 31 3f e1 ea ee be 13 9c 80 be
       -0.22506504 0.6919976 -0.46663573 -0.25119075
0000e0 f1 04 b1 be ca 0d 34 bf be f7 0b bf 48 84 29 3f
       -0.34574082 -0.7033354 -0.546749 0.6621747
0000f0 b6 3a 9a 3d ea 7e af 3c 7e a5 a9 be 7a fc cb be
       0.075307295 0.021422822 -0.33134073 -0.39841062
000100 58 e1 cb 3c 1a ca 80 3f 74 11 6b 3f ca 6f 21 bf
       0.024887726 1.0061677 0.91823506 -0.630612
000110 bf e2 3d bf 86 6c a8 3e 4b 01 a6 3f b1 35 12 3f
       -0.7417411 0.32895297 1.2969145 0.57113177
000120 64 fd 0f bf 70 e7 0d bf ba 29 3b be f6 51 a9 be
       -0.5624602 -0.5543127 -0.18277636 -0.33070344
000130 ca 30 8a be 9b 8a bd 3c 8c 85 b6 be 4b 79 d5 3e
       -0.26990348 0.023137381 -0.35648763 0.41694102
000140 ec 66 b0 3e 7b f5 46 3d d8 16 80 bf d3 c1 c2 3e
       0.34453523 0.048573952 -1.0006971 0.380385
000150 3c c3 b7 be 30 73 3c 3c 37 f5 74 3f f5 4c 95 bf
       -0.3589114 0.011502072 0.9568667 -1.166411
000160 40 9f 9f bf ce f3 f1 be 17 4f cd 3e 42 60 38 bf
       -1.2470474 -0.4725632 0.40099403 -0.7202188
000170 fb 84 87 3e e8 54 7e 3f 19 cf d2 be eb 5d 4b bf
       0.26468644 0.99348307 -0.41173628 -0.7944018
000180 a5 9d 59 bf 4d 1e 32 bf 1c 93 7d 3f 11 73 be be
       -0.8500617 -0.69577485 0.99052596 -0.37197164
000190 69 fe 8c bf c2 d7 36 3d 26 6b 70 bf 15 7c ed 3e
       -1.101514 0.044639356 -0.93913496 0.4638373
0001a0 7c 5e 86 3e 7e 30 93 be f0 dd 04 3f fc 16 85 be
       0.2624396 -0.28747934 0.5190115 -0.25994098
0001b0 8d 83 ca be a2 3d 3f 3f cd ca a1 be 7f ee 00 bf
       -0.3955349 0.7470342 -0.31600037 -0.50363916
0001c0 c7 f1 84 3f 04 95 f0 be 2c 03 83 bf a6 df 5b be
       1.0386285 -0.4698869 -1.0235343 -0.21472034
0001d0 7b 15 17 3f 52 30 04 3f 4c 69 77 be 27 e8 ac be
       0.5901715 0.5163623 -0.24161261 -0.33770868
0001e0 1d 7b 40 3f 73 88 7f bf d1 79 57 3f f9 ce 96 3e
       0.75187856 -0.9981758 0.8417025 0.29454783
0001f0 6e 5b cf 3e 09 21 9f bf cb 0a c3 be 57 27 f1 3e
       0.40499443 -1.2431957 -0.38094172 0.47100326
000200 de 25 2d bf be 1b 65 bf 33 9c ca 3e c1 11 24 3f
       -0.67635906 -0.89495456 0.39572296 0.6408959
000210 e0 6d 97 3e 97 72 92 bf 9f be 8d 3b a7 d3 56 3f
       0.29576015 -1.144122 0.0043257023 0.83916706
000220 b2 78 f3 be 72 0c d9 be 26 98 4e 3d c5 63 70 3f
       -0.4755302 -0.42392308 0.05043807 0.93902236
000230 c9 0a cf 3e f7 f2 8c be 8b 13 af 3e 40 4e dd 3e
       0.40437916 -0.27529117 0.34194598 0.43223763
000240 c3 31 af bf ff da 8b be 7f 88 95 be cb 2d de be
       -1.3687061 -0.27315518 -0.292057 -0.43394312
000250 32 f9 1c 3d 4a e5 ec 3e f4 d9 ac be 07 3f 69 bf
       0.03832359 0.46268684 -0.33760035 -0.911118
000260 3b 50 54 bf 0b eb e0 3e f1 4b 07 3d cd 2d 8d 3f
       -0.8293492 0.43929324 0.033031408 1.1029602
000270 f3 f2 1c 3c 58 76 d4 3e d7 d1 c4 3e 87 9a bb 3e
       0.009579408 0.4149654 0.38441345 0.36641333
000280 9d 52 4d 3e 20 89 46 bf 48 69 05 3f 0a 60 9c be
       0.20051046 -0.77552986 0.5211377 -0.30542022
000290 98 1e a6 be db 6b a1 be ef a7 5e 3f c2 31 1a bf
       -0.32445216 -0.315276 0.86974996 -0.60232174
0002a0 11 43 17 3f 1e d6 74 bd 8c 45 0a 3f ab d0 13 3f
       0.5908671 -0.05977451 0.5401237 0.5774028
0002b0 b5 ba 10 3f e4 08 91 3f 0d 97 a8 be b8 cc 01 3f
       0.5653489 1.1330838 -0.32927743 0.50703
0002c0 7e 84 0b bf 2b 15 80 3f b9 1e b4 be 71 6a 0d 3f
       -0.5449904 1.000646 -0.3517969 0.5524054
0002d0 d3 d0 9c 3e 0a 82 f0 be 8b 98 2a bf fa 55 11 3f
       0.3062807 -0.46974212 -0.6663901 0.56771815
0002e0 96 6e cf 3c bc b5 c8 be 1d c4 11 3c fd e5 22 bf
       0.025321286 -0.39201152 0.008896855 -0.63632184
0002f0 d8 c1 42 bf 94 ec 3b bf f2 c1 8a be 62 22 96 be
       -0.7607703 -0.73407865 -0.27101094 -0.29323107
000300 82 26 f2 bd b1 e6 aa be e5 10 a4 bf bb 76 c1 3e
       -0.11823751 -0.3337913 -1.2817656 0.37785897
000310 aa cf c4 3f 6c 5d c1 be 30 f1 12 3f 99 7b 9d 3e
       1.5375874 -0.37766588 0.5739927 0.3075836
000320 3c be 84 3f 53 1f e4 3e 66 a7 07 bf 4c b9 77 3f
       1.0370555 0.44555148 -0.52989805 0.96767116
000330 04 92 77 3e 44 99 91 3e 0a f3 1d bf 55 36 25 3f
       0.24176794 0.28437245 -0.61698973 0.6453603
000340 04 45 d0 bf 3f 4f d8 3e 54 23 76 bc 2e 33 82 be
       -1.6271062 0.4224796 -0.015023071 -0.25429672
000350 0f c7 a2 be c7 a3 b4 3e 8e a8 67 3f 19 dd bf be
       -0.31792495 0.35281202 0.9049157 -0.37473372
000360 de 1f 67 be c0 b0 11 bd 2e dd 2b bf b0 ed 90 be
       -0.2257075 -0.035568953 -0.6713437 -0.2830634
000370 7a cf 69 bf 05 3b a8 be 3f 47 b2 3e 70 09 a0 3f
       -0.9133221 -0.32857528 0.3481998 1.250288
000380 11 75 8b 3e 63 22 13 bf 4c 65 cb be 2e a1 32 bf
       0.27237752 -0.57474345 -0.3972572 -0.6977719
000390 43 d0 b0 3e e4 4e 75 bf 5e ba c4 be 5a bc 00 bf
       0.3453389 -0.958235 -0.38423437 -0.502874
0003a0 d8 a5 84 be 9e 95 03 bf 65 8a 3d bf 99 18 3c bd
       -0.2590778 -0.5140017 -0.740393 -0.045921896
0003b0 6e e1 ff be 9d 27 cf be e6 7b da 3e ac c8 b1 be
       -0.49976677 -0.4045991 0.42672652 -0.34723413
0003c0 6e 2d 08 3f d6 49 b5 be 2a e4 f1 3e 77 a2 b9 be
       0.5319432 -0.35407895 0.47244388 -0.36256763
0003d0 bb 6f c0 be 88 eb 09 3f 27 8f 1c bc 90 cc f3 be
       -0.37585244 0.5387502 -0.009555615 -0.47617006
0003e0 8b 63 9f be 67 6c 77 be 79 46 a2 3e 0e 6e 35 3d
       -0.31130633 -0.24162446 0.3169439 0.04429441
0003f0 88 f0 a4 be 74 c0 98 be 14 01 8a be ea 1f bc 3e
       -0.3221476 -0.2983433 -0.26953948 0.36743098

net.4.bias f4 [4]
000000 59 06 e3 bc 2f 81 ff bb 4e 35 fa 3c 51 b3 12 bd
       -0.027712988 -0.0077973823 0.030542996 -0.03581554
