drafts/draft_rk/runs_lunarlander/dqn_double_seed42.pth (torch, 279693 bytes, 6 tensors)

net.0.weight f4 [256, 8]
000000 35 2f f0 bc 06 bd 25 3d f8 4c 20 3c 8a 10 d7 3f
       -0.029319385 0.04046347 0.009783976 1.6801922
000010 35 76 f7 bd 43 e9 60 be c2 75 a2 3d af 08 ee 3d
       -0.12083093 -0.21963982 0.07932617 0.1162275
000020 4f c1 c1 3e 54 64 1d be f4 1a 16 3f 85 9e a8 be
       0.37842795 -0.15370303 0.5863488 -0.3293344
000030 ce 00 0d 3f b5 6e ad bd 32 96 40 3e 93 9e ed bd
       0.5507935 -0.08468381 0.18807295 -0.11602511
000040 4a 32 63 3e b6 76 54 3e 30 25 bc bd e5 ea ef 3d
       0.22187153 0.2074841 -0.091867805 0.117147245
000050 72 01 8e be 08 30 7e be 02 1f bd be 9c 74 e5 3e
       -0.27735478 -0.2482301 -0.3693772 0.44815528
000060 05 e8 0d bf ce a4 39 be 5d d7 2b be fd 4b be be
       -0.5543216 -0.18129274 -0.16781373 -0.3716735
000070 78 ef 70 3e 6f 57 ea bd 30 b5 c1 3e 08 c0 9a be
       0.2352885 -0.11442458 0.37833548 -0.30224633
000080 0c 45 2d 3e 99 53 93 bd 63 4b b6 bd e9 bb 1f 3f
       0.1692087 -0.07193679 -0.089010976 0.62396103
000090 99 68 f0 be 8c 53 72 3e f3 be dd 3e 8a 14 f0 bd
       -0.46954802 0.23664683 0.43309745 -0.117226675
0000a0 cc 0e ac 3d 42 ea 72 bd 1e 12 0b 3e 9a 4e 85 3f
       0.0840126 -0.059305437 0.1358113 1.0414612
0000b0 2b 8d 47 3e 24 22 2d be bc b2 e4 3e 78 cd 95 be
       0.19487445 -0.16907555 0.44667614 -0.29258323
0000c0 69 e2 33 3e 7b eb c4 be 8d 0f 22 3d 5b 6d b2 be
       0.17566837 -0.38460907 0.03956561 -0.34849057
0000d0 41 62 41 3e 60 8d 44 3f ad 50 86 3e 74 4a 4f 3e
       0.18885137 0.7677822 0.26233426 0.20243245
0000e0 a0 5f 11 3e 0c 8d f3 bd 9f d8 6d 3f 46 a5 16 be
       0.14196634 -0.11892137 0.9290866 -0.14711484
0000f0 92 04 1c 3e 78 d7 0d bf 60 8d 65 3e a3 76 02 bc
       0.15236118 -0.55406904 0.22417212 -0.0079628555
000100 5a b4 9e bd a0 47 7b be d9 16 37 bb 8f 66 22 be
       -0.07749243 -0.24539042 -0.0027937202 -0.15859435
000110 7d b4 35 bf 46 a4 0f bf c8 e7 c2 3e 63 97 c0 3e
       -0.7097853 -0.56110036 0.3806746 0.376155
000120 0a 71 f5 3e 85 c1 80 be a4 95 17 bf b3 12 f8 be
       0.47937804 -0.25147644 -0.5921271 -0.48451766
000130 2c 1a 8c be 24 ef 82 3c b6 23 76 3e ce 8e bc 3e
       -0.27363718 0.015983172 0.2403706 0.368277
000140 f2 d7 d0 3d 01 21 8c be de bf cd 3e 2b 4e 0f bf
       0.10197438 -0.2736893 0.40185446 -0.5597865
000150 95 39 79 be 80 a7 8a bd b9 45 d0 bd 29 2e ff bc
       -0.24338372 -0.06770229 -0.101695485 -0.03114994
000160 00 6c be bd 92 fa 52 3e 01 6e d8 3d 86 0f f1 bd
       -0.09297943 0.20603397 0.105678566 -0.11770539
000170 01 e0 27 3f 0c ed 5c 3f 82 ca 0f be 3a cb 14 bf
       0.6557618 0.86299205 -0.14042094 -0.581226
000180 04 ab af 3e 1f ee 05 3d 0f 5f cc bd 7e f7 13 bf
       0.34310162 0.032697793 -0.099790685 -0.5779952
000190 2b fe 43 be e8 f9 11 3e 36 44 21 bf 70 1b 24 bf
       -0.19139926 0.14255488 -0.62994707 -0.64104366
0001a0 75 40 31 bb 51 cf 34 be aa c3 98 be a2 73 2d bf
       -0.0027046476 -0.1765721 -0.2983678 -0.67754567
0001b0 e0 89 09 3e 95 c7 5d be 3c 52 b0 3e 71 5f 49 3e
       0.13431501 -0.21658166 0.3443774 0.19665314
0001c0 aa a9 08 3e bd a9 af be a7 ec 42 be 06 06 0b bf
       0.13345972 -0.34309188 -0.19035588 -0.54306066
0001d0 e6 cf 14 3e 07 33 0c be ad 02 b8 bd e1 af 79 bd
       0.14532432 -0.1369134 -0.08984885 -0.060958747
0001e0 80 0e ae bc a0 6d be be 68 ac 1d bd 23 87 1e bf
       -0.021247149 -0.37193012 -0.038494498 -0.6192495
0001f0 c6 94 b7 bd 49 33 18 bf 23 e5 93 bf b0 db 53 3e
       -0.08963923 -0.59453255 -1.1554302 0.20689273
000200 05 82 e2 3e 40 3f 2f bd 5e ec ba 3e 08 b4 cf 3e
       0.44239822 -0.04278493 0.3650846 0.4056704
000210 14 a1 5d bf 08 24 d7 3d da b1 29 be 28 22 75 be
       -0.8657391 0.10504919 -0.16571751 -0.23938811
000220 38 de 6e bf 6e e6 8b be 90 29 c0 be 24 82 80 be
       -0.9330783 -0.2732424 -0.3753171 -0.2509929
000230 fd 90 92 3e 4f 2b 57 be bf 7a 2c 3e c1 30 55 be
       0.28626242 -0.21012615 0.16843699 -0.2081938
000240 12 9a c0 bd 19 ef 90 3e cb 1e eb 3d 89 e8 15 3f
       -0.094043866 0.28307417 0.11480483 0.58557945
000250 db 45 d6 3e 5e 22 d4 be e5 45 d1 3e 54 9f a0 bd
       0.4185017 -0.4143247 0.40873638 -0.078428894
000260 1e b8 da 3e cc 3c d2 bd 8c ac da 3e 8b 39 25 bf
       0.42718595 -0.10265502 0.42709768 -0.6454093
000270 94 6e 89 be c0 b5 8d bd 2d df b0 bc 54 64 a7 be
       -0.26842177 -0.06919432 -0.021590794 -0.32693732
000280 f2 d7 ae 3e 26 db 41 3e 07 59 22 3e 40 88 06 bf
       0.34149128 0.18931255 0.15854274 -0.5255165
000290 33 a5 8c 3e 2a 16 53 be f3 bc 97 be 90 f1 b6 3e
       0.27469787 -0.20613924 -0.29636344 0.35731173
0002a0 76 e6 ef 3d 08 d4 0f be ef 7d c4 bd 0c 8c 03 3e
       0.11713879 -0.14045727 -0.095943324 0.12846392
0002b0 23 51 d1 3e 96 d6 e9 3e 1d 50 02 bf 22 85 0f bf
       0.40882215 0.4567153 -0.50903493 -0.5606252
0002c0 c2 3b b5 be 23 84 9c 3e 1f 30 0e 3f d5 6a 02 bf
       -0.35397154 0.30569562 0.55542177 -0.5094426
0002d0 8f 49 67 bd 55 30 b4 3e a5 c5 0a bf 1f 45 47 be
       -0.056466635 0.35193124 -0.5420783 -0.19459961
0002e0 05 64 a8 3e 94 ed 9d 3e d7 2f 32 3e 53 13 4c be
       0.3288881 0.3084532 0.17401062 -0.19929247
0002f0 8a 83 7f bd ef 7f 2d be af ce af bd d8 01 b1 bd
       -0.062381305 -0.16943334 -0.08584344 -0.0864293
000300 73 42 5e 3d 19 5b 6f 3e d3 fd 8e be 6d 65 84 3e
       0.05426259 0.23374595 -0.27928028 0.25858632
000310 4c 34 f5 3e ff 28 fe bd f8 e9 01 bc b3 ce 95 be
       0.47891462 -0.12410163 -0.007929318 -0.2925926
000320 79 ee d9 bd 8a 44 ee 3c 83 c7 d5 3d 15 07 93 3e
       -0.10641188 0.029085416 0.104384445 0.2871634
000330 a2 d9 54 be fd bf 40 bf 18 6d 37 bf 86 13 b2 be
       -0.20786145 -0.7529295 -0.7165084 -0.3478052
000340 6c 2b 2c bb 72 61 4f 3e 9c 37 9e 3d f4 16 9f 3e
       -0.0026270999 0.20252016 0.077254504 0.310722
000350 f9 72 72 be 9d 0b de be ca bb 98 be d9 59 1d 3f
       -0.23676671 -0.43368235 -0.29830772 0.6146522
000360 c8 41 48 b8 d2 d0 e6 bb a6 f0 ab 3c 18 d3 94 3c
       -4.774498e-05 -0.0070439363 0.020988774 0.018167064
000370 50 f4 b5 bf 55 97 cf 3d ec 81 46 bd e0 c7 35 bf
       -1.4215183 0.10136286 -0.048463747 -0.7100811
000380 58 ae b2 bd de 78 93 3e 7c 18 ab 3d 0e 74 c0 3e
       -0.0872466 0.28803152 0.083542794 0.37588543
000390 12 f8 4b be 54 d8 23 bf 43 23 c0 be 67 9e 18 3f
       -0.1991885 -0.64001966 -0.37526903 0.596167
0003a0 21 9c 70 3d 9b ee ba 3e 80 88 3c bd 8b ca 80 3e
       0.058742646 0.36510167 -0.046028614 0.25154528
0003b0 27 00 a4 be 42 8b 03 bf ab 32 2d bf d8 42 19 bf
       -0.32031366 -0.51384366 -0.6765544 -0.5986762
0003c0 13 03 6e 3e 61 82 b3 bd 48 bd 8c be 32 b4 58 bf
       0.2324336 -0.08765102 -0.2748816 -0.84649956
0003d0 26 80 09 3f 8f 6c 94 be e1 c0 b8 bf cb 04 14 3e
       0.53711164 -0.28989074 -1.4433862 0.14454953
0003e0 61 c6 ad bd d5 08 bc 3e 64 9a b2 bb 46 cc ec be
       -0.084851034 0.36725488 -0.0054505337 -0.46249598
0003f0 ed 4d 79 3d e4 2d b6 be d3 f3 2d bf 57 0e 4e bf
       0.06086533 -0.35581887 -0.6795017 -0.8049063

net.0.bias f4 [256]
000000 3a 71 13 3e 32 07 83 3e f1 72 a6 3c 9f a3 3e 3e
       0.14398661 0.25591427 0.02031848 0.18617104
000010 c8 3f 95 3e cd c1 a1 be a1 ab 6e be d3 3d 06 3c
       0.29150224 -0.3159317 -0.23307659 0.008193451
000020 42 9f b3 3b 2f 56 3d 3e b2 73 e4 bd c4 6b 98 be
       0.0054816315 0.18489908 -0.1115488 -0.2976972
000030 de 28 d7 3d 73 0c 7f 3d a5 73 b7 3e 49 2d ad be
       0.10505842 0.062267732 0.35830417 -0.33823612
000040 69 b2 d2 3e 17 df 8e 3d c8 ef df 3e 4d a3 64 3d
       0.4115174 0.06976145 0.43737626 0.0558198
000050 f7 50 7c 3e a9 15 53 3e eb 80 2b be 02 f0 a1 3e
       0.2464026 0.20613731 -0.16748397 0.31628424
000060 c9 59 f2 be d3 c6 af 3e c6 4b 74 3e a2 37 90 3c
       -0.47334126 0.34331378 0.2385703 0.017604653
000070 18 a7 90 3e df ae 4e 3e ac 20 53 3e f1 82 ca 3e
       0.28252482 0.20183896 0.20617932 0.39553025
000080 cf 9c 8f be 33 64 b7 3e 62 b4 0b 3d c1 50 de bc
       -0.28049323 0.35818633 0.034107573 -0.027138116
000090 cb d0 c3 3d 1c 86 d9 3e 76 64 59 3d ef 08 bf be
       0.095613085 0.4248513 0.053074323 -0.37311503
0000a0 64 1d 94 3e db 93 10 be 87 a1 84 3e 8f 4f 6a be
       0.28928673 -0.14118902 0.25904486 -0.22881912
0000b0 8b ce 79 3e d0 bc a1 3e cd 07 5a bd a6 81 11 be
       0.24395196 0.31589365 -0.053230096 -0.14209613
0000c0 e8 9a 85 3e 0e fc cc 3d 7d e9 15 bd a5 3b 89 be
       0.26094747 0.10009013 -0.036599625 -0.26803318
0000d0 55 36 cb 3e 66 95 8e 3d ae d9 a1 3e c4 c5 92 be
       0.3968989 0.06962089 0.3161139 -0.28666508
0000e0 57 f2 44 bd b7 da 8e 3e 3e 49 4f bc a0 65 ab 3e
       -0.048082676 0.2790124 -0.01265174 0.3347597
0000f0 c7 c1 92 3d b0 0b cf 3b dc de 84 3e 26 19 2c 3e
       0.07165866 0.006318532 0.25951278 0.16806468
000100 ec 2c b9 3d ad ed 43 3d 4c 04 d4 3e 1e 11 52 be
       0.09041771 0.047834087 0.41409528 -0.20514342
000110 6e fd df 3d 5e 49 b1 3e a4 5a 61 3e b6 db 5b 3e
       0.1093701 0.34626287 0.22007233 0.21470532
000120 b0 f3 51 3e b7 e4 77 3e c2 ef c6 3e 1a 83 e7 3e
       0.20503116 0.24208342 0.38854796 0.4521721
000130 db 17 38 3e 90 97 c8 3e 2c ff dc 3e 41 5d d4 be
       0.1797785 0.39178133 0.4316343 -0.41477397
000140 61 27 ae 3e 96 83 35 3e fb 14 a4 3e 56 8d 0c 3d
       0.3401442 0.17725977 0.32047257 0.034314476
000150 49 2b 66 be 1d 43 06 3f 88 39 96 be 51 9e ae 3e
       -0.2247745 0.52446157 -0.29340768 0.3410516
000160 94 2a 64 3e 05 76 4b be 84 ec 0e 3e a4 89 d6 bd
       0.22281867 -0.1986924 0.13957411 -0.104754716
000170 f7 43 91 3e f7 9d c3 bd 84 c5 a1 3e 11 20 9f 3e
       0.28372166 -0.09551614 0.31596005 0.31079152
000180 70 98 a8 3e 0e d6 eb 3e 24 0f 97 3e a3 44 99 be
       0.329288 0.46061748 0.2950374 -0.29935178
000190 d4 d3 5d 3e ab fc 29 3e 6c 5e 91 3e 4a 41 80 be
       0.21662837 0.16600291 0.2839235 -0.25049812
0001a0 75 27 17 3d f6 e0 e0 bd de 28 df 3e 66 b7 c5 3e
       0.036902864 -0.10980408 0.43585867 0.38616484
0001b0 92 1a ba 3e 88 94 b2 3e c5 df 8e be af 26 09 be
       0.36348397 0.34878945 -0.27905098 -0.13393663
0001c0 53 a4 57 be 03 76 f6 bd 39 8e cd 3e 47 58 40 3e
       -0.21058778 -0.12034228 0.4014757 0.18783675
0001d0 92 38 8b 3e be 75 8d 3c 76 2a 0b be dc ac 68 3a
       0.27191597 0.017268058 -0.13590416 0.0008875856
0001e0 16 83 c9 3e a6 65 94 3e d0 0f 9c 3e 03 96 96 3c
       0.39357823 0.28983802 0.30480814 0.018382078
0001f0 96 31 c3 3d 0d 1d 9e be 0a 60 b9 3e 2f 0f a8 3d
       0.09530942 -0.3088154 0.36206084 0.08206021
000200 91 1e 73 3e ea ca 42 3e ef 86 52 be 12 4f f0 3d
       0.23742129 0.19022718 -0.20559286 0.117338315
000210 9f 1f 63 bd f4 28 85 3e 67 15 37 be d8 c8 ad be
       -0.055450078 0.26007807 -0.17879258 -0.33942294
000220 9f ef 9c 3e d0 9f a0 3e 4a a2 a0 be a9 b2 b6 3e
       0.30651566 0.31371927 -0.31373817 0.35683182
000230 9f 8f 4e be 37 8a 12 bf fa 48 eb bd 5f 76 33 be
       -0.20171975 -0.5724215 -0.114885285 -0.17525624
000240 de f4 89 3d da 35 c6 bb 44 07 86 3e b3 81 3c be
       0.06736158 -0.0060489 0.26177418 -0.18408851
000250 36 67 40 3e b2 b3 2b 3e 4f 08 43 3e f0 e2 cf 3e
       0.18789372 0.16767767 0.19046138 0.40602827
000260 1a 74 77 3e a1 e1 2e be 1a 77 ce be 2c 44 81 3d
       0.24165383 -0.17078258 -0.40325242 0.06311831
000270 e3 d5 00 be 5d 2d 84 3e 89 90 e5 3c da 06 ce 3e
       -0.12581591 0.2581586 0.028023021 0.40239602
000280 9d 15 3e 3e 4c f5 08 3b 7b 62 56 3e 81 7b e8 3d
       0.18562932 0.0020898161 0.20936005 0.113516815
000290 eb 59 ab bd 0f 7d 9f 3e e8 c6 5e be d9 d6 70 3e
       -0.0836676 0.311501 -0.21755564 0.23519458
0002a0 a4 ca 64 be 63 d9 c1 be 15 47 4e 3e 5f 95 bb 3e
       -0.22342926 -0.37861165 0.20144303 0.366374
0002b0 9f 81 be 3e 57 f7 06 3e 32 d3 e5 bc db 44 a1 3d
       0.37208268 0.1318029 -0.028054807 0.07874461
0002c0 2b 3f 98 3c f3 c2 0b 3e 45 1c 49 bd 24 8c f6 3e
       0.018584808 0.13648586 -0.049099226 0.48153794
0002d0 bf 56 9e 3e 6c e6 e2 be d1 5e e4 bc 7b 91 6f bd
       0.30925557 -0.44316423 -0.027877243 -0.05848835
0002e0 e4 c8 d2 3d 14 46 8c be 83 83 51 3e 07 98 88 be
       0.10292223 -0.27397215 0.20460324 -0.26678488
0002f0 02 67 e9 3e dc 3d c4 3e 20 d9 a8 be 76 a0 20 be
       0.455864 0.38328445 -0.32978153 -0.15686211
000300 cb be 23 3d 19 97 1b 3d cb cd 4e 3e 26 42 90 be
       0.039976876 0.037985895 0.20195691 -0.28175467
000310 9c 80 f7 3d 99 b1 c2 be 4a 31 19 be a0 50 a0 be
       0.12085077 -0.3802612 -0.14960209 -0.31311512
000320 97 48 b6 3e 0a 2c b5 3d d0 8e 92 be 74 26 fa bd
       0.35602257 0.088462904 -0.28624582 -0.122143656
000330 c1 00 2b 3b 61 c8 ce be cf fd 44 3e 7f 09 74 3e
       0.0026092979 -0.40387252 0.19237445 0.23831747
000340 78 8d 91 bb 32 f6 8e bd b8 ae 19 bd d9 c8 b9 be
       -0.004441913 -0.06980552 -0.03752014 -0.36286047
000350 22 15 5b be e3 4f bd 3c 89 c9 db 3e c9 06 4a 3b
       -0.2139478 0.023109382 0.42927197 0.0030826798
000360 b4 df 89 3e b7 13 09 bf 7b d4 ce bd e4 36 9a be
       0.26928484 -0.5354571 -0.10099121 -0.30120003
000370 ce be 99 3e 21 ea ea 3e bd 32 21 3d d1 d2 a3 3e
       0.30028385 0.4588175 0.03935503 0.31996778
000380 ca 0a b6 3e d6 aa 92 3e d1 51 92 3e bb 38 c6 be
       0.35555106 0.28645962 0.28578046 -0.38715157
000390 b9 2c 9e be 38 d7 4a be a6 0e de 3c b2 25 db bd
       -0.30893496 -0.19808662 0.027106594 -0.10700549
0003a0 16 a9 10 3b 96 83 67 3d 11 8a fc be 3b 74 1d 3e
       0.002207344 0.056521975 -0.49324086 0.1537637
0003b0 76 eb 6e 3e 39 8c f7 be 10 44 8e 3e e0 fc 1b bd
       0.23332009 -0.4834917 0.27786303 -0.038082957
0003c0 59 00 67 bd fa 98 b8 3e 34 1c cc 3e 3f 3f e4 3d
       -0.056396816 0.36054212 0.39865267 0.11144876
0003d0 ab 01 93 be d3 09 1a 3b 06 ef 50 3d b3 f8 43 3e
       -0.2871221 0.002350439 0.0510092 0.1913784
0003e0 ba a7 33 3e 8e 23 a9 be d3 f3 5c be ed 13 9f be
       0.17544451 -0.3303494 -0.21577387 -0.3106989
0003f0 a5 ac 9e 3d 1d df 3f 3c 81 67 99 bd de c0 57 be
       0.07747773 0.011710909 -0.07490445 -0.21069667

net.2.weight f4 [256, 256]
000000 e8 c2 df 3e 02 ca 5c be ac b7 ee 3d 32 e0 14 be
       0.4370339 -0.21561435 0.116561264 -0.14538649
000010 f1 9a 91 3e 4f bf 4b 3f a9 5d 00 3e 3e 20 3d 3b
       0.28438523 0.7958879 0.12535729 0.002885833
000020 d4 81 a8 3d 77 17 93 bd 42 f5 bf 3e c8 79 02 3f
       0.08227888 -0.0718221 0.37491804 0.50967073
000030 f0 d5 9c bc f2 4b 4e bc bf 42 1e 3e cc 4e 5e 3f
       -0.019144982 -0.012591349 0.15455149 0.86838984
000040 01 33 b0 3d 0c 55 37 3e d9 53 a2 3d c1 ef bb 3e
       0.08603478 0.17903537 0.07926149 0.36706355
000050 e8 19 cd bd 4b d4 b7 3e 8a b6 ac be f0 b9 aa bd
       -0.10014707 0.35904154 -0.33733016 -0.08336246
000060 86 ee 31 3e e5 50 8e bd 3a 24 22 3e e8 cd 5a be
       0.17376146 -0.06949023 0.15834132 -0.2136761
000070 25 ed 8d 3d 0f 63 f1 3c 5d 23 13 3e d5 c0 58 be
       0.06929997 0.02946618 0.14368959 -0.2116731
000080 c8 d2 45 3e 88 2f 23 be 3a a0 59 3d 3a 5b 18 3f
       0.19318688 -0.159361 0.05313132 0.595142
000090 8b 15 5b 3d c5 64 99 bd f0 5f 9d 3c 0c 56 91 3e
       0.05348734 -0.074899234 0.019210786 0.2838596
0000a0 03 cf 8f 3e a7 25 88 3e 2e 58 2d be 2b 20 0b 3e
       0.28087625 0.26591226 -0.16928169 0.1358649
0000b0 d1 5a 09 be 60 cb e5 bd 7c 99 00 3e d6 0c 44 be
       -0.1341355 -0.11220431 0.1255855 -0.19145522
0000c0 f4 51 f4 bd 89 68 9a 3c f6 1e de 3c 8e c6 d6 3e
       -0.11929694 0.018848674 0.027114373 0.4194836
0000d0 9f 8d bd bd 62 c4 a0 bd 27 d1 06 3e 6d 72 02 bf
       -0.09255528 -0.07849957 0.13165723 -0.5095585
0000e0 c4 c7 9e 3e 2f 21 14 be 1d c3 22 3e ea 05 9f 3d
       0.31011784 -0.14465784 0.15894742 0.077648
0000f0 bc a6 82 3d 85 c3 8e 3e 37 15 c7 bd 3e 05 f7 bd
       0.06379458 0.27883545 -0.09720843 -0.12061547
000100 ff e9 ef bd bc 1c ca 3c 88 9b ca bb eb e0 1f bf
       -0.11714553 0.024671905 -0.0061830916 -0.6245257
000110 87 58 26 be c5 90 d4 bd 6a 1e 20 be c4 53 38 3d
       -0.16244708 -0.10379175 -0.15636602 0.04500176
000120 76 0b 2b be 09 7f b5 3d 24 ef b0 bd b9 70 43 be
       -0.16703591 0.08862121 -0.086393625 -0.19085969
000130 b1 8d 36 be e6 39 0a be 09 9b 05 bd 7d dd f5 3e
       -0.17827488 -0.13498649 -0.032618556 0.48020545
000140 81 37 f0 3d 09 f4 82 bd 50 15 91 bd ab 77 f4 3d
       0.117293365 -0.06394202 -0.07084143 0.11936887
000150 83 85 0f bf 4c 94 f3 bd fa c0 87 bd f9 b1 54 3d
       -0.560631 -0.1189352 -0.06628604 0.05192754
000160 2b 18 c7 3d cb 7d 67 3e 6f 80 39 3b 32 6b 04 3e
       0.097214065 0.2260658 0.0028305312 0.12931517
000170 6a 69 d2 bd 84 25 f3 3e 1c 2f 90 bd 7a 9a cc 3d
       -0.102740124 0.4748956 -0.070402354 0.099904016
000180 40 77 28 3d b2 af ed bd fc ef df 3d 1c cd da 3e
       0.04112935 -0.11605777 0.10934445 0.4273461
000190 46 31 c7 3d 82 d9 d8 3c e6 b7 91 3e df e6 8d 3e
       0.09726195 0.026470903 0.28460616 0.27715203
0001a0 5a f2 83 3e f6 16 42 3f 80 e4 0c be ef a2 81 3d
       0.25770837 0.75816286 -0.13759041 0.06329905
0001b0 e1 85 4b bd 74 5b 04 be cc f6 19 be df 85 04 be
       -0.049688224 -0.12925512 -0.15035552 -0.12941693
0001c0 1e c5 72 3e 24 dd eb 3c e6 ce e2 bd b9 73 4e 3c
       0.23708007 0.028791972 -0.11074619 0.012600833
0001d0 fc 09 45 be 63 41 b5 bd 38 27 e3 bd 4d e4 42 bc
       -0.1924209 -0.08850362 -0.11091465 -0.011895251
0001e0 db 5d bc 3c 8f 75 bb 3d d5 7c d3 3d 12 78 f2 3d
       0.022993973 0.09153282 0.10326544 0.11839308
0001f0 e6 6a 25 3f 23 b2 2b 3f 94 a0 a9 3d 1f b9 3c 3e
       0.6461624 0.6706869 0.08282581 0.18429993
000200 ac 4d 19 be 09 1c 15 bd de 36 3b 3e 2d 54 13 3e
       -0.14971036 -0.03640369 0.18282649 0.1438758
000210 e3 96 34 3e 95 a3 48 3e 18 fa 8e be 5f ad 31 3e
       0.17635684 0.19593652 -0.2792518 0.17351292
000220 be 1b a9 3d 2a 2e c6 3e f3 7d a3 3e af df 8a 3d
       0.082572445 0.38707095 0.3193203 0.067809455
000230 96 68 0e 3e 79 b4 e8 3e a4 8b 7c be 68 ee 8c 3e
       0.13907084 0.4545019 -0.24662644 0.2752564
000240 17 99 80 3e 9f 12 f1 be b0 9f 2c bd b1 6d 05 bf
       0.25116798 -0.4708452 -0.042144477 -0.521205
000250 43 0d d3 3d 65 48 3a 3e 5e 4c 0a be 78 27 15 be
       0.10305264 0.18191679 -0.13505694 -0.14565837
000260 65 f7 64 3c 1b 61 46 be f5 b1 ee be 8c 83 84 be
       0.013974999 -0.1937298 -0.46620145 -0.25881612
000270 70 a7 16 be 68 ed 05 be 6f e4 46 3e 4c 36 4e 3e
       -0.1471231 -0.13078845 0.19423078 0.201379
000280 b7 b8 5e 3e c2 6d 68 be f1 08 65 be 0a f6 18 be
       0.2175015 -0.2269812 -0.22366692 -0.14937606
000290 44 28 9e 3e d1 ad 76 bd 89 60 9b 3e 7b ab a5 3c
       0.30890095 -0.060224358 0.30347088 0.02022337
0002a0 00 ad 24 3f a5 9e 87 3e ca 7d 13 be 46 d5 e3 3c
       0.6432648 0.26488224 -0.14403453 0.027811658
0002b0 56 0e 93 3d 5f b7 07 3e c4 cb 32 3c 41 f9 7b 3e
       0.07180469 0.13253544 0.010912839 0.24606802
0002c0 79 12 d7 be ac 2f ad 3e e9 59 f0 3d 6e bf e6 bd
       -0.4200628 0.33825433 0.11735899 -0.11266981
0002d0 30 81 5e bd c2 67 46 3f 68 d3 15 3e 74 e5 95 3e
       -0.05432242 0.7750207 0.14631426 0.2927662
0002e0 20 b9 9c 3d 10 b6 88 be c8 06 9d be 9d 50 30 bf
       0.07652497 -0.26701403 -0.30669236 -0.68873006
0002f0 6b d5 0f bd b6 5b ef 3d 91 f8 05 bf 6e 39 12 bf
       -0.03511564 0.11687414 -0.5233241 -0.5711888
000300 3a 52 21 3e a4 df 1a 3e 3c 9f 5e 3e 80 ee f7 3c
       0.15754023 0.15124375 0.2174043 0.030265093
000310 3f c6 8f 3e ef 60 21 3f 70 f7 12 3e cb 33 1b 3f
       0.28080937 0.63038534 0.14352202 0.60625905
000320 ed 64 7c bd 04 bc 00 3e 1a a7 e3 3d 6a 41 2c be
       -0.061619688 0.12571722 0.111158565 -0.16821828
000330 e3 e5 94 be ac a6 b9 3e a2 7b 5b 3e 52 45 b0 3c
       -0.2908164 0.36259973 0.21433881 0.02151743
000340 16 62 89 bf a1 e7 d0 3d e6 7d 8a be 8a 38 f8 3e
       -1.0733058 0.1020043 -0.27049178 0.48480636
000350 66 78 4c bd 69 63 04 3e c0 fd 95 bc 09 48 58 be
       -0.04991951 0.12928547 -0.018309474 -0.21121229
000360 4e e6 b8 bd 94 1f b1 3f 64 65 00 be 5b c0 53 3e
       -0.09028302 1.3837762 -0.12538677 0.20678847
000370 ad b2 23 bc 7b b8 8a bc 54 c3 74 3d 80 fa 02 3e
       -0.00999133 -0.01693367 0.059756592 0.1279087
000380 b1 0b b7 bc 28 13 c1 3d a7 e2 4f bd 7f 0c 29 3f
       -0.022344442 0.09427482 -0.050753262 0.6603469
000390 ce f0 ef 3e 97 f0 6b 3f 05 3e 64 3e c0 7e 9e 3e
       0.46863407 0.92163986 0.22289284 0.30956078
0003a0 58 47 bd bd 3a 13 2f 3e 60 69 52 3f 44 b6 0c bf
       -0.09242123 0.17097178 0.8219204 -0.54965615
0003b0 70 ef b2 3e e6 2d 9a 3f 1e fe ab be 4e 39 71 bc
       0.349483 1.2045257 -0.33592314 -0.014723135
0003c0 1e c8 d7 3e fd e5 41 be f1 4e 32 be c8 73 fa bd
       0.42144865 -0.1893539 -0.17412926 -0.12229115
0003d0 1b 19 35 3e 1f e6 23 3e fb b2 40 3e 68 8f 32 be
       0.17685358 0.16005753 0.18818276 -0.17437518
0003e0 8a 31 a5 bc c9 36 40 3f a0 dd 33 3e 85 70 45 3f
       -0.020165224 0.75083596 0.17565012 0.77124816
0003f0 4f 53 6f 3e 24 85 7f bd 9e 53 31 3e f2 af af 3e
       0.23371623 -0.062382832 0.17317054 0.34313923

net.2.bias f4 [256]
000000 21 ca ec bd a3 d3 b1 bd 79 a0 9c 3d 18 bb a7 bd
       -0.115619905 -0.086829446 0.07647795 -0.08189982
000010 af 0b 36 3a fa 58 25 3e 6d 1a f1 3c 4d ad 15 3e
       0.000694449 0.16147223 0.029431546 0.1461689
000020 8c 2a 1c 3d 98 fb 23 3e e7 c1 f3 3c f0 c7 46 bd
       0.038126513 0.16013944 0.029755546 -0.04853052
000030 26 b1 99 bd 1c 93 1f 3b 3c c7 77 bd 41 6d 8d bd
       -0.075044915 0.0024349159 -0.06049274 -0.06905604
000040 ab 85 7b bd 9d 5c d0 bd 24 1d 35 3d aa ca 80 bc
       -0.061406773 -0.101739146 0.044217244 -0.015721638
000050 69 fb 40 bd 5d f0 b4 bc 4c 0e be bd a3 1b 34 bd
       -0.047114763 -0.02208727 -0.09280071 -0.04397167
000060 fb 23 c4 3c 1a 38 1c 3d 6a cf 1f bc ac 99 b9 bd
       0.023942938 0.03813944 -0.009754041 -0.09062514
000070 5d b9 ba 3b 18 0d f0 bb 7f 7e 68 be 05 e3 52 be
       0.0056983666 -0.0073257796 -0.22704504 -0.20594414
000080 e0 e2 a8 3c 68 bc 93 3d cf 2f 1d 3c 4e 72 c3 3b
       0.020615995 0.0721367 0.009593918 0.005964554
000090 ea eb 9e bd 22 a9 bb 3d 5c e3 52 3e a3 4a b2 bd
       -0.07759841 0.09163119 0.20594543 -0.08705642
0000a0 fd b5 06 3e fa 56 f2 3c a4 23 06 3e 02 b3 af 3d
       0.1315536 0.02958249 0.13099533 0.08579065
0000b0 22 e2 25 3e 67 de b5 3c 48 51 16 3e 9d e2 1c be
       0.16199544 0.022200776 0.14679444 -0.15320821
0000c0 68 4d 55 bc 10 9f 8c 3c a7 45 df 3d 1c eb de bd
       -0.013018943 0.01716569 0.10901957 -0.10884687
0000d0 27 ef 3b 3e e9 d2 e1 3d 6c d7 95 bd ba 31 38 bd
       0.18352948 0.11026556 -0.07316479 -0.044969298
0000e0 28 25 fb bc ea 1d 1a be 1b fb 54 be e7 3e f3 3c
       -0.030657366 -0.15050474 -0.20798914 0.02969308
0000f0 6e 6b ea 3c 31 a6 3d 3d 5e 20 cd 3c a5 ce 06 3e
       0.02861568 0.04630107 0.025039848 0.13164766
000100 ac 65 f5 bc 63 47 18 3e 1e d3 29 3e 60 50 ff 3c
       -0.029955707 0.14870982 0.16584441 0.031166255
000110 62 a4 8b bd ef c8 6f bc 0c 3d cb 3c a9 70 6a 3e
       -0.06818463 -0.014635309 0.024809383 0.22894539
000120 17 c3 bd bd 1e eb d2 bd fd 13 d7 3c a0 d0 5e be
       -0.09265726 -0.10298751 0.026254648 -0.21759272
000130 db 7e f4 bd 57 e1 c1 bb 74 4e 4c bd 72 50 78 3d
       -0.11938258 -0.005916755 -0.049879506 0.060623594
000140 e0 db 3d 3e 33 99 58 3c 8e 36 90 be ed 03 4d 3e
       0.18540907 0.013220119 -0.28166622 0.20021029
000150 a8 b3 68 3d d5 67 e7 bc 69 32 33 3d 31 50 81 bc
       0.05681196 -0.028247753 0.043749247 -0.015785309
000160 a1 f8 b3 bd cf bc a1 bc 5c e4 02 3e 27 fd 8a 3c
       -0.087876566 -0.019743351 0.12782425 0.016966416
000170 29 b8 21 3e 30 f0 99 3d 30 cd 1b bd ae 1a fd bd
       0.15792908 0.07516515 -0.03803748 -0.12358604
000180 68 6d c2 bd 6a dd 1e bc 65 b4 2c 3d 25 35 9e bd
       -0.09493524 -0.009696344 0.042164225 -0.0772498
000190 e6 7b be 3d a8 5b 36 bd c3 6c f2 bd a9 3d 39 3e
       0.093009755 -0.044521004 -0.11837151 0.18089928
0001a0 55 57 30 3e 8f 86 d9 bd 45 ac 4a 3e a5 3a c9 bd
       0.17220815 -0.10621368 0.19792278 -0.09825639
0001b0 51 6a 7e 3d b9 63 93 bd e3 9c 2f bd 6a 73 1c bd
       0.06211311 -0.07196755 -0.04287423 -0.038196005
0001c0 a5 76 9e 3d 01 2c 8f 3d d4 70 78 bb 3c 72 33 bd
       0.077374734 0.06990815 -0.0037909048 -0.043810114
0001d0 51 b8 cc bd 46 ac f0 3d a5 80 da bc fc ae a8 3d
       -0.09996093 0.117516086 -0.02667267 0.082365006
0001e0 14 db 85 bc 16 ea 0d bd fa 5e 9b bd db eb 1f 3e
       -0.016339816 -0.03464707 -0.07586475 0.15617315
0001f0 a1 22 47 3e aa 28 02 bd 69 e4 52 3c a0 c4 03 3e
       0.19446804 -0.03177706 0.01287184 0.12867975
000200 24 4b 13 bd ca c0 87 3c 24 75 6f 3c a7 9c 29 3b
       -0.03596033 0.016571421 0.014615331 0.0025880726
000210 8b a0 7f 3d 58 6b 93 3d c7 88 81 be f5 76 84 3d
       0.062408965 0.071982086 -0.25299665 0.06468002
000220 9f 07 38 be ca 19 90 bd e9 38 cf 3d 19 12 cb 3d
       -0.17971657 -0.07036169 0.101182766 0.09915561
000230 c3 73 44 3e e4 d4 b7 bb ea 86 0e 3e d1 41 10 bd
       0.19184785 -0.0056100953 0.13918653 -0.035219017
000240 a9 d4 e1 bc fc 13 af bc 3f cd d2 3c 7d 04 96 bd
       -0.027567225 -0.021371834 0.025732635 -0.07325075
000250 25 8a e9 bc c8 d0 a2 bd 5d 1f 58 3d f1 a4 83 bd
       -0.028508255 -0.07949978 0.052764285 -0.064279445
000260 57 f8 5e bd ae 09 d0 3d a0 1e 35 bd a8 1b 06 bd
       -0.054436054 0.10158096 -0.04421866 -0.03274122
000270 1c 0a 04 3d ac d0 87 3d fc e1 21 3e ad 2d f3 3d
       0.032236204 0.06631598 0.15808862 0.11873946
000280 24 d6 8a 3d 6e a4 44 bd fe 70 6b bd 65 ca 80 3c
       0.06779125 -0.048008375 -0.057480805 0.01572151
000290 34 05 0c 3d c1 d2 e6 3c e5 a6 e9 bc 69 b3 01 3e
       0.03418465 0.028176667 -0.028521964 0.12666096
0002a0 f3 83 02 3e 24 19 6f bd 97 08 8b bd 93 bb 0e 3e
       0.12745647 -0.058373585 -0.06788748 0.13938741
0002b0 51 e9 26 3e a8 06 27 3e 71 97 9d 3d 18 ac 47 bc
       0.1629994 0.16311133 0.07694901 -0.012187026
0002c0 7d 13 11 bd fc 56 1e 3d df f0 2c 3a b6 f5 6e 3d
       -0.035418976 0.038657174 0.0006597172 0.058339797
0002d0 12 75 42 3e 10 04 6c bd fa dd 73 bd 20 70 af bd
       0.18989971 -0.05762106 -0.059537865 -0.08566308
0002e0 14 fe 56 bb 87 09 69 3d 4b 30 83 bd 33 d2 86 be
       -0.003280525 0.05689385 -0.064056955 -0.26332244
0002f0 7c c4 9a bc 2e f5 c6 3c 85 c8 d1 bd c2 35 45 bd
       -0.01889252 0.024286833 -0.10243324 -0.04814697
000300 39 ba b3 bd 24 bc 29 bd ed 24 dd bc 09 87 40 3e
       -0.087757535 -0.04143919 -0.026995147 0.18801512
000310 88 83 c2 3c f5 19 16 bd 9f 7a 17 3e 7f b4 70 3e
       0.02374436 -0.03664585 0.1479287 0.23506354
000320 65 a7 1d 3e 5b 0f 02 3b 6a e0 82 bd 3f 2b 06 be
       0.15395887 0.0019845578 -0.0639046 -0.13102435
000330 70 13 da 3d 93 67 12 3e 41 ce eb bd 4f f3 15 3e
       0.10648239 0.14297323 -0.11513949 0.14643596
000340 7d 0c e5 3d e5 ed 71 bd e4 99 9a 3c a5 49 ab 3c
       0.111840226 -0.059064765 0.018872209 0.02090914
000350 ee bd 4a bd 60 1a 21 3e 8c ad a1 be 85 47 d7 bc
       -0.049497537 0.15732718 -0.31577718 -0.02627922
000360 d3 78 0d 3e f5 fc 5e bd f5 0d d9 bd e4 9b d5 bb
       0.13815622 -0.054440457 -0.10598365 -0.0065188278
000370 df 6f 5a bd 16 f3 7e be 1c b7 fa 3c c4 bb 1b 3e
       -0.053329345 -0.24897417 0.030604891 0.15208346
000380 de b8 02 3e 07 98 b0 3d ab fc 4d bc c4 cc 12 be
       0.12765834 0.08622747 -0.012572448 -0.14335924
000390 00 16 f1 3d 40 0c ae bd 7b 32 cd bd e1 d7 5c bd
       0.11771774 -0.0849843 -0.10019394 -0.053916816
0003a0 e3 c8 49 3d 57 9b fa bc b2 59 25 be c2 cd 93 bb
       0.049263846 -0.03059165 -0.16147497 -0.004510612
0003b0 34 72 17 bc 40 88 09 3d 75 88 39 3e 98 83 51 3d
       -0.009243537 0.033577204 0.1811846 0.05115089
0003c0 64 80 4b 3d d4 6b 6b bd 99 42 95 bc f4 59 48 3c
       0.04968299 -0.05747588 -0.018220233 0.012228478
0003d0 c5 9d 2d bd 6a 6a 47 3e ac 00 c4 bc ed 1d 75 3d
       -0.04238679 0.19474187 -0.023926102 0.059842993
0003e0 12 0a 9e 3d 25 e7 e2 bd 47 51 b5 3a 8a 2e da 3c
       0.077167645 -0.110792436 0.0013833427 0.02663352
0003f0 18 46 07 be 1b 41 83 bd 11 58 d5 3d 70 78 4a 3d
       -0.13210332 -0.06408902 0.10417188 0.049431264

net.4.weight f4 [4, 256]
000000 50 d6 9b be 5a ba d5 be 9f 56 1b bf 9a e6 dc be
       -0.30436945 -0.41743737 -0.6067905 -0.43144685
000010 e7 4e b8 be 04 f2 9f 3e 7f d0 89 3f b3 cd 70 3e
       -0.35997698 0.3123933 1.0766753 0.23515968
000020 be ce 40 bd 14 71 09 3f 6e 8a e5 be eb 79 18 bf
       -0.047072165 0.5368817 -0.44832176 -0.5956103
000030 49 68 d2 3e 42 00 0a bf ea 1c e4 be c4 85 14 3f
       0.41095188 -0.53906643 -0.4455331 0.5801661
000040 34 57 6b 3f 43 5d f3 be 74 65 99 be bd a4 0e 3f
       0.91929936 -0.4753209 -0.29960215 0.5572012
000050 c6 fe 47 3d 31 0a eb 3e cf fd ed be e4 66 f6 be
       0.048826955 0.45906213 -0.46482703 -0.48125374
000060 b2 cc 4f bf f8 f1 d6 be 9e ff da 3e e5 93 eb be
       -0.81171715 -0.41981483 0.42773145 -0.46011272
000070 a3 2a a6 be 67 b1 2c bf f5 e4 8a bf f9 41 72 bf
       -0.32454404 -0.67458194 -1.0851122 -0.94631916
000080 ef 6d e6 be f1 0a 3d 3f 71 31 cb be a5 80 71 3f
       -0.45005748 0.7384482 -0.39686158 0.9433692
000090 7c c4 30 be 4e 92 0a 3f 64 da 17 3f 2a 91 29 bf
       -0.17262453 0.54129493 0.5931761 -0.6623713
0000a0 3e 14 1f 3f 63 fc 71 3e d6 6f d7 bc 90 51 c1 3e
       0.6214026 0.23631434 -0.026298445 0.3775754
0000b0 88 66 dc 3e 6d ac e6 3e e3 4e 0e 3f 04 2b e1 be
       0.43046975 0.45053425 0.5558912 -0.4397813
0000c0 7d 3d e0 3e e7 1c 0b 3f f9 6c eb 3e 77 34 fd 3e
       0.43796912 0.54340976 0.45981577 0.4945409
0000d0 64 ec ad 3b 4d 3a 1c 3f 12 7a a8 be cc e2 87 be
       0.005307721 0.6102646 -0.32905632 -0.2654022
0000e0 98 f0 10 bf 96 45 cd bf 06 8f 19 bf e1 28 c6 3e
       -0.56617117 -1.6036861 -0.5998386 0.38703063
0000f0 4f 92 53 bd 1d 62 87 bd ba da ad be e8 68 47 bf
       -0.051653203 -0.066105105 -0.33955938 -0.7789445
000100 17 63 be 3c 55 13 94 3e 07 45 23 3f aa 80 53 bf
       0.02324061 0.28921 0.637772 -0.826182
000110 c6 99 0c bf da 67 28 3f 3a e1 ae 3d 77 4e fb 3e
       -0.5492214 0.65783465 0.08539052 0.490833
000120 8c 0a 48 bf 98 1c 95 be f2 3e 1b bf 31 82 26 bf
       -0.78141093 -0.29123378 -0.6064292 -0.65042406
000130 7f 5e fc be 8f a2 eb 3c da 29 f4 be 7c 7a 03 3f
       -0.49290845 0.028764037 -0.4768818 0.5135877
000140 e1 7b a8 3e ae fa 46 3d 17 24 9c bf d5 8a e4 3e
       0.32907012 0.04857891 -1.2198514 0.4463717
000150 a7 e7 9d be f6 8c 7e 3c 47 9c 4f 3f d6 51 ea be
       -0.308408 0.015536537 0.81097835 -0.4576556
000160 3e cc 00 bf ad 71 df be 4c 89 78 3e 38 2b 41 3b
       -0.5031165 -0.43641415 0.24271125 0.0029475223
000170 a4 bc 7d 3e be 4a 84 3f 6d dd 21 bf 8d 5d e5 be
       0.24778992 1.033531 -0.63228494 -0.44797936
000180 21 f9 df be b7 16 e4 be f0 11 44 3f fd 87 02 bf
       -0.43744758 -0.4454858 0.7658987 -0.5098875
000190 a2 0f b8 be da 50 53 3d 80 dc f9 be 98 93 85 3e
       -0.35949427 0.051590778 -0.4880104 0.26089168
0001a0 40 cc 3d 3e 2d 89 d6 be 92 3d c0 3e 15 d9 47 be
       0.18534946 -0.41901532 0.37546974 -0.19516404
0001b0 21 27 51 bf b2 ff f2 be 36 67 15 bf 24 99 ed be
       -0.8170033 -0.47460705 -0.5836061 -0.464059
0001c0 bf 7d a1 3f ef 56 82 be 6c 5d ad bb 23 6a 78 be
       1.26165 -0.2545695 -0.005290678 -0.24259238
0001d0 b2 f1 01 3f cf a9 0f 3f fa 72 dd be ca 38 24 be
       0.5075942 0.5611848 -0.43251783 -0.16037288
0001e0 f7 8d f5 3c c9 78 f0 be b3 6c 4b 3b 1a e2 6e 3e
       0.02997492 -0.46967152 0.0031040132 0.23328438
0001f0 3d 97 d2 3e 7c 1c 4e 3d 51 05 fc be b1 50 c6 3e
       0.4113101 0.050320134 -0.49222806 0.38733438
000200 2c 60 1f bf 87 4c fe be 0a f9 27 bd 01 17 0b 3d
       -0.6225612 -0.4966776 -0.041008987 0.033957485
000210 03 8b fb 3e d1 1b 72 3d 12 3e 88 bf 4e c9 3e 3f
       0.49129495 0.05910856 -1.0643942 0.74525917
000220 74 c6 6d bf d8 73 04 bf 31 e7 e3 3e 8d 78 f5 3e
       -0.9288094 -0.51739264 0.44512323 0.47943535
000230 3f 4d fc 3e 20 e1 3a bf c0 df 84 3e 93 2f 00 3f
       0.49277684 -0.72999763 0.25951958 0.5007259
000240 66 c5 d1 be 2d 59 ef 3c 0e fc b6 be fb e8 21 bf
       -0.40970916 0.029217327 -0.35739177 -0.63246125
000250 1d 40 19 3d ed 24 00 3f 7a aa 8a be e2 7f 07 bd
       0.03741466 0.50056344 -0.27083188 -0.033080943
000260 81 f4 39 be a9 7c e9 3e e7 a9 27 3d 0d d4 3f 3d
       -0.18159677 0.4560292 0.040933516 0.046833087
000270 10 3e 28 3c af 4a d9 3e 7a bb 88 3e 8d ff 9a 3e
       0.010268703 0.42439792 0.26705533 0.30273095
000280 38 f5 e8 3e 7d 86 e5 be 2e b5 b9 3e 75 e0 5f bf
       0.45499587 -0.4482917 0.36271042 -0.8745187
000290 f1 e3 4e bf 8c ca e5 be 2c d6 fe 3e dd 02 4c 3f
       -0.8081656 -0.44881094 0.49772775 0.7969187
0002a0 64 0a 22 3f f4 13 65 bd 78 9f 03 3f 73 5a 04 3f
       0.63297105 -0.055927232 0.51415205 0.51700515
0002b0 d4 17 08 bd e8 5b e1 3e 9c 4c 60 be 9e f8 04 3f
       -0.03322585 0.4401543 -0.21904224 0.5194186
0002c0 36 ad 8c bf 1a 47 46 3d 0e 13 1e bf a8 f2 9e 3e
       -1.099036 0.04840765 -0.61747825 0.31044507
0002d0 a2 8a 04 3f 76 a6 de be 2c 5e 14 bf 57 0c a4 be
       0.51774037 -0.43486375 -0.57956195 -0.32040665
0002e0 25 9a d1 3b aa 25 2f be 6c 6b 1a 3c be e0 a9 bf
       0.0063965493 -0.17104211 0.009425025 -1.3271711
0002f0 f4 2a da be 07 1a ca be 53 0a bf be 2d 4d 1b bf
       -0.42610896 -0.39472982 -0.37312564 -0.60664636
000300 e9 68 95 be 5d 26 5b bf 9d 0a 1f bf 81 20 9b 3e
       -0.29181603 -0.8560541 -0.6212557 0.30298236
000310 60 c2 14 3f 72 99 d5 be 76 cd 96 3e 4c a9 a6 3e
       0.5810909 -0.41718632 0.2945363 0.32551038
000320 84 e3 06 3f 88 97 3d 3f 3b c0 d7 bc 70 c1 fe bd
       0.5269091 0.74059343 -0.02633678 -0.12439239
000330 f5 33 f7 3e c4 b0 6d 3e a5 0f 34 bf ba a4 ef 3e
       0.48281828 0.23211962 -0.7033637 0.46805364
000340 32 5f bb 3e 28 56 f3 3e 58 98 0a 3e 54 28 ee bd
       0.36596066 0.4752667 0.13534677 -0.11628786
000350 d5 94 4a bf cb ac 51 3e c4 3b bb bf c9 d2 fb be
       -0.7913335 0.20476072 -1.4627614 -0.49184254
000360 7b d4 13 bf 7d 05 b9 bc 62 85 dc be 85 1f bb be
       -0.57746094 -0.022585625 -0.43070513 -0.36547485
000370 c0 4a 1e bf 18 7a 9e be e1 17 fe 3e f0 cc 17 3f
       -0.6183281 -0.30952525 0.49627593 0.59297085
000380 a5 13 6d 3e e7 68 34 3f 27 8b 11 bf 06 8d d3 be
       0.23152025 0.7047257 -0.56852955 -0.4131853
000390 24 57 98 3e 26 27 02 bf fe 9a 0e bf 24 cc 02 bf
       0.29753983 -0.50840986 -0.5570525 -0.51092744
0003a0 d2 db 6b be 0a 64 c4 be 7d 47 ec be c4 2f da be
       -0.23033074 -0.38357574 -0.4614829 -0.42614567
0003b0 7e cc ad 3d d4 18 4d bf 12 f8 a1 3e 54 33 0b 3b
       0.084862694 -0.8011601 0.31634575 0.002124031
0003c0 45 be 5b 3e 4f 8c 39 bf 4f 3b 0c 3f 0d 2d 84 bf
       0.21459301 -0.7247972 0.54778 -1.0326248
0003d0 c4 c0 e7 be 0f cd b3 3e db 32 80 3f be 98 8d 3e
       -0.45264256 0.35117385 1.001552 0.27655596
0003e0 ca 46 44 bf b6 ed b1 be fc 09 f6 3e 42 87 47 be
       -0.76670516 -0.34751672 0.48054492 -0.1948519
0003f0 5e ad 04 bf 8e 59 bc be d4 03 4e be 9f 70 7f 3f
       -0.5182704 -0.36787075 -0.20118648 0.9978122

net.4.bias f4 [4]
000000 9e 92 93 3c d5 5b 86 3c cd e8 60 3d 00 d8 be 3b
       0.018014248 0.01640121 0.054909516 0.005824089
