drafts/draft_rk/runs_lunarlander/dqn_trial20_seed42.pth (torch, 279705 bytes, 6 tensors)

net.0.weight f4 [256, 8]
000000 4a 08 3b 3e 14 78 bb 3e c3 83 0f bd ac f7 2b 3f
       0.18264881 0.3661505 -0.035037767 0.6717479
000010 39 4d 9c bd 12 bd 8c 3e 2b 70 90 be 53 8c 8a bd
       -0.076319166 0.27488 -0.28210577 -0.06765046
000020 55 78 4a 3f 62 07 18 be 5e 9f 27 3f 3f 8a 75 bc
       0.7908986 -0.14846566 0.6547755 -0.014986574
000030 66 92 a0 3e 74 e6 c7 3d 44 62 b8 3d 27 45 79 3b
       0.31361693 0.09760752 0.09003118 0.0038035603
000040 63 29 41 3e 40 27 43 3e 27 e6 91 3a db 86 e0 3c
       0.18863444 0.19057941 0.0011131213 0.027408054
000050 b0 26 57 be b3 df 6c be cf 6b 00 be 16 40 e0 3e
       -0.21010852 -0.2313221 -0.12541126 0.43798894
000060 5a 7c ef be 61 8b e7 bd 1b a4 4c be b7 f2 ca be
       -0.4677456 -0.11305881 -0.19984476 -0.39638302
000070 ab 09 f4 3e 47 ff 16 bf d7 f1 d8 3e 1e ae 0d bf
       0.47663626 -0.5898327 0.4237201 -0.55343807
000080 fb ca 7a 3e 0d 21 e9 3d e9 83 16 be 05 c8 9f 3e
       0.24491493 0.11383257 -0.14698757 0.3120729
000090 38 81 fa bd 97 3d e8 3e 6c 91 5c 3e b5 9b 7f bf
       -0.12231678 0.4535949 0.21539849 -0.99846965
0000a0 ab 14 8e 3d 0f 05 ac 3d f7 97 2c 3f 73 ce aa 3e
       0.06937536 0.08399402 0.6741938 0.33360633
0000b0 96 d0 50 ba ed a7 2c be f3 f0 b6 3e 4a db 9e 3d
       -0.0007965652 -0.16860934 0.35730705 0.0775667
0000c0 db 51 03 be 28 a6 03 be 5c 24 1f bf 79 e6 a9 be
       -0.12824194 -0.12856352 -0.62164855 -0.3318365
0000d0 2a 82 f5 3d a3 c8 48 3e f5 93 6f 3e ef 45 3c 3e
       0.119877174 0.19607787 0.23396285 0.18386053
0000e0 ee fc 36 3b 0b e9 c0 ba 6f 45 81 3f cc bf a1 be
       0.0027921754 -0.001471789 1.0099314 -0.31591642
0000f0 dc 6d 5c ba 08 3c 78 be 09 07 3c 3e 1b 6f 38 be
       -0.00084087043 -0.2424165 0.18362059 -0.18011133
000100 f8 0a 52 bd b6 14 3a be 78 f0 13 3e 15 4a a9 bd
       -0.051279992 -0.18171963 0.144472 -0.08266083
000110 de 6a 20 bf b0 c7 de be f1 ca cf 3e 40 9c 80 3e
       -0.62663066 -0.43511724 0.4058452 0.2511921
000120 e3 9d b3 3e 94 d0 66 be 36 48 ac be 6a ac ff be
       0.35081396 -0.22540504 -0.33648843 -0.4993623
000130 c3 b8 d9 be 3b 60 67 3e 86 4c 69 3e cd 9a c6 3e
       -0.42523775 0.22595303 0.22783098 0.3878998
000140 bb 72 a3 3e 14 0f 93 be 8a 56 fc 3e 12 05 be be
       0.3192347 -0.2872244 0.49284774 -0.37113243
000150 31 72 0a 3d 88 6a f2 bd dc ff 7b 3e 97 bb 92 bd
       0.033800308 -0.118367255 0.24609321 -0.07164686
000160 d9 f3 3f be 74 92 c4 3d 50 82 71 3e 92 33 5e 3e
       -0.18745364 0.09598246 0.23584867 0.2169936
000170 23 bf 19 bc 52 8d 2d 3f 5b 1b f2 3d e0 ca 4e bf
       -0.009383949 0.6779376 0.11821624 -0.8077831
000180 c0 e1 c7 3e 44 35 35 bd a4 58 14 be a4 0d 0f bf
       0.3903942 -0.04424025 -0.14486939 -0.5588019
000190 28 b8 86 be c7 f5 1a bb fa 66 27 bf f3 5b f4 be
       -0.26312375 -0.002364503 -0.65391505 -0.47726402
0001a0 f2 ad 29 bd c4 b1 93 bd be d8 45 be c3 2f fa be
       -0.041425653 -0.072116405 -0.19320962 -0.48864564
0001b0 e9 e9 14 be f2 28 ac be 52 e1 d8 3e 49 42 1d 3e
       -0.14542355 -0.3362499 0.42359406 0.15357317
0001c0 62 7a af 3c 79 5f 7d be bf 20 51 be fa 2a 29 bf
       0.021420661 -0.24743451 -0.20422648 -0.660812
0001d0 43 5d 91 bd cf 30 32 be 9a 9c a4 be eb 11 b1 be
       -0.070978664 -0.17401432 -0.32150728 -0.34583983
0001e0 f0 58 13 3e 0d 46 a6 be ae 8d 4e 3d 21 c1 8b be
       0.14389396 -0.3247532 0.050428085 -0.27295783
0001f0 c4 12 d8 be 1e 0f 1b bf 86 e3 12 bf 78 74 a3 39
       -0.42201817 -0.6056994 -0.57378423 0.0003117656
000200 a2 61 85 3e 3f de 04 be 09 f6 f4 3e aa c7 9b bb
       0.2605105 -0.12975405 0.4784396 -0.0047540264
000210 6f 4a ea be 07 db ca 3e 07 fa 2b 3d 16 97 c0 3c
       -0.45759913 0.3962023 0.04198649 0.023509543
000220 09 22 c7 be c8 90 4c be e3 88 08 3e 2c 20 ca be
       -0.38893154 -0.19977105 0.13333468 -0.3947767
000230 84 18 0e 3d 08 1c a0 be 95 3d be 3e a0 e5 36 be
       0.03469135 -0.31271386 0.37156358 -0.17861032
000240 a4 a0 4f be cf d8 27 3e a9 cd 99 3d 47 3b 0b 3f
       -0.20276123 0.163913 0.0750993 0.54387325
000250 50 42 96 3e 67 38 0a bf 18 4b 0f be 17 3a 37 3e
       0.29347467 -0.53992313 -0.1399349 0.17893253
000260 df 79 ce 3e f5 b4 41 3d 2a 08 14 3f 2d c4 12 bf
       0.40327355 0.047291715 0.5782496 -0.5733059
000270 48 3a 79 bd 92 d5 25 3d de 95 b4 3c 6d d8 ab be
       -0.060846597 0.04048688 0.022044118 -0.33563557
000280 71 42 e7 3e d4 60 fc 3d dd 7f 6c 3e 2c 02 05 bf
       0.45167878 0.12323156 0.23095651 -0.5195644
000290 7c af 7c 3e c7 7d ae be e0 62 27 be 96 61 8c 3e
       0.24676317 -0.34080335 -0.16346312 0.27418202
0002a0 5e 23 06 bd f9 33 22 be 52 b1 10 be 80 e0 1f 3a
       -0.032748573 -0.15840138 -0.14130142 0.0006098822
0002b0 3a a8 d8 3e cd ed 9b 3e 6b 0d 5a 3e d0 62 41 bf
       0.42315847 0.30454865 0.21294181 -0.755414
0002c0 71 08 08 bf 70 2a 93 3e 54 d8 a3 3e 23 91 f5 be
       -0.5313788 0.28743315 0.32000983 -0.47962293
0002d0 b1 1a 53 3c b0 dd e4 3d 0f 96 c6 3d b5 27 89 be
       0.012884782 0.11175096 0.0969659 -0.26788107
0002e0 15 a4 a2 3e ab 7a 88 3e 13 71 ae 3e 83 c7 38 be
       0.3176581 0.26656088 0.34070644 -0.18044858
0002f0 66 de 33 bd 38 dc 7d 3e 87 a2 19 bd 2b 66 75 bd
       -0.043913268 0.24791038 -0.037508514 -0.059911888
000300 55 0e bc bd 79 3a b6 3e 85 0d a8 bd 2f 74 1e 3e
       -0.09182421 0.35591486 -0.08205704 0.15474008
000310 9c de ba 3d 0d b4 dd bd 97 1a 27 3e 4a 9a b2 3e
       0.091244906 -0.108253576 0.16318737 0.34883338
000320 52 6e 8d be 8c 27 f3 bd 33 1d 8b 3e 90 94 85 3e
       -0.2762323 -0.11872777 0.27170715 0.26089907
000330 6c fa 01 be bf 28 da be 11 2e 40 be 6d ab 1b bf
       -0.12693185 -0.42609212 -0.18767573 -0.6080845
000340 8b 47 f4 bb bf 5b 4b 3e 2c a8 18 3e 40 ca 24 3e
       -0.0074548176 0.19859217 0.14907902 0.16092777
000350 57 29 8d be 39 ed f8 be 48 94 47 be 34 e7 0c 3f
       -0.27570602 -0.48618487 -0.19490159 0.5504029
000360 bd 57 c3 ba 2b 50 03 bc 59 32 96 3c 72 88 6f bc
       -0.0014903467 -0.008014719 0.018334555 -0.014619933
000370 9c 4d 99 bf 6a 1c b9 3d 21 e8 84 be bc d2 1f be
       -1.197681 0.09038623 -0.2595835 -0.15607733
000380 aa 3f e6 bc 64 39 88 3e 52 fd 59 3e 18 15 54 3e
       -0.02810653 0.26606286 0.2128804 0.20711172
000390 9b 29 95 be c3 d6 36 bf 33 fd a1 be 79 c9 f5 3e
       -0.29133305 -0.7142145 -0.31638488 0.48005274
0003a0 c8 5e c5 3e 22 7b cb 3e 4e 75 8e 3e da d1 0a 3e
       0.38548875 0.3974238 0.2782387 0.13556615
0003b0 e6 40 80 be c7 52 f9 be 25 5b 5d bf 39 a2 92 be
       -0.25049514 -0.48695967 -0.864672 -0.2863939
0003c0 7f ed 90 3e 0b 87 2c bd 93 dd a2 bd bd 69 f4 be
       0.28306195 -0.042120975 -0.07952418 -0.47736922
0003d0 b4 92 ad 3e e1 fa 30 bf 80 67 bb be a5 4e b8 3d
       0.33900988 -0.6913281 -0.36602402 0.08999375
0003e0 fd e0 bf bc 3e 31 a2 3e 27 37 50 bd 25 0d e8 be
       -0.023422712 0.31678194 -0.050833847 -0.45322528
0003f0 b6 7d d2 3d 93 84 b9 be 37 51 f8 be 74 d8 50 bf
       0.10277884 -0.3623396 -0.48499462 -0.8158028

net.0.bias f4 [256]
000000 d5 24 42 3e 0d ea e1 3d 9c d3 48 3d b7 94 40 3e
       0.18959363 0.1103097 0.04902993 0.1880673
000010 7e be 55 3e 87 ad 80 be d2 cc 63 bd 02 b9 55 bb
       0.20873448 -0.2513239 -0.055615254 -0.0032611494
000020 df ba 00 bd c1 70 8c 3e ea 6c be bd 63 69 83 be
       -0.031428214 0.27429774 -0.092981175 -0.2566634
000030 9f a5 7b 3d 86 27 e1 3d 53 6d 89 3e 23 27 47 be
       0.061437245 0.109938666 0.2684122 -0.19448523
000040 56 ba c0 3e 82 aa 85 3e e4 1b 9b 3e d4 3e ae bc
       0.37642163 0.2610665 0.30294716 -0.021270193
000050 93 27 5a 3e e4 00 3b 3e d9 de 16 3d 68 3a 80 3e
       0.21304159 0.18262058 0.036833618 0.2504456
000060 2d 7c bb be f4 32 a0 3e fd 86 1f 3e 69 7d 53 3b
       -0.36618176 0.31288874 0.15578838 0.0032270795
000070 60 e0 51 3e 50 dc c0 3d 60 77 88 3e 25 44 97 3e
       0.20495749 0.09417021 0.26653576 0.29544178
000080 4f 66 7f be b9 84 91 3e 52 82 dd bc c8 c8 99 bd
       -0.24941371 0.28421572 -0.02703968 -0.07508999
000090 d7 f2 e7 3d 80 96 d3 3e 95 82 0d bd dd e8 3b 3d
       0.11325615 0.4132576 -0.03454836 0.045876373
0000a0 51 65 81 3e 04 04 33 be 00 89 53 3e 6c bf 65 bd
       0.2527261 -0.17482 0.2065773 -0.056090757
0000b0 d9 73 27 3e a3 46 cd 3e b5 59 18 be 5d 71 81 be
       0.16352786 0.40092954 -0.1487797 -0.25281802
0000c0 e6 ac 8e 3e bc 75 80 bd 5a 88 9e bd e9 1e 55 be
       0.27866286 -0.06272456 -0.07740851 -0.20812573
0000d0 fd 85 bb 3e e7 65 dd bc f4 bb be bd 68 d6 00 bd
       0.36625662 -0.02702613 -0.09313193 -0.031454474
0000e0 15 af ca bd ae c8 85 3e be 51 76 3c 6c b3 98 3e
       -0.098966755 0.2612967 0.015034137 0.29824388
0000f0 70 d8 32 3d f8 6f 69 bd 62 fd 8a 3e 56 d1 b9 bb
       0.043663442 -0.056991547 0.2714644 -0.0056707067
000100 15 93 d3 bc c2 d2 d4 3d 4b b9 c2 3e 6b 6f da 3b
       -0.02582697 0.10391761 0.38031992 0.006666114
000110 fb fb b0 3e ee 00 9e 3e b6 6e 21 3e 67 88 60 3e
       0.34567246 0.30860084 0.15764889 0.21927033
000120 1d 13 27 3e a3 ef e1 3d f7 14 b1 3e de 78 cd 3e
       0.16315885 0.11032035 0.34586307 0.40131277
000130 68 d0 41 3e 44 be 3a 3e d7 b5 a6 3e 0a f6 92 be
       0.18927157 0.18236643 0.32560608 -0.28703338
000140 4d ff c8 3e ee f3 6e 3e de 35 9a 3e a3 bc 18 bd
       0.3925728 0.2333524 0.30119222 -0.037289273
000150 f4 3f 3e 3b 5d 2d e5 3e bf fb e2 bd 4a 32 0d 3e
       0.0029029818 0.44761172 -0.11083173 0.13788715
000160 55 01 a6 3e bd e7 b7 bd ca 7b be 3d dc 98 ce bd
       0.3242289 -0.089797474 0.09300955 -0.10087749
000170 44 31 93 3e 86 32 c9 bd c0 d4 8e 3e b3 22 a6 3e
       0.28748524 -0.0982409 0.2789669 0.32448348
000180 62 ab 95 3e 34 fa dd 3e 79 05 77 3e 3b 4e 84 be
       0.29232317 0.43354952 0.24123181 -0.25840935
000190 d9 fb 2b 3e 52 0a 2b 3e 2e 9d 39 3e b4 20 8a be
       0.16795291 0.16703156 0.18126366 -0.26978076
0001a0 38 67 91 3d 47 23 97 bd 31 8a cd 3e 9f 4c 39 3e
       0.070997655 -0.073797755 0.40144494 0.18095635
0001b0 10 36 82 3e 9d 22 b3 3e 81 5a 0c be 3f 48 a7 bd
       0.2543187 0.34987345 -0.137064 -0.08168077
0001c0 88 e5 af bd 1f b3 05 3a 24 cd aa 3e 06 1c 95 3e
       -0.085887015 0.00051002385 0.33359635 0.29122943
0001d0 7f db 89 3e 3e b1 3e bd 98 64 1a be cf 85 5e bd
       0.26925275 -0.04655575 -0.15077436 -0.05432683
0001e0 f8 60 12 3e 84 78 8b 3e de 30 cb 3d 03 d2 80 bd
       0.14294803 0.27240384 0.0992143 -0.062900566
0001f0 6f 74 aa bc 27 92 3f be 9b be 2f 3e f8 fe 2c 3d
       -0.020807473 -0.18708096 0.17162554 0.042235345
000200 a5 be e2 3d 22 5a 99 3e bc d3 33 be 94 51 0b 3e
       0.11071519 0.29951578 -0.17561239 0.13605338
000210 e7 27 44 bd ef 06 28 3e 9f d1 f3 bd 7e b6 a8 be
       -0.047889616 0.16408895 -0.119052164 -0.3295173
000220 87 4c 52 3e d0 56 9b bc 49 7a 4b be 13 8c ce 3e
       0.20537005 -0.018962294 -0.19870867 0.40341243
000230 07 a0 0c bc c2 af 21 be 06 7b 6d be b7 e0 98 bd
       -0.008583075 -0.15789703 -0.23191461 -0.07464736
000240 d4 ff cc bc 67 91 ee bc 25 d9 63 3e 38 9e 67 be
       -0.025024332 -0.029122068 0.22250803 -0.2261895
000250 cf 64 00 3e 84 23 00 bd 9e 54 20 3e 43 2f c8 3e
       0.12538455 -0.03128387 0.15657279 0.39098558
000260 5e 2d 4f 3e fc b2 3f be f0 9a a4 bc f3 ca a5 bb
       0.2023215 -0.18720621 -0.020093411 -0.005059594
000270 11 07 0a be 80 ad 81 3e 37 bb 82 3d cb 26 a1 3e
       -0.13479258 0.25327682 0.06383365 0.3147491
000280 94 cd 79 3e e2 b8 5f 3b 3d 41 19 3e c1 1a 1e 3e
       0.24394828 0.0034137298 0.14966293 0.15439893
000290 1e e1 40 3c 86 65 77 3e 06 c7 46 be 7b ed 48 3e
       0.011772422 0.24159822 -0.19411859 0.19621842
0002a0 ea a1 10 be 18 d5 89 be 24 9a 8f bd 74 1c 4b 3e
       -0.14124265 -0.2692039 -0.07011822 0.19835073
0002b0 d8 93 4f 3e 99 52 b8 3d fe 7b df bb 38 2d 17 bc
       0.20271242 0.09000129 -0.006820201 -0.00922709
0002c0 df 7c 98 3c 97 f3 21 3e 53 d1 d4 bd f1 b7 e4 3e
       0.01861423 0.15815578 -0.10391488 0.44671586
0002d0 d8 00 8c 3e b7 dc ab be 73 87 d0 3c c0 09 0d 3c
       0.27344394 -0.3356683 0.025455212 0.008608282
0002e0 14 d6 87 3d 59 25 93 be 5b a5 0b 3e 93 77 21 be
       0.06632629 -0.28739432 0.13637297 -0.1576827
0002f0 d8 09 d2 3e 85 2e ce 3e 5b 77 4a be f0 35 18 be
       0.41023135 0.40269867 -0.19772093 -0.14864326
000300 fd 09 f1 bc d2 37 c9 bd 5e d9 06 3e 50 3e a2 be
       -0.029423708 -0.098251 0.13168857 -0.31688166
000310 0f 14 22 3e 33 0c 55 be 89 64 82 be ca 8f 35 be
       0.15827964 -0.20805435 -0.25467327 -0.17730632
000320 4f 4b 89 3e f1 75 eb 3d 93 5a 4d be c7 7c 0a bd
       0.26815268 0.11497105 -0.20054083 -0.033810403
000330 e3 37 94 3d cd 35 a7 be ac 11 c8 3d e7 04 25 3e
       0.07237222 -0.32658234 0.09768996 0.16115151
000340 37 08 9f 3c df a3 28 be 16 87 99 3b 2f 9e 8e be
       0.019413097 -0.16468762 0.004685293 -0.2785506
000350 94 21 a3 bd 89 af 17 3d 6c 40 ca 3e 57 20 ca bb
       -0.07965389 0.037032638 0.39502275 -0.006168406
000360 7e a8 86 3e 17 85 b9 3d 02 2b 58 3b bd 04 d7 be
       0.26300424 0.09058588 0.003298462 -0.41995803
000370 a8 3e ca 3e 4d 5e ce 3e b7 e9 cd 3d f4 77 89 3e
       0.39500928 0.4030632 0.10054343 0.2684933
000380 48 c3 cc 3e 1a 5e 93 3e 89 a7 68 3e 8d a4 b6 be
       0.39992738 0.2878273 0.2272016 -0.35672417
000390 df 40 8f be 5e 84 a1 be 89 82 bc 3d 69 dc 5f be
       -0.2797918 -0.315463 0.09204585 -0.21861424
0003a0 0a 7f 92 3d 7c 47 44 bc 00 a4 a3 be e7 3d 39 3e
       0.07153137 -0.011979934 -0.3196106 0.1809002
0003b0 59 3b 25 3e 9d cc 90 be d9 e2 98 3e a2 b1 92 3d
       0.1613592 -0.28281108 0.2986057 0.07162787
0003c0 2e 8a 3d be 82 be a3 3e 46 d3 d7 3e 34 e2 29 3d
       -0.18509743 0.31981283 0.42153376 0.04147549
0003d0 eb 7a bd bd 17 7e c6 bd de 33 02 3e ee d6 d8 3d
       -0.0925196 -0.096920185 0.12715098 0.105878696
0003e0 c2 5e 5a 3e 1d 90 70 be d1 a0 96 be 90 be 75 be
       0.2132521 -0.23492475 -0.29419568 -0.23998475
0003f0 e7 fd d1 3c b2 f7 c3 3c ec b5 da bc 25 5b 6e be
       0.025633765 0.023921821 -0.026698075 -0.23276956

net.2.weight f4 [256, 256]
000000 5e cd 00 3e 14 f0 0f 3e 31 99 bc 3d d1 bd dc bd
       0.12578341 0.14056426 0.092089064 -0.10778392
000010 99 5d 52 3e 6b c3 a0 3e ae b9 09 3e 39 fd 54 be
       0.20543517 0.31399092 0.13449737 -0.20799722
000020 20 eb c5 3d 5d dd 6b 3c c0 02 42 3e ae e1 5c 3d
       0.09663987 0.014396039 0.18946362 0.053926162
000030 05 a1 0e be 71 b2 bb 3c bd aa 4f 3e 7b 9b be 3e
       -0.13928612 0.022912236 0.20279975 0.37227997
000040 df 3d 49 bd 0b b2 e6 3d d8 c4 3a 3e f5 ab 82 3e
       -0.04913127 0.11264428 0.18239152 0.25521818
000050 f1 d0 7b bc c4 7c 78 3e 43 69 c7 bd a1 fa 35 bc
       -0.01536964 0.24266344 -0.09736874 -0.011107118
000060 d1 08 1a 3e 9e 77 0e 3e d4 7b 2a 3e 99 dc 05 bf
       0.15042426 0.13912818 0.16648799 -0.5228973
000070 05 1c e3 3d 9d 05 83 3d ba c5 c2 3c 82 7f 5f bd
       0.11089329 0.06397555 0.023775924 -0.05456496
000080 60 27 67 3e 67 71 c2 bc a5 f7 02 bd 94 41 1e 3e
       0.22573614 -0.023735715 -0.031974453 0.15454704
000090 cd 71 29 3e 20 6f 2d 3d 1a 16 9c bd f7 00 e1 bd
       0.16547318 0.042342305 -0.07621403 -0.10986512
0000a0 3b f2 87 3e 57 86 48 3e 5c 24 11 bd ef 61 dd 3d
       0.26551995 0.19582497 -0.035435066 0.10809695
0000b0 6d 91 01 3c 0e f3 b3 3d 5e 2d 3e 3e 02 d1 2a be
       0.007908207 0.087865934 0.18571994 -0.16681293
0000c0 4a f1 ca bb 32 2e 3c 3d f7 d6 11 3e 7f 29 9b 3e
       -0.0061933147 0.045942493 0.14242159 0.30305097
0000d0 c9 e3 ff 3c 9e 20 8a bd f2 45 a6 be a8 9b 32 be
       0.031236546 -0.067445025 -0.3247524 -0.1744219
0000e0 f4 d8 16 3e 34 6a b5 bd 44 d0 1b 3e 23 20 10 3e
       0.14731199 -0.08858147 0.15216166 0.14074759
0000f0 31 75 32 3e 2d bc 59 3e 98 20 d8 3c 8b d4 b5 bb
       0.17427517 0.2126319 0.02638273 -0.0055490187
000100 14 ce 73 be 19 76 50 3d 90 e2 b2 3c 32 42 97 be
       -0.23809081 0.050893877 0.021836549 -0.2954269
000110 c8 b4 44 3d df 85 05 bd a9 22 f9 bc 57 ea 4e bd
       0.04802397 -0.032598373 -0.030412035 -0.050516453
000120 08 ab ae bd 7d 45 c3 3d 11 53 e5 bc 89 49 21 bd
       -0.08528715 0.09534738 -0.02799371 -0.03937677
000130 17 7f a0 bd 9a cd 26 bf fe e9 ba bd 2d fa 21 3e
       -0.078367405 -0.65157473 -0.09126662 0.1581809
000140 f1 1a f4 3d 3b ff a3 bb aa 66 27 3e c0 a1 c7 3d
       0.11919201 -0.005004791 0.16347757 0.09747648
000150 2d 3e 6f be a0 f5 81 bd 18 6b ed 3e 2d 1e b0 3d
       -0.23363562 -0.063456774 0.4637077 0.085995056
000160 70 a1 5b 3d 75 e5 1a 3e f1 36 f7 3c f1 f3 31 be
       0.053620756 0.15126593 0.030177565 -0.17378213
000170 87 53 f9 bd 49 75 c5 bd d3 83 96 bd cb d3 8e bd
       -0.12174135 -0.09641511 -0.07349362 -0.0697399
000180 7f 97 fc 3c 4c 82 c9 bc 9d c7 25 3d de f8 6c 3e
       0.030833958 -0.024598263 0.04047357 0.2314181
000190 0a d0 1d 3e d6 d5 1e 3e cb af 67 3e d9 81 3e 3e
       0.15411392 0.1551126 0.22625653 0.1860422
0001a0 8c e6 64 3e 69 45 95 3e 00 0e 38 bd ca c6 c8 3d
       0.22353572 0.29154518 -0.044935226 0.09803541
0001b0 f3 c6 35 3e 01 9b 4e bd d3 02 30 3e 03 0d 4b 3e
       0.17751674 -0.050440792 0.17188577 0.19829182
0001c0 5c 8a 05 3e 40 e3 b0 bd 49 f4 a4 bd 84 9e cc 3d
       0.13041061 -0.086370945 -0.08054406 0.09991172
0001d0 52 3e eb bd db fe f2 bd 39 cd 21 be 50 d8 cd 3c
       -0.11486496 -0.11865016 -0.15800942 0.02512756
0001e0 b0 7e 0e bd 59 6f 11 3e d5 13 c3 3d ad 11 d0 3c
       -0.034788787 0.14202632 0.09525267 0.025399053
0001f0 8c 9d be 3e 0d 98 de 3e 51 96 63 bc 1d 04 fc 3d
       0.37229574 0.4347538 -0.013890819 0.12305472
000200 64 5e c1 bd 5c 41 26 be 98 f3 9c 3d ac 89 10 3e
       -0.09441832 -0.1623587 0.07663649 0.14115018
000210 e9 dd bb 3d af 63 69 3e 09 75 2c 3d ec fb 44 3e
       0.091731854 0.22791933 0.0421038 0.19236726
000220 91 88 41 3d 73 39 24 bd ab 91 0b 3e a1 b7 1d bd
       0.04724938 -0.04009385 0.13629787 -0.0385052
000230 b7 f4 22 be b3 85 31 be 18 2e ac bd 38 5e 43 3e
       -0.15913664 -0.17336158 -0.08407229 0.1907891
000240 fd 14 55 3e 44 f4 b4 be 04 a6 bb 3b 7d f1 1a be
       0.20808788 -0.3534261 0.0057265777 -0.15131183
000250 04 d8 3a 3e de d8 80 3e e8 97 25 be de d5 a8 bd
       0.18246466 0.25165457 -0.16171229 -0.08243917
000260 ed 9f d2 3d 5c b6 99 3e e6 36 c5 3d f5 a6 95 3e
       0.1028441 0.30021942 0.09629612 0.2922894
000270 a3 db 83 bd 11 6d af bd 9f 72 42 3e 92 22 7d 3e
       -0.06438377 -0.08565725 0.18989037 0.24720219
000280 4c 9e 99 3d a8 6d 90 be b2 8b 1a be 6b ac 37 bd
       0.07500896 -0.2820866 -0.15092352 -0.044842165
000290 1c 65 6d 3e 93 c8 e9 bc 22 3a 93 3e 8c d3 94 3c
       0.23183101 -0.028538024 0.2875529 0.01816728
0002a0 04 c8 bf 3e e4 03 5f be cc 3b ba bd 01 60 ca 3d
       0.37457287 -0.21778828 -0.090934366 0.098815925
0002b0 b1 d4 07 3e e7 eb 56 3e 07 c3 80 be 1e 1f f4 3d
       0.13264729 0.20988427 -0.25148794 0.11919998
0002c0 f2 3d c7 3e a5 93 99 3e 10 fe e9 3d 2e af d9 bc
       0.38914448 0.29995456 0.11425412 -0.02657279
0002d0 79 14 35 3d 56 73 cf 3e ca c5 d2 bd 47 a7 09 3e
       0.044208977 0.40517682 -0.102916315 0.13442717
0002e0 20 01 1f 3e f6 4f a5 bd 6f dd 3a bd c4 a4 a3 be
       0.15527773 -0.08071892 -0.04562133 -0.31961644
0002f0 af f6 1b bd 9f 33 76 3d 3e 78 8a be b3 ed 16 3e
       -0.038077053 0.060107823 -0.27044863 0.14739113
000300 1f 5d de 3d 1c 26 34 3e c8 ed 67 3e 51 1e 19 3e
       0.10857605 0.17592663 0.226493 0.14952971
000310 2d c5 5a 3e ae 48 7f 3e a3 9f e7 3d 94 e1 6d 3e
       0.21364279 0.24930069 0.11309745 0.23230582
000320 02 5a 5c bd 48 9d 06 3e 46 87 a6 3d 0b 11 e9 bd
       -0.053796776 0.13145936 0.0813127 -0.11380204
000330 3e e0 6a 3d 70 3c 8e 3e ca 23 9a 3d 6b e2 dc 3d
       0.05734276 0.27780485 0.075263575 0.10785373
000340 ec 4c 4a be 26 f9 00 3f d8 11 e2 be 20 17 21 3e
       -0.19755906 0.5038017 -0.4415424 0.15731478
000350 86 8f be bc 28 c4 cf 3d 04 7f 71 3d ac 1b 82 bd
       -0.023261797 0.10144836 0.058959022 -0.06352934
000360 d0 7e ac ba a8 9a 41 3e 16 25 32 be 8e c1 8a 3e
       -0.0013160352 0.18906653 -0.1739696 0.27100796
000370 39 ca 88 3d 29 41 98 3d cd 4e 8c 3d b6 38 21 3e
       0.06679196 0.07434303 0.068509676 0.1574429
000380 87 0f b8 3d 5d 7a 50 3e db d8 7f bd f4 34 3d 3f
       0.089873366 0.20359178 -0.06246267 0.73908925
000390 92 84 8c 3e e8 17 10 3f b9 cb 9b 3d be 91 4a 3e
       0.27444893 0.5628648 0.076072164 0.19782159
0003a0 83 88 b1 bd 27 17 43 3e 81 f1 11 3f 1c 5b dc 3d
       -0.08668616 0.190518 0.5700913 0.10759565
0003b0 b0 44 69 3e cc ad f9 3e 95 d0 7f bd dc 6b 3f be
       0.22780108 0.4876541 -0.06245478 -0.18693489
0003c0 64 25 aa 3e fa 36 4a bd 6f f5 fe bd 5d 5d 89 3c
       0.33231652 -0.049368836 -0.124491565 0.016768152
0003d0 c1 07 e5 bd 6e 51 4c 3e 54 79 39 3e 1f a1 e7 bd
       -0.111831196 0.19952938 0.1811269 -0.11310028
0003e0 b3 c2 78 3d 2c 41 e2 3e aa ab 04 3f f1 23 b7 3e
       0.060732555 0.44190347 0.5182444 0.3576961
0003f0 7a 38 91 3e c5 ab 4e 3a eb 3f 05 3e b9 7f 8c 3e
       0.283634 0.0007883872 0.13012664 0.27441195

net.2.bias f4 [256]
000000 ba f3 27 bc c5 a4 73 3c af d0 c8 3d f3 d3 4e bd
       -0.01025098 0.014870827 0.09805428 -0.0504951
000010 d8 1b 21 3d a3 14 e4 3d 94 07 02 3d d8 ab d4 3d
       0.039333194 0.11136749 0.03174551 0.10384339
000020 6e 2d 0f 3d fb 69 e9 3d f4 4b 82 3d 4d ce 2c 3c
       0.034955435 0.11397167 0.06362143 0.010547233
000030 b8 28 31 bd 52 47 00 3e 30 23 11 3d 41 55 0f bc
       -0.043251723 0.12527207 0.035433948 -0.008748353
000040 97 0e d0 bd f1 7a 9e bd d2 5f 74 3d e9 63 b6 ba
       -0.10159033 -0.07738293 0.059661694 -0.0013915274
000050 23 41 04 bb 97 cf 05 3d a7 52 7b bb 84 c7 d4 3d
       -0.0020180426 0.032668676 -0.0038348825 0.10389617
000060 5a 5c 7c ba 7b 12 16 3d 69 dc 8a bd 51 e5 24 3b
       -0.00096267986 0.036638718 -0.06780321 0.0025161097
000070 15 c3 a8 3c 4e c4 be 3c 76 30 e4 bd 14 8c f9 bc
       0.020600835 0.023286965 -0.11142056 -0.030462302
000080 3d 03 80 3d da 70 ed bc 04 2a ce 3c a9 f3 47 3d
       0.06250618 -0.028984476 0.025166519 0.048816357
000090 68 45 a0 bc 5f e1 92 3d e3 5f 1b 3e 21 30 35 bb
       -0.019564345 0.071718924 0.15173297 -0.0027647095
0000a0 60 a8 77 3d 70 da be 3d 03 30 8c 3d c3 89 7e 3d
       0.06046331 0.093190074 0.06845095 0.0621431
0000b0 c0 bf a9 3d cb d3 60 3d c1 31 23 3c b2 a7 0a bc
       0.082885265 0.05488948 0.009960593 -0.008462833
0000c0 87 d3 8c bc b3 93 2c be 41 f7 ae 3c 3e dc 2f bd
       -0.017190708 -0.16853218 0.021358134 -0.04293465
0000d0 b0 7b 0f 3e c5 49 c8 bc 53 89 f2 bc f3 d8 51 3d
       0.14012027 -0.024449239 -0.029606497 0.05123229
0000e0 a0 46 d6 3d 5a 25 9e 3d c5 00 a4 bd 3c c3 46 bd
       0.104626894 0.07721968 -0.08007959 -0.048526034
0000f0 80 5c 97 3c 49 f7 69 bd 6b ef 99 3d 65 94 e5 3d
       0.018476725 -0.057120595 0.075163685 0.11209945
000100 c5 fa a1 bc b5 3f be 3d 6c 2a c4 3d 39 57 9e 3c
       -0.019772897 0.09289495 0.09578404 0.0193287
000110 fd a7 42 3c bc 00 05 3d d7 95 ac 3d b9 7f 07 3e
       0.011880872 0.032471403 0.08427017 0.13232316
000120 f1 2e a3 3c 41 ae c0 bc 85 1f 0f 3e 86 78 08 bd
       0.019919844 -0.02352059 0.13976867 -0.033318065
000130 c8 bc 78 bd 5d 87 4d bc 8f d7 81 3c 68 25 e0 bb
       -0.06072691 -0.01254448 0.015849857 -0.0068403967
000140 6e d2 03 3e c7 36 26 3d db 46 d0 3d 98 a9 07 3e
       0.12873241 0.040579583 0.101697646 0.13248289
000150 ac 4a 62 bc 09 f6 75 3d f9 24 a0 3d e8 6e a5 3c
       -0.0138117485 0.06004909 0.07819552 0.020194486
000160 ed 39 2f bd fa 41 f6 bc 17 f9 a6 3d 4d 3d 07 bd
       -0.04277985 -0.030060757 0.08152979 -0.033017445
000170 0f 11 ca 3d 0f e0 0c 3d 5b e3 81 3d 7f 45 09 bd
       0.09866535 0.034393366 0.06342193 -0.033513542
000180 f3 30 01 bd 89 52 2d 3d df b0 73 3d 26 18 54 39
       -0.031540822 0.04231504 0.05949485 0.00020226892
000190 21 02 ac 3d a8 5b 36 bd d8 d2 64 bd 38 a7 06 3e
       0.083988436 -0.044521004 -0.05586514 0.13149726
0001a0 fc 73 0f 3e 51 d0 20 bd d1 6b bb 3d e9 ac 22 bd
       0.14009088 -0.039261166 0.09151424 -0.03971568
0001b0 20 b5 6f 3d 66 2e aa bc bf d6 e2 3c 85 c5 e1 3b
       0.058522344 -0.020774078 0.02769029 0.0068900012
0001c0 ad 75 89 3d 17 f5 58 3d ba b7 5d bc 6c c9 3d 3d
       0.06711898 0.05296811 -0.013532573 0.04633467
0001d0 b4 42 be 3c b6 d9 60 3d 22 c4 51 3d 9b db 35 3c
       0.023225166 0.054895125 0.051212437 0.011099721
0001e0 55 05 af bc 48 fe c2 ba d5 33 93 bd b6 a4 f3 3d
       -0.021364847 -0.0014876807 -0.071876206 0.118966505
0001f0 57 0f 05 3e 23 74 29 3d a4 4d 36 3d 24 c4 8f 3d
       0.12994133 0.041370522 0.044507638 0.07019833
000200 8f 9e b9 3b 18 b5 7e 3d cf 36 2a bc a8 c2 ef 3b
       0.0056646536 0.062184423 -0.010389044 0.007316906
000210 cd 89 83 bb 1c ec 45 3d 83 72 39 be 1c 1e 97 3d
       -0.00401423 0.048320875 -0.18110089 0.0737879
000220 89 ba b4 3c 7b af 7c bc 34 00 8e 3c ab 64 94 bd
       0.022061603 -0.015422697 0.017334081 -0.072457634
000230 93 0b 83 bb 1b a0 58 3d 23 74 c0 3d 1b a3 bf bc
       -0.0039991825 0.052887063 0.09397151 -0.023393204
000240 b5 68 50 3c 57 2c 02 3d e6 a0 4e 3d 75 b2 91 3c
       0.012720277 0.031780567 0.050446413 0.01778529
000250 31 e8 42 be 21 71 3e bd d3 7b 5d 3d 9d a4 0e bd
       -0.19033886 -0.046494607 0.054073166 -0.034824956
000260 67 30 82 bd ad 7e bf 3d 38 69 f4 3c 6b 91 23 bd
       -0.06356888 0.09350333 0.029835328 -0.039933603
000270 ac 40 96 3d 0a fc 31 3c 50 7a f0 3d af b9 9d 3d
       0.07336554 0.010863313 0.11742079 0.07701432
000280 62 d8 8c 3d a6 50 29 3d ae 66 68 3d 4b 28 3d 3d
       0.06877209 0.041336678 0.056738548 0.046181004
000290 ed d4 c1 3c bb d8 83 3d ce 24 61 bd 36 3d 95 3c
       0.023661101 0.064378224 -0.05496674 0.018217664
0002a0 67 b8 fb 3c 88 fe 4f 3d 87 67 89 bc 50 c8 3d bd
       0.030727578 0.05077985 -0.016772998 -0.04633361
0002b0 93 6b 1d 3e 13 05 b3 3c 5f a8 b7 3d cf f0 1f 3d
       0.15373068 0.021853006 0.08967661 0.039048012
0002c0 29 e0 45 3c 87 e0 19 3d 48 48 df 3c 87 a1 9e bd
       0.01207737 0.03756764 0.027256146 -0.07745653
0002d0 66 4d bf 3d 42 ab a4 3c 61 79 e7 bc 29 0a 3f bd
       0.093409345 0.020101193 -0.02825612 -0.04664055
0002e0 98 ef cd 3c 54 f8 c0 3d f7 0c 72 bd 3c a0 04 be
       0.025138661 0.09422365 -0.059094395 -0.1295175
0002f0 84 8f 52 3c cf 4f d7 bc be 38 d0 3c c6 5d 75 3c
       0.0128516 -0.026283173 0.025417682 0.014975971
000300 d1 60 a9 bc dd fc 1e bc 50 3b 8b 3d dc c7 7b 3d
       -0.020676048 -0.009703842 0.06798422 0.061469898
000310 4a ff 21 bd 94 ed 88 bc 76 6b 04 3d 24 75 5c bb
       -0.039550103 -0.016714849 0.032329045 -0.0033639157
000320 90 3b ca 3d d5 98 3d 3c 29 f6 33 bd 21 b5 52 3c
       0.09874642 0.0115720825 -0.04393593 0.012860567
000330 9b 6e d6 3d dc 4c de 3d a1 17 25 bd 21 21 e5 3d
       0.10470315 0.108545035 -0.040305737 0.111879595
000340 6b 22 71 bd e4 cf 1e bd ac 60 ab bc 77 d9 e5 bc
       -0.058870714 -0.03877248 -0.02092012 -0.028057797
000350 3b a8 16 3d bb c2 f1 3d 1b 7b c3 3c b6 4c cc 3c
       0.03678153 0.1180472 0.023862412 0.024938922
000360 86 b2 e9 3d b1 59 4a bd a4 17 90 bd 97 9b b9 3c
       0.11411004 -0.049401943 -0.07035759 0.022657199
000370 2e 68 08 3d 49 cf 81 bd 8f f0 0e bd 40 7e c4 3d
       0.03330248 -0.06338365 -0.034897383 0.09594393
000380 c1 2a 10 3d 7c 67 5d 3d e2 3e 74 3c 6e 48 98 bd
       0.035197023 0.05405377 0.014907571 -0.0743569
000390 5f 05 fd 3d 4b 7d 9a bc e5 9e b9 bd 3f 1d 8b 3c
       0.1235454 -0.018858572 -0.0906351 0.016981719
0003a0 95 09 6b 3d 7e 54 3b 3c 59 7a e2 bd 47 92 ad 3d
       0.057382185 0.011433719 -0.11058492 0.08475166
0003b0 99 b4 de bc 26 84 ea 3b f6 5b 04 3e 8c 11 64 3d
       -0.027185725 0.0071568666 0.12925705 0.055680797
0003c0 d3 54 f0 3c 84 2a 07 bb 5b 73 9b 3d 37 c6 80 3d
       0.029337322 -0.0020624707 0.07590362 0.062878065
0003d0 31 e7 30 3b 54 4e 1c 3e 40 8c 1b 3e f0 9d 51 3d
       0.002699327 0.15264255 0.1519022 0.05117601
0003e0 94 76 92 3d 8a 5d af bc ea 89 90 3c 89 ae 2b 3d
       0.07151523 -0.021406908 0.017643888 0.041914497
0003f0 15 2b 80 bc 1c 28 48 bd f6 26 20 be e7 b9 87 3b
       -0.015645543 -0.048866376 -0.15639862 0.0041420343

net.4.weight f4 [4, 256]
000000 97 01 45 be a4 70 80 be cb cb ed be 5b 90 a4 be
       -0.19238888 -0.25085938 -0.46444544 -0.32141384
000010 1c 5d a5 be 6a 69 99 3e 56 90 51 3d 36 b3 3b 3e
       -0.322976 0.29963237 0.05116304 0.18330082
000020 be ce 40 bd 8d bb f0 3e 02 27 bc be 31 60 c6 be
       -0.047072165 0.4701809 -0.3674851 -0.38745263
000030 e5 56 d6 3e 94 4a 11 3f 83 55 a7 be 0f 1f 3f 3f
       0.4186317 0.5675442 -0.32682428 0.74656767
000040 94 34 92 3e a9 40 bb be fd c4 8c be 98 d4 d4 3e
       0.2855574 -0.3657277 -0.2749404 0.41568446
000050 ea 2e 0a 3f 79 a6 b2 3e f0 66 cf bc 84 f8 3c 3f
       0.53977835 0.34892634 -0.02531764 0.73816705
000060 10 6c e9 be 34 d9 c0 be 3c a4 9b bc a9 14 c2 be
       -0.45590258 -0.37665713 -0.018999211 -0.37906387
000070 bd 95 92 be 91 1b ce be 28 d7 1a bf 9e 1e cb be
       -0.28629866 -0.40255406 -0.6048455 -0.39671797
000080 fb 6b ab be 74 5d e3 3e 7d 57 2b bf d9 df 21 be
       -0.3348082 0.44407237 -0.6693037 -0.15808047
000090 a0 2f 6f be ab 7b 9c 3e 29 e2 c6 3e 44 87 c3 be
       -0.23358011 0.305631 0.38844422 -0.38189137
0000a0 3c df 4a 3e 17 e9 16 3f e1 0c 92 3e 4b bf 36 3e
       0.1981172 0.58949417 0.2852545 0.1784641
0000b0 05 35 51 3e 73 2e 09 3f 41 43 0b 3f 41 b9 3a be
       0.20430382 0.535865 0.54399496 -0.18234731
0000c0 d5 02 b4 3e cb 94 b1 3d a7 d5 a1 be eb 73 83 be
       0.3515841 0.08670958 -0.31608316 -0.25674376
0000d0 ce 04 51 be 78 dd bd 3e 17 55 8f be 7f 76 21 be
       -0.20411989 0.3708303 -0.27994606 -0.15767859
0000e0 6c b5 56 be 86 c0 dd be 1c 8a d4 be 2b c4 70 3d
       -0.20967644 -0.43310946 -0.4151162 0.05878083
0000f0 8e c5 c9 3e e4 41 20 bc 2f bd 86 be 80 fa 25 bf
       0.39408535 -0.009781335 -0.2631621 -0.6483536
000100 a2 d5 d3 3c 51 9d 04 3f d1 df d0 3e 9a 9f 2d bf
       0.025858704 0.51802546 0.40795758 -0.6782166
000110 72 45 c7 be 46 c9 bc 3e 36 c3 c9 3e b1 77 c0 3e
       -0.3892017 0.3687231 0.39406747 0.37591317
000120 df 15 1a bf 96 bf b3 be 34 8c de 3c b7 0c 48 be
       -0.6018962 -0.35107106 0.027166463 -0.195361
000130 9d cd 10 be e6 ca 9e 3e 92 68 9a be 70 96 a0 3e
       -0.14140935 0.31014174 -0.30157906 0.31364775
000140 43 6e b2 3e 17 2d e3 3e af f7 0e be 32 02 67 3e
       0.34849748 0.44370338 -0.13961671 0.22559431
000150 5c de c5 be de 6b a0 3e 78 5e c9 3d 7d 86 d5 be
       -0.3864621 0.31332296 0.098324716 -0.4170417
000160 68 cf d1 be ff cf ba be a2 80 6b 3e 28 36 4b 3e
       -0.4097855 -0.36486813 0.22998288 0.19844878
000170 e9 27 3e 3e ae 35 50 3f e7 b4 e6 be 24 aa 81 be
       0.18569912 0.8133191 -0.45059893 -0.2532512
000180 62 bd af be 37 5c 87 be f0 84 33 3f f4 40 c1 be
       -0.34324175 -0.26437542 0.7012472 -0.37744868
000190 a1 65 8c be da 50 53 3d 53 af 9d be ce b3 81 3e
       -0.27421287 0.051590778 -0.30797824 0.25332493
0001a0 9c 56 15 3e 8c 4f 94 be 78 c0 1f 3f 8d 7f 17 be
       0.1458382 -0.2896694 0.6240306 -0.1479475
0001b0 16 21 f5 be 9d ef cc be 85 ef bf be 7d c9 6e be
       -0.47876805 -0.4002656 -0.37487426 -0.23319049
0001c0 63 9f 74 3f 17 ec 97 be b8 e8 c9 be dc 66 ab be
       0.95555705 -0.2967231 -0.39435363 -0.33476913
0001d0 e9 43 78 3f b9 15 e1 3e 3c 9d bf be 26 08 bc be
       0.9697862 0.43961886 -0.37424648 -0.36724967
0001e0 b1 27 1a bf cf 71 b5 be c0 55 cd 3e 9c ce 3f 3e
       -0.60216814 -0.35438392 0.40104485 0.18731159
0001f0 33 c2 ff 3e fc 8e a1 be 86 50 ba be 6e c5 b5 3e
       0.4995285 -0.315544 -0.3638956 0.3550219
000200 ec 14 0e bd 81 49 8f 3e 8a 29 d9 3e 3e 94 0b 3d
       -0.03468792 0.27985767 0.42414504 0.03407692
000210 4c 75 77 3e 1e 9b ca be 94 7b 4f be a4 56 fa 3e
       0.24165839 -0.3957147 -0.20261985 0.48894227
000220 ca 39 a8 be d4 3b ce be 11 1c d6 3e 5d c0 df 3e
       -0.3285659 -0.4028002 0.41818288 0.4370145
000230 7c 3f 59 be eb 74 83 be b3 af 84 3e a9 da db 3e
       -0.21215624 -0.2567514 0.25915298 0.42940262
000240 84 db c0 be 6f ca 22 3f 9e 6e 90 be 78 c5 d9 be
       -0.37667477 0.6359014 -0.28209394 -0.4253347
000250 fe bc 4a 3f 28 8a d1 3e 38 be 6b be 75 9e d4 be
       0.7919463 0.40925717 -0.23021781 -0.41527143
000260 30 1e 8f be 3c ec 58 3e ed 4e a5 3e af 6d ff 3e
       -0.2795272 0.21183866 0.32286778 0.4988837
000270 dc 3c 41 3f d3 89 fd 3e 3c da 72 3e 30 72 88 3e
       0.7548349 0.49519214 0.23716062 0.26649618
000280 d6 2d fd 3d 44 5b cb be c7 22 e8 be 2a 9e c5 be
       0.12362258 -0.39718068 -0.45339033 -0.38597232
000290 fe d4 cd be 0d 9f b2 be f0 61 9a 3e 42 b0 16 3f
       -0.40201563 -0.3488697 0.30152845 0.588627
0002a0 9d 4b 16 3f 4a eb 17 3f 44 a6 c1 3e be 1d 8a be
       0.58709127 0.593434 0.37822163 -0.26975816
0002b0 53 d6 b8 bd cc 85 3f 3f f6 dc 28 be d6 d3 12 3f
       -0.09025254 0.7481353 -0.1649054 0.57354486
0002c0 82 bd d1 be 02 cc 21 3d 79 dc eb be 54 d4 ce 3e
       -0.40964895 0.039501198 -0.46066645 0.40396369
0002d0 4e 9a cf 3e 3e 80 8b be 34 07 fd be 35 94 d4 be
       0.40547413 -0.2724628 -0.49419558 -0.41519323
0002e0 f3 53 c6 3e 39 3e 3f be 03 f2 c5 be 64 16 06 bf
       0.38735923 -0.1867608 -0.38661203 -0.52377915
0002f0 f4 41 a3 be 05 f9 b0 be 6c d7 52 be 36 84 cb be
       -0.31886256 -0.34564987 -0.2058999 -0.39749306
000300 6c b3 07 be 4d 17 b6 be f1 39 ea be fc 79 08 3f
       -0.13252038 -0.35564652 -0.4574733 0.53311133
000310 c8 8c 57 3e a3 cc b9 be c8 7c 64 3c e5 45 87 3c
       0.21049798 -0.36288938 0.013945766 0.01651282
000320 f3 b1 5a 3e d9 69 ce 3e 0d 3f 92 3f 81 0f a8 3e
       0.21356945 0.4031513 1.1425492 0.3282433
000330 19 f4 1d 3e 69 fe 60 3e 80 b1 d3 be 2f d6 e9 3e
       0.15425147 0.2197205 -0.4134636 0.45671222
000340 3c 52 27 bd 19 8f 1b 3f 08 6b c2 bc a1 08 94 be
       -0.04084991 0.60765225 -0.023732677 -0.28912833
000350 e8 0a a8 be bb f8 39 3e f3 f8 2f 3f b6 7e ba be
       -0.3282082 0.1816129 0.6873924 -0.36424798
000360 65 14 cc bd 74 93 ea bc ab 72 cd be 7b 25 ab be
       -0.099648274 -0.028634764 -0.40126547 -0.33427033
000370 f6 6a e3 be 83 a6 0a be 29 31 e5 3e 82 6e 2d 3e
       -0.44417542 -0.13540082 0.4476407 0.16936687
000380 f2 8d ac 3e 0f 9e 1e 3e 73 cf e0 be 76 ef a3 be
       0.33702046 0.15489982 -0.4390827 -0.32018632
000390 8b 35 d6 3e 2e f0 b7 be 05 76 bf be a9 01 a7 be
       0.41837725 -0.3592543 -0.3739473 -0.32618454
0003a0 6c 1d ce 3e 24 cc 89 be 3c 00 d0 be a6 a1 c1 3d
       0.40256822 -0.2691356 -0.4062518 0.0945466
0003b0 c6 db d3 3d 0b be d4 be 95 00 9d 3e aa 88 08 3a
       0.10344653 -0.4155124 0.30664507 0.0005208353
0003c0 d7 04 ff 3d 1b c8 de be 63 99 c1 3e 32 91 dd be
       0.12452095 -0.43512043 0.37812337 -0.43274838
0003d0 94 5c a3 be 00 97 a2 3e 96 d8 5c 3d 41 ab 15 3e
       -0.3190657 0.3175583 0.05391749 0.1461611
0003e0 93 bf de be ed 45 50 be 7f 73 17 3e b6 c1 43 be
       -0.43505535 -0.20339175 0.14790152 -0.19116864
0003f0 b4 9e 05 3f 07 51 8a be 83 90 97 3d 23 64 2b 3f
       0.52195287 -0.27014944 0.0740061 0.6694967

net.4.bias f4 [4]
000000 2d 04 7b bd fc f7 aa 3c 3f 5c dc 3c 2c a8 22 3c
       -0.06128328 0.020870201 0.026899455 0.009927791
