drafts/draft_rk/runs_lunarlander/dqn_trial10_seed42.pth (torch, 279705 bytes, 6 tensors)

net.0.weight f4 [256, 8]
0.16362296 0.38122043 -0.008191515 0.6688978 -0.17652905 -0.016402837 -0.1652026 0.16397133
0.5887269 -0.15744424 0.5593662 0.023948979 0.24395624 0.2650313 0.07788314 -0.04370192
0.19658153 0.042242296 -0.12746052 0.2600046 0.071967565 -0.17363721 -0.09926685 0.37494335
-0.2845088 -0.18089907 -0.10959562 -0.4407955 0.33819237 -0.2638472 0.32006368 -0.17835891
0.12807201 0.12098887 -0.14576317 0.2503624 -0.08838619 0.4300597 0.020508528 -0.74609077
0.17131211 0.047200408 0.4554713 0.45454443 -0.115606934 -0.287807 -0.070479445 -0.17622185
0.057358313 -0.055782866 -0.43497282 -0.39020097 0.104776405 0.39422074 0.19296551 0.099932574
-0.008978502 -0.017574372 0.70581686 -0.39656827 0.15143716 -0.42773896 0.26430973 -0.23152119
0.025702659 -0.16006947 0.18896675 -0.097408034 -0.28867242 -0.39206693 0.36027625 0.21010384
0.5382602 -0.25442576 -0.40228337 -0.51670873 -0.2761853 0.17957933 0.13610269 0.32268587
-0.26746422 -0.39427054 -0.0713527 -0.3529774 0.08292652 0.09463115 0.23288451 -0.51761705
-0.09846152 0.14416352 0.2677393 0.16677184 0.09707323 0.50819516 -0.34579 -0.33481938
0.49023876 -0.07310712 -0.029056525 -0.4439917 -0.3393745 -0.009321756 -0.3185615 -0.47138864
0.02925908 -0.059907746 -0.28112036 -0.43040285 -0.11414455 -0.28139287 0.37017423 0.09081708
0.036809985 -0.24018109 -0.29484296 -0.47085357 -0.045203265 -0.4425979 -0.20822838 -0.3454341
0.005924566 -0.35405648 0.22523521 -0.36377564 -0.164791 -0.5261005 -0.726229 0.046478637
0.2920766 0.023427729 0.32713386 0.0507068 -0.9218991 0.19600798 -0.050324187 -0.17317411
-0.3205241 -0.2646282 -0.018294333 -0.3828259 0.22703442 -0.23634158 0.33251595 -0.2148446
-0.020423602 0.005906197 0.21858977 0.41227165 0.62681365 -0.4784253 0.23455092 -0.20275222
0.0994818 -0.261835 0.25554895 -0.6604229 -0.34806564 0.17082217 -0.06908236 -0.5872585
0.34093785 0.14755352 0.111360565 -0.5539778 0.25991303 -0.026632924 -0.20875728 0.30446118
0.0017788617 -0.2566053 -0.03264038 -0.102388985 0.3067103 0.44512722 -0.06689471 -0.5555367
-0.22605379 0.28118765 0.5614618 -0.55194443 0.26485994 0.45885453 -0.23197234 -0.15971354
0.29384184 0.2811063 0.19120072 -0.26236176 -0.13784768 -0.011905211 -0.09880776 -0.12794885
0.27552852 0.39419955 0.011485118 0.14155076 -0.45313764 -0.13143294 0.07962489 0.18371852
-0.29154104 -0.1582544 0.1909226 0.15318705 -0.1365389 -0.46270025 -0.806161 -0.33073997
-0.05915696 0.20023012 0.1321096 0.27780008 -0.14299814 -0.40113804 -0.04943396 0.43447852
0.007852927 -0.0025270053 0.014236538 -0.01385257 -1.3797013 0.17317909 -0.6374579 -0.068188004
-0.24536364 0.26608887 0.20695134 0.33847147 -0.26550016 -0.46194166 -0.26971638 0.43224785
0.15664752 0.34041157 0.123050705 0.21232885 -0.385 -0.48948878 -0.7347531 -0.07784113
0.16158584 -0.122083 0.0017164967 -0.56467336 0.22259684 -0.4267038 -0.6213726 0.021564526
-0.10438518 0.3390303 -0.091789335 -0.4043911 0.18698809 -0.3390927 -0.2795963 -0.8315387
00000000: c78c 273e 532f c33e b435 06bc e33c 2b3f
00000010: 08c4 34be 3e5f 86bc df2a 29be 1ae8 273e
00000020: ceb6 163f 1039 21be a032 0f3f a630 c43c
00000030: aacf 793e 2fb2 873e 3281 9f3d c900 33bd
00000040: ab4c 493e 4206 2d3d 0385 02be 531f 853e
00000050: bb63 933d f4cd 31be 6b4c cbbd 93f8 bf3e
00000060: 23ab 91be 9b3d 39be ab73 e0bd f3af e1be
00000070: 8d27 ad3e fb16 87be 63df a33e b8a3 36be
00000080: 4f25 033e 03c9 f73d f142 15be 802f 803e
00000090: d203 b5bd c930 dc3e 8001 a83c ceff 3ebf
000000a0: 716c 2f3e 3755 413d 8933 e93e 0cba e83e
000000b0: 54c3 ecbd 705b 93be 8757 90bd 8073 34be
000000c0: 8df0 6a3d 937c 64bd c2b4 debe 6cc8 c7be
000000d0: 0395 d63d 4dd7 c93e c098 453e 73a9 cc3d
000000e0: 911a 13bc 21f8 8fbc 6ab0 343f ff0a cbbe
000000f0: 5812 1b3e 9a00 dbbe 9b53 873e e413 6dbe
00000100: 628e d23c 40e9 23be 8080 413e dd7d c7bd
00000110: dfcc 93be ffbc c8be 2176 b83e 7625 573e
00000120: 6ccb 093f 1844 82be 16f8 cdbe 0647 04bf
00000130: 2968 8dbe a5e3 373e 815e 0b3e 1537 a53e
00000140: 12f1 88be d4dd c9be 5d21 92bd 74b9 b4be
00000150: 61d5 a93d facd c13d 4779 6e3e 8d82 04bf
00000160: 32a6 c9bd 9a9f 133e 2015 893e 3dc6 2a3e
00000170: 54ce c63d 1419 023f 630b b1be 726d abbe
00000180: 9300 fb3e 30b9 95bd f307 eebc e152 e3be
00000190: 7fc2 adbe 47ba 18bc 7e1a a3be da59 f1be
000001a0: bdb0 ef3c d361 75bd 02ef 8fbe c35d dcbe
000001b0: 9ec4 e9bd ba12 90be 7a87 bd3e 4efe b93d
000001c0: 11c6 163d 08f2 75be a8f5 96be b813 f1be
000001d0: 0f27 39bd 319c e2be d239 55be bddc b0be
000001e0: dd22 c23b e446 b5be 0fa4 663e cd40 babe
000001f0: f9be 28be 86ae 06bf 25ea 39bf 6260 3e3d
00000200: 108b 953e 82eb bf3c 177e a73e efb1 4f3d
00000210: 9401 6cbf 51b6 483e bc20 4ebd 8e54 31be
00000220: bc1b a4be 597d 87be ffdd 95bc c201 c4be
00000230: b67b 683e 8703 72be 883f aa3e 3900 5cbe
00000240: 664f a7bc c588 c13b ffd5 5f3e 4515 d33e
00000250: dc76 203f 29f4 f4be 1e2e 703e 479e 4fbe
00000260: 1dbd cb3d 3d0f 86be 50d7 823e 7a11 29bf
00000270: a935 b2be 02ec 2e3e 0d7b 8dbd 9356 16bf
00000280: 688f ae3e 4518 173e 0211 e43d 7dd1 0dbf
00000290: 5213 853e 4a2d dabc 78c4 55be 56e2 9b3e
000002a0: b228 e93a c561 83be ebb1 05bd 51b1 d1bd
000002b0: 2209 9d3e b7e7 e33e 1800 89bd a737 0ebf
000002c0: a57a 67be d4f7 8f3e f6bb 0f3f 3b4c 0dbf
000002d0: b99b 873e fbee ea3e 288a 6dbe f28b 23be
000002e0: 7072 963e 2aed 8f3e 1fca 433e 4854 86be
000002f0: f127 0dbe 130e 43bc b95b cabd 0605 03be
00000300: 1312 8d3e 86d4 c93e 142c 3c3c aff2 103e
00000310: a801 e8be 5b96 06be 6012 a33d b520 3c3e
00000320: de44 95be 710d 22be 3781 433e 11dd 1c3e
00000330: dad0 0bbe 0ce7 ecbe 9160 4ebf c056 a9be
00000340: 924e 72bd 2009 4d3e bd47 073e d03b 8e3e
00000350: 1b6e 12be f761 cdbe 447b 4abd f873 de3e
00000360: 90a9 003c 1d9c 25bb 5e40 693c e4f5 62bc
00000370: 0d9a b0bf dc55 313e 7130 23bf 27a6 8bbd
00000380: 9b40 7bbe cd3c 883e 0deb 533e 224c ad3e
00000390: a3ef 87be 9e83 ecbe 4418 8abe 974f dd3e
000003a0: 3568 203e 6d4a ae3e 0202 fc3d bc6c 593e
000003b0: b81e c5be 469e fabe c718 3cbf 2c6b 9fbd
000003c0: c276 253e a706 fabd 12fc e03a 6f8e 10bf
000003d0: 6df0 633e ec78 dabe 4612 1fbf 17a8 b03c
000003e0: e6c7 d5bd 6195 ad3e 0cfc bbbd 5a0c cfbe
000003f0: ce79 3f3e 8f9d adbe 3f27 8fbe b8df 54bf

net.0.bias f4 [256]
0.19059138 0.04718109 -0.087730415 0.25885382 0.16745892 -0.31066397 -0.076134 -0.0064457674
0.034926016 0.21955603 -0.055438917 -0.39702404 0.059854534 0.15326935 0.25349903 -0.14120418
0.3134597 0.19094262 0.2556141 -0.08284095 0.27371582 0.03892313 -0.07880273 0.26804686
-0.22827871 0.21745849 0.16146798 -0.00035975417 0.13084407 0.06896083 0.24035081 0.3104923
-0.03475242 0.3248539 0.120887056 -0.096643485 -0.002325358 0.40782622 -0.16172181 -0.30449015
0.22699411 -0.030672088 0.23634459 -0.053715188 0.25328776 0.248799 0.05919895 -0.17668858
0.3284589 0.27836832 -0.03320327 -0.26241478 0.4022784 -0.0018888499 0.10242561 0.107869655
-0.11559028 0.27349997 -0.024685433 0.29457113 0.1332016 -0.022006638 0.31670943 -0.016381335
-0.08742621 0.031761106 0.45702556 0.09804242 0.26674116 0.35125545 0.19829379 0.25083405
0.23084982 0.04448366 0.42732713 0.41830215 0.21119946 0.046341248 0.3848137 -0.40445948
0.23388483 0.27686065 0.29453713 -0.08528224 -0.26911247 0.58705944 -0.14988793 0.1959831
0.16829167 -0.12628017 0.18343182 -0.09315742 0.36575076 -0.18401977 0.32198504 0.37195903
0.2791437 0.4798135 0.29353118 -0.16487972 0.4332943 0.17734154 -0.07148685 -0.17647518
0.10309342 -0.028688872 0.46424422 0.25299272 0.37975973 0.40095374 -0.34212226 -0.031838227
-0.13536426 -0.0612762 0.36319903 0.19448175 0.23937777 0.0607911 -0.24366616 -0.033074275
0.54304427 0.25445533 0.19801475 -0.022893796 -0.25043252 -0.049746986 0.19993761 0.08675094
0.09323288 0.34379247 -0.18530491 0.12918869 -0.09319987 0.087220296 -0.12506048 -0.24731149
0.08859756 0.05088944 -0.16361777 0.45370087 -0.1751259 -0.25363258 -0.029880885 -0.19121301
-0.04689381 -0.025829326 0.31814897 -0.07853263 0.16099392 0.22883105 0.19348375 0.48305634
0.110135034 -0.116253816 -0.35027525 0.05700428 -0.10172221 0.24102893 0.0055867843 0.26013726
0.26304403 -0.0032549847 0.21321523 0.19432844 -0.05722711 0.3705188 -0.21880732 0.12855543
-0.0028282776 0.03698574 0.015091453 0.16522063 0.24755369 0.12349208 0.016501624 0.18283038
-0.0996475 0.033990286 -0.05672659 0.5671869 0.3363235 -0.3172927 0.033800203 0.086621605
0.040431626 -0.16587341 0.18477765 -0.40850648 0.6510074 0.2637541 -0.1320294 -0.13966605
-0.039052665 0.025623618 0.15806828 -0.10994612 0.13701975 -0.3045026 -0.3183864 -0.14213979
0.26339427 -0.007511878 -0.13941336 -0.04791467 -0.010494168 -0.28019914 0.12904735 0.20683546
0.12141973 -0.07602581 0.0011829855 -0.27130312 -0.10315785 0.19221935 0.41036898 -0.017241154
0.30531052 0.09554192 -0.009180844 -0.3237099 0.47086737 0.4525449 -0.11502719 0.21358317
0.42869735 0.20672156 0.21033868 -0.29150388 -0.11876024 -0.17039849 0.20174372 -0.22732417
-0.027405228 -0.071108945 -0.05580419 0.15593237 0.15608005 -0.28051814 0.33423397 -0.020159619
-0.03178007 0.31774232 0.39316985 -0.019251747 -0.06666535 -0.14618737 0.08760449 0.26422477
0.23297797 0.112927176 -0.25924358 -0.1416591 -0.13559264 0.11917704 -0.033473894 -0.2467506
00000000: 632a 433e f540 413d 01ac b3bd 7d88 843e
00000010: 5a7a 2b3e 590f 9fbe 25ec 9bbd 0437 d3bb
00000020: 950e 0f3d 4cd3 603e eb13 63bd bc46 cbbe
00000030: 072a 753d a4f2 1c3e a0ca 813e d497 10be
00000040: ca7d a03e 7686 433e dadf 823e 84a8 a9bd
00000050: 7b24 8c3e dc6d 1f3d 5363 a1bd 703d 893e
00000060: e5c1 69be 70ad 5e3e dd57 253e 639d bcb9
00000070: fdfb 053e 563b 8d3d 861e 763e d9f8 9e3e
00000080: 8e58 0ebd 4053 a63e a293 f73d 05ed c5bd
00000090: 0965 18bb 99ce d03e 679a 25be 22e6 9bbe
000000a0: 2571 683e 0844 fbbc 5104 723e 7504 5cbd
000000b0: efae 813e 2ac5 7e3e 997a 723d daed 34be
000000c0: c42b a83e 4b86 8e3e 2700 08bd 3b5b 86be
000000d0: 6ff7 cd3e 4993 f7ba 85c4 d13d c4ea dc3d
000000e0: 99ba ecbd 3008 8c3e 1b39 cabc 07d2 963e
000000f0: 0066 083e 4447 b4bc bd27 a23e 2632 86bc
00000100: 830c b3bd ef17 023d 41ff e93e 77ca c83d
00000110: 4c92 883e c1d7 b33e 870d 4b3e 526d 803e
00000120: e563 6c3e 8034 363d 9fca da3e b32b d63e
00000130: ac44 583e 52d0 3d3d 4d06 c53e 5015 cfbe
00000140: 817f 6f3e aec0 8d3e 92cd 963e 74a8 aebd
00000150: 1cc9 89be 8749 163f 397c 19be cbaf 483e
00000160: a754 2c3e 974f 01be 8dd5 3b3e 51c9 bebd
00000170: af43 bb3e ae6f 3cbe 39db a43e 6a71 be3e
00000180: eceb 8e3e 1daa f53e b849 963e 3bd6 28be
00000190: c0d8 dd3e 0599 353e b367 92bd e9b5 34be
000001a0: a522 d33d ed04 ebbc 6bb1 ed3e 4388 813e
000001b0: de6f c23e cf49 cd3e a62a afbe cd68 02bd
000001c0: ee9c 0abe c1fc 7abd 39f5 b93e 3926 473e
000001d0: 721f 753e 1700 793d 9f83 79be e478 07bd
000001e0: f304 0b3f f847 823e 61c4 4a3e c58b bbbc
000001f0: b138 80be 7fc3 4bbd 72bc 4c3e 7aaa b13d
00000200: e1f0 be3d 9105 b03e 92c0 3dbe 0a4a 043e
00000210: 93df bebd 8ea0 b23d db0f 00be 393f 7dbe
00000220: a372 b53d 7271 503d 6b8b 27be 7b4b e83e
00000230: 3454 33be 21dc 81be c2c8 f4bc 58cd 43be
00000240: b913 40bd 0698 d3bc 6ce4 a23e b7d5 a0bd
00000250: 97db 243e b052 6a3e 9b20 463e 2953 f73e
00000260: 7a8e e13d 7b16 eebd 4757 b3be 527d 693d
00000270: bc53 d0bd 4ad0 763e 5811 b73b b630 853e
00000280: b5ad 863e 9551 55bb 1855 5a3e 09fe 463e
00000290: f966 6abd a4b4 bd3e 070f 60be 09a4 033e
000002a0: a05a 39bb 5c7e 173d 2442 773c 992f 293e
000002b0: b77e 7d3e 6ae9 fc3d 6a2e 873c e337 3b3e
000002c0: fd13 ccbd 6639 0b3d 245a 68bd 2933 113f
000002d0: 9832 ac3e 3074 a2be 1572 0a3d ab66 b13d
000002e0: a29b 253d b8da 29be 5a36 3d3e c327 d1be
000002f0: 6ca8 263f c70a 873e b732 07be 9e04 0fbe
00000300: b0f5 1fbd 9fe8 d13c a7dc 213e 6e2b e1bd
00000310: e84e 0c3e c4e7 9bbe 8b03 a3be 188d 11be
00000320: 9ddb 863e 3326 f6bb 60c2 0ebe 2c42 44bd
00000330: bbef 2bbc 4376 8fbe fd24 043e adcc 533e
00000340: e8aa f83d 6bb3 9bbd 680e 9b3a 3ee8 8abe
00000350: 6c44 d3bd 26d5 443e e21b d23e 523d 8dbc
00000360: a951 9c3e 7bab c33d 406b 16bc 4ebd a5be
00000370: 8715 f13e f7b3 e73e 6093 ebbd 8cb5 5a3e
00000380: 387e db3e d1ae 533e 0663 573e ff3f 95be
00000390: 9238 f3bd f17c 2ebe e895 4e3e abc7 68be
000003a0: ee80 e0bc 91a1 91bd ef92 64bd bcac 1f3e
000003b0: 73d3 1f3e 13a0 8fbe b720 ab3e c925 a5bc
000003c0: d22b 02bd 1faf a23e 8f4d c93e d7b5 9dbc
000003d0: d887 88bd 24b2 15be fc69 b33d 7848 873e
000003e0: c791 6e3e 5d46 e73d 93bb 84be 150f 11be
000003f0: ccd8 0abe 1813 f43d ec1b 09bd 30ac 7cbe

net.2.weight f4 [256, 256]
0.11660739 0.06858009 0.16281836 -0.0016541438 -0.034463927 0.50558215 0.108446464 -0.18566245
0.11264723 -0.0015810742 0.13125138 -0.047187988 -0.1250104 0.09003602 0.18822236 0.34606925
-0.085912734 0.05306931 0.049537737 0.501931 0.033335015 -0.077195466 -0.1537361 0.00033747745
-0.07099835 0.09703751 0.13175765 -0.96280396 0.027324257 0.023311133 0.115435936 -0.013942774
0.15171784 0.00435716 -0.055629443 0.27915692 0.11731036 -0.029805873 0.052313462 -0.13752829
0.11051442 0.164543 0.005162752 0.13572091 0.07571182 -0.014198352 0.023053182 -0.22966266
0.027439862 0.03671766 0.26647282 0.19441983 0.042061344 0.00044641033 0.1840239 0.10784782
0.20241994 -0.12001772 0.14246476 0.15267862 0.2002162 0.13144219 0.052472416 0.101787224
0.1201584 0.17080386 -0.0057458435 -0.0823766 -0.059626494 -0.03687316 0.0032648372 -0.054566324
-0.016137196 0.11840646 0.024437422 -0.01439612 -0.075385824 -0.38638425 -0.014367647 0.238753
0.09220635 -0.02019169 0.1600941 0.14623302 -0.40903232 -0.12372857 0.08930657 0.004092152
0.06987778 0.2401858 0.012943577 -0.07945121 -0.0025528918 0.24750036 -0.10442668 -0.11903601
-0.0013860257 -0.038753897 0.052239466 0.4192577 0.16921368 0.05139202 0.008125767 0.21802355
0.07175519 0.37675437 -0.051029336 0.08154465 0.09249218 -0.061450623 0.08654119 0.002744587
0.1314831 -0.04545807 -0.07390447 0.12816629 -0.2551507 0.055517986 -0.22901222 -0.045039654
0.005747926 0.13078061 0.08570685 0.15067357 0.6554156 0.11155991 -0.028128298 0.06978061
-0.1520613 -0.23771553 0.28267983 0.14440796 0.10099001 0.13141973 0.13192672 0.084484436
0.092101425 0.097114235 -0.5137872 -0.09307678 0.102028266 -0.25928435 -0.02048435 0.21282895
0.16217548 -0.65086085 -0.0014346155 -0.15117277 0.055203315 0.16292937 -0.18004371 -0.08432788
-0.13062169 0.37593284 -0.0883406 0.02949439 -0.024345903 -0.07921239 0.22152008 0.15889262
-0.07022995 -0.32870415 -0.14694224 -0.035741903 0.2476059 0.0021563794 0.030736294 -0.21569034
0.02658225 -0.049883597 -0.0914301 0.06813192 0.07591 0.14875105 0.1835292 0.049643878
0.32907882 -0.01279146 0.21415861 -0.036495868 0.033390194 0.18442507 -0.24631138 0.050982207
0.14835244 0.008035654 0.008970101 0.03257659 -0.053622983 0.052633874 -0.74593955 0.048908394
0.07291853 0.07413302 0.09840797 -0.012048474 0.20933792 0.4096775 -0.003153308 0.28861344
-0.05125272 0.011135859 0.13636553 0.31910524 0.0044952007 0.38766497 0.086923264 0.14841065
0.026697379 0.26841274 -0.48986727 0.086840756 0.021554489 -0.040593985 0.04618739 -0.12601812
0.0002978892 0.0663659 -0.2832154 0.122454435 0.0582806 0.069176555 0.27800757 0.010141954
0.09591008 0.15568168 -0.08218554 0.03615413 0.2580986 0.29327542 0.021810949 0.21213019
-0.118397795 0.015605551 -0.36717114 -0.32980835 0.14320648 0.46797648 -0.04782565 0.017747624
0.07458912 -0.027724622 -0.08807846 0.040396474 0.042904235 0.28328553 0.1243822 -0.040351674
0.011594573 0.09739756 0.56916994 0.25844344 0.12033751 0.09790005 0.18407328 0.15397222
00000000: dbcf ee3d b873 8c3d dbb9 263e dbcf d8ba
00000010: 0c2a 0dbd d56d 013f 2e19 de3d 4c1e 3ebe
00000020: 97b3 e63d 0c3c cfba c366 063e 3148 41bd
00000030: ba02 00be ce64 b83d 5dbd 403e fd2f b13e
00000040: 04f3 afbd 345f 593d 15e8 4a3d 8d7e 003f
00000050: 4c8a 083d a818 9ebd ff6c 1dbe 75ef b039
00000060: 9567 91bd 9abb c63d 7aeb 063e 527a 76bf
00000070: 1fd7 df3c fdf6 be3c ad69 ec3d 3c70 64bc
00000080: ec5b 1b3e 82c6 8e3b b3db 63bd a8ed 8e3e
00000090: 6a40 f03d 722b f4bc a446 563d 37d4 0cbe
000000a0: 6255 e23d f67d 283e 4d2c a93b 6cfa 0a3e
000000b0: cc0e 9b3d 34a0 68bc 07da bc3c b02c 6bbe
000000c0: 90c9 e03c 4265 163d 206f 883e fe15 473e
000000d0: 8448 2c3d 2e0c ea39 c370 3c3e 51df dc3d
000000e0: 2c47 4f3e dacb f5bd 48e2 113e c957 1c3e
000000f0: 7a05 4d3e c898 063e 51ed 563d d275 d03d
00000100: 9b15 f63d 35e7 2e3e a147 bcbb 10b5 a8bd
00000110: e93a 74bd 5008 17bd e1f6 553b f080 5fbd
00000120: 2732 84bc 167f f23d fd30 c83c b4dd 6bbc
00000130: e263 9abd 28d4 c5be 4766 6bbc ab7b 743e
00000140: afd6 bc3d 0b69 a5bc b5ef 233e 1cbe 153e
00000150: af6c d1be 6865 fdbd 5de6 b63d 7617 863b
00000160: 151c 8f3d 44f3 753e 4c11 543c 51b7 a2bd
00000170: 6b4e 27bb bc70 7d3e a8dd d5bd 27c9 f3bd
00000180: 4eab b5ba 68bc 1ebd 0df9 553d f2a8 d63e
00000190: 5a46 2d3e 7080 523d f021 053c 9141 5f3e
000001a0: 63f4 923d f3e5 c03e 2304 51bd e200 a73d
000001b0: 8a6c bd3d a6b3 7bbd 823c b13d 87de 333b
000001c0: 81a3 063e 3e32 3abd 3a5b 97bd 063e 033e
000001d0: 1da3 82be d466 633d 2e82 6abe 807b 38bd
000001e0: 1959 bc3b 5aeb 053e 1387 af3d 2c4a 1a3e
000001f0: 51c9 273f 8679 e43d 516d e6bc 23e9 8e3d
00000200: f5b5 1bbe b36b 73be 69bb 903e aedf 133e
00000210: dad3 ce3d e592 063e cc17 073e 2d06 ad3d
00000220: ac9f bc3d d4e3 c63d 8f87 03bf 0a9f bebd
00000230: 32f4 d03d ebc0 84be ccce a7bc d5ef 593e
00000240: 5411 263e d19e 26bf b509 bcba 09cd 1abe
00000250: df1c 623d f5d6 263e 615d 38be 18b4 acbd
00000260: b1c1 05be 457a c03e ebeb b4bd 389e f13c
00000270: 0f71 c7bc 1b3a a2bd 29d6 623e bfb4 223e
00000280: b8d4 8fbd e94b a8be 0778 16be 1a66 12bd
00000290: 678c 7d3e 0b52 0d3b aeca fb3c eedd 5cbe
000002a0: 05c3 d93c be52 4cbd b43f bbbd c088 8b3d
000002b0: b476 9b3d 3252 183e 14ef 3b3e 6157 4b3d
000002c0: 057d a83e 4693 51bc 654c 5b3e b17c 15bd
000002d0: 28c4 083d edd9 3c3e 0d39 7cbe b8d2 503d
000002e0: b4e9 173e faa7 033c 55f7 123c 086f 053d
000002f0: c6a3 5bbd 9e96 573d e5f5 3ebf 2b54 483d
00000300: 4f56 953d 0ed3 973d 1e8a c93d f666 45bc
00000310: ae5c 563e 40c1 d13e bba7 4ebb 24c5 933e
00000320: 5fee 51bd 2e73 363c 68a3 0b3e c361 a33e
00000330: 7a4c 933b 067c c63e d304 b23d f6f8 173e
00000340: 76b4 da3c 656d 893e e2cf fabe 91d9 b13d
00000350: 0a93 b03c e145 26bd fd2e 3d3d e50a 01be
00000360: 032e 9c39 d8ea 873d 9c01 91be 64c9 fa3d
00000370: a3b7 6e3d 70ac 8d3d 0257 8e3e 702a 263c
00000380: 816c c43d 056b 1f3e e450 a8bd 5a16 143d
00000390: 8025 843e 3228 963e e0ac b23c a838 593e
000003a0: 8b7a f2bd 6dae 7f3c dbfd bbbe a4dc a8be
000003b0: b8a4 123e 9d9a ef3e d4e4 43bd 7763 913c
000003c0: 2ec2 983d bf1e e3bc 7b62 b4bd c676 253d
000003d0: 5abc 2f3d cd0a 913e 18bc fe3d cc47 25bd
000003e0: 2af7 3d3c 5f78 c73d 1fb5 113f b352 843e
000003f0: 8373 f63d d27f c83d b57d 3c3e e5aa 1d3e

net.2.bias f4 [256]
-0.049388085 0.044481274 0.037293043 -0.06808548 0.014178061 0.1863862 0.043275375 0.16697745
0.036266003 0.0916457 0.027012978 -0.019738512 0.008368057 0.03259808 0.030580658 -0.011250378
-0.020126335 -0.06567987 0.042448975 0.086946875 -0.020976836 0.04252173 0.010729384 0.12245773
-0.04071786 0.07738279 -0.006152679 -0.0026818877 0.01074836 0.021687899 -0.04520409 -0.015036441
0.03914333 -0.0017860411 0.061598033 0.08866222 -0.038151376 0.14907053 0.040126808 -0.04214211
0.08069228 0.10049651 0.09520205 0.11806922 0.1281988 0.06943059 0.045186866 -0.002831357
-0.018504562 -0.039575707 0.057401195 -0.041644204 0.026580008 0.004609757 -0.056711312 0.04041395
0.09693868 0.040418908 -0.07452817 -0.048747074 0.04707567 -0.03484463 0.11267247 0.03354149
-0.019281983 0.17375688 0.16276659 -0.02382121 -0.017135581 0.06285204 0.15728745 0.15894835
-0.022083025 -0.046374388 0.06296569 -0.027369445 -0.061129 0.033318724 -0.0035159856 0.024733305
0.0623924 0.012091548 -0.021657642 0.13156876 -0.00640604 0.13539228 0.08181671 0.020964619
-0.064483345 -0.017989904 0.15038821 0.003070545 0.16278364 0.07513621 0.03517913 -0.032936454
-0.062140755 0.046574418 0.11644093 -0.022007996 0.04893086 -0.044521004 -0.02380069 0.20506994
0.19638576 0.0013746227 0.20719582 -0.031198872 0.02191665 -0.00953732 -0.008695327 0.061274745
0.06442447 0.026515009 0.03751286 0.053550273 -0.05376654 0.16568023 -0.0007182338 -0.0025877042
-0.009455581 -0.027205482 -0.053338185 0.1796213 0.11738256 0.042816825 0.031592306 0.044895373
0.0066915555 0.032348182 0.17085701 0.032060545 -0.021142285 0.095460914 -0.1393106 0.21777566
-0.006900073 -0.019059854 0.13937117 -0.062179364 -0.0018098011 0.029982334 0.17281657 -0.012778399
-0.027993675 0.017677058 0.040533073 -0.018425427 -0.022939336 -0.029112421 0.00036455182 -0.05691626
-0.053665277 0.13442937 0.045890417 0.0558525 0.053631306 0.11969965 0.18321574 0.14003976
0.121886015 0.042286985 -0.013275476 0.036453344 -0.01015325 0.02990881 0.004147888 0.10028858
-0.030177189 -0.048612382 -0.024253428 0.0093545625 0.05542723 0.13959049 0.035313103 0.13672347
-0.012091326 0.028201938 0.025075978 0.07433609 0.030340817 0.01372853 -0.06718076 0.07696755
0.055358805 0.034956172 -0.092880376 -0.03323834 -0.0013761048 -0.014891444 0.01093641 0.0006778178
-0.02848993 -0.051179055 0.05287456 0.20489728 -0.154231 -0.026977703 0.12736674 -0.04529146
0.17951305 -0.016249826 0.009482453 -0.11018084 0.07812767 0.081937015 -0.07191549 0.1785375
-0.025623243 -0.04314074 -0.02092012 -0.014120004 -0.002684187 0.18342032 -0.044037845 0.005990168
0.08195756 0.0317006 -0.07353905 0.030296048 0.0065653273 -0.06573403 -0.057035554 0.11479058
0.1612901 0.06587166 -0.009690878 -0.031619668 0.10542868 -0.028937364 -0.055028196 0.029661043
0.0133319525 -0.003735326 -0.060288288 0.026754763 -0.05564097 -0.033823673 0.20208038 0.08333185
0.0074513787 -0.018157462 0.16125582 0.023091326 0.0035351529 0.22870962 -0.040706735 -0.014227733
0.051701587 -0.039558657 0.018523386 0.024815766 0.009459279 -0.058231216 0.10413177 0.1241318
00000000: 294b 4abd ff31 363d 97c0 183d 6670 8bbd
00000010: 194b 683c 06dc 3e3e 8541 313d 23fc 2a3e
00000020: a98b 143d beb0 bb3d 524a dd3c a9b2 a1bc
00000030: 2d1a 093c 9085 053d 4a84 fa3c 8153 38bc
00000040: fcdf a4bc 2b83 86bd fade 2d3d 3411 b23d
00000050: 9dd7 abbc 442b 2e3d 4cca 2f3c 1ecb fa3d
00000060: c5c7 26bd de7a 9e3d 6a9c c9bb 9cc2 2fbb
00000070: e419 303c d2aa b13c ed27 39bd 685b 76bc
00000080: c254 203d 9819 eaba 384e 7c3d 8a94 b53d
00000090: 9e44 1cbd f2a5 183e 025c 243d 359d 2cbd
000000a0: fe41 a53d 1dd1 cd3d 4bf9 c23d 46ce f13d
000000b0: 8c46 033e a031 8e3d dd15 393d 4a8e 39bb
000000c0: e196 97bc 231a 22bd 841d 6b3d 1d93 2abd
000000d0: 51be d93c 720d 973b 1f4a 68bd 1989 253d
000000e0: c987 c63d 4c8e 253d 3aa2 98bd 03ab 47bd
000000f0: 6bd2 403d 3eb9 0ebd d3c0 e63d cd62 093d
00000100: 40f5 9dbc 53ed 313e 49ac 263e b324 c3bc
00000110: eb5f 8cbc 92b8 803d f60f 213e 5bc3 223e
00000120: 76e7 b4bc 12f3 3dbd 28f4 803d e335 e0bc
00000130: 6762 7abd 3779 083d 736c 66bb 809d ca3c
00000140: 2c8f 7f3d a11b 463c 5e6b b1bc f6b9 063e
00000150: c2e9 d1bb 46a4 0a3e 858f a73d febd ab3c
00000160: d80f 84bd 905f 93bc 5eff 193e 323b 493b
00000170: c1b0 263e 03e1 993d fe17 103d 60e8 06bd
00000180: 4e87 7ebd d1c4 3e3d 9578 ee3d 1d4a b4bc
00000190: ba6b 483d a85b 36bd aaf9 c2bc dbfd 513e
000001a0: 5919 493e af2c b43a 242b 543e c794 ffbc
000001b0: 8c8a b33c 6b42 1cbc d876 0ebc 3afb 7a3d
000001c0: faf0 833d 0136 d93c 16a7 193d 8857 5b3d
000001d0: 4e3a 5cbd 14a8 293e db47 3cba 7996 29bb
000001e0: 95eb 1abc 08de debc 2479 5abd a5ee 373e
000001f0: 4566 f03d b260 2f3d ef66 013d 36e4 373d
00000200: d644 db3b 877f 043d 24f5 2e3e eb51 033d
00000210: 9632 adbc 0381 c33d 70a7 0ebe 9500 5f3e
00000220: 021a e2bb 6923 9cbc 51b7 0e3e caaf 7ebd
00000230: d936 edba 839d f53c d4f6 303e 7d5c 51bc
00000240: fe52 e5bc 7acf 903c 0206 263d ecf0 96bc
00000250: 46eb bbbc 2c7d eebc 5121 bf39 0621 69bd
00000260: 1fd0 5bbd daa7 093e 97f7 3b3d 97c5 643d
00000270: 80ac 5b3d 1725 f53d e89c 3b3e 9566 0f3e
00000280: 609f f93d 1e35 2d3d 6281 59bc 1a50 153d
00000290: d159 26bc 5203 f53c 02eb 873b 1964 cd3d
000002a0: 2736 f7bc c71d 47bd 20af c6bc e143 193c
000002b0: aa07 633d cff0 0e3e 79a4 103d 3d01 0c3e
000002c0: b21a 46bc c007 e73c 236c cd3c 853d 983d
000002d0: 4e8d f83c a1ed 603c 1196 89bd 2aa1 9d3d
000002e0: eabf 623d 342e 0f3d 1138 bebd ed24 08bd
000002f0: 6a5e b4ba 3efb 73bc a12e 333c 95af 313a
00000300: b763 e9bc 21a1 51bd ff92 583d 98d0 513e
00000310: bbee 1dbe 5800 ddbc 6d6c 023e 8a83 39bd
00000320: 45d2 373e 5b1e 85bc 4a5c 1b3c 7ea6 e1bd
00000330: 6601 a03d 98ce a73d 6e48 93bd 89d2 363e
00000340: d6e7 d1bc 58b4 30bd ac60 abbc 9757 67bc
00000350: 2fe9 2fbb 89d2 3b3e 0761 34bd 2c49 c43b
00000360: 5dd9 a73d 7dd8 013d a49b 96bd 6b2f f83c
00000370: f521 d73b 909f 86bd 1d9e 69bd 5317 eb3d
00000380: 3b29 253e b9e7 863d 7dc6 1ebc a083 01bd
00000390: feea d73d 0d0e edbc 3f65 61bd b7fb f23c
000003a0: 436e 5a3c 5fcc 74bb daf0 76bd ce2c db3c
000003b0: c9e7 63bd b18a 0abd 29ee 4e3e e4a9 aa3d
000003c0: b22a f43b f5be 94bc 3f20 253e 052a bd3c
000003d0: 06ae 673b db32 6a3e 1bbc 26bd 701b 69bc
000003e0: 0bc5 533d 4208 22bd 5bbe 973c 6f4a cb3c
000003f0: 17fb 1a3c db83 6ebd 0a43 d53d d038 fe3d

net.4.weight f4 [4, 256]
-0.16019724 -0.21148443 -0.39377624 -0.24014604 -0.26990753 0.2519116 0.6078196 0.16065839
-0.011355697 0.50693554 -0.29480788 -0.33545363 0.35602129 -0.30577692 -0.3141542 0.581334
-0.38195452 -0.27772954 -0.23984592 0.37776226 -0.09488599 0.46584994 -0.29406965 0.50666654
-0.4290461 -0.18692915 -0.2767727 -0.27615058 -0.20201752 -0.52365977 -0.2109851 -0.2724813
-0.26095375 0.47599694 -0.44857967 0.099363916 -0.21102893 0.25747582 -0.17252696 -0.36966234
0.4933473 0.067863256 0.27261257 0.16137587 0.19507678 0.4196254 0.451548 -0.18072328
0.39577985 -0.32975936 1.1736828 -0.17142387 0.38715944 0.34789887 -0.28235582 -0.12943773
-0.11507371 -0.41248956 -0.32897463 0.058214307 0.024816368 -0.27389243 -0.1918794 -0.38007316
0.025952522 0.243406 0.22631839 -0.34893945 -0.30290127 0.62666166 0.24482827 0.28416494
-0.31811732 -0.30007187 -0.10096561 -0.16875727 -0.2451979 0.04593782 -0.2654873 0.19603533
-0.23357254 0.35911703 -0.23537886 0.3186767 -0.2949427 0.23836893 0.5540848 -0.28067148
-0.32035983 -0.28224564 0.19094947 -0.008814937 0.15139157 0.37054625 -0.37922627 -0.22745493
-0.24924694 -0.21222822 0.44688162 -0.32728845 -0.33074576 0.051590778 -0.23017576 0.2278936
0.1533117 -0.21308973 0.2543932 -0.25679004 -0.39703667 -0.29976556 -0.36564797 -0.22335127
0.40914303 -0.27884683 0.47861192 0.40777034 0.435328 0.2983565 -0.28058854 -0.24422447
-0.26508147 -0.26855645 -0.17331108 0.1617804 0.36685503 -0.21653207 -0.3158584 0.63430285
-0.19941427 -0.27338132 0.1694033 0.4678408 0.6175344 -0.25954035 -0.41094646 0.2754347
-0.3172858 -0.30038935 0.26397347 0.39313897 -0.19717154 -0.38616458 0.21446134 0.33539292
-0.3326101 -0.25408295 -0.21288785 -0.31042576 0.037007865 0.4698532 -0.27363512 -0.028225847
-0.25735503 0.16438691 0.25795862 0.3809451 -0.25186017 0.33722848 0.20965604 0.21530795
0.118263446 -0.2536555 0.09159321 -0.28643975 -0.31809458 -0.28851697 0.12034931 0.46718073
0.03633381 0.4623083 0.35386297 -0.19318426 -0.15329124 0.31521004 -0.22367227 0.26688537
-0.35287616 -0.28662786 -0.34188834 0.21303023 -0.3520693 -0.26278698 -0.37113398 0.19566746
0.38598105 -0.15649179 0.20404965 -0.12256709 -0.27045384 -0.36069852 -0.182156 -0.30951872
-0.18813094 -0.3311977 -0.35038176 0.22743085 -0.39921913 -0.25558943 0.32941926 -0.16573273
0.22314253 -0.25372902 0.41927084 -0.3562674 0.3496481 0.28983244 -0.342126 0.25944003
0.052148286 -0.30895016 -0.023732677 -0.21241967 -0.22695114 0.1770215 0.11361538 -0.2780614
-0.168364 0.5949946 -0.27673814 -0.20950659 -0.32501897 -0.19496976 0.6750188 0.09981076
0.18471313 0.44817808 -0.36460125 -0.2900202 0.3106395 -0.2971103 -0.28009182 -0.28544226
-0.20493919 -0.29607335 -0.28240317 -0.37845325 -0.31795287 -0.3572191 0.25609636 -0.27309766
0.4411778 -0.3133622 0.29936847 -0.35322896 -0.35022432 0.26987734 0.25091362 -0.32137257
-0.3394909 -0.20512752 0.21143617 -0.19733675 -0.17967518 -0.21694994 -0.107142396 0.52146405
00000000: bf0a 24be 608f 58be 0a9d c9be d8e8 75be
00000010: 5231 8abe 8ffa 803e 119a 1b3f a283 243e
00000020: 3f0d 3abc 87c6 013f 0ff1 96be 94c0 abbe
00000030: 6c48 b63e cb8e 9cbe d2d8 a0be 4ed2 143f
00000040: 8b8f c3be 9132 8ebe 2b9a 75be 0e6a c13e
00000050: 9653 c2bd e283 ee3e 4c90 96be e6b4 013f
00000060: eeab dbbe 5b6a 3fbe 27b5 8dbe 9c63 8dbe
00000070: aedd 4ebe 910e 06bf 7a0c 58be ab82 8bbe
00000080: bb9b 85be dfb5 f33e 3cac e5be 4f7f cb3d
00000090: f817 58be dfd3 833e e8aa 30be 6244 bdbe
000000a0: 0498 fc3e e4fb 8a3d e093 8b3e b73f 253e
000000b0: 35c2 473e 24d9 d63e 4d31 e73e 860f 39be
000000c0: a8a3 ca3e 38d6 a8be 3d3b 963f bd89 2fbe
000000d0: c339 c63e cd1f b23e f190 90be 538b 04be
000000e0: c4ab ebbd d531 d3be 5d6f a8be 2072 6e3d
000000f0: b24b cb3c a13b 8cbe 097c 44be f398 c2be
00000100: 629a d43c 6c3f 793e 02c0 673e 31a8 b2be
00000110: e015 9bbe e66c 203f 43b4 7a3e 117e 913e
00000120: 46e0 a2be 05a3 99be 0fc7 cebd b5ce 2cbe
00000130: 2915 7bbe 4c29 3c3d f4ed 87be 7cbd 483e
00000140: a42d 6fbe 30de b73e 2807 71be 9829 a33e
00000150: bb02 97be fc16 743e 80d8 0d3f 2cb4 8fbe
00000160: 3406 a4be 8082 90be 4288 433e 876c 10bc
00000170: 6406 1b3e 3db8 bd3e f229 c2be f2e9 68be
00000180: 973a 7fbe 5b52 59be abcd e43e 5a92 a7be
00000190: 8257 a9be da50 533d 32b3 6bbe f15c 693e
000001a0: befd 1c3e 3234 5abe d33f 823e fc79 83be
000001b0: 6448 cbbe df7a 99be 3636 bbbe 32b6 64be
000001c0: 327b d13e 03c5 8ebe 9f0c f53e 46c7 d03e
000001d0: 50e3 de3e 2fc2 983e 4da9 8fbe fb15 7abe
000001e0: c2b8 87be 3b80 89be 7678 31be c3a9 253e
000001f0: 6cd4 bb3e 95ba 5dbe 31b8 a1be ac61 223f
00000200: 4133 4cbe a3f8 8bbe 0f78 2d3e d488 ef3e
00000210: bc16 1e3f 79e2 84be 9367 d2be c705 8d3e
00000220: 4973 a2be a2cc 99be 8827 873e 8349 c93e
00000230: 56e7 49be 5db7 c5be c19b 5b3e 9fb8 ab3e
00000240: df4b aabe 2917 82be 46ff 59be 20f0 9ebe
00000250: 8f95 173d 9990 f03e e719 8cbe e439 e7bc
00000260: 0ac4 83be 0b55 283e 2713 843e 3c0b c33e
00000270: d1f3 80be 36a9 ac3e 13b0 563e b079 5c3e
00000280: 1b34 f23d 22df 81be 3995 bb3d 3ba8 92be
00000290: 4bdd a2be 7fb8 93be b379 f63d 5032 ef3e
000002a0: c3d2 143d acb3 ec3e 872d b53e 18d2 45be
000002b0: 61f8 1cbe 3663 a13e 580a 65be 33a5 883e
000002c0: 2fac b4be e3c0 92be fd0b afbe 9924 5a3e
000002d0: 6d42 b4be 048c 86be 4605 bebe 0d5d 483e
000002e0: 4f9f c53e 623f 20be 64f2 503e 7404 fbbd
000002f0: ed78 8abe 7aad b8be 1a87 3abe 3d79 9ebe
00000300: 66a5 40be bf92 a9be 3d65 b3be a2e3 683e
00000310: 7366 ccbe 9edc 82be a4a9 a83e d7b5 29be
00000320: 7a7f 643e c5e8 81be abaa d63e ae68 b6be
00000330: 1305 b33e eb64 943e 242b afbe 53d5 843e
00000340: 7199 553d b72e 9ebe 086b c2bc 8b84 59be
00000350: e165 68be 2045 353e 2eaf e83d 105e 8ebe
00000360: 9d67 2cbe 9151 183f 9fb0 8dbe e588 56be
00000370: e368 a6be 27a6 47be 08ce 2c3f 9569 cc3d
00000380: 7025 3d3e 9977 e53e 04ad babe 877d 94be
00000390: 240c 9f3e d71e 98be 3268 8fbe 7d25 92be
000003a0: 94db 51be ed96 97be 2697 90be a0c4 c1be
000003b0: b8ca a2be 6ce5 b6be 101f 833e 75d3 8bbe
000003c0: 0ee2 e13e 0371 a0be d346 993e 6dda b4be
000003d0: 9a50 b3be 5d2d 8a3e c077 803e f28a a4be
000003e0: c0d1 adbe f30c 52be b982 583e a512 4abe
000003f0: c5fc 37be 2028 5ebe 796d dbbd ab7e 053f

net.4.bias f4 [4]
0.021263717 0.039865486 0.045085743 0.017813867
00000000: 3f31 ae3c fe49 233d d4ab 383d 63ee 913c
