drafts/draft_rk/runs_lunarlander/dqn_trial06_seed42.pth (torch, 279705 bytes, 6 tensors)

net.0.weight f4 [256, 8]
00000000: b322 d93d 406a 803e 0b8f 5cbd 2405 843f
00000010: 08c9 0ebe 8f14 3dbd 98e0 71bd 5676 1d3e
00000020: eb65 5c3f c51e 69be ee63 203f 8980 ec3d
00000030: 6f6a f63e 998b 3a3d d857 df3d 7ebf cb3c
00000040: c99f ef3e 771f 853d 1411 d3bd 095f 063e
00000050: 5a97 803e ee66 a6bd 15eb 29be 7259 f23e
00000060: 3ae3 e2be 340a 81be 0815 85be 9bf1 b5be
00000070: f5a0 b73e 7202 aabe 8b23 c43e 082c d7be
00000080: 18fd 973e a460 0a3e 3ab6 073e ad0e ce3e
00000090: 323c e5be 0f86 a23e 6c8d 893e 5d8b f3bd
000000a0: 6a2b 133e 4f54 2abd 0737 113f af1f b53e
000000b0: 32e7 f1bc 64e2 2ebe 169a be3e ee0b 42be
000000c0: 42f1 063d 2b7c c1be 2ea8 49bd 527c f5be
000000d0: 0ef1 213d beab 223f aa7e 1c3d c97b 6f3e
000000e0: 7949 f23b 0b92 4fbc 074a b53e 06f2 f6be
000000f0: b31a f4bd 43d1 3dbf 56bf 823b 2737 07bf
00000100: ec21 9fbc a7ee 83be d84c f9bc 99e9 d8bd
00000110: c3c1 08bf 591c 16bf 2837 c23e 24e8 b63e
00000120: d334 0d3f b635 abbe f4ae a1be f301 03bf
00000130: 1958 b2be e218 553e e1bd 4a3e c836 b43e
00000140: 5c74 d8bc 5ce3 47bd 10fb 7b3e f4f9 07bf
00000150: 9fa2 acbd 22b3 e43c 5fa0 5a3e 1957 06bf
00000160: 4aa3 d53b cfe1 b43d 3b2f fd3e d91d d23e
00000170: 553d eebd 10ab 373f b738 e8be 5711 1cbf
00000180: 4190 ce3e 8419 d5bd 7b47 e2bd 23f7 08bf
00000190: 0d35 cbbe 8800 5c3d 6322 d3be 02c6 27bf
000001a0: 53a2 05bd 5c1a 46be e417 d6be af53 d3be
000001b0: 5453 21be 2a32 afbe 6b74 bf3e 44b1 d53d
000001c0: 4e6a 0d3c 44c3 8bbe 86b1 c0bd b7ef 31bf
000001d0: 6a8e e8bc be5a d5bd 822c 93be 513e b0be
000001e0: bbfc 95bc de0b 93be 3431 5f3d 6801 ddbe
000001f0: 0881 f4bd cf42 1abf 43f4 54bf 5a3f f03d
00000200: daa0 ab3e a8dc a33d 24e3 1e3e f435 903e
00000210: ef5e 89bf cb0d 353e 2d1b 063d b43d e4bc
00000220: 4d99 27bf 42ad b8be 264b f8bd 51bb a7be
00000230: 8d16 e03d 2f4f 7ebe ba00 c03e a377 2ebe
00000240: 2373 c5bd 648b c2bd 06e3 c13c 2b99 e53f
00000250: 2c45 4e3f a842 bcbe 3bd8 0d3e 3937 9c3d
00000260: 5498 323e 15ad 1abe fb07 a73e c5c1 31bf
00000270: 92db 8f3e ff1c 103d b625 a5bd fd4a e3bd
00000280: a7c6 ea3e 035f 1f3e 7f56 513e 5560 03bf
00000290: 3dc8 843e 73b1 49be 7f86 b9bd 6779 a23e
000002a0: 86a9 df3d d037 63be dbc6 1d3d 8eda 6ebe
000002b0: 4c05 9f3e c594 8f3e 01b7 2a3e bc8d 2bbf
000002c0: fbe3 d8be 3171 a53e 2a6a d53e 8d7f dabe
000002d0: 396c d63d ac4a 4a3e af8a b9be fc5f 58be
000002e0: 7b87 673e 0c4f 833e 7ce3 493e 5206 57be
000002f0: bb52 05be 0b8d 8fbe b60e ab3c 475b fbbd
00000300: 3418 e53e 6fe5 023f 5030 4dbe 59f8 763d
00000310: 6d60 a83c 2993 e7be 6a6d 72bc 093a 743e
00000320: 1cd6 b9be 8a41 01be 7d74 a73d 5283 4a3e
00000330: b53a debd caee d2be 2bad 32bf beb0 debe
00000340: ad37 243c c957 763e 7052 c63d edae 8f3e
00000350: a1a4 e2be 23e9 f0be 8674 7bbe e9c0 153f
00000360: 7ea1 83bc eef9 0c3c a32a 343c d874 dfbc
00000370: 6054 90bf 0bbd d43d bfc1 f9be d4c6 973c
00000380: 1526 b0bd 413f 993e 4401 2d3e efc0 a83e
00000390: 4516 9fbe d190 2fbf 728b d1be 29e5 0a3f
000003a0: dba3 8f3d 90c4 be3e e6ba 383e b682 833e
000003b0: c47d bbbe 3492 01bf cfea 3bbf 17de e1be
000003c0: d57b f83d 955e c6bd 48d2 1dbd 3f7b 15bf
000003d0: a4cf 9d3e 1d86 efbe bf87 51bf b7fd 69bc
000003e0: ce52 aabd 0476 b83e 3793 d8bd 0874 d2be
000003f0: dc2a d03d ca56 d1be b525 26bf 4160 46bf
0.106023215 0.25081062 -0.053847354 1.0314069 -0.13943875 -0.046162184 -0.05905208 0.15377173
0.86093014 -0.22765644 0.6265248 0.11547954 0.48128077 0.045543287 0.10905427 0.024871584
0.46801594 0.06500142 -0.10305992 0.1312219 0.25115472 -0.08125101 -0.16593583 0.47333866
-0.44313985 -0.25203097 -0.25992608 -0.35535893 0.35864988 -0.3320499 0.38308367 -0.4202578
0.29685283 0.13513428 0.13253108 0.40245572 -0.44772488 0.31742904 0.2686571 -0.11891816
0.1437203 -0.04158431 0.5672459 0.35375735 -0.029529188 -0.17078549 0.37226933 -0.18949863
0.032944925 -0.37790045 -0.049232654 -0.4794641 0.03953653 0.6354331 0.038206734 0.23387064
0.0073940125 -0.012669097 0.3540804 -0.48231524 -0.11919155 -0.74147433 0.003990094 -0.5281853
-0.019425355 -0.25768015 -0.03043215 -0.1059143 -0.53420657 -0.58637005 0.37932706 0.35723984
0.5515873 -0.33439416 -0.3157879 -0.5117485 -0.34832838 0.20810273 0.19798996 0.35198045
-0.026422672 -0.04880081 0.24607491 -0.53115773 -0.08429455 0.027917448 0.21350239 -0.5247665
0.0065197097 0.08832132 0.49450096 0.41038397 -0.11632792 0.71745396 -0.4535577 -0.6096396
0.40344432 -0.10405257 -0.1104879 -0.535021 -0.39688912 0.053711444 -0.41237172 -0.6553651
-0.032625508 -0.19345993 -0.41815102 -0.41274783 -0.15754443 -0.3421796 0.37393507 0.10434201
0.008631302 -0.27297413 -0.0940886 -0.695064 -0.02838822 -0.10417698 -0.28744894 -0.34422544
-0.018308988 -0.2871999 0.054490283 -0.43165135 -0.11938673 -0.6025819 -0.83185214 0.11730833
0.33521158 0.08001071 0.15516335 0.28166163 -1.0732096 0.17681043 0.03274076 -0.027861454
-0.65468293 -0.36069685 -0.121237084 -0.327601 0.10941801 -0.24834894 0.37500554 -0.17037825
-0.09641101 -0.09499243 0.023667824 1.7937368 0.805743 -0.36769605 0.13852017 0.076277204
0.17440921 -0.15105088 0.32623276 -0.69436294 0.28097206 0.035183903 -0.080638334 -0.11098287
0.45854685 0.15563588 0.20443152 -0.51318866 0.2593402 -0.19696598 -0.09058856 0.31733248
0.10921006 -0.2218926 0.03851972 -0.2332556 0.3105873 0.2804319 0.16671373 -0.67013144
-0.42361435 0.3231292 0.4168256 -0.4267544 0.104698606 0.19755048 -0.3623862 -0.21130365
0.22610275 0.25646245 0.19715685 -0.20998505 -0.1301984 -0.28037295 0.020881038 -0.12273269
0.44745028 0.5113134 -0.20037961 0.060295437 0.020553792 -0.45229462 -0.014796594 0.23850264
-0.36296165 -0.12622657 0.08176515 0.19776657 -0.10851041 -0.41197807 -0.69795483 -0.4349422
0.01002304 0.24056925 0.096836925 0.28063145 -0.44266227 -0.4705287 -0.24556169 0.5849748
-0.016068216 0.00860451 0.0109964935 -0.027277395 -1.1275749 0.103876196 -0.4878063 0.018527426
-0.086010136 0.2993107 0.16895014 0.32959697 -0.31071678 -0.6858035 -0.409267 0.5425592
0.07013675 0.3725934 0.18040046 0.25685662 -0.3661939 -0.50613713 -0.73405164 -0.44114754
0.12132994 -0.09686009 -0.038530618 -0.58391184 0.3082248 -0.46782008 -0.8184776 -0.014281682
-0.08316575 0.3602754 -0.10574954 -0.4110415 0.10164425 -0.40886527 -0.64901286 -0.7749062

net.0.bias f4 [256]
00000000: 59bc 143e dd02 5f3c 81d0 bfbc 86c4 3b3e
00000010: 7b4c 8a3e f727 93be 76d6 48be 26bf e8bb
00000020: 4ba4 cfbc 890b 4e3e a8dd 82bc fd87 5ebe
00000030: 8603 f83d 942e c4bb 3692 863e b0b1 82be
00000040: 1c24 b93e f151 433d d7cd 873d bf98 d4bc
00000050: 8918 823e 6cfd 193e 466b 16be 2220 993e
00000060: a0cd 91be 5aa4 973e db97 3a3e f156 9ebc
00000070: d7cf 623e 773d 383e ada1 843e e5ec 9f3e
00000080: 30d9 0cbe 052a a83e 5deb 193e 00c4 e8bd
00000090: b3d6 d03d 3387 c63e b87b ef3c cca5 3bbe
000000a0: 2fa8 7b3e bc31 0ebe f7e5 6e3e e041 1ebe
000000b0: c794 5a3e 5c61 c03e cb5b 56bd f2f0 63be
000000c0: 8052 893e 240e 973d 9a99 1b3d 15ec 95be
000000d0: 2789 c13e 7ff4 cb3d 5291 4ebc 4295 efbc
000000e0: a77a d8bd 8788 8a3e 1b30 23bd b98b 933e
000000f0: 7571 1a3d 43c0 b1bc 935b 993e a4dd e63d
00000100: 7570 343e b9f6 343d 6373 c53e 5af8 3bbd
00000110: f09a 413e 7624 a63e 7531 533e a3d2 633e
00000120: 2217 6b3e 1eed 593d bfaf cc3e c827 da3e
00000130: 460d 6c3e 935f 133e bcac d23e c147 9ebe
00000140: 21ed a73e 29d4 983e 29ee 9c3e 1ec4 27bb
00000150: 0cc8 90be 4d1d db3e c060 53be 6b4a 643e
00000160: b77c 353e 5c96 2ebe 58ef 3f3d f74e 57be
00000170: 83ff 9b3e e13c 24be 2bde 8e3e 0930 c33e
00000180: b995 773e 29e3 e83e 41f3 973e ace5 77be
00000190: 146d 523e c7e9 633e 9f63 3a3e 8059 0fbe
000001a0: 5276 603d 9000 edbc 386d e63e b1f1 a73e
000001b0: 32d7 bd3e ae11 b13e 08a8 58be e268 f8bd
000001c0: 47ad 15be e8e6 223d 0deb bb3e 7a89 7d3e
000001d0: d5ed b13e 3cc7 0abe 4ece 37be b8bd b5ba
000001e0: 4ee4 ca3e 8cff 603e 5823 823e f644 b9bd
000001f0: 6b4f 8dbd 1a19 97bc 4ee7 8c3e 18ff 883d
00000200: b0b2 713e 8b05 4c3e 9d6f 69be 55bb 443e
00000210: 19f6 bdbd 9f0d 733e d444 3abe 5e88 9bbe
00000220: 1a3a 813e be68 813e f15b 30be d292 793e
00000230: 5d2c c4bd ba12 90be f456 0dbe e004 0b3e
00000240: 6357 f93c 0fa8 11bd 5a27 8e3e 0f96 71be
00000250: 431f 2b3e 3740 233e d388 233e 32c5 e53e
00000260: 0637 703e 4835 86bd 524e 9cbe be86 6a3d
00000270: 8139 d9bd cd94 5e3e 3388 b0bc 0519 aa3e
00000280: 193e 5f3e 423f 99bc ffb1 563e da8f 2d3e
00000290: ade8 bcbd 537c be3e d20b 19be 543f ff3d
000002a0: 561c 31be 8786 8fbe d353 b7bc cd32 8b3e
000002b0: 1e47 833e b66e 113e c656 0ebe 4db7 6d3d
000002c0: 3cfd 6ebe 6d28 253e 9e91 b4bc 28cf de3e
000002d0: d9d2 ab3e f6ef b5be a7f9 053d 8f9b 653b
000002e0: 75e9 173e e683 b6be 6894 2b3e 8a02 99be
000002f0: 9d50 ef3e fcd3 c33e a5cd 71be 1a08 1fbd
00000300: 9678 6fbd e013 0b3d af59 543e 4792 5cbe
00000310: 9f20 3b3e a3be 8cbe 47db e3bd 9308 85be
00000320: 7568 b83e e5cf dc3d ce82 3cbe 0384 1dbe
00000330: 8003 0c3c 1333 01bf 79b0 253e 462c 773e
00000340: ddac 40bb 248d 7cbe 9037 24ba e4e9 83be
00000350: 2679 04be bd1c c8bd e511 d43e 2f52 8dbd
00000360: 6317 383e b357 efbe 457d 36be e0e5 9cbe
00000370: 4cef f83e d010 e33e 453e f03d 48d7 a23e
00000380: 82e2 cb3e f64e 913e 62aa 583e eb43 b6be
00000390: 522a 17be 0802 06be 2703 9f3e 8a87 4abd
000003a0: f741 a239 39e4 ba3c 5f07 18be 6045 b5ba
000003b0: a077 543e e877 8abe e5bf 853e c4dc 6bbc
000003c0: 67eb 08be fa02 b93e e680 cb3e 4f42 1f3d
000003d0: 3e02 aebe b1f6 4ebc 5a87 293d cead 493e
000003e0: 7a77 813e 2fef 45be 3f82 20be 93a9 4abe
000003f0: b175 bdbc 7966 5b3d 686c 58be 4767 36be
0.14524974 0.0136115225 -0.023414852 0.18336686 0.27011475 -0.28741428 -0.1961306 -0.007102865
-0.025346896 0.20121588 -0.015974835 -0.21731563 0.12110047 -0.005986998 0.26283425 -0.2552619
0.36160362 0.047685567 0.06631058 -0.025951741 0.25409344 0.15038079 -0.14689359 0.29907328
-0.28477192 0.29617578 0.18221991 -0.019328566 0.22149597 0.17992197 0.259046 0.31235424
-0.13754725 0.32844558 0.1503119 -0.11365509 0.101972006 0.38775024 0.029233798 -0.18324965
0.24575876 -0.1388616 0.23329912 -0.15454817 0.21345817 0.3757428 -0.052333634 -0.22259882
0.26820755 0.07375744 0.037988283 -0.2928168 0.3779995 0.09958743 -0.012607889 -0.029245976
-0.10570269 0.27057287 -0.0398408 0.28817537 0.037705857 -0.021698123 0.29952678 0.11272743
0.17621024 0.044180606 0.38564596 -0.045891143 0.1890676 0.32449692 0.20624335 0.2224832
0.22958043 0.05320465 0.39977834 0.42608476 0.23051938 0.14391927 0.4114741 -0.3091412
0.32798102 0.29849365 0.30650452 -0.0025599073 -0.28277624 0.42795792 -0.20642376 0.22294013
0.17723356 -0.17049545 0.046859115 -0.21026216 0.30468377 -0.16038848 0.27903876 0.38122585
0.24178208 0.4548581 0.29677776 -0.24208707 0.20549423 0.22257148 0.18202065 -0.13998985
0.05480034 -0.028930932 0.45005202 0.32801583 0.37078243 0.345838 -0.21157849 -0.1212938
-0.14616881 0.03977099 0.36702767 0.24759474 0.34751764 -0.13552564 -0.17949793 -0.0013865745
0.39627308 0.21972483 0.2541759 -0.090463564 -0.068999134 -0.018444587 0.2752022 0.0668928
0.2360332 0.1992399 -0.22796483 0.19212086 -0.09275455 0.23735665 -0.18190318 -0.30377477
0.2523964 0.25275224 -0.17222573 0.24372414 -0.09578774 -0.28139287 -0.13802701 0.13576078
0.030437177 -0.035560664 0.27764398 -0.23592399 0.16711144 0.15942465 0.15970163 0.4487701
0.2345849 -0.06553131 -0.30528504 0.057257406 -0.10606671 0.2173645 -0.02154932 0.33222213
0.21801032 -0.018706921 0.20966338 0.16949406 -0.09224067 0.37204227 -0.14945915 0.12463251
-0.17295966 -0.28032324 -0.022378838 0.27187195 0.25640196 0.14202389 -0.13900289 0.058036137
-0.23338789 0.16128702 -0.022042092 0.43517423 0.33559301 -0.35534638 0.03270879 0.0035035347
0.1483515 -0.35647506 0.16755831 -0.2988475 0.4674119 0.3824767 -0.23613603 -0.038826086
-0.05846461 0.0339545 0.20737337 -0.21540175 0.18274163 -0.27489194 -0.11125808 -0.25983104
0.36017194 0.1078184 -0.18409273 -0.1538239 0.008545756 -0.5046856 0.161806 0.24137983
-0.002939991 -0.24663216 -0.0006264383 -0.25764382 -0.1293684 -0.097711064 0.41419902 -0.06900441
0.17977671 -0.46746597 -0.17821224 -0.3064413 0.4862007 0.44348764 0.11730627 0.31804872
0.3982125 0.28380555 0.21158746 -0.35598692 -0.14762238 -0.13086712 0.31057093 -0.049445666
0.00030948195 0.022813903 -0.14846562 -0.001382988 0.20748758 -0.27044606 0.26122966 -0.014395896
-0.13371049 0.36135083 0.3974678 0.038881596 -0.33986086 -0.012632058 0.041388847 0.19695207
0.25286466 -0.19329523 -0.15674685 -0.1979125 -0.023127409 0.053564522 -0.21135104 -0.17812835

net.2.weight f4 [256, 256]
00000000: 3797 1b3e f071 783d 6f9a f13d 255a 88bd
00000010: e6f5 7b3e e9e3 123f cee5 5f3e ca6b 2fbe
00000020: 89b9 873d 0861 e5bb 86cc 383e 0c21 183e
00000030: 25ad dbbd bcc5 8c3c 04dc 683e 374f c13e
00000040: 8cec d63d 5459 0c3e c5ec 363e b8c6 6f3e
00000050: 5c59 18bd 9f11 663e 7ce4 3bbe e9b1 d6bc
00000060: 632c 5ebe f040 e8bb af97 ef3d 801c 23bf
00000070: b96f f93c 4f84 1c3d d37d 873c 1945 b9bd
00000080: cead 453e 3ef2 b2bd 67a3 603d 3e7a 7e3e
00000090: 8bc2 be3d e871 a0bc 636b 903d 81d5 6dbe
000000a0: e486 383e 857a 8e3d 1d92 90bd 54b3 983d
000000b0: 0837 fa3c 0f2f c0ba e123 f03d 7281 94be
000000c0: ad5c 84bc 089f f9bb 81f8 173d 74c2 9c3e
000000d0: 8d46 a7bb 0225 77bd 96f0 81be d31c 8cbe
000000e0: decb 993e 1540 02be 64a0 4e3e 237f cd3d
000000f0: 42e9 fc3d 19d9 8a3e a665 81bc 9655 68bd
00000100: 33fc 84bb 0447 17be e4f2 c83c 0008 30be
00000110: 6cae 50be 5bfe 37bd da8f 6cbd 2063 17bd
00000120: 6a4d d1bd 474b c43d 8035 37bd e036 f7bd
00000130: a58b 91bd aaac d8be 40d8 eabc 8769 d23d
00000140: 0a84 db3d 6dda b73b 475d acbe 5fca 003d
00000150: da47 d8be d441 70bd 3f33 3e3f 3228 1c3e
00000160: 4340 9f3d e57a 3d3e a33a 253a a3a7 86bd
00000170: 4680 06be 436d 78bd b681 cfbd 686a bebd
00000180: def3 483d 586a 76bd 4a97 d63d 9bc1 933e
00000190: a0b5 943d 75d1 493e 41a9 603e a69a 673e
000001a0: aa77 b43e 483a db3e 12a7 8abd ad4f 773d
000001b0: c960 933c 7d1c 7fbd fbe6 413e f727 b8bd
000001c0: 9b05 083e e0cb 02be ea0c 9abd b53a c13d
000001d0: 1466 67be d94f 81be 1bb7 0dbe 6171 bc3b
000001e0: cae6 fe3c 1db4 aa3d fbc6 013e 923e 473e
000001f0: 368b cc3e 0563 983e 802e b6bc 2aab a93d
00000200: 6e2a b4bd 3096 68be dfac b9be fe93 ed3d
00000210: d646 e73d 9220 723e 7878 843e a7b7 3c3e
00000220: 6c50 8d3d 7f58 ce3d 526d 6bbe 9bd1 383d
00000230: 41d6 123e 9281 963e f642 e3bd b121 493e
00000240: 2bcc 853e 9a0f eebe a7f8 31bb af11 3cbe
00000250: 7542 3e3e 2748 863e 5440 84be c7d0 a5bd
00000260: 71a4 d2bc 57e2 423e 2053 153e 86b4 f5bd
00000270: f3b4 f3bd 6c43 74bd 5b1f cb3d 4127 743e
00000280: 3f30 d7bc a451 89be a6e4 abbd 4cf9 80bd
00000290: 8bdb 663e da24 56bd cdae ef3d 16b3 33be
000002a0: 005c 7e3e de48 e6bd 0a28 aabe 0c2e 103d
000002b0: fcc5 a93d 3166 d53d f9a5 20be 0f91 0d3e
000002c0: e7dc 59bf 077c 283e 0292 013e c582 74bd
000002d0: 181f d8bc 25d6 043f d3f9 15be bc98 293e
000002e0: 8c0e fa3d 365b 9a3e d657 b7bd d525 eabe
000002f0: 9de5 7eba 8014 b43d 8bfb 1cbe 3df2 63be
00000300: 5e33 383e 212e 2e3e f0c6 0b3e 326a 513d
00000310: 9d03 373e ab7c 643e 2372 c23d b47a b23e
00000320: 9897 86bd 3330 c13c 87cf c43d bb60 eabd
00000330: 4ee4 d7bc c79e 9e3e 2cfc c73d 5577 ed3c
00000340: be8a 13bf 838e d43e 5e1a 22be e994 653e
00000350: d8d4 ab3d 3b0a de3c 5e45 da3c 6acb 94bd
00000360: 18ba 38bd 9dd5 183f 47b6 6cbe 03b2 943d
00000370: aae2 04bb 6b0f 0a3d 2b5f abbd 2844 983d
00000380: 391a f93c 03c0 dc3d 6d69 35bd 8f9c b93e
00000390: 3b45 393e b92d 9b3e e781 6f3d 0312 783e
000003a0: ae39 f5bd 378e 333e f4f6 33bf 0daf 46bf
000003b0: 7b4d 8a3e c2af e93e 429b 0cbe 00a9 a43e
000003c0: d1bc d03e 6ff6 b6bd 37d1 06be 853d 1cbd
000003d0: db07 903e 2ae3 233e 0d51 fc3d f51d 47be
000003e0: 9936 7a3d e180 bd3e 126e f03d f10a 693e
000003f0: d101 7b3e 72ba b23c a43b ea3d 4a28 953e
0.15194403 0.060655534 0.11797034 -0.06657819 0.24605522 0.57379013 0.21865007 -0.17130962
0.06627185 -0.0070000924 0.1804677 0.14856356 -0.10726384 0.01718413 0.2274018 0.3775575
0.104943365 0.13705951 0.17863758 0.23415649 -0.037194595 0.2246766 -0.18348879 -0.026207881
-0.2169662 -0.0070878193 0.11698853 -0.6371536 0.030448781 0.038212117 0.01653949 -0.090463825
0.19304582 -0.0873761 0.054843333 0.24851319 0.0931445 -0.019585565 0.070517324 -0.23225977
0.18020207 0.069569625 -0.07059119 0.07456079 0.03054382 -0.0014662462 0.11725593 -0.2900501
-0.016157473 -0.007617835 0.037102226 0.30617106 -0.005104846 -0.060338028 -0.25378865 -0.2736574
0.3003835 -0.12719758 0.20178372 0.10034015 0.12349178 0.27118757 -0.01579554 -0.056722246
-0.004058385 -0.14773184 0.024529882 -0.17190552 -0.20379037 -0.044920307 -0.057754375 -0.036959767
-0.10219844 0.095846705 -0.044728756 -0.120710135 -0.07106713 -0.42319232 -0.02866757 0.10274034
0.10718544 0.005610755 -0.33664915 0.031442996 -0.42242318 -0.05865653 0.74296945 0.15249708
0.07775929 0.18503912 0.0006302988 -0.06574943 -0.1313487 -0.060651075 -0.10132162 -0.09297639
0.049060695 -0.06016001 0.10478075 0.28858647 0.07261205 0.19708808 0.21939565 0.22617587
0.35247546 0.42817903 -0.067701474 0.06037872 0.017990487 -0.062283028 0.18935768 -0.08991998
0.13283388 -0.12773085 -0.075219944 0.094350256 -0.22597533 -0.2525623 -0.1383938 0.0057508205
0.031115908 0.08335135 0.12673561 0.19457462 0.3994996 0.29763046 -0.02223897 0.082846
-0.08797155 -0.22713542 -0.36264703 0.11600493 0.11292808 0.23645237 0.2587316 0.18429433
0.06900105 0.10075473 -0.22990921 0.04512177 0.14339544 0.2939573 -0.11096756 0.19641759
0.2613233 -0.46496278 -0.0027156265 -0.18366121 0.18580039 0.26226923 -0.25830328 -0.08096462
-0.025713177 0.19031654 0.14582491 -0.11997323 -0.11899748 -0.05963461 0.0991809 0.23843099
-0.026268123 -0.268201 -0.083932206 -0.062975496 0.22544686 -0.05228124 0.117032625 -0.17548785
0.24839783 -0.11244367 -0.33233672 0.035200164 0.08289716 0.10419882 -0.15688314 0.13824867
-0.85102695 0.16453563 0.12653354 -0.059695024 -0.026382014 0.5188926 -0.14646082 0.1656217
0.12209806 0.30147713 -0.089523 -0.4573199 -0.0009723546 0.087929726 -0.15330331 -0.22260375
0.17988345 0.17009784 0.13650107 0.051126666 0.17872472 0.22313182 0.09494426 0.3485924
-0.06571883 0.023582553 0.09609895 -0.11444231 -0.026353981 0.30980512 0.09764895 0.028987566
-0.5763358 0.41514978 -0.15830371 0.22420086 0.08390206 0.027104488 0.026644405 -0.07265361
-0.045099348 0.5970095 -0.23116408 0.072605155 -0.0020276704 0.03370611 -0.08367761 0.07434875
0.030408012 0.10778811 -0.044289995 0.36252257 0.18092816 0.3030832 0.058473494 0.24225621
-0.11973892 0.1753472 -0.70298696 -0.77610856 0.27012238 0.45641905 -0.13731101 0.32160187
0.40769055 -0.08933722 -0.13165747 -0.038144607 0.28130993 0.16004625 0.12320147 -0.19445021
0.061087225 0.3701239 0.11739744 0.2275808 0.24512412 0.02181742 0.11437157 0.291323

net.2.bias f4 [256]
00000000: f47b 46bd 7491 9b3c 3861 d93d 2b9c 96bd
00000010: 6700 fb3c bfeb 173e f2b5 85bb 4ab8 0a3e
00000020: c183 b03d 21c8 333e 0cf4 8c3b cbc0 dfbc
00000030: 24f5 da3c 7b6b 2c3b 62e5 153c 91e0 babd
00000040: 3b95 923c 1c6c c2bd ac97 e53c 8c65 ae3c
00000050: e082 99bc 3c25 583c e6a3 69bd 07e0 0d3c
00000060: 3ee3 57bd 5501 8c3d 7a33 3d3d 36c4 3139
00000070: 68a9 c6ba fb20 163c 3d98 21be 51ae 48bd
00000080: 9693 863d 32d7 25bd 5ece 293d 2013 ffbc
00000090: e2a2 67bd 2b68 ec3d ea73 113e c3f8 993c
000000a0: 2ad5 453d 0834 8b3d dcfe 193c ba4b b33d
000000b0: b690 113e fa83 aa3d d734 e93d ee71 16bd
000000c0: 31dc c1bc 80d3 503c 66d9 f13c 0080 73bd
000000d0: 733e 413d c056 e53d 6c0f 95bd cc46 ba3c
000000e0: 27e9 ab3d 5540 973d 3ca5 63bd 8d0c f6bc
000000f0: 8f5e 11bc ff4d 9e3b 748e fd3c 0f44 3c3d
00000100: 0bf1 10bd 2ca0 123e 2a11 0e3e c4bc edbc
00000110: 3a1c 91bc bda1 813d 5ad6 21bc 8d34 3c3e
00000120: 90bb 74bd f971 72bd 1ea3 513d 3181 48bd
00000130: ef47 7ebd 6ab1 053e 5604 03bd d80f 543d
00000140: f33a e73d 7a9b 393c e944 13bd 6f30 e63d
00000150: 57fa 533d 780c d53d 3631 123d 43cb 783c
00000160: 2b68 aabd 6e3d 3dbd 8308 f53d 6d6b 67bb
00000170: 7c5a 033e 0fe2 9a3d 3c19 a93c fc1e 5abd
00000180: 2e28 aabd 0d76 ad3c 32dd b33d 839a 44bd
00000190: af08 903d a85b 36bd 0bf5 77bd 11ba 293e
000001a0: 278c 253e abb7 26bd 5c08 423e 0dc6 67bd
000001b0: ab5d ad3d 8db2 4b3d 65e2 c4bc 5d42 6a3b
000001c0: 6445 1fbd c7a7 59bd b6d3 4eb9 26b2 42bb
000001d0: ecf7 97bd f1f6 003e ce0c 5e3c 3855 fcbb
000001e0: 6305 233e e474 3abd 449b 97bd 9ee1 203e
000001f0: 4197 293e 9820 0dbc 0635 d33a 4946 fa3d
00000200: 9ea8 143d 055d 903b a1b5 bc3d 65ab 5e3c
00000210: 6ee7 28bd 5097 353d a42c 2fbd 4ff6 7a3d
00000220: 09e4 12bd ca3a c5bc 5c6e ea3d 9902 653d
00000230: 9e5d 213e 74be c93c 6905 0e3e d7f6 91bd
00000240: 2f99 e6bc da67 a6bc 3901 0a3c 8f32 25bd
00000250: ce3f f4bc 78a3 1cbd 7d48 9fbb 864c 6fbd
00000260: f736 7bbd cc83 bd3d f254 32bd f52a 1fbd
00000270: 2f82 e73c 3b44 ff3c 77dc 163e f9b4 e63d
00000280: ac1d c93d 0c93 9e3c 0acf 9abb 8c07 063d
00000290: daae 3b3d f901 5f3c fbe2 d1bc 7d11 253c
000002a0: 3a57 9f3c 951a 6ebd 31c7 08bd ae4c 03be
000002b0: 9c4b 743d 67a6 3b3e 274d 3d3d d6cf 6bbc
000002c0: 969d d83b 1b59 a23d 26bf 12bb 2f39 743d
000002d0: b7c1 963d ea28 afbc df54 6bbd 5e57 51bd
000002e0: 68a7 6b3d fdff e33c a959 82bd 08ba 2fbd
000002f0: cc24 e0bb 3e88 c93c 7892 9cbb 861d a2bc
00000300: 5fa8 45bd 7805 3bbd 2ab6 dd3c 7f95 293e
00000310: 6ea6 c8bc 973d 00bd 125a c73d df75 df3d
00000320: cf2e ff3d fa2f f13c 4d56 4ebc 5fde 1cbe
00000330: f82a 213e 0c91 0c3e 233d babd e841 283e
00000340: 38fe 3fbe 57ff b4bd ac60 abbc 8a3b 493c
00000350: f97a 713d d7f4 153e 6b54 22be 35f0 82bc
00000360: b4a4 9b3d 5801 45bd 6f9e 9ebd b79d 713c
00000370: e42d 87bc 9f06 d6bd 1bb1 8cbb d0b9 f03d
00000380: 7d57 fc3d 31f5 cc3c 5ad6 3fbd 0859 adbd
00000390: 0f89 0e3e 2716 11bd 00ab 65bd 7a56 9a3c
000003a0: 61c3 a03c 95ba 17bd 75be 93bd 2436 143d
000003b0: 181a c8bc 72ab 61bc 37d8 3c3e cdd7 663d
000003c0: 41cb 57bc be12 213d 9f5a a43d be69 1e3d
000003d0: 4d42 1c3c bb27 4b3e a17b 3a3e c43b 2b3d
000003e0: b38e 313d 0374 8fbd 1010 b93c fee5 afbd
000003f0: eac1 b5bc bd13 94bd 056a d33d b4a4 7e3c
-0.048458055 0.018990256 0.10614246 -0.073540054 0.03063984 0.14836024 -0.0040805275 0.13546863
0.0861888 0.17556812 0.0043015536 -0.02731361 0.02672822 0.002630918 0.009148927 -0.09124864
0.017893424 -0.094932765 0.028026424 0.021288656 -0.018739164 0.013192471 -0.05704107 0.008659369
-0.05270695 0.068361916 0.04619167 0.0001695313 -0.0015156688 0.009163137 -0.1578073 -0.048994366
0.065711185 -0.04048843 0.041456573 -0.03113705 -0.05655182 0.11543306 0.14204374 0.018795377
0.048298992 0.067970335 0.009399142 0.08754678 0.14215359 0.08325954 0.113870315 -0.036729746
-0.023664566 0.012745738 0.029522609 -0.059448242 0.047178697 0.11198187 -0.07278332 0.022738837
0.0839408 0.07385317 -0.0555775 -0.030035282 -0.008872642 0.004831075 0.030951716 0.045963343
-0.035386126 0.14318913 0.13873735 -0.029020675 -0.017713655 0.06329677 -0.009877766 0.18379422
-0.059749186 -0.059190724 0.05118095 -0.04895133 -0.06208032 0.1305596 -0.031986557 0.051772922
0.112905405 0.011328572 -0.03595439 0.11239707 0.051752415 0.10402769 0.035691462 0.01518518
-0.0832065 -0.046201162 0.11964514 -0.0035311833 0.12827486 0.075626485 0.020641916 -0.053252205
-0.08308445 0.021174455 0.08782424 -0.047998916 0.07032906 -0.044521004 -0.060536426 0.16574885
0.16166745 -0.040702503 0.18948501 -0.05658536 0.08465131 0.049730826 -0.024033735 0.0035745122
-0.038884535 -0.05313852 -0.0001972456 -0.0029708236 -0.07420334 0.125942 0.013552858 -0.0077005886
0.15920024 -0.04552163 -0.074026614 0.15711066 0.16561605 -0.008613728 0.0016113825 0.12220437
0.03629362 0.00440562 0.092143305 0.013590668 -0.041236334 0.044333756 -0.042767182 0.061270054
-0.035862003 -0.024075884 0.11446831 0.05591068 0.15758368 0.024626948 0.13869251 -0.07127159
-0.028149216 -0.020313192 0.008423143 -0.04033142 -0.02981558 -0.038241833 -0.004860936 -0.058422588
-0.061331715 0.09253654 -0.04353804 -0.038859326 0.028260319 0.031160465 0.14732538 0.112649865
0.098201126 0.019357227 -0.004724388 0.03272204 0.04582105 0.01361131 -0.025620928 0.01007497
0.019450773 -0.05813082 -0.03339309 -0.1282222 0.05964242 0.18325196 0.046216156 -0.014392814
0.0066105826 0.07927152 -0.0022391765 0.059624847 0.07361167 -0.021381814 -0.057453986 -0.05110871
0.057532698 0.027832026 -0.063647576 -0.042902023 -0.006840324 0.024601098 -0.0047782026 -0.019789468
-0.048256274 -0.045659512 0.027064402 0.16560934 -0.024493422 -0.031308737 0.097339764 0.10911154
0.124601 0.029441822 -0.012593818 -0.15319203 0.15739048 0.13727206 -0.09093692 0.16431391
-0.1874932 -0.08837765 -0.02092012 0.012282262 0.058955166 0.1464418 -0.15852515 -0.01598368
0.07599774 -0.048096985 -0.077450626 0.014747075 -0.016501375 -0.104504816 -0.0042935736 0.11754191
0.123213746 0.02501926 -0.04683528 -0.08464247 0.13919471 -0.035421517 -0.05607128 0.018840063
0.019624414 -0.037043173 -0.07214061 0.036184445 -0.024426505 -0.013773786 0.18441854 0.056358147
-0.013171018 0.039324515 0.08025097 0.038675062 0.009537292 0.19839375 0.18211223 0.041805044
0.04334898 -0.07004549 0.022590667 -0.085887894 -0.022187192 -0.07230327 0.10322956 0.015542198

net.4.weight f4 [4, 256]
00000000: d670 6abe 2e1d 83be 61c3 12bf a4cd 9bbe
00000010: cb9b 82be 322e 963e 5638 613f 4a0e 463e
00000020: cfc6 4ebe 80bf 0b3f 1367 b9be 8336 e4be
00000030: 36cc f03e 5110 92be 326e a7be bd03 21bf
00000040: 3586 48be 4158 c3be 5ea0 88be 27a9 0f3f
00000050: 41b3 3f3f 8171 0a3f e675 b3be 04d9 adbe
00000060: fd58 c7be 149d 8dbe 2d6a 983e d497 8abe
00000070: b3c2 90be 1b12 d2be acaa 45bf 1151 f5bc
00000080: d1b3 62be 53a5 4d3d a5bb 0ebf 1b0b f13e
00000090: ad73 19be bfbf 993e 5998 993e 614a 26bf
000000a0: c14a 2d3f 8549 aa3e 72bd f13e 7199 e23e
000000b0: d57b da3e 0ed9 d43e 473b 043f 9e4e 5abe
000000c0: d09a e53e 6cf6 dc3c 5c2e e03e fd9d e63e
000000d0: 92b5 6ebe 6156 d23e 8939 8fbe 2269 1cbe
000000e0: 64d7 67be 80aa 1fbf 5609 c1be eb10 313f
000000f0: 8af7 c5be 5fe4 85be 1a86 a0be c395 cfbe
00000100: 58ef 9abe 697a 883e 6422 303f 3f4e b7be
00000110: 2442 bcbe af08 1e3f 8007 1f3f aeff b03e
00000120: 3340 d4be 899c a2be 8e37 27be 3a16 38be
00000130: a347 8cbe de21 c43e d5ab a2be e891 103f
00000140: c133 483e 030e 3b3d 3ef8 0abf 5d5b 0c3f
00000150: 1919 8cbe 646f 943e 335d 2c3f 28b2 b1be
00000160: de02 cfbe 077f b6be 8bac 653e 70c2 523e
00000170: 8779 3e3e 3ca3 2d3f 02db cabe 7d63 9fbe
00000180: e2c6 a4be 23da abbe 3c84 e33e da4a cfbe
00000190: e27d 97be da50 533d 0f09 aabe ad49 7c3e
000001a0: 77e9 383e 4d71 a5be 7a2a a53e 03bf f2bd
000001b0: cdb7 25bf f6bf 3d3f 84f7 c3be f806 53be
000001c0: 6a05 093f 94b9 1fbf 6c51 36bc 8278 62be
000001d0: 040f 0f3f ac92 b73e 94f8 e2be 2dc5 a5be
000001e0: fa59 6d3d 70f1 a5be bbb2 0cba 0483 4c3e
000001f0: 1524 ed3e aaac 733d 5878 dabe b39b aa3e
00000200: 243e 5bbe 6d60 b9be f18f 153f 948f 383f
00000210: 2d39 1e3e fffb 913c 4361 57be c329 b83e
00000220: 982f c1be 3a37 bebe 6327 0e3f af50 c63e
00000230: b0b3 cd3e 1949 cebe e8ad 6e3e 2c54 053f
00000240: ab09 a4be fd8c 943e 1a4e 97be 7797 c9be
00000250: 1a42 213d 8131 303f c763 86be c02c 03bd
00000260: 5563 46be 69d5 f13e d89d 283d b320 f33e
00000270: 3ef0 333c c2fc ee3e abda 803e 3ae7 8a3e
00000280: cbb2 273f bfca 97be 9a49 b73e f300 d0be
00000290: cd1d 18bf f151 a7be d1ad d43e 379b 563f
000002a0: 83a9 083f 1ed6 74bd 6ebd 8a3e 5469 0ebf
000002b0: 1b1b 34be 0d79 723e d561 29be 1d38 063f
000002c0: 852a 2abf 58a7 b0be 4d84 debe 80f6 803e
000002d0: a99d 3d3f 34e6 cdbe e71e d1be 8442 1e3f
000002e0: e1ad f43e 4bc0 2bbe ffa4 2d3c e397 2b3f
000002f0: 16f1 adbe ba22 9dbe 4bd9 84be 5201 b0be
00000300: c5b9 96be 3c0d bfbe 4d5e f8be f6c8 723e
00000310: b76b 083f c1ab 9abe 1fad e63e b520 d63d
00000320: e069 fa3e 9a8b eabd 1f3b 593e f79d 00bf
00000330: a830 ec3e f360 603e 69ba d0be e050 bd3e
00000340: 7f89 22bf 76f7 d13e 086b c2bc 8c8f e4bd
00000350: 3008 23be ecc3 483e cfdc e7be 36a0 b1be
00000360: 7e41 91be 7493 eabc 6f69 b1be 3786 a1be
00000370: f089 dcbe ed81 6fbe 9e59 de3e bb51 4c3e
00000380: f90e 563e 80db 3b3f f4d1 cfbe 2a44 cbbe
00000390: 3ef1 bd3e fa64 b9be 7460 adbe 2f45 b9be
000003a0: 666f 3fbe d23c aebe 0f41 9dbe cd3f b8be
000003b0: 84d6 e53e c4dc ebbe a437 fa3e 85e4 adbb
000003c0: ba79 bb3e 8a3a 18bf 36e0 f43e 7eeb ebbe
000003d0: 724b d0be 7d53 d83e ede9 ff3d db37 a33e
000003e0: f8dc c0be 1271 97be 37f8 bc3e 2863 c8be
000003f0: 7f61 52be a951 a8be be9d 42be 9ea5 4f3f
-0.22894606 -0.256082 -0.57329375 -0.3043033 -0.25509486 0.2933212 0.87976587 0.19341388
-0.20193027 0.5458908 -0.36211452 -0.4457284 0.470308 -0.28528073 -0.3270126 -0.6289633
-0.19582446 -0.3815327 -0.2668485 0.5611748 0.74882895 0.54079443 -0.35050887 -0.33954632
-0.3893508 -0.27658904 0.29768506 -0.2706896 -0.28273544 -0.41029438 -0.7721355 -0.029945882
-0.22138907 0.050206494 -0.5575507 0.47078785 -0.14985533 0.30029103 0.29999045 -0.64957243
0.6769219 0.33259216 0.47214848 0.44257692 0.426726 0.4157185 0.5165295 -0.21319053
0.44844675 0.026972972 0.4378537 0.4504241 -0.23311451 0.41081527 -0.27973583 -0.1527448
-0.22640759 -0.6236954 -0.37702435 0.6916644 -0.3866542 -0.26150796 -0.3135231 -0.40543947
-0.3026073 0.26655892 0.68802476 -0.35801885 -0.3676921 0.61732 0.6212082 0.34570068
-0.4145523 -0.31760052 -0.16329786 -0.17977229 -0.27398404 0.3830709 -0.31771722 0.56472635
0.19550993 0.04566766 -0.5428504 0.5482691 -0.27362898 0.28991234 0.6732971 -0.34706235
-0.40431875 -0.3564379 0.22429101 0.20581985 0.18601047 0.678272 -0.39620215 -0.3113059
-0.32182986 -0.33564863 0.44436824 -0.40486795 -0.29588228 0.051590778 -0.33210036 0.2463748
0.1805781 -0.32313004 0.3225897 -0.11852839 -0.6473358 0.74121034 -0.38274777 -0.20608127
0.53523886 -0.62392545 -0.011127811 -0.22116283 0.5588229 0.3585409 -0.44330275 -0.32376996
0.057947136 -0.32410765 -0.0005367209 0.19971853 0.4631659 0.059490837 -0.4266994 0.33321914
-0.21410424 -0.3620638 0.5842276 0.7209408 0.15451498 0.017820356 -0.21033196 0.35969362
-0.37731624 -0.3715151 0.5552885 0.38733432 0.40176153 -0.40290144 0.23308527 0.5208156
-0.32038626 0.29013816 -0.29551774 -0.3937337 0.03936968 0.68825537 -0.26248 -0.0320251
-0.1937383 0.47233132 0.041166157 0.47485885 0.010982571 0.46677214 0.2516683 0.27129537
0.6550719 -0.2964687 0.3579834 -0.40625724 -0.5942047 -0.32679704 0.4153886 0.8383059
0.53383654 -0.05977451 0.27097648 -0.5562947 -0.17588465 0.2367899 -0.16541226 0.5242937
-0.6647113 -0.34502673 -0.43460312 0.25188065 0.74068695 -0.40214694 -0.4084389 0.61820245
0.4778891 -0.16772573 0.01059842 0.67028636 -0.33972996 -0.30690557 -0.2594703 -0.34376007
-0.29438606 -0.37314785 -0.48509446 0.23709473 0.5328936 -0.30209163 0.45053956 0.10455457
0.489089 -0.11452408 0.21213959 -0.50241035 0.46130872 0.21911983 -0.4076722 0.36975765
-0.6349105 0.4100911 -0.023732677 -0.11160192 -0.15921092 0.19605988 -0.4528565 -0.34692544
-0.2837028 -0.028634764 -0.34650752 -0.3154771 -0.43073988 -0.23389407 0.43427747 0.19953053
0.20904149 0.73381805 -0.4058987 -0.39700443 0.37098116 -0.36209852 -0.3386265 -0.36185595
-0.18694839 -0.34030777 -0.30713698 -0.35986176 0.44890225 -0.46066868 0.48870575 -0.0053067827
0.36616307 -0.59464324 0.4782731 -0.46078104 -0.4068256 0.42251197 0.1249579 0.31878552
-0.37668586 -0.29578453 0.36908123 -0.3913815 -0.20545004 -0.32874802 -0.19005486 0.81112087

net.4.bias f4 [4]
00000000: 5580 b0bc 5015 c73c b3f0 823d 4227 e2ba
-0.021545568 0.024302155 0.06393566 -0.0017254131
