drafts/draft_rk/runs_lunarlander/dqn_trial13_seed42.pth (torch, 279705 bytes, 6 tensors)

net.0.weight f4 [256, 8]
000000 fe 0e a5 3d 49 dc 95 3e cf e0 1d be d1 b4 79 3f
       0.080595 0.29269627 -0.15417789 0.9754153
000010 39 4c e9 bd 93 5b 21 3e 39 89 9c bd 25 c0 8b 3d
       -0.113914914 0.15757589 -0.07643361 0.06823758
000020 02 64 11 3f ac 80 a5 be bc 9d 37 3f 56 e9 6c 3d
       0.56793225 -0.3232473 0.7172506 0.057839714
000030 67 42 29 3e 0d 43 a0 3e 3d f8 09 3e 55 fa 11 3e
       0.16529237 0.31301156 0.13473602 0.1425565
000040 d4 5f 07 3f d0 f0 99 3c 56 2a 1f 3d 20 34 cd bc
       0.528806 0.018791586 0.038858734 -0.02504927
000050 1b 0e 0c bd 3d 44 b6 bc 2c 74 5e be 80 21 f9 3e
       -0.03419314 -0.022249335 -0.21724004 0.4865837
000060 65 5d 1c bf ec 30 18 be d3 30 0b be 4f 61 07 bf
       -0.6108001 -0.14862412 -0.13592844 -0.52882856
000070 fb b3 2e 3e 82 af c2 be 0c e9 92 3e 3a e5 90 be
       0.17060845 -0.38024527 0.28693426 -0.28299886
000080 9c c3 00 3d 9d 9a 74 bd 6a 1a 32 bd e4 84 90 3f
       0.031436548 -0.059717763 -0.04348222 1.1290555
000090 78 f5 89 be cd 7e 9d 3e f0 5f 37 bf 49 de 90 3d
       -0.2694509 0.30760804 -0.71630764 0.070736475
0000a0 36 3c d3 3d 31 b4 c0 be 1a 50 c9 3e c2 f0 ba 3f
       0.10314219 -0.37637475 0.39318925 1.4604723
0000b0 59 01 eb bd 82 78 4d be 76 1f b1 3e 2a d7 e2 3d
       -0.114748664 -0.20065501 0.34594315 0.110761955
0000c0 77 9e ca 3d 2e f9 de be 7c 93 05 bf b9 bd e2 be
       0.09893506 -0.43549484 -0.5217817 -0.44285372
0000d0 95 41 41 be e8 a6 8d bc ba 8e 93 3e da 05 fe 3d
       -0.18872674 -0.017291501 0.2881983 0.1240346
0000e0 59 4e 17 3b 0b ba fd bb cc 8d 92 3f 5c f4 e2 be
       0.002308747 -0.0077431253 1.1449523 -0.44327056
0000f0 ca 88 9d 3b d5 b2 bc bd f1 68 95 39 56 73 93 3a
       0.0048075663 -0.09213797 0.00028497682 0.0011249583
000100 f0 74 10 3e ad de 14 be 17 7d e5 3e 06 6c 72 be
       0.14107108 -0.14538069 0.44821998 -0.2367402
000110 be 3f 9b be e4 65 af be 12 af ba 3e 74 a7 8e 3e
       -0.3032207 -0.34257424 0.36461693 0.27862132
000120 bf 6c a8 3e 93 62 3d be fd 87 b8 be 6b 1a 19 bf
       0.32895467 -0.18494634 -0.3604125 -0.59805936
000130 6e f3 92 be 4b c2 97 3e 8a 57 0d 3e 0b fc c8 3e
       -0.28701347 0.2964042 0.13802925 0.39254794
000140 f7 90 49 3d 97 48 24 be 73 6d b1 3e 19 d5 0b bf
       0.049210515 -0.16043316 0.34653816 -0.54622036
000150 bc 61 ae bd 5e 08 f5 bd 42 98 ae 3e 15 28 4c 3d
       -0.08514735 -0.119644865 0.34100538 0.049842913
000160 5e fd 62 bb 5f ed 11 3e 27 7d ec 3b 3d 2b a9 bd
       -0.0034635882 0.14250706 0.0072170678 -0.082602
000170 40 71 bf 3e dd 18 2b 3f 02 77 22 3e 4d b9 66 bf
       0.3739109 0.66834813 0.1586571 -0.90126497
000180 2d 68 3a 3e ef 96 fe bc ac 03 06 be e7 db 1e bf
       0.18203802 -0.03107783 -0.13087338 -0.62054294
000190 a6 0e 61 be 22 fc a9 3d f7 85 f3 be d8 0a a9 be
       -0.21978244 0.08300044 -0.47563145 -0.33016086
0001a0 30 c2 db bd f1 b1 8b be 43 42 22 bf 98 44 9a be
       -0.10730398 -0.27284196 -0.6338236 -0.30130458
0001b0 39 ec 16 3d ec 24 7d be 7b 2d f4 3e 2f f8 a4 3d
       0.036846373 -0.24721116 0.4769095 0.0805515
0001c0 3c b0 b1 3d 48 aa 0d bf a4 fd 52 be e5 4b f5 be
       0.08676192 -0.55337954 -0.20604569 -0.47909465
0001d0 e3 83 a2 3c b8 8a 82 be d1 16 56 bd 18 ac 13 be
       0.01983828 -0.2549646 -0.052267853 -0.14421117
0001e0 62 fe 8d 3c 43 96 a2 3d 8b 92 68 be 4f 27 f4 be
       0.017333213 0.079388164 -0.22712152 -0.4768624
0001f0 33 68 38 3e 28 95 f6 be 54 19 7c bf 04 6a 22 3d
       0.18008499 -0.48160672 -0.9847615 0.039651886
000200 91 41 c8 3e 67 90 3a be 09 65 26 3f bc ca 9f 3e
       0.39112523 -0.18219148 0.6499792 0.31209362
000210 3f 09 70 bf a7 da da bd 10 5c 5f 3c 42 4b 20 3e
       -0.9376411 -0.10686236 0.013632789 0.15653709
000220 d9 df cb be d9 b4 07 bf 9e 3a 3b be 0e 75 eb be
       -0.3981922 -0.53010327 -0.1828408 -0.45987743
000230 af bf a2 3e a2 e0 ec be 5f 1c 78 3e 79 35 3d be
       0.31786868 -0.4626513 0.24229573 -0.1847743
000240 e4 a1 13 3d 93 d2 c4 3d 08 18 18 3e 06 92 a1 3e
       0.036043063 0.09610476 0.14852917 0.3155672
000250 28 5e 25 3f 56 8e 22 bf e3 c1 91 3e f2 8b ed bd
       0.64596796 -0.6349844 0.28468236 -0.11598958
000260 91 66 21 3f 7d 0e c0 bd b3 24 22 3f 68 af 07 bf
       0.6304713 -0.093777634 0.6333725 -0.53002024
000270 6b 6b 4b be 19 62 81 3e f6 6a 6b 3d f3 d2 ca bd
       -0.19865195 0.25270155 0.057475053 -0.099035166
000280 aa b9 07 3f 49 05 34 3e bf 89 16 3e d1 13 ef be
       0.53017676 0.17580141 0.14700983 -0.46694806
000290 29 71 35 3e bd 50 a4 bd ac b3 10 bf af aa 59 3e
       0.17718948 -0.08023212 -0.5652416 0.21256517
0002a0 ca d8 40 bc 6a 8a fb 3b f9 71 85 ba 46 4a 59 3a
       -0.011770437 0.0076764124 -0.0010181061 0.00082889607
0002b0 bc cf c2 3f 6b 3f 07 bd 6e e2 64 be 48 18 40 bf
       1.5219646 -0.033019464 -0.22352001 -0.7503705
0002c0 2c 59 04 bf 49 62 91 3e 24 1b 78 3e 4f 2d da be
       -0.51698565 0.28395298 0.24229103 -0.42612693
0002d0 3b 9e 6a 3d d4 34 ca 3e 1d 8e 90 be f4 f2 0f bf
       0.057279807 0.3949343 -0.28233424 -0.5623009
0002e0 0e 87 25 3e bd 07 97 3e ab c9 30 3e 36 30 47 be
       0.161648 0.2949809 0.1726443 -0.19451985
0002f0 89 c5 11 bf 4d 93 a5 bd 59 85 e6 be a5 11 36 bf
       -0.5694204 -0.08084736 -0.4502361 -0.71120673
000300 d2 e4 da 3b 3c 11 91 3e 2e e9 a4 bd 01 0d cb bd
       0.0066801095 0.2833346 -0.08052288 -0.0991459
000310 3c 5e 44 be 9a 6d cf bd ce eb 98 3c c9 75 e0 3e
       -0.19176573 -0.10128327 0.018667128 0.43839863
000320 1e d6 c3 be a3 32 92 bd cf 4d 51 3e 36 30 aa 3e
       -0.38249296 -0.071385644 0.20439838 0.33239907
000330 50 b8 4d 3e cf fa a8 be 0b f0 9a be e1 1f 22 3e
       0.20089841 -0.33003852 -0.30261263 0.15832473
000340 f4 9c f1 bc 6c a9 41 3e 57 77 d9 3d ea 09 82 3e
       -0.029493786 0.18912286 0.106184654 0.2539819
000350 97 8a 9b be d2 21 09 bf 80 bb 5b bd 47 90 0a 3f
       -0.30379173 -0.5356723 -0.05364561 0.541264
000360 3a 50 df 3c b7 c5 f6 b9 09 cb 87 3d ff 1e 7a bd
       0.027259935 -0.00047068085 0.06630523 -0.061064716
000370 28 91 6d bf 4b bf 21 3d 2a e1 3c bf 04 02 00 bd
       -0.92799616 0.03948907 -0.73781073 -0.031251922
000380 69 c1 5b be 8f 22 70 3e 54 91 d3 3e 6f c9 82 3e
       -0.21460499 0.23450683 0.41321814 0.25544307
000390 fc 3d 78 be e4 87 08 bf be c2 01 bf 17 61 ec 3e
       -0.24242395 -0.5333235 -0.5068778 0.46167824
0003a0 97 e3 1b 3e bd 80 c4 3e 2f f6 0d be 7f db d8 3e
       0.15223537 0.3837947 -0.13863443 0.42354962
0003b0 20 3f 1a be 78 2f 48 bf 70 90 9a bf 1d 87 de bd
       -0.15063143 -0.7819743 -1.2075329 -0.108656146
0003c0 c8 0b a0 bd f5 17 05 bf 2e d9 12 bf 5a 5c 6a bf
       -0.07814747 -0.5198968 -0.5736264 -0.9154717
0003d0 b4 c6 85 3e 35 7b 02 bf 18 6d 0a bf 1b fd b6 3e
       0.2612816 -0.5096925 -0.54072714 0.3573998
0003e0 61 c9 02 be 25 b7 9b 3e 2b 5d db bd f1 8e c7 be
       -0.12772132 0.30413166 -0.1071113 -0.38976243
0003f0 ad 51 92 be 3a ad 9e be b5 75 05 bf 78 e3 24 bf
       -0.2857794 -0.30991536 -0.5213273 -0.6440959

net.0.bias f4 [256]
000000 77 8e f7 3d fe 99 92 3e a2 85 78 bc 55 d4 3b 3e
       0.1208772 0.28633112 -0.015168579 0.18342717
000010 2c 96 04 3e e7 38 7b be 8a 63 71 be 63 1d 02 bb
       0.12947911 -0.24533425 -0.23573127 -0.0019853942
000020 fd ba bd 3d b6 91 77 3e cb 32 1b be f9 5e 80 be
       0.09264181 0.24176678 -0.15156095 -0.25072458
000030 ca b6 6a 3c fc bf 38 be d4 f8 d7 3e fb 5b 05 3d
       0.014325807 -0.18041986 0.42182028 0.032558423
000040 a5 2a 5c 3e ed a1 9d 3e 04 10 7b 3e 86 da df bb
       0.21500643 0.30787602 0.24517828 -0.00683147
000050 09 70 3c 3e 84 5d 04 bc 19 b2 41 bd 96 18 ba 3e
       0.18402113 -0.0080789365 -0.047288988 0.36346883
000060 85 3d d9 be 1b 1a d1 3e 98 cf 28 3e 9c 48 19 bc
       -0.42429748 0.4084023 0.1648544 -0.00935569
000070 2d 83 13 3e 51 23 71 3e ce c7 51 3e 20 fc b0 3e
       0.14405508 0.23548628 0.20486376 0.34567356
000080 63 19 0e bf e7 19 a4 3e 1a 51 25 be 4e 38 09 be
       -0.5550749 0.32051012 -0.16144219 -0.13400385
000090 8a 50 08 3e 7a 7a ce 3e 8c 2c 5f bd 6a 8f 32 be
       0.13311973 0.40327817 -0.054485843 -0.1743752
0000a0 cb 8d 96 3e a6 ce 93 be 7e eb a0 3e ff 5d 88 bd
       0.29405054 -0.28868598 0.31429666 -0.06658553
0000b0 70 4a 0d 3e 21 c0 c3 3e 68 c2 9a 3c 8f 0a 99 be
       0.13797927 0.3823252 0.018891528 -0.29890868
0000c0 e1 69 83 3e a9 92 dc 3d 4d 28 5f 3c 09 03 45 be
       0.25666717 0.10770161 0.013620448 -0.19239439
0000d0 b0 b1 cc 3e 88 f4 d6 3d 13 d4 ba 3d 21 02 2f be
       0.39979315 0.104958594 0.09122481 -0.17090656
0000e0 94 05 33 3d 34 c4 90 3e 31 fc fd bd a3 12 99 3e
       0.04370649 0.2827469 -0.12401617 0.2989703
0000f0 ed 4a 12 3e e9 20 fd 3c c2 45 7d 3e fc 65 d4 3c
       0.14286394 0.030899482 0.24733642 0.025927536
000100 41 67 eb 3c dc 00 d1 3d b7 0e b6 3e ff eb 4a 3d
       0.028735759 0.10205242 0.35558102 0.04954147
000110 12 a7 0a 3d 36 46 a9 3e 72 ce 47 3e 38 55 56 3e
       0.033850737 0.3306138 0.19512346 0.20930946
000120 8f 51 41 3e 38 44 3c 3e 5a b1 ca 3e 26 34 c7 3e
       0.18878768 0.18385398 0.39588434 0.38906974
000130 a8 21 21 3e 4d b0 8b 3e f4 54 fa 3e 20 db c1 be
       0.15735495 0.27282944 0.4889294 -0.37862492
000140 d2 29 72 3e 20 96 72 3e d9 bc 93 3e 7a 22 f3 bd
       0.23648766 0.2369008 0.28855017 -0.1187181
000150 1e 3b b3 bd a9 ef 11 3f ad f9 c4 3d 7a f9 53 3e
       -0.0875151 0.5700632 0.096179344 0.20700637
000160 73 c3 99 3e 85 9b bf be e6 c0 5d 3e 98 3a e5 3d
       0.30031928 -0.3742334 0.21655616 0.111928165
000170 42 6b 9b 3e e5 34 75 be ae 9a ab 3e ea 08 a7 3e
       0.3035527 -0.23945959 0.3351645 0.32623988
000180 2c c1 82 3e 68 a8 e1 3e 9d b0 bb 3e 0a 90 60 be
       0.25538003 0.44073796 0.36658183 -0.21929947
000190 5b 89 42 3e e4 fd 54 3e 8b 90 79 3e 1c d2 a2 be
       0.1899771 0.20799977 0.24371545 -0.31800926
0001a0 d4 88 3e 3e cd b5 1c bd ad 7e e0 3e c0 a5 86 3e
       0.18606883 -0.038259316 0.43846646 0.26298332
0001b0 ca bf a0 3e 91 d6 ab 3e ba d0 1f bd f2 5d 83 bd
       0.31396323 0.3356214 -0.039017417 -0.06414403
0001c0 41 62 07 be e5 50 b9 bd 85 2e ce 3e b4 66 81 3e
       -0.13221075 -0.090486325 0.40269867 0.2527367
0001d0 dc d8 bb 3e c2 91 15 3e 62 66 95 be b5 9c 72 bd
       0.36688888 0.14606383 -0.29179674 -0.05923148
0001e0 8d 34 e4 3e fa 2d 4c 3d b5 ce 64 3e a6 68 c8 3d
       0.44571343 0.049848534 0.22344477 0.09785585
0001f0 ea e8 a9 be 3e 11 94 be 43 1e 8d 3e 4e 8c 21 bd
       -0.33185512 -0.28919405 0.2756215 -0.039440446
000200 42 82 82 3e 3f f5 04 3e aa b3 2c be b8 6d 97 3d
       0.25490004 0.12984179 -0.16865411 0.07393974
000210 26 00 14 3d e5 bb 55 3e 65 0b b1 3a 19 00 ad be
       0.036132954 0.20872457 0.0013507424 -0.33789137
000220 5b 6b 43 3e 5a ac 9e 3e 41 76 57 be a7 3d 9e 3e
       0.19083922 0.3099087 -0.21041204 0.30906412
000230 73 49 c9 be 90 be 2d bf 87 e0 f5 bd d3 86 69 bd
       -0.3931385 -0.678689 -0.12005716 -0.057013344
000240 7f 6e 13 3e 58 0e 6b be 55 34 a7 3e 31 b0 a6 bc
       0.1439762 -0.2295469 0.32657114 -0.020347686
000250 d3 0a 4d 3e d0 54 d4 3c 01 e9 b3 3b a0 77 e0 3e
       0.2002366 0.025919348 0.0054904227 0.43841267
000260 1b a3 74 3e 1f 36 71 be f6 7e 72 be 47 84 2c 3e
       0.23890345 -0.23555802 -0.23681244 0.16847335
000270 b8 80 a8 bd 56 99 94 3e a8 0f 8c 3d 60 43 cf 3e
       -0.08227676 0.29023236 0.06838924 0.4048109
000280 df 98 8f 3e 34 f9 5e b9 6a 63 9b 3d 8f bd ab 3d
       0.2804632 -0.00021264405 0.07587321 0.08385765
000290 93 3a 63 bd ea 6f a2 3e 85 e5 8e be 1a 82 9a bb
       -0.055475783 0.3172601 -0.27909485 -0.0047152163
0002a0 3e ea d8 be f1 a3 c2 be 34 31 c6 3d 35 2f 59 3e
       -0.42366213 -0.38015702 0.096773535 0.21209414
0002b0 46 ff 9a 3e d8 f3 63 3c 05 3d 15 3e 63 25 8d 3d
       0.30272883 0.013913117 0.14574058 0.068918966
0002c0 0d 30 b9 bd c2 41 34 3d 49 f9 24 be d7 83 c0 3e
       -0.09042368 0.044008024 -0.1611072 0.37600586
0002d0 15 b6 a6 3e ba 7e 68 be 60 82 10 3e f3 6d 1a 3b
       0.32560793 -0.22704592 0.14112234 0.002356407
0002e0 ae 0e 2c be 7f b1 44 be 70 db 0c 3e d8 62 93 be
       -0.16802475 -0.19208334 0.13755584 -0.2878635
0002f0 6e ac d8 3e bb 60 bb 3e 7f 15 87 3d 50 9b 9b be
       0.42319053 0.36597237 0.06595897 -0.30391932
000300 4c 67 63 be b2 58 9a bd 9b e0 4c 3d 57 b9 9b be
       -0.22207373 -0.075364485 0.050018888 -0.3041484
000310 43 2b 2d 3e b7 4a 2a be 8f 4a b7 be 69 ce 7c bd
       0.16911034 -0.16630064 -0.3579907 -0.061720286
000320 a6 17 ad 3e 63 2a b6 3d da 51 95 be 0b a0 02 be
       0.33807105 0.088948034 -0.2916401 -0.12756364
000330 9c d8 90 bd 58 df c4 be 4c 91 89 3e 44 a7 3d 3e
       -0.07072565 -0.38451648 0.26868665 0.18520838
000340 b6 6a e4 bc 47 fd 46 be 1b e8 0f ba 30 1a b5 be
       -0.027882915 -0.19432555 -0.00054896035 -0.35371542
000350 fe 86 d0 bb ae 4b 1c 3e 82 fa 00 3f f3 0a ae 3c
       -0.0063637486 0.15263245 0.50382245 0.021245455
000360 83 fb 40 3e 08 dc 6e 3e 29 42 67 3d d4 34 e7 be
       0.18845944 0.23326123 0.05645958 -0.45157492
000370 bb 96 90 3e 26 f3 03 3f 96 ce c8 3d 67 cf 82 3e
       0.28239998 0.5154289 0.09805028 0.2554886
000380 25 49 d5 3e 03 7f a0 3e 77 d3 8e 3e 94 fd ab be
       0.41657367 0.31346902 0.2789571 -0.33591902
000390 d3 45 2d be 31 f1 82 be 31 39 87 3e 05 6b 75 be
       -0.16921167 -0.2557464 0.2641082 -0.23966606
0003a0 db cb 27 be dd d4 e7 3b 89 b3 9e bd b1 f6 63 3d
       -0.16386358 0.007074936 -0.07749087 0.055655185
0003b0 39 f2 61 3e 75 ee 23 be 99 ca a6 3e a8 f6 3e bd
       0.22065057 -0.16008933 0.32576445 -0.04662195
0003c0 69 62 89 bd 18 e9 cb 3e ab 29 cd 3e 24 35 0d bd
       -0.067082234 0.39826274 0.40070853 -0.034474507
0003d0 70 8b a1 be f0 b7 31 be b3 92 ae bc 59 93 af 3d
       -0.31551695 -0.17355323 -0.021310186 0.08573026
0003e0 25 cd 2f 3e 93 98 77 be 79 73 82 be 79 1b c0 be
       0.171681 -0.24179296 -0.25478724 -0.3752096
0003f0 2c a8 67 3c ae aa e3 3d 9e 12 56 be 17 97 7c be
       0.014139216 0.11116539 -0.2090554 -0.24667011

net.2.weight f4 [256, 256]
000000 41 9b 27 3e c4 11 b5 be fe 5c a1 3d 4c 5e 01 be
       0.16367818 -0.35365117 0.07879065 -0.12633628
000010 85 9d e8 3e 36 bf c1 be 0f a2 86 bd 29 4d 6b 3e
       0.45432678 -0.37841195 -0.06573879 0.22978653
000020 d3 57 07 3d ab 6b 34 3d 98 6d f3 3d 3e 7a 2e be
       0.03304274 0.044047993 0.11886138 -0.17038819
000030 ae 75 77 3e b5 43 68 be fd 39 2c be 5b f6 8b be
       0.24165985 -0.22682078 -0.16818996 -0.27336392
000040 cf 27 74 3d f0 cb c0 bd 7f 90 eb 3c 8f 3c 8a 3e
       0.059608277 -0.09413898 0.028755425 0.26999328
000050 4d 9c 22 bd d1 e7 bf 3e 54 34 69 be 0e c7 06 bd
       -0.03969984 0.3748155 -0.22773868 -0.032904677
000060 80 aa 45 be 52 a4 6f bc 30 ec 27 3c f1 68 f0 3d
       -0.19303322 -0.014626579 0.010249183 0.11738766
000070 66 ba c8 3c 08 b2 41 be 88 3b 2f be b3 27 85 bd
       0.024502944 -0.1891557 -0.17112553 -0.06501713
000080 e1 00 02 be 2e ae 4f 3d c1 b4 54 3e 42 d7 11 bd
       -0.12695648 0.05070322 0.20772077 -0.035605676
000090 1a 7a dd 3d 96 c1 bd 3c 71 eb 1f 3d 5b de 86 bf
       0.10814305 0.023163598 0.039042894 -1.0536608
0000a0 2d f2 aa 3c f9 25 96 3c 2a f8 55 3c 42 9c 26 3e
       0.020867432 0.018328654 0.013059655 0.16270545
0000b0 17 65 da 3d a0 37 c6 3d 2a a8 da 3d 3a 91 80 3d
       0.106638126 0.096785784 0.10676606 0.062777
0000c0 ef 80 40 3d 93 8b c4 3c 82 b6 dd 3a c9 53 2b 3e
       0.04699796 0.023992335 0.0016915353 0.1673118
0000d0 2d bc 35 3c b5 17 a2 3d c8 44 b9 3e a1 cd ad 3c
       0.011092228 0.07914678 0.36185288 0.021216216
0000e0 23 7d d6 3d 61 66 8d bd b4 1a b2 3d 8e 6e 29 3d
       0.10473087 -0.06904293 0.086964995 0.0413652
0000f0 7c f9 76 3d da 42 fc bd 24 ef 81 bb ad ef 30 3e
       0.06029652 -0.123174384 -0.0039652754 0.17278929
000100 1e 4a 8a 3c 78 71 87 3d dd 43 c7 3d 9e a8 03 3f
       0.016881045 0.06613439 0.09729741 0.51429164
000110 bb d6 e2 bd ff ff 83 bd 63 35 cd 3c 23 9b 23 be
       -0.11076113 -0.06445312 0.02504987 -0.15977149
000120 0f 8e b9 bd 77 a2 8a 3d b3 91 67 bd e6 14 5f 3c
       -0.09060299 0.06769269 -0.056535434 0.013615822
000130 e3 cb a6 bd 8e a9 48 3e 05 2c c5 bd 9c ef 31 bf
       -0.08144357 0.1959593 -0.09627537 -0.6950624
000140 e2 03 94 3d 7e 59 5c be c0 bd c1 3e 24 65 fc bd
       0.07227303 -0.21518514 0.3784008 -0.123239785
000150 ad 64 98 3d 24 f3 2a 3c bb ef 2b 3e 27 75 be 3d
       0.074410774 0.010433946 0.16790669 0.09299689
000160 36 99 4b 3d 47 e0 7e 3d 7e 13 97 bc 92 5f f1 3d
       0.04970666 0.062225606 -0.018441912 0.11785807
000170 09 fd 3b 3e f8 2c 1d 3e 41 2e 0f be 34 00 39 be
       0.18358244 0.15349185 -0.13982488 -0.18066484
000180 41 8d 91 3c 30 60 96 bd 40 29 03 3d e2 72 66 3e
       0.01776755 -0.07342565 0.03202176 0.22504762
000190 e0 ee ec 3d e2 aa d2 3d 8a 60 97 3d bb c5 94 bd
       0.11568999 0.102864996 0.0739146 -0.072642766
0001a0 4c d8 8d be d5 29 83 be e9 e0 8a bd 4e f4 d0 bd
       -0.27704084 -0.25617853 -0.067811795 -0.102028474
0001b0 80 ee 29 3d 3f 7c b3 bd b3 12 ef be c3 e5 2d be
       0.041487217 -0.087639324 -0.46693954 -0.16982178
0001c0 4e cf cf 3d a7 e2 bc 3c eb 65 b6 bd 04 2e d6 3d
       0.10146962 0.023057295 -0.08906158 0.104579955
0001d0 4d 86 0d bd f8 9e 25 be 27 19 67 be 2d 73 c2 3d
       -0.034551907 -0.16173923 -0.22568189 0.09494624
0001e0 76 c7 bc 3d 0a d4 8b 3d 18 10 3d bd bc 67 06 3e
       0.09217732 0.068275526 -0.046157926 0.13125509
0001f0 c3 dd d3 3e bc 36 7c 3c f0 ed 78 bd 15 41 0b 3e
       0.41380128 0.015393909 -0.06077379 0.13599046
000200 45 75 93 be 2b c5 21 3e 61 86 c9 bd c4 5d 6c 3d
       -0.28800407 0.1579787 -0.09840084 0.05770661
000210 c1 b3 30 3d e5 16 1f 3e 61 6f 89 3e 5f 1c 61 bd
       0.043140177 0.15536077 0.26842788 -0.054958697
000220 39 04 dd 3d b7 5b 1a 3e e0 f8 a3 3b 56 b4 a8 bc
       0.10791821 0.15074049 0.0050040334 -0.020593803
000230 ce 27 12 3d d9 73 0f bf 90 3b c5 3c fd b7 cb 3d
       0.035682492 -0.56036144 0.024076253 0.09947202
000240 87 94 9d 3d 0a 5b d9 3e 5a 1e d6 bc e3 64 92 3d
       0.07694345 0.4245227 -0.02613752 0.07148149
000250 00 46 19 bd 7c 62 e4 3c 4c ce 79 3e dd 46 44 be
       -0.037420273 0.027878992 0.24395102 -0.19167657
000260 ff 1e a5 3d 7a 5f 8b 3e 69 f4 76 3e e7 64 76 be
       0.08062553 0.2722128 0.24116673 -0.24061929
000270 c8 e3 ed 3d af 7b 91 bd 70 c6 a3 3d 4d 1c 7b 3e
       0.116157115 -0.07103669 0.07996833 0.24522515
000280 ab ad d9 bd 9a 5b 63 be e8 f1 b0 3d 1d ab 64 bd
       -0.10628828 -0.22202912 0.0863989 -0.05582725
000290 43 fe e1 3d ab 30 a8 bc 28 ae 82 3e 25 80 53 3c
       0.11034825 -0.02053102 0.25523496 0.01290897
0002a0 2c 39 15 bf 67 bb e6 3d b0 6f dc 3d 0f 94 2a bd
       -0.5829036 0.11266213 0.1076349 -0.041645106
0002b0 21 95 da bd b6 0d 95 bc 55 4f d6 3d 3b bf 26 bf
       -0.10672975 -0.018195014 0.1046435 -0.65135545
0002c0 4f b5 fd bd 9d 57 de 3e c2 6c 18 3e 55 c0 b4 3d
       -0.123880975 0.4342622 0.14885238 0.08825747
0002d0 5a 32 9c bd fe 26 d2 3c 57 08 0e 3d c0 64 45 be
       -0.07626791 0.025653359 0.034675922 -0.19276714
0002e0 26 61 db 3d e6 54 86 bd 6c c8 b3 bc bd ab 91 be
       0.10711889 -0.06559162 -0.021946155 -0.28451338
0002f0 c9 d5 e6 3b 3f 05 9f bc 5f e7 c7 bd 7c 14 37 3e
       0.007044528 -0.019411681 -0.097609274 0.17878908
000300 04 c2 ec 3c a7 8e 22 3e ee b9 da 3d b6 23 ef 3c
       0.028901108 0.1587473 0.106799945 0.029191833
000310 38 0b 0e 3d 20 b1 b9 bc 54 37 72 be 13 67 25 3e
       0.034678668 -0.022667468 -0.23653919 0.16152601
000320 05 5a b9 3c 5a 4e 88 bc 58 ef 8b 3d 20 8e 4d 3d
       0.022625932 -0.016638923 0.068327606 0.05018437
000330 cc ec e1 bd 97 40 3b bf 1f b5 05 be 18 bd af 3d
       -0.110314935 -0.7314543 -0.13057373 0.08580989
000340 08 8a 47 3e 6d 0a 37 3b 15 d6 92 3e 49 66 79 3e
       0.19486248 0.0027929798 0.28678957 0.24355425
000350 de 20 37 3d ba fe 46 be 37 6b ba bc 99 7b b5 3d
       0.04470908 -0.19433108 -0.022756202 0.08861465
000360 e1 bb 34 3e 03 4a 5e 3e 62 dc 4b 3c 04 48 f4 bd
       0.17649795 0.2170792 0.01244268 -0.119277984
000370 42 03 12 be c0 df 1e 3c e9 6e 9c 3d 48 40 57 3c
       -0.14259055 0.009696901 0.07638342 0.013137884
000380 1b be 9a 3d 0f 08 ba bc 7f 1a bc bd 7c e1 69 be
       0.07555791 -0.02270892 -0.09184741 -0.22839922
000390 58 d8 aa 3e fa 86 94 3e 4f 9c 8b 3d 95 bb 14 3e
       0.33368182 0.2900923 0.06816923 0.14524682
0003a0 6b 5a 95 bd 2d 01 ee 3c 74 68 8e be ea d2 1b bd
       -0.072926365 0.029053295 -0.27814066 -0.03804294
0003b0 c8 d3 7b 3e 5f 68 2f 3e 55 4b a6 3d ad 94 64 be
       0.24592507 0.17129658 0.08119837 -0.2232234
0003c0 9e 05 05 bf 99 ed fe 3c c0 85 ca bd 4d 75 1e 3c
       -0.51961696 0.031119155 -0.09888792 0.009671521
0003d0 fb 86 28 be 2b 03 a3 bd 3a a6 da 3c e4 49 62 3e
       -0.16457741 -0.079595886 0.026690591 0.220985
0003e0 39 a0 ed 3d b5 14 82 b8 a9 cf 84 3d ef d4 16 3e
       0.11602826 -6.20274e-05 0.064849205 0.14729665
0003f0 2d 80 20 3c cb 8a a6 3d 91 2c d8 bd 49 8b cf 3c
       0.0097961845 0.081319414 -0.10555375 0.025334971

net.2.bias f4 [256]
000000 a4 c3 f5 bc f0 af 0f 3e 58 e7 9e 3d 26 8b f8 bd
       -0.030000515 0.14031959 0.07758969 -0.121359155
000010 f3 47 0b 3d 63 ed 32 3e 36 fd c0 3b be 60 2a 3e
       0.034004163 0.17473368 0.00588956 0.16638467
000020 8c 2a 1c 3d 8e 2c 2b 3e fb ad 55 3d 5a 02 05 bb
       0.038126513 0.16716215 0.052167874 -0.002029559
000030 64 82 f4 bc b5 5a 8d 3d 55 ac 1b 3b ba 17 51 bc
       -0.029847331 0.069020666 0.002375384 -0.0127620045
000040 02 63 74 bd 09 d3 37 bd e1 67 38 3d 9d 5f d3 bc
       -0.059664734 -0.044878993 0.04502094 -0.025802428
000050 4f 41 e4 bc f3 b4 03 3e 3f c8 59 bc f3 52 91 3c
       -0.027863173 0.12861995 -0.013292371 0.017739749
000060 ca 39 06 bd 13 24 80 3d 6e ed 75 3d b3 59 43 3c
       -0.032769956 0.062568806 0.060040884 0.011923241
000070 5c 61 01 3d 4d b4 83 3d 86 b0 fc bc 1d ff d9 bd
       0.03158699 0.06430874 -0.030845892 -0.10644362
000080 aa 18 bc 3d b9 2e e1 3d 0a 66 41 3d 1b 6b dc bc
       0.09184392 0.1099524 0.047216453 -0.02690654
000090 1d f2 9f 3c 3e ec 9e bb 58 b6 de bc f6 ef 08 3d
       0.019524628 -0.0048499396 -0.027186558 0.03343197
0000a0 04 06 07 3e 42 6a fd 3c d1 fe 4a 3e c7 55 c4 3d
       0.13185889 0.030934457 0.19823767 0.09586673
0000b0 3d e8 c0 3c 63 c7 48 bd 6c 63 95 3c f3 89 d9 3c
       0.02354824 -0.049018275 0.018235885 0.026555037
0000c0 54 48 0c bd f2 8e c1 bb d9 02 07 3e 96 60 9b bd
       -0.034248665 -0.005906933 0.1318468 -0.07586782
0000d0 b6 79 c1 3d 79 61 af ba a5 29 f2 bc 16 24 ba 3d
       0.09447043 -0.001338049 -0.029560873 0.09088914
0000e0 28 65 1c 3e d3 4c bd 3d 4e db 39 3c 3d b7 64 bd
       0.15272963 0.09243169 0.01134379 -0.055838812
0000f0 ca f9 dc 3c 61 cc 79 bd 40 da 00 3e 9b 73 a3 3d
       0.026974577 -0.060985927 0.12583256 0.07981034
000100 e5 25 a6 bc b4 af 11 3e d2 4a 17 3e 06 5c 67 3c
       -0.020281741 0.14227182 0.14774635 0.014121061
000110 0f 47 07 3c be 0d d4 bc 71 e2 33 3c dd 78 3b 3d
       0.008256688 -0.025885459 0.010979281 0.04576956
000120 db cf a7 bd b2 75 26 bd c3 7a 2d bc 17 a2 92 bd
       -0.08193942 -0.040639587 -0.010588351 -0.071598224
000130 f5 a3 b3 bd b2 f7 23 3d ac 24 04 3d 13 b9 13 3d
       -0.08771507 0.040031143 0.032261536 0.036065172
000140 ee 25 a6 3d c3 5c 4e 3c 6d 32 48 3c 8b ae fa 3d
       0.08112703 0.012595358 0.012219054 0.12240323
000150 40 de d0 3d fa cf 05 bd 74 39 8c 3d 0e 14 83 3c
       0.10198641 -0.032669045 0.06846896 0.016000774
000160 5a 76 1c bd 2d 8e 2e ba 93 14 1b 3e b2 af 8c bd
       -0.038198806 -0.0006658759 0.15144567 -0.06869449
000170 c8 be 2c 3e ce f7 80 bb 81 01 89 3d 55 5a c2 bc
       0.16869652 -0.0039357906 0.0668974 -0.023724714
000180 50 63 4c bd 17 08 70 3d ec 7f 08 3e de 2c d1 bd
       -0.0498994 0.058601465 0.13330048 -0.10213636
000190 af a2 35 3d 15 38 5d bd 4c 2f c4 bd c7 e9 53 3e
       0.0443446 -0.054008562 -0.09579334 0.20694648
0001a0 df 44 33 3e e8 71 4c 3d 5f a6 4c 3e b6 cd 3d 3d
       0.17506741 0.049913317 0.1998534 0.04633876
0001b0 21 39 8d 3d 70 b5 84 bd a9 a1 5f 38 8b 4a f8 bc
       0.06895662 -0.06479919 5.33179e-05 -0.030308982
0001c0 90 33 d7 ba be d5 fc 3d dd b4 e9 3a 2f d3 86 3d
       -0.0016418565 0.123454556 0.0017830391 0.06583249
0001d0 20 a7 5c bd 3c e9 88 bd 9b ab a6 bc aa 0d b3 3c
       -0.05387032 -0.06685111 -0.0203455 0.021857101
0001e0 15 e4 56 3d ab 0e 14 be 24 02 e2 bc b4 5b 3c 3e
       0.05246361 -0.1445872 -0.027588911 0.18394357
0001f0 78 72 c1 3d e5 a2 f4 bc 5d 1d 48 3d e8 49 5f bc
       0.09445661 -0.02986283 0.048856128 -0.0136284605
000200 26 70 f2 bb 82 c2 11 3d 62 d6 3c 3c c5 a9 f1 3b
       -0.007398623 0.035585888 0.011525722 0.0073749744
000210 2b b3 ca 3d b5 56 a3 3d 6b 1c 92 3d b0 aa 53 3e
       0.09897455 0.079755224 0.071343265 0.20670581
000220 10 a9 0b be 7e e3 87 3c 57 65 aa 3d 11 2b 2f 3d
       -0.13638711 0.016587969 0.0832011 0.04276568
000230 91 4c 02 bd d4 55 8d 3d 8f d5 33 3e fa 0a 71 bd
       -0.0318113 0.06901136 0.17561935 -0.05884836
000240 11 3e 59 bc c8 99 b0 bc 47 a3 6a 3d f4 cc d0 3c
       -0.013259427 -0.021557704 0.05728462 0.025488354
000250 50 33 03 bd 50 56 b2 ba 34 a0 90 3d da e2 6c bd
       -0.032031357 -0.0013606045 0.07061806 -0.05783353
000260 ef f9 17 be 4d 9e a2 3d 8c c9 ed 3d 81 a5 f7 bc
       -0.14841436 0.0794035 0.11610708 -0.030230286
000270 f9 a9 c7 3c c2 0f 21 3d 57 1e 42 3e e6 53 d8 bc
       0.024373041 0.03932167 0.18956886 -0.026407193
000280 97 4c b7 3d 62 b3 04 3d c3 26 05 3e 32 e5 85 3d
       0.08950155 0.032397635 0.13003068 0.06537856
000290 37 51 e8 3c ae be 73 3d 37 0b 69 bd 1c 6f d0 3c
       0.028359039 0.05950802 -0.05689546 0.025443606
0002a0 9e 2f f1 bc 3c c9 a1 bd ff 72 2f bb 97 fb ec 3c
       -0.029441651 -0.078997105 -0.0026771424 0.028928561
0002b0 fa 39 32 bd e0 80 e8 bc fe 7e b1 3d 23 9f 27 bd
       -0.043512322 -0.028381765 0.086668 -0.04092325
0002c0 5b 45 b4 3c e5 59 08 3d 7c 0f b7 3d 5c cd a0 bc
       0.022005728 0.033288855 0.089385 -0.019629173
0002d0 4c f2 04 3e 15 c6 59 3d ea 3e 64 bc 58 86 42 3c
       0.12983054 0.05316742 -0.0139310155 0.01187285
0002e0 01 1a 9e 3b 6e f2 4d 3d 3b ad 8a bd 8d eb df bd
       0.0048248773 0.050280027 -0.06771322 -0.109335996
0002f0 de 74 1c 3c 4f ce 45 bd 3a 27 a9 bc 28 a4 1c 3d
       0.009549348 -0.048292454 -0.020648587 0.03824249
000300 be 8e 17 bd 55 bb ad bb df f5 84 3d 29 77 b0 3d
       -0.037001364 -0.0053018727 0.06492209 0.08616478
000310 7f 6a 5b 3d 89 d4 63 3c cd 0c db 3c f2 16 12 3d
       0.05356836 0.013905653 0.026739502 0.035666414
000320 4c 89 01 3e ab 11 5f bd 76 e5 16 bd 44 1c 53 3d
       0.12650031 -0.05446021 -0.036839925 0.051540628
000330 28 a8 31 3e 10 89 32 3e 93 de f4 bc 1b a6 cc 3c
       0.17349303 0.17435098 -0.029891288 0.024981549
000340 58 e7 74 bd ca 1e c6 3d ea 99 cc bb 9a 28 4d bd
       -0.05979094 0.09673841 -0.006243934 -0.05008755
000350 3c 38 31 3d 83 15 3e 3e 9c be b0 3c 9e 66 1d 3d
       0.04326652 0.18562894 0.021575265 0.03842794
000360 97 f2 93 3d 58 01 45 bd 6b 6e 05 bd c3 33 71 3d
       0.07224005 -0.048096985 -0.032576006 0.058887254
000370 39 f1 ec bd 7f c3 b3 bd 40 2c 7c bd e8 3b dc 3d
       -0.11569447 -0.08777522 -0.061565638 0.10753614
000380 18 7a 4c bc 61 f9 cc 3b ae 54 21 3c 6a 3f af bd
       -0.012480281 0.006255314 0.009846849 -0.08557017
000390 e9 03 21 3e 78 19 29 bc 28 78 89 bc ce cc a9 3d
       0.15724148 -0.010321014 -0.016780928 0.082910165
0003a0 08 3b 08 3c 8c 1d e1 bc 58 00 28 bd da 53 8b 3d
       0.008314855 -0.02747991 -0.041015953 0.06803103
0003b0 75 85 6a bd f6 67 52 bd d1 40 43 3e 41 cb 67 3d
       -0.05725618 -0.051368676 0.19067694 0.056590322
0003c0 a4 25 84 bc 02 de 5b 3b b4 bb aa 3d 99 70 8e 3d
       -0.01613123 0.0033549075 0.08336583 0.0695507
0003d0 81 6a 27 bd 55 10 28 3e c1 ca 28 bc 5c a4 b3 3b
       -0.040873054 0.1641248 -0.010302247 0.0054822396
0003e0 75 6f bd 3d af 53 6e bd b4 fa 7d 3d 24 02 be 3c
       0.09249774 -0.058185276 0.062006667 0.02319438
0003f0 4e cf 70 bd 98 ac f0 bc ae 2a 26 3d c8 37 fc 3d
       -0.05879145 -0.029379174 0.040568046 0.12315327

net.4.weight f4 [4, 256]
000000 da d9 c9 3e 7a ff d2 be 14 3c 34 bf cf 05 9e be
       0.3942402 -0.41210538 -0.7040417 -0.30863807
000010 8a fb 8e be e4 2c c6 3e 8f e0 9f 3e 57 6e fc 3e
       -0.27926284 0.38706124 0.31226012 0.49302933
000020 be ce 40 bd fc 0a 9b 3e b1 a4 b4 be 99 de ba be
       -0.047072165 0.30281818 -0.352819 -0.36497954
000030 55 14 86 3b 6f e7 ea be a7 26 af be 9f 69 cb 3e
       0.0040917792 -0.45879695 -0.34209177 0.3972902
000040 b7 7d 2b 3d e1 d0 a8 be 08 90 b0 be 7f 03 1d 3e
       0.041867938 -0.32971862 -0.34484887 0.15333365
000050 ca bc 07 3f 5c 18 fc 3e 90 9a b9 be 11 8a 47 3f
       0.53022444 0.49237335 -0.36250734 0.7794505
000060 ef 17 20 bf 1b 37 4f be ff d3 84 3e 75 c6 95 be
       -0.6253652 -0.20235865 0.2594299 -0.29252973
000070 92 72 e0 be 84 76 24 bf 38 55 88 be bf ec 22 bf
       -0.4383741 -0.6424334 -0.26627517 -0.63642496
000080 85 b2 79 be d2 56 e6 3e 47 10 b2 bc fd 85 94 3f
       -0.24384506 0.44988114 -0.021736277 1.160339
000090 37 81 5c be b4 4f 67 3d 76 77 d2 3e 68 34 92 be
       -0.21533667 0.056472495 0.41106766 -0.28555608
0000a0 62 a6 b2 3e 63 31 f3 3e 4a 48 96 3e 3c cc a6 3e
       0.34892565 0.47498617 0.29352027 0.32577693
0000b0 db a5 22 3f bd 75 93 3e 45 6e 28 3d a7 0f 5c be
       0.63534325 0.28800765 0.041120786 -0.21490346
0000c0 ea c4 82 3f ab 57 06 3f 28 7d ea 3e 91 a7 d6 bb
       1.0216343 0.5247752 0.45798612 -0.006550737
0000d0 65 df 0f bc dd 6c 46 3f 82 ff a3 be fe 31 66 be
       -0.008781289 0.7750986 -0.32030874 -0.22480008
0000e0 6f cc 28 be 89 d2 d5 be 2c b0 00 bf 24 d6 79 3d
       -0.16484235 -0.41762188 -0.50268817 0.060995236
0000f0 a9 17 51 bd 70 3b 04 bc 36 33 d7 be 4e 52 11 bf
       -0.051047955 -0.008070812 -0.42031258 -0.5676621
000100 cf 70 c6 3c 8b f2 b3 3e 19 3f 05 3f d5 9f de be
       0.024223713 0.35145983 0.52049404 -0.43481317
000110 ad 8e bb be a1 e0 e0 bc c7 7e a4 3f 14 a8 b3 bb
       -0.3663229 -0.027450861 1.2851189 -0.005482683
000120 f5 b0 a7 be bc 90 d6 be 72 40 fb 3c 8a c8 49 be
       -0.32752195 -0.419073 0.030670378 -0.19705406
000130 d3 a0 8b be b0 f2 03 3f b3 8c aa be 75 91 05 3f
       -0.27271137 0.51542187 -0.3331047 0.52175075
000140 ae d4 40 3f c7 5c 62 3d e8 1b 30 be 2c e4 d5 3e
       0.75324523 0.05526426 -0.17198145 0.41775644
000150 66 82 ce be ba a6 9e 3c 5b e4 30 3f cb d3 d7 be
       -0.4033386 0.01936661 0.6909844 -0.42153773
000160 11 cd c4 be 52 c2 ad be 7c 44 9f 3e 52 e1 17 3d
       -0.38437703 -0.33937317 0.31106937 0.037080117
000170 ff 79 91 3e 05 32 45 3f 06 b2 e0 be b9 1e 17 bf
       0.28413388 0.7702945 -0.4388582 -0.59031254
000180 1e 7e bb be d4 15 6d be 86 12 bf 3e ae 46 46 bf
       -0.36619657 -0.23152858 0.3731882 -0.774516
000190 e1 26 b7 be da 50 53 3d 96 09 99 be 02 5b a4 3e
       -0.3577185 0.051590778 -0.29890126 0.32100683
0001a0 b6 50 f1 3d c5 7e 08 bf 75 3f d0 3e fd ba 60 be
       0.117829725 -0.53318435 0.40673414 -0.2194633
0001b0 9c d0 09 bf 60 e3 44 bd 5c 37 19 bf 60 a2 15 bf
       -0.5383394 -0.048068404 -0.59850097 -0.5845089
0001c0 6a 71 06 3f 37 52 05 be 4a a7 43 bc a5 23 29 3e
       0.52516806 -0.13019644 -0.01194174 0.16517504
0001d0 7a f8 12 3f 55 d4 1f 3f a0 5c 7f be 3b 19 a0 be
       0.57410395 0.6243337 -0.24937677 -0.3126925
0001e0 6e 79 e1 be 68 e4 4b bf 9b bb fc 3e 90 b4 f6 3e
       -0.44037956 -0.79645395 0.49361882 0.48184633
0001f0 8d 16 ef be 46 eb 32 3d b3 f7 bd be 72 5b 54 3d
       -0.46696892 0.043681405 -0.37103042 0.05184502
000200 1b a2 0c bf 78 76 31 be d1 82 11 bd e3 f7 04 3d
       -0.54934853 -0.17330348 -0.035525147 0.032462966
000210 f2 6d c9 3e 44 16 18 3f fd 7b 00 bf 35 e8 3c 3f
       0.39341694 0.59408975 -0.5018919 0.7379182
000220 e5 97 30 bf f7 56 c3 be 1b 86 41 3f 70 77 ea 3e
       -0.6898177 -0.38152286 0.75595254 0.4579425
000230 a1 04 cc 3e 34 02 ab be ef 4a a0 3e 71 01 17 3f
       0.39847282 -0.33400118 0.3130717 0.58986574
000240 0b 63 cb be bb 1d ba 3c f7 1c 8d be 10 e0 d9 be
       -0.39724 0.022719255 -0.2756116 -0.4255376
000250 72 fc de 3c 0b fa fe 3e 30 c8 84 be 54 19 09 bd
       0.027219985 0.49800143 -0.2593398 -0.03347142
000260 0a 1d 03 bf 70 3f ee 3e 0f 79 c1 3e d9 a0 41 3d
       -0.51216185 0.46532774 0.37787673 0.047272537
000270 84 70 10 3c 3b 0a cf 3e 56 c0 98 3e 61 7e 79 3e
       0.008815888 0.40437493 0.2983424 0.24364616
000280 b6 2e 40 3f a4 71 53 be a2 cd 15 3f 43 2d ae be
       0.75071275 -0.20648819 0.58516896 -0.34018907
000290 04 fe 0c bf a7 f7 a9 be d0 27 b1 bc b0 e9 c7 bd
       -0.550751 -0.33196756 -0.02162543 -0.09761369
0002a0 89 7a 18 3d 70 d8 96 bd 12 f6 03 3c 5e 0b a8 be
       0.037226234 -0.07365501 0.008054273 -0.32821172
0002b0 7e 09 0a be 7e 1b f0 3d 1f 7b b8 be 54 33 08 3d
       -0.13480183 0.11723994 -0.36031434 0.033252075
0002c0 08 cd f4 be 02 cc 21 3d 7a 50 10 bf 17 00 fb 3e
       -0.47812676 0.039501198 -0.563728 0.49023506
0002d0 17 06 16 3f 67 fa 18 bf 45 b7 20 bf 1a a8 d6 3e
       0.5860304 -0.59757084 -0.6277965 0.41925126
0002e0 d5 c6 37 3c 7e 3a cf be 22 af 98 3c 6a e8 81 be
       0.011216839 -0.40474313 0.018638197 -0.2537263
0002f0 88 75 97 be 7c 25 d1 be 47 e2 69 3f 76 3d f8 be
       -0.29581857 -0.4084891 0.91360897 -0.4848439
000300 f9 17 59 be 53 60 14 bf 39 06 c7 be 7e 5a ed 3e
       -0.21200551 -0.5795948 -0.38871935 0.46358103
000310 0c ad 2e 3f 4b 6f 07 bf 77 77 65 3c 99 e4 46 be
       0.682328 -0.52904195 0.014005533 -0.1942314
000320 cf 3a 01 3f 5c ab 5b bf d8 27 ca be 7c 04 d3 3e
       0.5048036 -0.8580835 -0.39483523 0.4121436
000330 79 5b f6 3e ec 71 8c 3e b3 c1 f8 be 21 ae 12 3d
       0.48116663 0.27430665 -0.4858528 0.035810594
000340 62 a1 3b bd db 56 30 be b6 90 13 3e a4 25 fb be
       -0.045808204 -0.17220633 0.14410672 -0.49052155
000350 6d 17 b2 be 89 f2 86 3e fa 40 fd 3e 1e dc d1 be
       -0.34783497 0.26356915 0.49463636 -0.4098825
000360 e4 1c f7 3e 74 93 ea bc 5c b7 cc be 64 a4 94 be
       0.4826423 -0.028634764 -0.39983642 -0.2903167
000370 b0 8e 35 bf fc ed 26 be 3b 66 4f 3d e9 8c 9c 3f
       -0.7092085 -0.16301721 0.050634604 1.2230502
000380 29 f2 05 bd b8 63 e1 3e e2 6c 0d bf e7 2b cf be
       -0.032701645 0.44021392 -0.55244267 -0.40463182
000390 72 da c6 3e 86 4f b9 be 4e d8 0a bf ed 34 9c be
       0.38838536 -0.36193484 -0.54236305 -0.3050913
0003a0 a6 fd 6e be 6d c2 06 bf 1f a5 d3 be a7 88 ec be
       -0.23338947 -0.5264042 -0.41336915 -0.46198007
0003b0 89 f2 90 3d 1c 7d 3d bf f0 c3 cd 3e d1 17 b4 3b
       0.0707751 -0.74019027 0.4018855 0.005496003
0003c0 80 59 df 3e 99 da 33 bf b7 5e 10 3f f4 a5 27 bf
       0.4362297 -0.7025543 0.56394523 -0.654876
0003d0 89 46 cb be 9f a6 09 3f 83 e7 a6 3e 12 66 21 3e
       -0.39702252 0.5376987 0.32598504 0.15761593
0003e0 b7 e7 1d bf 15 5f 44 be b2 b4 d3 3e 77 ef 68 3d
       -0.61681694 -0.19176896 0.41348797 0.056868996
0003f0 bf 00 41 be 3a 15 aa be 98 5f 00 bc cc 5d 66 3f
       -0.18847941 -0.3321932 -0.007835291 0.8998687

net.4.bias f4 [4]
000000 3c c8 3f bc 36 85 b1 3d 86 55 8e 3d 0c 30 66 bb
       -0.011705454 0.08667986 0.06949906 -0.0035123853
