drafts/draft_rk/runs_lunarlander/dqn_trial05_seed42.pth (torch, 279705 bytes, 6 tensors)

net.0.weight f4 [256, 8]
0	0x3db12077	0.0864877
1	0x3ebf4615	0.37358156
2	0x3d8f4abb	0.069966756
3	0x3f17c1f7	0.5928034
4	0xbe15fc52	-0.14647034
5	0x3dc7f608	0.097637236
6	0xbf1200b2	-0.5703231
7	0xbe73b33d	-0.23798843
8	0x3efe195d	0.49628726
9	0xbe881709	-0.26580074
10	0x3f182ac8	0.5944028
11	0xbe2a03c6	-0.16603002
12	0xbe159259	-0.14606608
13	0x3d98de0c	0.07464227
14	0x3e984529	0.29740265
15	0x3dae0107	0.0849629
16	0x3ecb2169	0.39673927
17	0x39cc28d4	0.0003894033
18	0x3db084c2	0.086190715
19	0x3da2fd00	0.07958412
20	0x3f22567a	0.634132
21	0xbdb7ca49	-0.0897413
22	0xbe5f7fe6	-0.21826133
23	0x3f153b38	0.58293486
24	0xbd7e9a7f	-0.062159058
25	0x3d094a0d	0.033517886
26	0xbe361ee6	-0.17785224
27	0xbecf8c6b	-0.40536818
28	0x3f5899bd	0.84609586
29	0xbf030eef	-0.5119466
30	0x3e842a2f	0.25813434
31	0xbe4f7fc0	-0.20263577
32	0x3d6b44b2	0.05743856
33	0x3dfb5d86	0.122736976
34	0xbe322d54	-0.17400104
35	0x3ea50d09	0.32236508
36	0x3e60899c	0.21927494
37	0x3f18caa5	0.5968421
38	0x3f01d001	0.50708014
39	0xbed397b4	-0.41326678
40	0x3dcbd67d	0.0995302
41	0xbed1b097	-0.4095504
42	0x3e07de78	0.13268459
43	0x3fb2f821	1.3981973
44	0xbd0d2df0	-0.034467638
45	0xbec97440	-0.39346504
46	0x3f047762	0.51744664
47	0x3e390bd5	0.1807092
48	0xbe03140d	-0.12800618
49	0xbed2fdcb	-0.41209254
50	0xbe9a5737	-0.30144665
51	0xbf1da1f6	-0.6157526
52	0x3ca6959f	0.020335017
53	0x3e9e68e0	0.30939388
54	0x3e6eb5ce	0.2331154
55	0x3eabd128	0.3355801
56	0xbd6c915f	-0.057755824
57	0x3d82df8b	0.06390294
58	0x3f06f7b3	0.5272171
59	0xbf3f67bb	-0.74767655
60	0xbe5a9e87	-0.21349536
61	0xbf7b2989	-0.9811025
62	0x3d05017b	0.032472115
63	0xbe23926c	-0.15973824
64	0xbe26e444	-0.16298014
65	0xbdc600b4	-0.09668103
66	0x3d8f8dfd	0.07009504
67	0xbc21fa5b	-0.00988635
68	0xbf045dd1	-0.5170565
69	0xbef03e1d	-0.4692239
70	0x3ef1c2f0	0.47219038
71	0x3ead6034	0.3386246
72	0x3ef8f2e8	0.48622823
73	0xbe88b4bd	-0.26700392
74	0xbee0ad03	-0.43881997
75	0xbf0ea4c5	-0.5572017
76	0xbe8dcc1a	-0.2769478
77	0x3d370a42	0.044687517
78	0x3e123a9d	0.14280172
79	0x3ea08dc2	0.31358153
80	0xbdf082a3	-0.11743667
81	0xbf175658	-0.59116125
82	0x3e2a5f70	0.16637969
83	0xbf029280	-0.5100479
84	0x3eca451d	0.39505854
85	0x3e4ed019	0.2019657
86	0x3e9582a6	0.2920124
87	0xbc76dd2d	-0.015067381
88	0xbdd50195	-0.104006924
89	0x3e575f86	0.21032533
90	0x3db3fa21	0.08787943
91	0xbdafceec	-0.08584389
92	0x3dfb54b4	0.12272015
93	0x3f23bd71	0.6396094
94	0x3e3709f8	0.17874897
95	0xbf81ba0e	-1.0134904
96	0x3efffdaf	0.49998233
97	0x3c4c860b	0.01248313
98	0xbea7aa04	-0.327469
99	0xbf08e0d1	-0.5346804
100	0x3a3b60dd	0.00071479176
101	0x3d4fc3eb	0.05072395
102	0xbe186315	-0.14881547
103	0xbf3aa0b6	-0.72901475
104	0x3d3901be	0.045167677
105	0xbf0900f2	-0.5351707
106	0xbea92989	-0.330395
107	0xbf0b32f4	-0.54374623
108	0x3e4f47a4	0.20242172
109	0xbeb34a85	-0.3501779
110	0x3ef8d825	0.48602405
111	0xbd8f0ef1	-0.06985272
112	0x3e3cfe39	0.18456353
113	0xbeac04d8	-0.33597445
114	0xbe11f5b7	-0.14253889
115	0xbf177a35	-0.5917085
116	0x3e8349ea	0.2564233
117	0xbe19ba66	-0.15012512
118	0xbf563113	-0.8366863
119	0xbdfbd224	-0.122959405
120	0xbdaab046	-0.08334403
121	0xbe9a914f	-0.30188987
122	0xbcf5f70c	-0.030025028
123	0xbed97f7a	-0.4248007
124	0xbe86c0c1	-0.26318935
125	0xbf2278b4	-0.6346543
126	0xbf8a581e	-1.0808141
127	0x3d9e6a34	0.077351004
128	0x3e913842	0.28363234
129	0x3d90345b	0.07041236
130	0x3eb24677	0.34819385
131	0x3e98273f	0.29717442
132	0xbf87cfe8	-1.0610323
133	0x3d04ce3b	0.03242324
134	0xbc80c644	-0.01571954
135	0xbea30de1	-0.31846526
136	0xbea0e76c	-0.3142656
137	0xbec59eba	-0.3859766
138	0xbddab4ee	-0.10679041
139	0xbeead7cd	-0.45867768
140	0x3e920a3e	0.2852344
141	0xbe9d42be	-0.30714983
142	0x3ec80f7f	0.39074323
143	0xbd5ab4d2	-0.0533951
144	0xbec4bf0d	-0.3842701
145	0x3e7c361b	0.24630015
146	0x3e91c43d	0.2847003
147	0x3f13c81a	0.57727206
148	0x3f37a88a	0.71741545
149	0xbed6c286	-0.41945285
150	0x3e5257d4	0.20541316
151	0x3e301df8	0.17198932
152	0x3cab028d	0.02087524
153	0xbe1ebddc	-0.15502113
154	0x3c80b2d1	0.015710266
155	0xbf647828	-0.89245844
156	0xbdb43579	-0.087992616
157	0x3cd1ce7e	0.025611158
158	0xbd86db8e	-0.065848455
159	0xbee4d6a5	-0.4469501
160	0x3efbd011	0.4918218
161	0x3e21c574	0.15797979
162	0x3e3613db	0.17781012
163	0xbf067ced	-0.5253437
164	0x3e99a8f2	0.30011708
165	0xbe2a93b6	-0.1665791
166	0xbe8d3e2d	-0.275865
167	0x3eb6071d	0.35552302
168	0xbd39e498	-0.04538402
169	0xbdb028a4	-0.086015016
170	0xbe6d1e73	-0.23156147
171	0x3de921c2	0.11383392
172	0x3f3e1530	0.7425108
173	0x3ee95705	0.45574203
174	0xbe3dc566	-0.18532333
175	0xbf6d9e3d	-0.9281958
176	0xbe21199e	-0.15732428
177	0x3ee1bad5	0.44087854
178	0x3efa0851	0.4883447
179	0xbf0257f3	-0.5091545
180	0x3e51e464	0.2049728
181	0x3eae3d82	0.34031302
182	0xbe65f8c2	-0.22458175
183	0xbf0192b0	-0.5061445
184	0x3e0aaced	0.13542528
185	0x3e684cb8	0.22685516
186	0xbd271b5b	-0.040797573
187	0xbf441d2d	-0.7660702
188	0xbec99acc	-0.39375913
189	0xbde878e6	-0.113511845
190	0xbea6be7b	-0.325672
191	0xbee1558b	-0.44010577
192	0xbce5a321	-0.028031887
193	0xbe590369	-0.21192707
194	0xbea79309	-0.32729366
195	0x3e4264b3	0.18983726
196	0xbe22b1ca	-0.15888134
197	0x3e6e470f	0.23269294
198	0x3ef4ded0	0.47826242
199	0x3f1048bb	0.5636098
200	0xbd802b1e	-0.06258224
201	0xbc865550	-0.016398102
202	0x3e4c4a16	0.19950137
203	0x3e94b650	0.29045343
204	0xbe2fced6	-0.17168745
205	0xbf263bcc	-0.6493499
206	0xbe472c54	-0.19450504
207	0x3e940ea2	0.28917414
208	0xbc5812a5	-0.013188039
209	0x3e59d9a8	0.21274436
210	0x3dbd9cc7	0.092584185
211	0x3ea0c204	0.31398022
212	0xbe6b54b8	-0.22981536
213	0xbf07c290	-0.53031254
214	0xbe9bc43c	-0.30423152
215	0x3f27217c	0.6528547
216	0x3cb92208	0.022599235
217	0xbbddac39	-0.0067649153
218	0x3ba6c54f	0.005089439
219	0x392ab9e5	0.00016281714
220	0xbfb54b24	-1.4163556
221	0x3e0a4b3b	0.1350526
222	0x3b2fe46f	0.0026839038
223	0xbf1a13ae	-0.6018628
224	0xbcd302f9	-0.025758253
225	0x3e8c4e9a	0.27403718
226	0x3e9dd9b9	0.30830172
227	0x3eb41e89	0.35179546
228	0xbeca35bf	-0.3949413
229	0xbf177124	-0.59157014
230	0xbee6f427	-0.45108148
231	0x3f35f6bd	0.7107962
232	0x3b0fa6ac	0.0021919413
233	0x3ee3324d	0.44374314
234	0xbd405dfd	-0.046964634
235	0x3e92d716	0.28679723
236	0xbee6e2c8	-0.45094895
237	0xbf66382f	-0.8992948
238	0xbfa1ca2e	-1.2639825
239	0xbea6045d	-0.32425204
240	0xbc13c980	-0.009020209
241	0xbe2ba53d	-0.16762252
242	0xbe8135c3	-0.2523633
243	0xbf2b77e1	-0.66979796
244	0xbe21864e	-0.1577389
245	0xbe8863ca	-0.26638633
246	0xbe8726ba	-0.26396734
247	0x3df339c0	0.11876249
248	0xbd6afb28	-0.057368428
249	0x3ecd16f4	0.40056574
250	0xbe9314e8	-0.28726888
251	0xbf18867b	-0.595802
252	0x3e572a16	0.21012148
253	0xbd36a62a	-0.04459206
254	0xbedd1ca4	-0.43185914
255	0xbe8eb1bb	-0.27869973

net.0.bias f4 [256]
0	0x3eb0dc2c	0.34542978
1	0x3e7eca8a	0.2488195
2	0xbd974f58	-0.073881805
3	0x3eb6fe7c	0.3574103
4	0x3e8cf16e	0.27527946
5	0xbe8b55bf	-0.27213857
6	0xbe19b9e7	-0.15012322
7	0x3d09a2c1	0.03360248
8	0x3cf864d9	0.030321525
9	0x3e594a51	0.21219756
10	0xbdc88c1c	-0.09792349
11	0xbe8ab98e	-0.27094692
12	0x3d8b7342	0.06809093
13	0xbd66562e	-0.05623453
14	0x3e5202ea	0.20508924
15	0xbe8918b4	-0.2677666
16	0x3eb2fd8a	0.3495906
17	0x3e8e44ad	0.2778677
18	0x3ee90075	0.4550816
19	0xbe0386f5	-0.12844451
20	0x3e655db3	0.22399025
21	0x3e299c55	0.16563542
22	0xbe1b9376	-0.1519297
23	0x3eb8b1e2	0.36073214
24	0xbeb52437	-0.35379192
25	0x3ea85916	0.32880467
26	0x3e5967ac	0.21230954
27	0x3bed955a	0.00725047
28	0x3e7eab59	0.24870051
29	0x3e8b88df	0.27252862
30	0x3e8092d8	0.25112033
31	0x3ec2b5c6	0.38029307
32	0xbe12cd58	-0.14336145
33	0x3e9ed661	0.31022933
34	0x3e0da414	0.13832122
35	0x3e158f44	0.14605433
36	0x3e116fef	0.14202856
37	0x3edc86ed	0.4307169
38	0xbe80ca24	-0.2515422
39	0xbe2a2c5c	-0.16618484
40	0x3e8c4723	0.27398023
41	0xbd937d67	-0.07201653
42	0x3e916364	0.28396142
43	0x3d91c1aa	0.071170166
44	0x3e701326	0.23444805
45	0x3ea52c08	0.32260156
46	0xbd2bd423	-0.041950356
47	0xbe901171	-0.28138307
48	0x3ea3570e	0.31902355
49	0x3dc2ac7a	0.095055535
50	0x3dec617e	0.11542033
51	0xbd9643e0	-0.07337165
52	0x3ebe96bb	0.37224373
53	0x3ddef5be	0.10886715
54	0xbb293b3a	-0.0025822655
55	0xbe36edf1	-0.17864205
56	0x3e01065c	0.12600082
57	0x3ea2f032	0.3182388
58	0xbe0b9afe	-0.13633344
59	0x3ebca4ae	0.3684439
60	0x3d0b06eb	0.033942144
61	0x3ae6a103	0.0017595593
62	0x3e91037a	0.28322965
63	0xbca20df9	-0.019782053
64	0x3dfe7b09	0.12425811
65	0xbcc43b02	-0.023953918
66	0x3ed8fc10	0.42379808
67	0x3e8a285d	0.2698392
68	0x3ea114bf	0.3146114
69	0x3ea325aa	0.31864673
70	0x3ea09079	0.31360224
71	0x3e4f9cd1	0.20274664
72	0x3e7098be	0.23495767
73	0xbe3aee2b	-0.18254916
74	0x3eb15dfb	0.34642014
75	0x3edf1f42	0.43578535
76	0x3e573e6f	0.2101991
77	0x3edaff24	0.42772782
78	0x3eebf5b7	0.46085903
79	0xbea72a5d	-0.32649508
80	0x3e9ef05d	0.31042758
81	0x3e6f9f20	0.23400545
82	0x3e9c0b72	0.30477482
83	0xbdb7898e	-0.08961783
84	0xbdc80a35	-0.09767572
85	0x3ed3346c	0.41250932
86	0xbe39ee06	-0.18157205
87	0x3ebc84ed	0.36820164
88	0x3e6963e0	0.22792006
89	0xbf23250d	-0.6372841
90	0x3c6bf519	0.014401698
91	0x3c3f994b	0.011694263
92	0x3ecdc46d	0.40188923
93	0xbe51206c	-0.20422524
94	0x3e946923	0.28986463
95	0x3e3aa78a	0.18227974
96	0x3e5d0e9d	0.21587606
97	0x3ee6eaa0	0.4510088
98	0x3e8f7893	0.28021678
99	0xbdde503d	-0.10855148
100	0x3e69af65	0.22820814
101	0x3e7cba11	0.24680354
102	0x3e5a794d	0.21335335
103	0xbe9131c0	-0.2835827
104	0x3db44a76	0.08803265
105	0xbd6a7a7a	-0.05724571
106	0x3eec74ad	0.46182767
107	0x3eb81ac2	0.35957915
108	0x3ea37867	0.31927797
109	0x3ebba934	0.3665253
110	0xbd6df948	-0.05809906
111	0xbdb4775e	-0.0881183
112	0xbe3098a9	-0.17245735
113	0xbea2b378	-0.3177755
114	0x3e644e25	0.22295435
115	0x3e643413	0.2228549
116	0x3e8d3ea5	0.27586856
117	0xbdc1c000	-0.09460449
118	0xbe6740ee	-0.22583362
119	0x3d329f62	0.04360903
120	0x3e476d99	0.19475402
121	0x3e86b9e6	0.26313704
122	0x3e84faa7	0.25972483
123	0xbddda7c4	-0.108230144
124	0xbe58fa96	-0.21189341
125	0xbe48e490	-0.1961844
126	0x3e800889	0.25006512
127	0x3daaa6bf	0.083325855
128	0x3e8a7092	0.2703901
129	0x3f11858c	0.568444
130	0xbdaeef26	-0.08541708
131	0x3e3a5d1f	0.18199585
132	0xbcfd34f7	-0.030909045
133	0x3e4b3e51	0.1984799
134	0xbe9ba730	-0.3040099
135	0xbeb34bfa	-0.35018903
136	0x3e853716	0.2601859
137	0x3e1dc742	0.15408042
138	0xbe9791a7	-0.2960331
139	0x3e969311	0.29409078
140	0xbe213155	-0.15741475
141	0x3e816a02	0.2527619
142	0xbe3764a2	-0.17909482
143	0x3e0b562e	0.13607094
144	0xbcb544f9	-0.022127615
145	0x3b1f9177	0.0024348178
146	0x3e8e86c5	0.27837196
147	0xbe3a5207	-0.18195353
148	0xbd710136	-0.058839045
149	0x3e8707fc	0.2637328
150	0x3e50ecfc	0.20402902
151	0x3ecf608b	0.40503344
152	0x3e68534e	0.22688028
153	0xbe122bf3	-0.14274578
154	0xbe96cb7d	-0.29452124
155	0x3cd40600	0.025881767
156	0xbe0aef7a	-0.13567916
157	0x3e9019ca	0.28144675
158	0x3db49254	0.088169724
159	0x3ec2b3a8	0.38027692
160	0x3e20229f	0.15638207
161	0xbe0873cb	-0.13325422
162	0x3e4b415c	0.19849151
163	0x3e58c780	0.21169853
164	0x3d8cff46	0.06884627
165	0x3e6d2071	0.23156907
166	0xbe5a5a6f	-0.2132356
167	0x3c39b689	0.011335024
168	0xbe1c52ae	-0.15265915
169	0xbeab363b	-0.33439812
170	0x3e1b6676	0.15175804
171	0x3e90a83c	0.28253353
172	0x3e503714	0.2033351
173	0x3a82683a	0.0009949275
174	0x3e6b9d14	0.2300914
175	0x3e169f5f	0.14709233
176	0x3c465723	0.012105736
177	0x3e482867	0.19546662
178	0xbe0495cf	-0.12947772
179	0x3edf8792	0.4365812
180	0x3e9b1190	0.30286837
181	0xbebfc787	-0.37456915
182	0xbb1055d5	-0.0022023816
183	0xbd56746d	-0.052357126
184	0x3d92c619	0.071666904
185	0xbe9ad586	-0.3024103
186	0x3e5960bf	0.21228312
187	0xbe95f92e	-0.29291672
188	0x3ed9819b	0.42481694
189	0x3edf21e8	0.43580556
190	0xbe70f9d8	-0.23532808
191	0xbe664fea	-0.22491422
192	0x3df9c1c5	0.12195162
193	0xbe275999	-0.16342773
194	0x3e086f0c	0.13323611
195	0xbe510a14	-0.20414001
196	0x3e64c43e	0.22340485
197	0xbe998de8	-0.29991078
198	0xbe60e618	-0.21962774
199	0xbe931d53	-0.2873331
200	0x3e3fc82d	0.18728705
201	0x3e5b3d2e	0.21410057
202	0xbe48d3f4	-0.19612104
203	0xbe3ef903	-0.18649678
204	0xbe019e63	-0.12658076
205	0xbea4cd63	-0.32187948
206	0x3e31525d	0.17316575
207	0x3e268c02	0.16264346
208	0xbd933d50	-0.07189429
209	0xbea544a6	-0.32278937
210	0xbdd61c7d	-0.104546525
211	0xbe50f169	-0.2040459
212	0xbebf8f6c	-0.3741411
213	0xbe127b41	-0.1430483
214	0x3ed89627	0.42302057
215	0x3d9fa144	0.07794431
216	0x3ee2b4de	0.44278616
217	0x3d03959e	0.032125108
218	0x3da51a17	0.08061617
219	0xbed84c36	-0.42245644
220	0x3ed12776	0.4085042
221	0x3f0210d0	0.50806904
222	0x3e537618	0.20650518
223	0x3e92b0ca	0.28650504
224	0x3ea83cce	0.3285889
225	0x3e8c8570	0.27445555
226	0x3e373d73	0.17894535
227	0xbeb34541	-0.35013774
228	0xbe1cbe8a	-0.1530706
229	0xbdcbb3a1	-0.09946371
230	0x3ea958cd	0.33075562
231	0x3cad9dbe	0.021193381
232	0xbea55230	-0.32289267
233	0x3c8d1e08	0.017226234
234	0xbea39e8f	-0.31956908
235	0x3c4ca78d	0.012491119
236	0x3e3b01b5	0.1826237
237	0xbed67340	-0.41884804
238	0x3ea66289	0.3249705
239	0xbe542141	-0.2071581
240	0xbd4c8936	-0.049935542
241	0x3ea7005f	0.3261747
242	0x3eb883da	0.36038095
243	0x3e02a547	0.12758361
244	0xbcaeeb75	-0.021352509
245	0xbc02bbcc	-0.007979345
246	0x3d6b4816	0.057441793
247	0x3ece3fb9	0.40282992
248	0x3e547909	0.20749296
249	0xbe005d68	-0.12535632
250	0xbe9c0cbf	-0.30478474
251	0xbdc6505d	-0.09683297
252	0x3c29fe13	0.010375517
253	0x3dec83e6	0.11548595
254	0xbdb8fda9	-0.09032757
255	0xbe5d3e3c	-0.21605772

net.2.weight f4 [256, 256]
0	0x3ea88707	0.32915518
1	0xbde18bd4	-0.11012998
2	0x3ef1c189	0.47217968
3	0xbddd4a67	-0.10805207
4	0x3e8fd336	0.2809083
5	0x3e67f6d8	0.22652757
6	0x3ea9639f	0.33083817
7	0xbde2c207	-0.11072164
8	0xba93bdef	-0.0011271815
9	0x3cea3ad3	0.028592503
10	0x3ec73f6f	0.38915583
11	0xbdcf4d52	-0.101221696
12	0xbd950500	-0.07276344
13	0x3ea71599	0.32633665
14	0x3e911d35	0.28342596
15	0x3ebbd997	0.36689445
16	0x3bb40583	0.005493821
17	0x3e0143ab	0.1262347
18	0xbd35717b	-0.044297677
19	0x3e59d14e	0.2127125
20	0x3d96c2fe	0.073614106
21	0xbe3353ad	-0.17512389
22	0xbe9041f9	-0.28175333
23	0x3dcf730c	0.10129365
24	0xbf82edea	-1.0228856
25	0xbe601abe	-0.21885201
26	0x3e94216d	0.28931752
27	0x3c19a9b9	0.009378844
28	0x3e86b762	0.26311785
29	0xbd33d576	-0.043904744
30	0x3c952b85	0.018209228
31	0xbc87b902	-0.01656771
32	0x3e8d983b	0.27655205
33	0x3b93bbd9	0.004508477
34	0x3eab294c	0.33429945
35	0x3e97517c	0.29554355
36	0x3cf5e05d	0.030014211
37	0xbec090f6	-0.37610596
38	0xbf6fe245	-0.93704635
39	0x3dc3aa66	0.09553985
40	0x3e66ee68	0.22551882
41	0x3c779cbb	0.015113051
42	0xbe839229	-0.2569745
43	0xbcb2ca44	-0.021824963
44	0x3e01a43b	0.12660305
45	0x3e0a4ea7	0.13506566
46	0x3efc64d5	0.4929568
47	0xbce7d83a	-0.028301347
48	0xbde4a89a	-0.11164971
49	0xbdccd45e	-0.10001443
50	0x3e84771d	0.25872126
51	0x3f48af09	0.7839208
52	0xbd4248e2	-0.047432788
53	0xbcb0a1d2	-0.021561537
54	0xbfbdbf1d	-1.4823948
55	0xbf1293ff	-0.57257074
56	0x3e27e451	0.1639569
57	0xbdb72a40	-0.089436054
58	0x3dd7d96b	0.10539516
59	0xbc63fbe7	-0.013915039
60	0x3d7f049a	0.062260248
61	0x3eacc812	0.33746392
62	0x3d1dc342	0.03851629
63	0xbdd64959	-0.10463209
64	0x3d4557ac	0.048179314
65	0xbde032e4	-0.109472066
66	0xbda50718	-0.08057994
67	0xbf56f15c	-0.83962035
68	0xbe8d9571	-0.27653077
69	0xbc37ff8e	-0.011230363
70	0x3d8643e2	0.06555916
71	0xbccd3c95	-0.025053302
72	0xbde93b25	-0.11388234
73	0xbd3ffa35	-0.046869475
74	0xbdf51127	-0.11966162
75	0xbe1b725e	-0.15180346
76	0xbb53b959	-0.003230652
77	0xbf4edfb6	-0.80810106
78	0xbdecfb9b	-0.115714274
79	0x3ecad45d	0.39615145
80	0xbe505bad	-0.20347472
81	0xbda1b8db	-0.078965865
82	0xbdfb285b	-0.122635566
83	0x3d5cd45c	0.05391346
84	0xbd05ed87	-0.032697227
85	0xbee81607	-0.45329306
86	0xbd081bde	-0.0332297
87	0x3d5e86d6	0.05432781
88	0xbe45f1c2	-0.19330505
89	0x3f766540	0.96248245
90	0xbefc17a9	-0.492368
91	0x3d9c120b	0.07620629
92	0xbe434721	-0.19070102
93	0x3f16dfe2	0.5893537
94	0xbd86a081	-0.065735824
95	0xbe18491c	-0.14871639
96	0xbde63660	-0.1124084
97	0xbda5abfa	-0.080894426
98	0xbd871bac	-0.06597075
99	0x3ebdb0bb	0.37048897
100	0x3dae5965	0.085131444
101	0xbd32b167	-0.043626215
102	0x3ecc55ca	0.39909202
103	0x3dcd17e9	0.10014326
104	0x3ed090f0	0.4073558
105	0x3f044b06	0.51676977
106	0xbc63b9c5	-0.013899271
107	0xbd759394	-0.059955195
108	0x3dbb3e56	0.09142749
109	0xbcb4fa8d	-0.022092128
110	0x3ea0185f	0.31268594
111	0x3ec41225	0.38295093
112	0x3e1ffe63	0.15624385
113	0x3efc6dc8	0.49302506
114	0xbdd7d39f	-0.105384104
115	0x3e9102c4	0.28322423
116	0xbee535fa	-0.44767743
117	0xbeac159e	-0.33610243
118	0xbebd4315	-0.36965242
119	0xbbff96ab	-0.0077999434
120	0xbd8f235b	-0.069891654
121	0xbd9507e8	-0.072768986
122	0xbd8bf7b9	-0.06834359
123	0xbdc96e3a	-0.09835477
124	0x3f650471	0.894599
125	0x3e77cd3a	0.24199381
126	0x3d8a1675	0.067425646
127	0x3e3785c7	0.17922126
128	0x3cd5390f	0.026028184
129	0xbe79a5fd	-0.24379726
130	0x3e936252	0.2878595
131	0xbdb984ee	-0.090585575
132	0x3e85480a	0.26031524
133	0x3c216cb2	0.009852575
134	0xbf25f7cc	-0.64831233
135	0x3e88611d	0.26636592
136	0xbf058720	-0.5215931
137	0xbc940801	-0.018070223
138	0x3e097951	0.13425185
139	0xbe326251	-0.17420317
140	0x3e80754b	0.25089487
141	0xbf2fddcf	-0.6869783
142	0xbe8660ec	-0.2624582
143	0x3e025302	0.12726977
144	0xbde05426	-0.1095355
145	0x3ea7d9b7	0.3278329
146	0xbd21adca	-0.03947238
147	0x3e2bc342	0.16773704
148	0x3da6c07b	0.081421815
149	0x3e595bc0	0.21226406
150	0xbf9434eb	-1.1578649
151	0xbd1772b0	-0.03697461
152	0x3d7c6721	0.06162179
153	0xbed5a901	-0.41730502
154	0x3c353ec5	0.011062329
155	0x3e8312a7	0.25600168
156	0xbe3fb265	-0.18720396
157	0xbe9e904f	-0.30969474
158	0x3d2c1ab0	0.04201764
159	0x3c17b7a0	0.009260088
160	0xbc8b3896	-0.016994756
161	0xbf9fdbfa	-1.2489007
162	0xbe8b5f3f	-0.27221105
163	0x3bda9580	0.006670654
164	0xbe84b2e9	-0.25917748
165	0xbe1018f4	-0.14072019
166	0xbf0246ef	-0.50889486
167	0xbe40bb14	-0.18821365
168	0x3efd7fe4	0.49511635
169	0x3eb17b97	0.34664604
170	0xbe88daac	-0.26729333
171	0x3c7a9755	0.015294869
172	0x3b2a807e	0.0026016529
173	0x3ef24795	0.47320238
174	0xbe566b15	-0.20939286
175	0x3e5e9493	0.21736364
176	0x3f164a0f	0.58706754
177	0x3f3d255c	0.7388513
178	0x3ebc37ae	0.3676123
179	0xbdb6e631	-0.08930624
180	0x3ca7bb81	0.020475151
181	0x3f223cd2	0.63374054
182	0xbd8f6687	-0.070019774
183	0x3d6c9cea	0.057766832
184	0x3d2d0e96	0.04225024
185	0x3e315ed2	0.17321327
186	0xbe98b413	-0.29824886
187	0x3efc768c	0.49309194
188	0xbde29693	-0.11063876
189	0x3d9bb48e	0.076027974
190	0xbd8a9a69	-0.06767733
191	0xbec46656	-0.38359326
192	0xbd2f7e2a	-0.04284493
193	0x3e1ba582	0.15199855
194	0x3e4dc121	0.20093204
195	0x3ef07037	0.46960613
196	0x3dade79a	0.0849144
197	0x3f16cef2	0.58909523
198	0x3e9676a9	0.29387406
199	0x3f4cc482	0.7998735
200	0x3c3adaed	0.011404735
201	0x3ec27e7b	0.37987122
202	0x3bcbf07b	0.006223736
203	0x3d883ce4	0.06652239
204	0x3d537b69	0.051631365
205	0x3eb172d9	0.34657934
206	0x3dec3ea2	0.11535384
207	0x3d4891e1	0.048967246
208	0xbf77dc7a	-0.96820796
209	0x3f3e1a68	0.7425904
210	0xba90c619	-0.0011045366
211	0xbcaafe9f	-0.020873366
212	0x3f802537	1.0011357
213	0xbf0f6549	-0.56013924
214	0x3db5118f	0.0884124
215	0x3d96c714	0.0736219
216	0xbe6b681f	-0.22988938
217	0xbc8ab4b6	-0.016931873
218	0xbf7139af	-0.94228643
219	0x3e8cf6d5	0.27532068
220	0xbcdf9d14	-0.02729658
221	0x3d989e3e	0.07452057
222	0x3cd2db25	0.025739262
223	0x3cb83432	0.022485826
224	0xbab10648	-0.00135059
225	0xbce14e42	-0.027503137
226	0x3c25be4b	0.01011617
227	0xbec4d891	-0.38446477
228	0x3e51908c	0.20465297
229	0x3ebb34cb	0.36563715
230	0x3cb2e48c	0.021837495
231	0x3e21cf68	0.15801775
232	0x3e1e52fa	0.1546134
233	0x3e74a456	0.23890814
234	0xbf550c7d	-0.8322218
235	0xbe9a0937	-0.30085155
236	0x3e9cc2f5	0.3061749
237	0x3f8bb139	1.0913459
238	0xbe4cebc4	-0.20011812
239	0x3f0432ef	0.5164022
240	0x3edc730c	0.43056524
241	0xbe89e9a0	-0.26936054
242	0xbe20ac5f	-0.15690754
243	0xbee36999	-0.44416502
244	0x3d2cdd71	0.04220337
245	0x3f024e71	0.5090094
246	0x3efc7fd8	0.49316287
247	0x3dfee714	0.124464184
248	0xbe46c12c	-0.19409627
249	0x3e702814	0.23452789
250	0x3f9136dc	1.1344867
251	0x3ea68fdf	0.3253164
252	0x3dde4be8	0.10854322
253	0xbe4c8f40	-0.1997652
254	0x3ea4ecf8	0.32212043
255	0x3ecea596	0.40360707

net.2.bias f4 [256]
0	0xbdee4e13	-0.11635985
1	0x3d63f60b	0.055654567
2	0x3d769064	0.060196295
3	0xbdde159d	-0.10843966
4	0xbc1d14a6	-0.0095874425
5	0x3e1704b1	0.14747883
6	0x3d6f1f04	0.05837919
7	0x3dec4d86	0.11538224
8	0x3d1c2a8c	0.038126513
9	0x3df538dc	0.11973736
10	0x3d634276	0.055483304
11	0xbd8a579a	-0.0675499
12	0xbc016fcf	-0.007900192
13	0x3c9ad404	0.018899925
14	0xbd9bc469	-0.07605822
15	0xbd89b0d9	-0.06723184
16	0xbcd93e97	-0.026519103
17	0xbdd2642a	-0.10273011
18	0x3d13572a	0.035971798
19	0x3d1f6780	0.038917065
20	0xbbb6b816	-0.005576144
21	0x3da0287d	0.078202225
22	0xbbbc7418	-0.005751144
23	0x3d91f7c6	0.07127337
24	0x3b2d1fbb	0.0026416618
25	0x3e891a25	0.2677776
26	0x3d01f3e9	0.03172675
27	0xbd27fee3	-0.041014563
28	0x3d0e3eca	0.03472785
29	0xbbf51f47	-0.007480535
30	0xbd2dd3cf	-0.042438325
31	0xbdfe2563	-0.12409475
32	0x3d442b0b	0.04789261
33	0xbc61a984	-0.013773326
34	0xbb90f762	-0.0044240216
35	0x3d9a9bd9	0.07549257
36	0xbd1b832b	-0.03796689
37	0x3df8f133	0.1215538
38	0x3def7882	0.11692907
39	0xbce0553d	-0.027384395
40	0xbc89c66f	-0.016818253
41	0x3d8193c1	0.0632701
42	0x3dff0a22	0.124531046
43	0x3da9bdbe	0.082881436
44	0x3db173d4	0.086646706
45	0x3d246f1e	0.040145032
46	0x3e2929a2	0.16519788
47	0xbda514cf	-0.080606095
48	0xbd83e9e6	-0.06441097
49	0xbd1be684	-0.038061634
50	0x3ce11fb9	0.027480947
51	0xbd85012a	-0.06494363
52	0x3e1ed2a6	0.15510044
53	0xbcbe7ffa	-0.023254383
54	0xbd740169	-0.059571657
55	0x3da50c6f	0.08059012
56	0x3e0a20f2	0.1348913
57	0x3c8f2edb	0.017478397
58	0xbd92db87	-0.07170778
59	0xbd4fcfa2	-0.050735123
60	0x3dd56bde	0.10420965
61	0x3c966a5e	0.018361267
62	0xbc89d413	-0.016824758
63	0x3d8702c5	0.06592325
64	0xbe0a57a4	-0.13509995
65	0x3d86fa14	0.06590667
66	0x3e4540f6	0.19263062
67	0xbd12d508	-0.035847694
68	0xbd89c035	-0.06726114
69	0xbcc20250	-0.023682743
70	0xbc6a41df	-0.014297931
71	0x3e74a2ab	0.23890178
72	0xbe15b1d7	-0.14618622
73	0xbe0e5a5f	-0.13901661
74	0x3e50c41c	0.2038731
75	0xbde12f23	-0.10995319
76	0xbdfa193e	-0.12211846
77	0x3dd2fe4a	0.10302408
78	0xbdb4402f	-0.088013045
79	0x3d87f23b	0.06637999
80	0x3dbbf726	0.09177999
81	0x3e0d4346	0.13795194
82	0xbda45fb5	-0.08026067
83	0x3e0fd15a	0.14044705
84	0xbb08c3cb	-0.0020868655
85	0x3e2379fe	0.15964505
86	0x3dd67842	0.10472156
87	0x3ce77c64	0.028257556
88	0xbdced1ea	-0.10098632
89	0xbc42b745	-0.011884515
90	0x3dd94f62	0.10610844
91	0xbb29898a	-0.0025869333
92	0x3e1cec37	0.15324484
93	0xbb79420f	-0.0038033759
94	0xbd2711ef	-0.040788587
95	0xbd6aad5f	-0.057294246
96	0xbd62327a	-0.05522392
97	0x3c9e695b	0.019337347
98	0x3d93f3d4	0.07224241
99	0xbd95c987	-0.07313829
100	0x3d5e364b	0.054250997
101	0xbd674d90	-0.056470454
102	0xbdc3f2ae	-0.09567772
103	0x3e205b00	0.15659714
104	0x3daf74d2	0.085672036
105	0xbdfdc091	-0.12390245
106	0x3e2da8a6	0.16958866
107	0xbd9c4068	-0.07629472
108	0x3da8e90b	0.082475744
109	0xbe006a10	-0.1254046
110	0xbd880ae4	-0.06642702
111	0x3c9a200f	0.018814115
112	0x3ccd772a	0.025081236
113	0x3d0867da	0.033302166
114	0xbb396e18	-0.002829438
115	0xbe0cb6dd	-0.13741632
116	0xbd52fc74	-0.05151029
117	0x3d541d1c	0.051785573
118	0x3c9e67aa	0.01933654
119	0xbdca896d	-0.09889493
120	0xbd941a75	-0.07231609
121	0xbdd22fda	-0.10263033
122	0xbe2cf94e	-0.16891977
123	0x3e1ac0e9	0.15112652
124	0x3e187390	0.14887834
125	0x3d04f241	0.032457594
126	0xbd4bcead	-0.04975765
127	0x3dc6643c	0.09687087
128	0xbcc86b95	-0.024465362
129	0x3d3d74da	0.046254016
130	0x3c8ad1e9	0.016945796
131	0x3b19cfd0	0.0023469813
132	0xbba7a7b5	-0.005116428
133	0x3caa83fe	0.020814892
134	0xbe14a2b7	-0.14515196
135	0x3e1d80d7	0.1538118
136	0xbd5c6cda	-0.053814746
137	0xbd9ae311	-0.07562841
138	0x3dcb3ddd	0.09923909
139	0xbd20a1e3	-0.039216887
140	0xbdd53e7b	-0.10412308
141	0xba74399f	-0.00093164475
142	0x3e061016	0.13092074
143	0x3d97a346	0.07404189
144	0xbc8f3b44	-0.017484315
145	0xbc9e0ef8	-0.019294247
146	0x3d6c60fa	0.05770967
147	0xbc2dc976	-0.010607114
148	0xbd36dbb3	-0.044643115
149	0xbac6904e	-0.0015149207
150	0xbd597577	-0.05309054
151	0xbd9762c6	-0.073918864
152	0x3a5526f5	0.000813111
153	0x3dc383dc	0.095466346
154	0xbd3084f2	-0.043095537
155	0xbdb2a517	-0.08722895
156	0x3e193bde	0.14964244
157	0x3d9902ee	0.07471262
158	0x3e32974f	0.17440532
159	0x3de7c0aa	0.11316045
160	0x3daceccb	0.08443602
161	0x3d4f75c8	0.050649434
162	0xbd0d1172	-0.034440465
163	0x3d4119f6	0.0471439
164	0xbd3a4c61	-0.045482997
165	0xbd1e21e0	-0.038606524
166	0x3dc569cf	0.09639322
167	0x3d4a7e2c	0.049436733
168	0xbcd06b9c	-0.025441937
169	0x3cd1b4b9	0.02559887
170	0xbc2a887d	-0.010408518
171	0xbe1fe6c4	-0.15615374
172	0xbd11b1aa	-0.035569824
173	0x3cc68909	0.024235265
174	0x3ca7689e	0.020435628
175	0xbd251b36	-0.040309153
176	0xbaf6528f	-0.0018792915
177	0x3d0c7ae9	0.034296904
178	0x3d68df58	0.056853622
179	0x3d49d175	0.04927202
180	0x3dc1d4a9	0.0946439
181	0x3d5aafdd	0.053390373
182	0xbd61aa52	-0.05509407
183	0x3d40d3f4	0.047077134
184	0x3d530dc1	0.05152679
185	0x3e567e71	0.20946671
186	0xbd69c490	-0.057072222
187	0xbe07e641	-0.13271429
188	0xbd69d876	-0.0570912
189	0xbcf7f9ab	-0.030270418
190	0x3ca5e9e5	0.020253131
191	0xbd6503da	-0.055911876
192	0xbd89102a	-0.06692536
193	0xbdaef415	-0.08542649
194	0x3c9442b7	0.018098218
195	0x3dce4480	0.10071659
196	0x3c39e596	0.011346241
197	0xbdd7319a	-0.105075076
198	0x3d03ab2e	0.03214567
199	0x3e12c704	0.14333731
200	0x3b2fd2cd	0.0026828528
201	0x3be9bfdc	0.007133467
202	0xbde2471f	-0.110487215
203	0x3cf52ffd	0.02993011
204	0x3da61660	0.081097364
205	0x3dea9e4c	0.11455974
206	0xbd60f058	-0.05491671
207	0x3e3bdd3a	0.1834611
208	0xbd6fc3a9	-0.058536205
209	0x3cf00b53	0.029302275
210	0xbc58126e	-0.013187988
211	0x3d8e6c01	0.06954194
212	0xbe54d328	-0.20783675
213	0x3de25eb5	0.1105322
214	0x3d95b9a1	0.073107965
215	0xbd620162	-0.0551771
216	0x3dff4620	0.12464547
217	0xbd4da129	-0.050202522
218	0xbe0a00a9	-0.13476814
219	0x3d01db8c	0.031703517
220	0xbd14cbcf	-0.03632718
221	0xbdd2eb8a	-0.10298832
222	0xbe06eed0	-0.13177037
223	0x3d9e5662	0.0773132
224	0x3da0102d	0.07815585
225	0x3d9cf2b0	0.076634765
226	0xbdac9482	-0.08426763
227	0xbde4cf76	-0.111723825
228	0x3db3eb04	0.0878506
229	0xbd06c915	-0.03290661
230	0xbd94fdcb	-0.0727497
231	0xbc6997be	-0.01425737
232	0xbd9b44d0	-0.07581484
233	0xbdff9831	-0.124802
234	0xbde96199	-0.113955684
235	0x3c5dc9e5	0.013536905
236	0x3ae72e00	0.001763761
237	0xbd253af2	-0.040339418
238	0x3d86bf95	0.0657951
239	0x3d676c7b	0.05649994
240	0x3d3bec5a	0.0458797
241	0xbcbcc1ce	-0.023041632
242	0x3c8a6b4b	0.016896864
243	0x3d83eb8f	0.064414136
244	0x3bb13cae	0.005408845
245	0x3e15c6f9	0.14626683
246	0xbdaee3e8	-0.085395634
247	0x3b83715b	0.0040113158
248	0x3c522227	0.012825525
249	0xbe162da9	-0.14665855
250	0x3d26b909	0.040703807
251	0x3d784eaa	0.060621895
252	0x3d836543	0.064157985
253	0xbd4a98dc	-0.049462184
254	0xbca0a626	-0.019610476
255	0x3e0d206d	0.137819

net.4.weight f4 [4, 256]
0	0xbf71ffbd	-0.9453085
1	0xbe54627b	-0.20740692
2	0xbf1c55a7	-0.61068195
3	0xbed9ad57	-0.4251506
4	0xbeae155f	-0.3400068
5	0x3ec0aa16	0.37629765
6	0x3f3d18af	0.7386579
7	0x3e820bd4	0.2539965
8	0xbd40cebe	-0.047072165
9	0x3ea0ffb1	0.31445077
10	0xbee7273f	-0.4514713
11	0xbf36ad51	-0.7135821
12	0x3ee0b8a0	0.43890858
13	0xbeda6476	-0.4265477
14	0xbed81cf2	-0.42209584
15	0x3d33ebb1	0.043925945
16	0x3e3a88c0	0.18216228
17	0xbee3212c	-0.44361246
18	0xbf3526a5	-0.7076209
19	0x3e966468	0.2937348
20	0x3ef6baf5	0.48189512
21	0x3f0c158c	0.5472038
22	0xbf07c88e	-0.530404
23	0xbdc4d9a6	-0.09611826
24	0xbf20c4bd	-0.628002
25	0xbd031c7f	-0.032009598
26	0x3e088065	0.13330229
27	0xbef0c040	-0.47021675
28	0xbe9f9de3	-0.31175146
29	0xbf0be460	-0.5464535
30	0xbd6c51fc	-0.057695374
31	0xbeec9718	-0.46209025
32	0xbf03e16d	-0.5151585
33	0x3eed3e58	0.46336627
34	0xbf9b2acd	-1.2122437
35	0x3f08a446	0.5337566
36	0xbf380537	-0.7188296
37	0x3ec38610	0.3818822
38	0xbee4c8e4	-0.44684517
39	0xbf1540c1	-0.5830193
40	0x3f2cafc8	0.6745572
41	0x3e058188	0.13037694
42	0x3e62cde4	0.22148854
43	0x3f1dc906	0.6163486
44	0x3f006802	0.50158703
45	0x3f65a370	0.8970251
46	0x3f0b4711	0.54405314
47	0xbeeda0cb	-0.46411738
48	0xbbabffbf	-0.005248993
49	0xbecbfc86	-0.39841098
50	0x3f20b185	0.62770873
51	0xbe55e19e	-0.20886847
52	0xbedf39b8	-0.43598723
53	0x3f3c8977	0.73647255
54	0xbec053f4	-0.3756405
55	0xbf048f21	-0.517809
56	0xbeaa5da1	-0.33274558
57	0xbf1bbe9d	-0.6083773
58	0xbeff8b15	-0.499108
59	0x3d727841	0.059196714
60	0x3e2325d2	0.15932396
61	0x3e803ff2	0.25048786
62	0xbecde8eb	-0.40216765
63	0xbf23a73d	-0.6392706
64	0x3f8307c7	1.0236748
65	0x3f00c2ac	0.50297046
66	0x3f027941	0.5096627
67	0xbf37cdad	-0.7179821
68	0xbf134201	-0.5752259
69	0xbce0ca1b	-0.027440121
70	0x3c5713e1	0.013127298
71	0x3f106d54	0.5641682
72	0xbf0b2aa7	-0.5436196
73	0xbfcdca6a	-1.6077397
74	0xbe12f72d	-0.14352103
75	0xbea1d986	-0.3161127
76	0xbed8c668	-0.42338872
77	0x3ecb34e7	0.396888
78	0xbed3fa51	-0.41401914
79	0x3f250185	0.64455444
80	0x3f378ae6	0.7169632
81	0x3ee0df8d	0.43920556
82	0xbed3c241	-0.4135914
83	0x3e9ad86e	0.30243248
84	0xbeded062	-0.43518358
85	0x3ef4aa79	0.4778631
86	0x3e444730	0.19167781
87	0xbee90200	-0.45509338
88	0xbf2e2bf5	-0.68035823
89	0xbecc9c63	-0.39963064
90	0x3eb0a4fc	0.34500873
91	0x3e8af7a1	0.2714205
92	0x3ecb9360	0.39760876
93	0x3f9497ad	1.1608788
94	0xbf182fd3	-0.59447974
95	0xbeb23bb3	-0.34811172
96	0xbeda4734	-0.4263245
97	0xbecc01f0	-0.39845228
98	0x3f6d8663	0.9278318
99	0xbf07a62e	-0.52987945
100	0xbf0489cb	-0.51772755
101	0x3ea8eaf9	0.3299177
102	0xbec5c26d	-0.38624898
103	0x3e984d43	0.29746446
104	0x3e950e51	0.29112485
105	0xbed0df50	-0.40795374
106	0x3f4eab7f	0.8073043
107	0xbed7a876	-0.42120713
108	0xbf1a1d9e	-0.6020144
109	0xbf06e91c	-0.52699447
110	0xbf05e489	-0.5230184
111	0xbeceaeea	-0.40367824
112	0x3f1e3f81	0.6181565
113	0xbec5963f	-0.3859119
114	0xbc538c6a	-0.012911895
115	0xbfc1dc1a	-1.5145295
116	0x3f02332e	0.50859344
117	0x3ed53c5d	0.41647616
118	0xbec8c5ff	-0.3921356
119	0xbec16bf0	-0.37777662
120	0x3e4ec4e9	0.20192303
121	0xbef04078	-0.46924186
122	0xbf1e2c64	-0.61786485
123	0x3ea8943f	0.32925603
124	0x3f084373	0.5322792
125	0xbebb8e71	-0.36632112
126	0xbf0d2e26	-0.5514854
127	0x3f114586	0.5674671
128	0xbd483260	-0.048876166
129	0xbea28272	-0.31740147
130	0xbd20de9b	-0.039274793
131	0x3f904241	1.1270219
132	0x3f94b80a	1.1618664
133	0xbee48b1c	-0.44637382
134	0xbfc2b6cd	-1.5212036
135	0x3f37f101	0.7185212
136	0xbf0da970	-0.55336666
137	0xbf095c47	-0.5365643
138	0x3ee66e3c	0.45005977
139	0x3f214437	0.6299471
140	0xbeb7635e	-0.35818
141	0xbef2b2b8	-0.47401977
142	0x3e93c531	0.28861383
143	0x3f06f382	0.52715313
144	0xbf0f3688	-0.55942583
145	0x3c98ca3d	0.018651122
146	0xbead11e5	-0.33802715
147	0xbef7f48b	-0.4842876
148	0x3eda8450	0.4267907
149	0x3f016af3	0.50553817
150	0xbf101724	-0.5628531
151	0xbf00e948	-0.5035596
152	0xbf1c9a7e	-0.61173236
153	0x3ecfe0ce	0.406012
154	0x3fa73501	1.306305
155	0x3ebf39c6	0.37348765
156	0x3f5cb838	0.86218596
157	0x3f12ae6d	0.572974
158	0x3ebaf630	0.3651595
159	0x3eb36686	0.35039157
160	0x3e85eec7	0.26158735
161	0xbec286c8	-0.37993455
162	0xbf2540a5	-0.64551765
163	0xbef45004	-0.47717297
164	0xbf3e7daa	-0.744105
165	0xbef5c814	-0.4800421
166	0x3e7c0364	0.24610668
167	0x3e619b2c	0.2203185
168	0x3f8af9a0	1.085743
169	0x3f0f59d2	0.5599643
170	0x3ed25c92	0.4108625
171	0xbebd536b	-0.36977705
172	0xbea7c566	-0.3276779
173	0x3fb14215	1.3848292
174	0xbf63095e	-0.8868617
175	0x3d083354	0.033252075
176	0xbf2ed43f	-0.6829261
177	0x3d21cc02	0.039501198
178	0xbf188943	-0.59584445
179	0x3f0c1bfa	0.5473019
180	0x3eaf950c	0.342934
181	0xbf4773df	-0.7791118
182	0xbf63a160	-0.88918114
183	0x3f0c08cd	0.5470093
184	0x3fba46d3	1.4552864
185	0x3d295950	0.04134494
186	0x3c578292	0.013153689
187	0xbfc1d536	-1.5143192
188	0xbee12437	-0.43972942
189	0xbef14781	-0.47124866
190	0xbe8998d3	-0.26874408
191	0xbf04450b	-0.5166785
192	0xbe76c49a	-0.24098435
193	0xbf16c6d2	-0.58897126
194	0xbf09facc	-0.5389831
195	0x3eaffd32	0.3437286
196	0x3f32ff94	0.6992123
197	0xbf19a99b	-0.6002442
198	0x3c5df52e	0.013547225
199	0x3e46a7c0	0.19399929
200	0x3faea6eb	1.3644689
201	0xbf62d884	-0.88611627
202	0x3f6bd698	0.9212432
203	0x3edfa826	0.43682975
204	0x3ebed0dc	0.37268722
205	0x3efb8783	0.49126825
206	0xbeff1f5a	-0.49828607
207	0x3eeea0a8	0.46606946
208	0xbd1e66ed	-0.038672376
209	0x3ea12a77	0.3147771
210	0xbe4da90b	-0.20084016
211	0xbea8c751	-0.32964566
212	0xbe99e50e	-0.30057567
213	0x3e967fac	0.2939428
214	0x3ef1a978	0.47199607
215	0xbee4e930	-0.44709158
216	0x3f243834	0.6414826
217	0xbcb432b7	-0.021996839
218	0xbefdecc5	-0.49594703
219	0xbeb31521	-0.34977058
220	0xbf197096	-0.5993742
221	0xbe6ebb35	-0.23313601
222	0x3f5cf095	0.863046
223	0x3eb5ab3a	0.35482198
224	0x3e8e262c	0.27763498
225	0x3ef42dd6	0.4769122
226	0xbf1ee9b4	-0.6207535
227	0xbf01c62a	-0.50693
228	0x3eaf0b7c	0.3418845
229	0xbec837e1	-0.39105132
230	0xbee6ecfd	-0.45102683
231	0xbf07b3b7	-0.530086
232	0xbec6f557	-0.38859054
233	0xbf0a683d	-0.54065305
234	0xbed4b022	-0.4154063
235	0xbd4c49ce	-0.049875073
236	0xbec1b4de	-0.37833303
237	0xbf7e903a	-0.9943882
238	0x3ee20c5d	0.44150057
239	0xbbc00620	-0.005860105
240	0x3e8a0874	0.26959574
241	0xbf61333d	-0.8796881
242	0x3d572715	0.052527506
243	0xbf55a26e	-0.83450973
244	0xbca2f64b	-0.019892832
245	0x3f509373	0.8147499
246	0x3f602c2b	0.87567395
247	0x3db65d17	0.08904474
248	0xbf12456e	-0.5713719
249	0xbeb0e919	-0.3455284
250	0x3ee5e146	0.44898432
251	0xbd88c77b	-0.06678673
252	0x3f057189	0.52126366
253	0xbeb2df1d	-0.34935847
254	0xbea5da64	-0.3239318
255	0x3e5509d0	0.20804524

net.4.bias f4 [4]
0	0x3c3b8bcd	0.011446905
1	0x3d2943f2	0.041324563
2	0x3ce04ed4	0.027381338
3	0xbcd11386	-0.025522005
