drafts/draft_rk/runs_lunarlander/dqn_trial10_seed42.pth (torch, 279705 bytes, 6 tensors)

net.0.weight f4 [256, 8]
000000 22 94 14 3e 5a 21 b9 3e 84 13 c3 bb 6c 45 00 3f
       0.14509633 0.36158258 -0.005953254 0.5010593
000010 79 95 b8 be 8d 6b dd bd d5 d6 5a be 68 ef 59 3e
       -0.3605154 -0.10811529 -0.21371014 0.21282732
000020 8e 73 49 3f 43 80 3f be 0b ba 07 3f 07 0a f6 bd
       0.7869195 -0.18701272 0.53018254 -0.12013631
000030 77 b0 9d 3a 84 e5 fd 3c 82 c4 91 3e b9 84 9b bd
       0.001203074 0.03099323 0.28470236 -0.07593674
000040 14 47 de 3c 64 b8 2e bc 78 74 04 be da 68 41 3f
       0.027133502 -0.010664079 -0.12935054 0.75550616
000050 a5 e4 81 be da 41 1d 3e b1 36 67 3e ed f6 11 3f
       -0.25369754 0.15357152 0.22579457 0.57017404
000060 59 27 11 bf fe d0 05 be ff 44 e4 be 79 ab 98 be
       -0.56700665 -0.13068005 -0.4458389 -0.29818323
000070 72 41 2a 3e 54 bb 10 bf 1e b7 92 3e b0 02 a0 be
       0.16626528 -0.5653584 0.28655332 -0.3125205
000080 3c 54 cb 3d e3 4d 8c 3c cc ef 42 be 93 9f 81 3e
       0.09928176 0.017126983 -0.19036788 0.25317058
000090 57 11 1c bd b1 09 a2 3e 76 83 aa 3e 7e f7 ed bd
       -0.038102474 0.3164802 0.33303422 -0.11619471
0000a0 db 5c b4 bc 44 7e d2 be cd be 28 3e 9c 16 5e 3f
       -0.022016933 -0.41111958 0.16479035 0.8675325
0000b0 4c 20 84 3d 01 9c 29 be a9 93 d0 3e 6b 1e 21 3e
       0.06451473 -0.16563417 0.40737656 0.1573426
0000c0 f2 a6 69 be c9 cd 5e be bc 67 f3 be 38 74 27 bf
       -0.22817591 -0.21758188 -0.4754008 -0.6541171
0000d0 0d 47 ee bd 33 4b 89 3e 77 39 89 3e f6 65 78 3e
       -0.116346456 0.26815185 0.26801655 0.24257645
0000e0 e8 38 97 3a 30 fe 09 3b 0b 59 87 3f 75 05 ed be
       0.0011537345 0.0021056049 1.0574049 -0.46293226
0000f0 a1 3a 00 bb bd e3 04 be 5c 8b 69 3e e9 c2 67 be
       -0.0019566196 -0.129775 0.22807068 -0.22632946
000100 5f f5 7f 3c b3 59 4a bc 60 e4 0e 3f 16 d4 df bd
       0.015622466 -0.0123504875 0.5581722 -0.10929124
000110 99 ab f4 be 1a 8e 54 be d6 63 cd 3e 6e 45 ab 3e
       -0.4778717 -0.20757332 0.4011523 0.33451408
000120 7d 0a a5 3e 7c 91 4b be 14 41 04 bf be b0 02 bf
       0.32234564 -0.19879717 -0.516618 -0.5105094
000130 28 08 e0 be b4 e3 27 3e d4 9a 22 3e 9e 25 9f 3e
       -0.43756223 0.16395456 0.15879375 0.31083387
000140 60 ea 1f 3c 25 13 9a bb 11 6b a0 3a 49 57 49 3c
       0.009760469 -0.0047019892 0.001223894 0.012288877
000150 63 e7 96 3f 2d bf d0 bd 8b c0 bc 3d db ca b8 bf
       1.1789364 -0.10192714 0.09216412 -1.4436907
000160 30 83 8f 3d 92 e4 5e 3e e2 91 19 3e 81 50 05 be
       0.07007444 0.2176688 0.14997056 -0.13018991
000170 22 31 fe 3d cd d7 29 3f e2 4d ec bb df ba 85 bf
       0.12411715 0.6634491 -0.007211433 -1.0447654
000180 18 8b a8 3e 4a 74 e8 3d fc 2d 98 bc 8b 84 1d bf
       0.3291862 0.113503054 -0.018576615 -0.6153037
000190 60 90 0b be 72 55 27 3e fb c9 2b bf 19 0a 2c bf
       -0.13629293 0.16341189 -0.6710507 -0.6720291
0001a0 3d e9 f2 bc ad 54 3c be 16 98 0b bf 4f 69 15 bf
       -0.029652232 -0.18391676 -0.5452894 -0.58363813
0001b0 7c 89 33 be 43 ac ee be 55 73 0a 3f c6 0b 42 3e
       -0.17532915 -0.466158 0.5408223 0.18949804
0001c0 de d7 26 3e e8 00 b0 be 71 d2 86 be ba 10 0d bf
       0.16293284 -0.3437569 -0.2633243 -0.5510365
0001d0 0e 66 3c 3d 3c 8b 12 bc 96 20 63 bd db d9 09 bf
       0.045995764 -0.008944329 -0.055451 -0.53848046
0001e0 ec 0a 15 3d 72 0a 8b be a5 f7 3c 3d 0d 6d e2 be
       0.03638737 -0.27156407 0.04613461 -0.44223824
0001f0 1f 2c 8b be 00 de 08 bf 19 e0 48 bf 5f 34 03 3e
       -0.271821 -0.53463745 -0.78466946 0.12812947
000200 88 27 88 3e 74 7c b8 3d 59 76 21 3f b4 69 8e 3e
       0.2659266 0.090081125 0.6307121 0.2781502
000210 6c fb 59 bf 7a d4 32 3a aa 4c c6 3b 16 86 a0 be
       -0.85149264 0.00068218226 0.0060516195 -0.313523
000220 66 ef 1f bf e7 0e c2 be 6a 34 8e bd 32 f8 59 be
       -0.6247467 -0.37901995 -0.06943591 -0.21286085
000230 b8 98 52 3e ca 3c 0b bf 1b e2 0f 3f 68 a7 54 bd
       0.2056607 -0.5438963 0.56204385 -0.051917464
000240 b0 73 13 3c 17 5b 08 bb 67 96 69 b9 da 52 70 3c
       0.00899975 -0.0020806247 -0.00022276641 0.014668191
000250 8c 59 96 3f e5 61 a1 bd 8a 6d 86 3e 10 f0 8b be
       1.1746078 -0.0788 0.26255447 -0.2733159
000260 99 7f 8b 3e 8d e2 70 be 83 ea 29 3f 0c ef 0b bf
       0.27245787 -0.23523922 0.6637346 -0.5466163
000270 89 e4 96 3d 30 86 63 3d 13 0c 0e 3e eb 90 81 be
       0.07367808 0.055547893 0.13871793 -0.25305876
000280 af 11 d2 3e 30 e9 2d 3e cf fb 0e 3e 98 0b 0a bf
       0.41029117 0.16983485 0.13963245 -0.5392394
000290 97 25 91 3e 43 c5 0a be 7b 6c 7b be 37 11 a6 3e
       0.2834899 -0.13551812 -0.24553101 0.3243501
0002a0 c2 89 9e bd 8b 84 a7 be 2f ad c6 3d 69 3f 91 bd
       -0.07741119 -0.3271831 0.09701001 -0.07092173
0002b0 b0 3a 05 3f 64 50 0a 3f 6f 69 8a be ee 64 77 bf
       0.52042675 0.54028916 -0.27033564 -0.9663838
0002c0 ec 69 3c bf 9c 6d a1 3e e5 a5 79 3e 99 56 f5 be
       -0.73599124 0.31528938 0.2437969 -0.4791763
0002d0 c9 1c 1c be 88 08 ed 3d d5 79 18 bf 18 1d 1e bf
       -0.15245356 0.11573893 -0.595609 -0.61763144
0002e0 12 da 86 3e 96 21 31 3e 5b 81 c2 3e c6 90 68 3d
       0.2633825 0.17297968 0.37989315 0.05677869
0002f0 06 aa 50 bf 8c c4 7d 3e 3b 9f bb 3d 9f 88 98 be
       -0.81509435 0.24782008 0.0916123 -0.29791734
000300 42 96 7b 3f 3f 46 43 3e ad 27 a2 3e 5a 75 91 be
       0.9827615 0.19069766 0.31670895 -0.28409845
000310 3d 26 2d be eb 7c dc bd c4 be 1a 3e f4 47 9d 3d
       -0.16909118 -0.10766014 0.15111834 0.076797396
000320 24 b7 f2 bd 37 5b 0e be 2d 1c 83 3e 8b 96 a5 3e
       -0.118513376 -0.13901983 0.25607434 0.32341418
000330 e5 f9 a1 be 30 5f c6 be f7 e2 c2 be e3 8f 5b bf
       -0.31635967 -0.38744497 -0.38063785 -0.8576643
000340 10 f1 99 bc 2b 33 e4 3d a3 0f 3f 3e 00 00 51 3e
       -0.018791705 0.11142572 0.18658309 0.20410156
000350 9f c8 b3 be 4f 6d d7 be 97 3a 9f 3c 4b 1c 16 3f
       -0.35114 -0.42075583 0.019437118 0.5863692
000360 e7 b7 5a 3d 52 da aa 3d 78 f9 ba 3e 92 77 90 bd
       0.05339804 0.083424225 0.36518455 -0.07054056
000370 e2 82 4a bf 9f 46 41 bd dc 79 cc 3b 42 07 c3 bd
       -0.7910596 -0.04718649 0.0062401127 -0.09522869
000380 d1 ab fb bd 8d ad 43 3e 4b 63 94 3e 26 53 74 3e
       -0.12288631 0.19109173 0.28982005 0.23859844
000390 ba 02 c3 be d3 ac 1e bf 09 45 fe be 61 2b eb 3e
       -0.38088018 -0.6198246 -0.49662045 0.45931533
0003a0 8b f6 01 3e cb 62 b2 3e 33 89 14 3e 19 61 79 3e
       0.12691705 0.34840998 0.14505462 0.24353446
0003b0 90 f3 14 bf 47 a9 c7 be 2d d7 36 bf 36 82 2d bf
       -0.58184147 -0.38996336 -0.7142208 -0.6777681
0003c0 28 37 08 bd c8 64 c9 be 17 bb b5 be 7b 77 27 be
       -0.033255726 -0.39334702 -0.354943 -0.16354172
0003d0 a6 e1 a6 3e 58 3b ba be 02 b6 15 bf 76 89 f0 3e
       0.3259403 -0.363734 -0.58480847 0.46979874
0003e0 1c 72 19 3d 7d 6c 92 3e 85 d9 84 be c9 6b ec be
       0.03746234 0.28598395 -0.25947204 -0.46175984
0003f0 6a b9 6b 3e 55 63 15 bf db 8e 96 bd 3a 8b 23 be
       0.23019949 -0.58354694 -0.07351466 -0.1597108

net.0.bias f4 [256]
000000 05 87 65 3e 42 f9 e5 3d 1c 77 72 bc 82 d2 10 3e
       0.22414787 0.11229183 -0.014798906 0.14142802
000010 59 67 80 3e 24 c1 88 be 4c 03 d5 bd c5 7c d7 ba
       0.25078848 -0.26709855 -0.104010195 -0.0016440382
000020 ed d3 86 3d d0 f3 73 3e 26 6d 33 3c 97 13 09 be
       0.065833904 0.23823476 0.010951316 -0.13386379
000030 da 46 35 3d aa ca 58 bd e2 16 9c 3e 04 73 63 be
       0.044257022 -0.05292765 0.30486208 -0.22211844
000040 cf 98 a1 3e 26 52 bc 3d 80 c9 1f 3c 9c 6c f8 3c
       0.31561896 0.09195356 0.009752631 0.030325226
000050 ec 5d 5e 3e 5d 36 60 bc ed e6 45 bd 08 e9 91 3e
       0.21715516 -0.013684836 -0.04831593 0.284981
000060 86 c2 51 be 5d e8 a7 3e 9f c8 1f 3e ea d8 bc 3d
       -0.20484361 0.32794467 0.15603875 0.092210606
000070 98 74 2b 3e 9d 64 b9 3d 57 fe ee 3d c4 10 b8 3e
       0.16743696 0.090523936 0.11669605 0.3595029
000080 29 b5 b1 bd 2d 55 82 3e 39 e7 f9 bd bf 80 a0 bc
       -0.08677132 0.2545561 -0.12202305 -0.01959264
000090 1b 3a 3f 3e 2c 16 ad 3e af 2d 88 be 1a a8 1e be
       0.18674509 0.33805978 -0.26597354 -0.15493813
0000a0 f1 64 94 3e 47 c7 28 bd 40 3b 49 3e 5d 90 43 bd
       0.28983262 -0.04120567 0.19651508 -0.047745097
0000b0 dc a7 59 3e 2e 06 b4 3e 30 d6 aa 3b 68 6f 5c be
       0.2125544 0.35160965 0.0052135214 -0.21526873
0000c0 76 86 6d 3e f6 d8 01 3e ce 8d 02 3d 73 d1 20 be
       0.23195824 0.1268042 0.031873517 -0.15704899
0000d0 ad 4e a6 3e d3 eb bb 3d a7 9f 3f 3d 4b e3 bc bd
       0.324819 0.09175839 0.046783116 -0.0922304
0000e0 3e 0c 5f 3d 84 a4 80 3e 52 9f b2 bd 0e cb a6 3e
       0.054455034 0.25125515 -0.08721794 0.32576793
0000f0 c3 7d 99 3d 63 e4 65 3d b0 fd 7f 3e 5a b0 2b bd
       0.0749469 0.05612601 0.24999118 -0.04191623
000100 36 c6 af bd 11 be c5 3d a3 fc b1 3e c1 db 89 3d
       -0.085827276 0.09655393 0.3476306 0.06731368
000110 a8 10 7a 3e bc 68 9b 3e 8c 2d 71 3e e0 9d 79 3e
       0.24420416 0.30353343 0.23552531 0.24376631
000120 ff da 35 3e ec bb e3 bc de 73 cf 3e 62 6d c8 3e
       0.17759322 -0.02779957 0.40518087 0.39145952
000130 9c 8d 27 3e 6b 80 86 3e 40 2a 91 3e 4d 24 ae be
       0.16362613 0.2626985 0.28352547 -0.3401207
000140 4d e1 94 3e 6b c8 4e 3e e2 72 cd 3e a5 95 4c bc
       0.2907814 0.20193641 0.4012671 -0.01248685
000150 c6 8f 8e be a4 c0 c4 3e 40 29 11 be df f4 42 3e
       -0.27844065 0.38428223 -0.14175892 0.19038723
000160 79 41 8f 3e d3 a1 0f bf 3c 23 1f 3c 3c 0f 3c be
       0.2797964 -0.561063 0.00971299 -0.18365186
000170 7b f7 9e 3e 59 fa a7 be 14 dd 51 3e 25 8f c4 3e
       0.31048188 -0.32808188 0.20494491 0.3839046
000180 1d d5 84 3e a7 dc ea 3e 24 f8 56 3e 23 4f ad be
       0.25943843 0.4587147 0.20993096 -0.3384944
000190 a3 37 a1 3e 5b 96 86 3e d6 93 f4 3d 06 91 95 be
       0.3148776 0.26286587 0.1194226 -0.29212207
0001a0 af 0d 44 3d 3c ce 14 bd 8b 18 f1 3e 71 4d 75 3e
       0.047864612 -0.036329493 0.47089037 0.23955323
0001b0 f9 2a 64 3e 23 e4 9b 3e cc d0 86 be 4e 32 ab bd
       0.22282018 0.30447492 -0.26331174 -0.08359204
0001c0 41 29 5e bd 52 ac 1b be 2e cf cc 3e 83 37 75 3e
       -0.05423856 -0.15202454 0.40001816 0.23946957
0001d0 02 65 98 3e 90 5d 8b 3b 06 a3 43 be 75 15 0e be
       0.29764563 0.004253097 -0.19105157 -0.13875373
0001e0 ed 91 62 3e 35 d9 99 3e bd 51 0e 3e 41 ea df 3c
       0.22125979 0.30048528 0.13898368 0.02733338
0001f0 3f 30 27 be b6 b4 0e bf 7a 6a 40 3e c2 86 81 3d
       -0.16326998 -0.55744493 0.18790618 0.06324531
000200 7c fc a7 3d 41 f0 71 3e 8c 77 1f be d8 a0 6b 3e
       0.082024544 0.23626806 -0.15572947 0.23010576
000210 97 fa d6 3d 2a 71 25 3d 3f 97 a1 bd 88 2e 98 be
       0.10497015 0.040391125 -0.07890176 -0.29723
000220 6b 90 10 3d 60 74 5b 3e 4f b1 6b be 78 b1 b2 3e
       0.035293978 0.21431112 -0.23016857 0.34901023
000230 48 96 65 bd 84 91 b0 be 56 44 74 bd db 87 f1 3c
       -0.056051522 -0.3448602 -0.059635483 0.029483726
000240 c4 30 98 3d 71 7b 2a bc 8f a6 95 3e f9 6a b5 be
       0.07431176 -0.010405407 0.29228637 -0.35433176
000250 c1 5e 0f 3e bd c7 b7 bc d8 ce f3 3d 37 53 d8 3e
       0.1400099 -0.02243411 0.11904687 0.42250988
000260 dc 65 79 3e 8c 90 24 be f0 2f 63 be 49 8a 30 bc
       0.24355263 -0.16070765 -0.22186255 -0.010775157
000270 49 e4 69 bd 17 cb 70 3e 73 e8 c1 3d ba b4 8d 3e
       -0.057102475 0.23514973 0.09468164 0.27676946
000280 e0 79 5e 3e b4 ae 2b bd 36 6a 44 3e a6 45 23 3e
       0.21726179 -0.041914657 0.19181141 0.15944538
000290 e3 df 8a bd 66 2d 9f 3e 38 0f d4 be 7d ed 8d 3e
       -0.06780984 0.31089324 -0.4141786 0.27720252
0002a0 dd 7f 23 bf 49 25 7e bd 87 f5 18 be 59 5e 83 3e
       -0.6386698 -0.062047277 -0.14937411 0.2565792
0002b0 25 4e 81 3e 5e 2f 04 3e a5 3b ce 3d 07 b4 da bc
       0.25254932 0.12908694 0.1006997 -0.026697172
0002c0 08 2f dd 3d 6e 33 a8 3d 7a 57 8a bd 04 3b c3 3e
       0.10799986 0.082129344 -0.06754966 0.38130963
0002d0 82 2c 9e 3e 39 92 b4 be fe 52 82 3c 80 04 2b 3d
       0.30893332 -0.3526781 0.015908714 0.04175234
0002e0 67 7b 58 3d b7 c8 a2 be 22 b9 47 3d 05 2c 3e be
       0.05285206 -0.31793758 0.04876054 -0.1857148
0002f0 ae 9b dc 3e d4 70 b7 3e 52 cf ad be e4 4b 6a be
       0.43087524 0.3582827 -0.33947235 -0.22880512
000300 af 4e d5 3d 95 4c 01 be a0 d0 b2 3d 9b 45 d7 bd
       0.10415398 -0.1262687 0.08731198 -0.10511323
000310 8c 11 2d 3e 7a b0 92 be 79 3b 5f be a4 4c 09 be
       0.16901225 -0.28650266 -0.21800031 -0.13408142
000320 16 c8 86 3e 9d df 54 3c a3 58 7c be 50 51 d1 bd
       0.26324528 0.012992767 -0.24643187 -0.10220587
000330 aa 1b 77 3c af f5 80 be fc 4f 3f 3e 97 9f 56 3e
       0.015082279 -0.25187442 0.18682855 0.20959316
000340 ef 33 c3 bc b6 8b 41 be 1e cf d5 3a 23 ac 53 be
       -0.023828475 -0.18900952 0.0016312336 -0.20671134
000350 33 33 15 be 62 fe a7 3d 68 02 c7 3e 1f 28 8e bb
       -0.14570312 0.082028165 0.38869023 -0.004338279
000360 66 7a 4f 3e 5a 12 13 3e 8a 91 97 3a ca 5b c9 be
       0.20261535 0.1436247 0.001156376 -0.39327842
000370 b8 15 c0 3e 02 62 d7 3e e3 60 c7 3d cf a6 94 3e
       0.3751657 0.42066962 0.097352766 0.29033515
000380 38 fd b3 3e b0 eb 78 3e 84 7b 8a 3e 5c a5 2c bf
       0.35154128 0.24308658 0.2704736 -0.6743982
000390 97 ea fd be 69 40 28 3c 53 80 46 3e 38 f6 fe bd
       -0.4959304 0.010269263 0.1938489 -0.12449306
0003a0 a7 3e 40 be a9 12 88 3d af e7 f5 be 31 5d 48 3e
       -0.187739 0.06644184 -0.48028323 0.195668
0003b0 d1 c8 67 3e f0 45 33 be e4 a8 81 3e d4 dc 30 3d
       0.22635199 -0.17507148 0.25324166 0.043179348
0003c0 d9 2a a4 bc f1 85 ae 3e 91 07 c9 3e 40 74 e9 3d
       -0.020039963 0.34086564 0.39263585 0.11399126
0003d0 e0 9c 75 be 87 00 60 bd 4b 1d b0 3c 12 fe 11 3e
       -0.23985624 -0.054688003 0.021498343 0.14257076
0003e0 74 13 fe 3d 67 08 75 be 96 27 c8 be d7 3b 8a be
       0.12406054 -0.23928986 -0.39092702 -0.2699878
0003f0 ea ae 29 be f3 f9 7d 3d a9 75 d7 bd 69 42 74 be
       -0.1657063 0.06200595 -0.10520489 -0.23853458

net.2.weight f4 [256, 256]
000000 f5 4b 76 3d 30 9d 1f 3d 7c dd 43 3b 41 2c 5b bc
       0.060131032 0.038968265 0.0029886654 -0.01337725
000010 08 7d 8e 3d 68 4e 25 3f ec 2b d2 bd 81 5a a9 bd
       0.069574416 0.64572763 -0.10262284 -0.082692154
000020 e1 3f e7 3c 20 3f d4 3c 55 ea 92 be a6 fb 64 3d
       0.028228702 0.025909007 -0.28694406 0.055904053
000030 3e 81 45 bd 09 04 41 bd ab 99 77 3d 54 32 07 be
       -0.048218958 -0.04712299 0.060449284 -0.13202792
000040 68 62 ce bc f0 cb f6 bb e9 ec 13 be 7d 64 fa 3c
       -0.025193408 -0.0075316355 -0.14445843 0.030565495
000050 c7 9d 06 3d 9a f1 74 3e fe 9e 36 be d8 d2 b7 3d
       0.032865312 0.23920289 -0.17834088 0.08975762
000060 27 fa f4 3d 75 f3 0d 3d 6e 4a a3 3d 1c 84 98 bd
       0.11961775 0.034656007 0.07973181 -0.07447073
000070 d1 fd ac 3c b8 d5 47 3c 09 9f 86 3d b6 b5 2b bd
       0.021117123 0.012196951 0.06573302 -0.04192134
000080 5e 51 08 3e eb ef b3 bc 78 e0 e7 bd d9 c0 c3 3c
       0.13312289 -0.021964988 -0.11322111 0.023895668
000090 80 e4 2c 3d 0d c4 8a 3d 07 39 3d 3b e1 ea 68 bd
       0.042210102 0.06775675 0.0028873102 -0.056864623
0000a0 b6 d5 0c 3e 32 6b 56 3e 51 d3 b7 bd a9 93 57 3c
       0.13753399 0.2093933 -0.08975852 0.0131577635
0000b0 b4 0b ba 3c 08 16 17 3e 28 85 c5 be b2 55 12 be
       0.022710659 0.14754498 -0.38578153 -0.14290503
0000c0 ad 8e 03 3c c4 1a a1 3d 26 3d 82 bd 38 2c 99 3e
       0.008029622 0.07866433 -0.063593194 0.2991655
0000d0 0c ee 50 3c 58 c7 99 3c 0e 7d 20 3e 53 f5 34 3d
       0.012752067 0.018771812 0.15672705 0.044179272
0000e0 f1 e8 b3 bb 5d c5 63 bd 68 da 06 3c e7 24 1f 3e
       -0.0054904153 -0.055608142 0.008230783 0.15541421
0000f0 7f 22 a8 3d 2d 56 32 3e 83 44 39 3c 34 77 6b bd
       0.082097046 0.17415686 0.011307838 -0.057486728
000100 b4 98 18 3d 99 4d 10 3d cb 89 8e 3d 9b ae 5c be
       0.037255004 0.035230253 0.06959876 -0.21550982
000110 de 8b f3 bc f7 85 3b bc 6c 76 6d bd 50 8c 87 bd
       -0.02972978 -0.011445514 -0.057974264 -0.06618559
000120 bd 20 92 bd 42 3c 87 bc f3 be 8c bc d1 d8 a7 bd
       -0.071351506 -0.016508225 -0.017180895 -0.08195651
000130 0a ea bc bc 36 b7 6f be 91 a4 69 be 39 cf c8 bd
       -0.023060817 -0.23409733 -0.22816683 -0.098051496
000140 30 0d 03 3e 6a d6 ff 3a ea 41 6f 3d 60 9d 43 3d
       0.12798 0.0019518856 0.05841247 0.047757506
000150 2f fa a3 be 75 e4 4d ba c6 cb da 3d d5 af 7d 3c
       -0.32026812 -0.0007854172 0.10683398 0.015483816
000160 4f f7 16 3e 8b 8f 39 3f 02 29 95 3e 20 ee 3b be
       0.14742778 0.72484654 0.2913285 -0.18352556
000170 03 90 29 bc 9d 55 f4 3b f1 a7 b7 bd a7 00 8c bc
       -0.0103492765 0.007456495 -0.08967579 -0.017090155
000180 db 16 ad bc 8b 7a 6e bb e3 69 b6 bd 49 68 36 3e
       -0.021129062 -0.003638896 -0.08906915 0.17813219
000190 3e 0d c4 3a ac b8 68 be 93 46 4e 3e 1d e5 6c 3c
       0.001495756 -0.22726697 0.2014411 0.014458922
0001a0 23 f5 e4 bd de 4d 24 3e f9 54 e1 bc 3a 64 d7 3c
       -0.111795686 0.16045329 -0.027506338 0.026292909
0001b0 26 0f 89 3d dc 91 15 bc 76 68 64 bd c2 78 d8 3c
       0.066923425 -0.009129014 -0.055763684 0.02642477
0001c0 3c 0c 5d 3c 15 64 30 be 25 74 90 3d ba dd 3d 3e
       0.013491686 -0.17225678 0.07053403 0.18541613
0001d0 b7 bb 88 bd 3a 73 8a be d6 1c 67 be 8d 6b 53 bd
       -0.06676429 -0.27041036 -0.22569594 -0.05161624
0001e0 6d f3 4e bd de aa da 3d d1 8d 93 3d 00 91 2c 3e
       -0.050525118 0.106771216 0.07204784 0.16852188
0001f0 69 ea 97 be 63 3a 8d 3f e9 86 30 bd cc 29 f1 bd
       -0.29671028 1.1033443 -0.04309741 -0.1177555
000200 5a c3 2a bd 2a 69 1c be 54 25 e4 3c e0 6d bf 3d
       -0.041690208 -0.15274492 0.02784983 0.09347129
000210 5b 95 c5 bc f9 5f 9a bc 17 8f d8 be 3f ce e7 bd
       -0.02411907 -0.018844591 -0.4229667 -0.11318635
000220 f1 4b 9c 3d e3 90 d2 3d c9 05 a6 3d 95 44 16 bd
       0.07631672 0.10281541 0.08106572 -0.0366865
000230 b7 46 be bd cf 92 04 3e 06 91 6c bd 7d dc 5a 3e
       -0.092908315 0.12946628 -0.057755493 0.21373172
000240 12 2d 53 3e 70 c1 ea be 88 3e 0e ba b0 2b 02 be
       0.20622662 -0.45850706 -0.0005426188 -0.12711978
000250 9e 76 e9 3d dc 8b 4d 3d ea 28 14 3d a8 66 01 3c
       0.113995776 0.05018221 0.03617183 0.00789801
000260 b5 97 c9 3d 92 0f fe 3c a8 74 e1 3d b4 de 7a 3e
       0.09843389 0.031013284 0.110085785 0.24499017
000270 16 3c ef bc 87 0d 3a bd a3 9c 9b bc 2b 2d 03 3e
       -0.029203456 -0.045423057 -0.018995589 0.12810199
000280 44 8c fa 3d 55 87 75 be c7 a5 ce bd f5 46 36 bc
       0.12233785 -0.23977406 -0.10090213 -0.011125316
000290 bb 39 55 3e 6b c9 94 bd 76 0f dc 3e fa c9 e8 bc
       0.20822804 -0.0726498 0.42980546 -0.028416622
0002a0 42 b3 9a 3f b5 a8 1e be 6e da 6a bd 4b 72 08 bd
       1.2085955 -0.15494044 -0.057337217 -0.033312123
0002b0 c6 fc e5 3d c3 79 2c 3e b1 23 ce bc f2 6c fd 3d
       0.11229853 0.16843323 -0.025163503 0.12374295
0002c0 60 ca aa bd 6b 18 bd 3d b4 d4 96 3d 4d 4a 08 3d
       -0.08339381 0.09233173 0.07364789 0.033273984
0002d0 90 06 01 bd f2 96 86 3e a2 fd 95 bd 72 37 cd 3d
       -0.0315004 0.26287037 -0.07323767 0.10020341
0002e0 46 0f a8 3d 89 7e 36 3d 0f d6 3a be 53 10 10 bf
       0.08206038 0.044554267 -0.1824572 -0.5627491
0002f0 f5 76 f5 3c 5c f8 d0 3c 35 a2 db be f4 d8 93 be
       0.02996395 0.025509052 -0.42897192 -0.2887646
000300 6b 83 cd 3d 3a 44 ab 3e 46 71 04 be 5b e8 f6 bd
       0.100348316 0.3345049 -0.12933835 -0.12056037
000310 d5 26 39 3e b4 48 ca bd af 73 8d bd 66 b9 0a 3e
       0.1808122 -0.09877148 -0.069068305 0.13547286
000320 1a 70 6e bb fd a9 aa bd 3c 73 07 3d 5a d7 3f 3c
       -0.0036382736 -0.08333204 0.03306888 0.011709059
000330 10 b4 34 bd 93 f1 78 bc 22 20 eb 3b 4c e5 c7 3d
       -0.044117033 -0.0151943145 0.0071754614 0.09760532
000340 4d e3 c4 be 81 14 a7 3e bd e0 a9 be e0 03 ef 3d
       -0.38454667 0.3263283 -0.33179274 0.11670661
000350 ec 92 da be a1 7f 22 3d ea bb ba 3d 30 8e b5 bc
       -0.42690217 0.039672498 0.09117873 -0.022162527
000360 1f 45 81 bd ef 1e a6 bc 14 09 fb bd ef 71 c0 3d
       -0.06312012 -0.020278422 -0.12257591 0.09396731
000370 3d b9 8b bd ad 89 b6 3d 2b 57 88 3d 4c 6a 18 3e
       -0.06822441 0.08912978 0.06657251 0.14884299
000380 16 40 73 3d 63 e6 44 bd 8d c1 c5 3b e8 08 36 3f
       0.05938729 -0.048071276 0.006035036 0.7110734
000390 00 8f ff 3e 75 be a3 3d 43 38 66 3d 79 41 ba 3d
       0.49913788 0.07995311 0.056206 0.09094519
0003a0 df 20 da bd 92 55 d1 3d 2f d7 39 3f d7 1c ad be
       -0.10650801 0.10221399 0.7259397 -0.33811066
0003b0 6e 17 81 3e 8e 7b ec 3d d1 ed b8 bd 68 0d 55 be
       0.25213188 0.11547004 -0.09029735 -0.20805895
0003c0 ed 4d f4 3e a2 7a 83 bc 6d f5 30 bd 05 b1 47 3d
       0.47715703 -0.016049687 -0.043202806 0.048752803
0003d0 af c1 ca bd f4 4f c0 3d f3 2f cf 3d 27 68 84 bd
       -0.099002235 0.0939025 0.101165675 -0.06465178
0003e0 b2 02 84 bd b6 96 cc 3e 18 a3 a6 3e 96 44 6b bd
       -0.064458266 0.39958733 0.32546306 -0.057438456
0003f0 71 14 12 be 6a b0 18 3d 03 6f ec ba 00 83 2f 3d
       -0.1426561 0.037277617 -0.0018038455 0.04284954

net.2.bias f4 [256]
000000 20 28 85 3c cc 1f 5d 3d 5e f8 71 3d bf e8 58 bd
       0.016254485 0.053985402 0.059074752 -0.05295634
000010 86 6a 15 3d b2 4d ae 3d 08 07 c5 3c 17 06 ec 3d
       0.03647854 0.08510913 0.024051204 0.11524599
000020 b3 d6 99 3d 65 23 d0 3d f2 9c 21 3d 23 59 b1 3c
       0.07511654 0.10163001 0.039456315 0.021648949
000030 bc 7a 85 bd ee 35 2c 3d 44 8d 2d 3d 65 bf 84 bd
       -0.0651755 0.04204362 0.04237105 -0.06481818
000040 27 ee dc bd bb b8 33 bd e1 76 83 3d 47 f8 d5 3c
       -0.107876115 -0.043877345 0.06419159 0.026119364
000050 c5 31 44 bd 63 32 91 3d 2c c2 f6 3c 5f 54 b5 3d
       -0.047899026 0.07089689 0.030121885 0.08853983
000060 9a a2 1a 3d e7 32 e4 3d f5 dd 24 3d c2 3b 45 3c
       0.037752725 0.11142521 0.040250737 0.012038173
000070 c6 e9 36 3d 77 2b 7c 3d 63 8c 09 3c 26 c9 ac 3d
       0.044656537 0.06156489 0.008395287 0.084368035
000080 f9 78 48 3d 52 cc 05 bd 50 e3 58 3d 82 43 18 bd
       0.048943494 -0.03266556 0.052951157 -0.037173755
000090 a9 25 bb 3c a7 87 e4 3c 9c 32 dc 3c 8e b5 f1 3b
       0.022845106 0.027896715 0.026879601 0.0073763793
0000a0 25 6e 83 3c 24 c4 bb 3d 4f 1f f7 3d 9b 4e 2f 3c
       0.016043732 0.0916827 0.120665185 0.010699893
0000b0 6e 63 9b 3d 8e 65 0c 3d e6 51 f1 bc 1f aa 95 3d
       0.07587324 0.034276538 -0.029457998 0.07307839
0000c0 49 d5 dc bd 20 49 7f bc 9e 08 88 3d 30 43 89 bd
       -0.107828684 -0.015581399 0.066422686 -0.06702268
0000d0 cc 38 ea 3d fb 19 29 3c 2a 4b 2e 3d 23 cb cd 3d
       0.114366144 0.010321136 0.04255215 0.10048511
0000e0 ae 18 d5 3d 02 35 4b 3d 1e bc 3a 3c 4d 70 11 3c
       0.10405098 0.0496111 0.01139739 0.008876872
0000f0 6d 29 ac 3d 38 76 b0 be 07 d4 fb 3d 49 81 87 3d
       0.08406339 -0.34465194 0.122963004 0.06616456
000100 9a 8e b2 bc 28 45 72 3d 9e 8e 81 3d 77 39 5a 3d
       -0.021796513 0.059147984 0.0632603 0.05327746
000110 39 bc 1f 3a 1a ae 9d 3d 85 7b 5f bc f1 e4 fb 3d
       0.0006093416 0.07699223 -0.013640289 0.122995265
000120 fd d5 d5 bd f7 43 35 bd fe 72 e9 3d da 0c 3f 3b
       -0.10441206 -0.04425427 0.11398886 0.0029151947
000130 ff 40 11 bd a8 ea a5 3d be ce 00 3c f3 96 c7 bc
       -0.035462376 0.08101398 0.007861791 -0.02436397
000140 58 1b d4 3d 69 47 58 3c c1 1b 22 bc bf ac a6 3d
       0.10356778 0.013200619 -0.009894312 0.081384175
000150 e1 e4 c3 3b 4f 65 8c 3d a5 a8 50 3c 7e 16 9e 3d
       0.005978212 0.068552606 0.0127355205 0.07719134
000160 b8 bc d8 3b ab b8 53 38 db 2c ad 3d 41 f5 1b 3d
       0.006614294 5.0478306e-05 0.08455821 0.03807569
000170 0e fe c1 3d 53 bc 42 3e 40 4b 90 3d 38 4e 49 bc
       0.09472285 0.19017152 0.07045603 -0.012286715
000180 9d 2d 30 bd 7b 78 57 3d f0 5b 36 3d 21 24 c0 39
       -0.04301225 0.052605134 0.044521272 0.00036648012
000190 7b 7e e7 3d 9a bc 2e bd 2f ec 4f bd 34 9a 17 3e
       0.11303421 -0.042660333 -0.05076235 0.14804918
0001a0 c1 c2 12 3e 7a 48 19 bd a2 9f 1d 3e 4b 00 ad 3d
       0.14332105 -0.037422635 0.15392926 0.084473215
0001b0 bb 6e 7f 3d 18 2d ed bc 98 fe ae 3c 59 40 2b 3d
       0.06236146 -0.028952166 0.021361634 0.041809414
0001c0 45 9a 1a 3d b3 55 b8 3d ed f4 a8 3d 47 bb 2e bd
       0.03774478 0.09000721 0.08249841 -0.04265907
0001d0 a4 ee 8f bd 90 52 dc 3d a9 ba 21 3d ad 97 50 ba
       -0.07027939 0.10757935 0.039484654 -0.0007957172
0001e0 c6 75 a6 3d f3 1d 5d b9 9c db c7 bd 0b 85 02 3e
       0.08127932 -0.0002108736 -0.09758684 0.12746064
0001f0 8f 86 02 3e 48 1e 82 3d 51 ad 45 3d c2 51 a9 3d
       0.12746643 0.06353432 0.04826099 0.08267547
000200 8b 13 aa 3c 80 13 4d 3d 5c aa ce 3d 66 8a 3c 3d
       0.020761272 0.050067425 0.10091087 0.046030425
000210 75 26 5b 3d 4a 2e 3c 3d 6d 3a 3f bd 16 43 1a 3e
       0.053503472 0.045942582 -0.04668658 0.15064654
000220 1b 46 43 bd db 07 69 bb 85 07 82 3d 5d 23 fd bc
       -0.04767428 -0.003555766 0.063490905 -0.030900652
000230 1c b1 3a 3d 5a d6 32 3d 78 eb a9 3d 6a 45 1e 3d
       0.04557906 0.043661453 0.08296865 0.038640417
000240 bf 00 0b 3d 6c 2c 72 bc 27 04 42 3d 2b db 29 3c
       0.03393626 -0.014781099 0.04736724 0.010367195
000250 f8 eb 2a 3e c2 50 75 3b a6 82 35 3d f1 32 19 bd
       0.16691577 0.0037432169 0.04431405 -0.037402097
000260 85 00 d5 bc 83 25 94 3c 21 2e 3f bd 0d 10 8a 3d
       -0.026001224 0.018084293 -0.04667485 0.06741343
000270 42 a4 f9 3c 90 ed d7 b8 96 b5 09 3e 18 54 a8 3d
       0.030473832 -0.000102962484 0.13448176 0.082191646
000280 ee 7d b2 3d 45 dd 51 3d 1b 2a b4 3c 6d a7 28 3d
       0.087154254 0.05123641 0.021992734 0.041175295
000290 04 c2 2d 3c eb 3a 84 3d 25 a2 3d bc 0d 0e 18 3c
       0.010605339 0.0645655 -0.011574303 0.009280694
0002a0 ca b3 0a bd 49 f3 78 bd 64 99 1d bd c1 2c 8a bd
       -0.033862866 -0.06077889 -0.038476363 -0.067468174
0002b0 b5 70 6c 3d 05 8d 8b 3d 71 f4 85 3d 06 4d be b9
       0.057724673 0.06814007 0.06540764 -0.0003629701
0002c0 f8 78 65 3d cf a3 09 3d ec f3 f5 3c db 31 3f 3c
       0.056023568 0.033603486 0.030023538 0.011669601
0002d0 19 22 95 3c d0 bf 93 3c 14 71 45 b7 75 ce f9 3c
       0.018204736 0.0180358 -1.1768443e-05 0.030493954
0002e0 46 be 6b 3d 2b b7 d5 3d 0d 84 c8 bd 30 8f 15 bd
       0.057554506 0.10435327 -0.09790812 -0.036513507
0002f0 57 4f 81 3d d3 47 21 bd 31 d2 c3 3c b1 51 a4 3b
       0.06313961 -0.039375138 0.023903938 0.005014621
000300 bd 52 aa bb 41 02 95 bc 85 4c b1 3d 20 5c 27 3e
       -0.0051978515 -0.018189551 0.08657173 0.16343737
000310 4e e6 86 3b 0c 5a c2 ba 45 58 6f 3d 81 ea 14 3d
       0.00411681 -0.0014827861 0.05843379 0.036356453
000320 d4 67 08 3e 70 56 8a bd ee f0 81 bd c6 86 d2 3c
       0.13320857 -0.06754768 -0.06344782 0.02569903
000330 01 47 86 3d d6 e7 da 3d ff 2d 3c bd 31 47 dc 3d
       0.06556512 0.106887504 -0.045942303 0.10755766
000340 77 5c 06 3d 6f 29 2d bb 89 9b bd bc 8b 69 fd 3d
       0.032803025 -0.0026422401 -0.023145454 0.12373646
000350 a3 3b 37 3c 56 0e f6 3d 01 74 e3 3c cf fa 09 3d
       0.011183652 0.12014453 0.027765276 0.033686455
000360 e6 6a dc 3d 3b e4 4c bd 66 f3 43 bd 3e c3 28 3d
       0.10762577 -0.050022345 -0.047839545 0.041201822
000370 7b a7 b8 bc 9e 18 a3 bd ed ce ef bc 46 e1 0c 3d
       -0.022540798 -0.0796368 -0.029273475 0.034394525
000380 63 00 b5 3d a9 0e 76 bb 41 5d 36 bc 89 6e f6 bd
       0.088379644 -0.003754536 -0.011130632 -0.12032802
000390 9e ff 81 3d 59 f7 46 bb 11 5d 0b bd 7c 00 d6 3c
       0.06347583 -0.0030359833 -0.034024302 0.026123278
0003a0 17 62 7a 3d 06 b6 8c 3c c6 a1 4e bd 88 28 5b 3c
       0.061128702 0.01717664 -0.050447248 0.013376363
0003b0 47 be 90 bc 2e c2 f3 ba 43 1f 08 3e cf ff 6a 3c
       -0.017668856 -0.0018597299 0.13293175 0.014343216
0003c0 31 6b c4 bc ea 67 19 bb cb 55 1d 3d b5 05 73 3d
       -0.023976894 -0.0023407885 0.038411897 0.059331615
0003d0 5f 49 b1 3d cd 3a 28 3e 65 b6 db 3c 83 62 8b 3c
       0.086565726 0.1642868 0.02682037 0.017014747
0003e0 c3 ae 8e 3d 58 f2 14 bd 14 da c1 bc 39 69 d2 3c
       0.06966927 -0.03636393 -0.023663558 0.02568494
0003f0 26 27 29 bc ce 1e 18 bd 37 a2 2a 3e a7 8d 84 3d
       -0.010324275 -0.037138753 0.16663443 0.064723305

net.4.weight f4 [4, 256]
000000 d9 59 e5 bd 36 78 81 be d2 9b 44 bf 60 91 0e bf
       -0.11198778 -0.25287026 -0.7680026 -0.55690575
000010 c7 f2 ba be 3d fb b4 3e 23 90 24 3f fc f8 44 3e
       -0.3651335 0.3534793 0.64282435 0.19235605
000020 85 5e 7f be ce c1 ce 3e 3a 34 be be 6b e0 bb be
       -0.249384 0.40382236 -0.3714922 -0.36694655
000030 a6 fd e5 3e 8d 34 a6 be b1 0f 18 bf f0 4a 0f 3f
       0.4492008 -0.32461968 -0.59398943 0.5597372
000040 14 54 01 3f 9a 02 c9 be 0f 17 85 be b0 64 f0 be
       0.5051892 -0.39259797 -0.25994155 -0.46951818
000050 73 14 e4 3e ff a4 b3 3e 7f c2 d1 be 4a 8c 14 be
       0.44546852 0.3508682 -0.409687 -0.14506641
000060 a6 2b 38 bf fb a2 b9 be 11 b9 9e 3e ab b3 05 bf
       -0.719416 -0.36257157 0.3100057 -0.52227277
000070 ae 0f 87 be 6d 1e c4 be e0 1d e0 be 54 97 b1 be
       -0.2637915 -0.38304463 -0.43772793 -0.34685767
000080 32 c4 af be 23 b8 c5 3e ac fd fc be 23 45 0c 3f
       -0.34329373 0.38617048 -0.49412286 0.54792994
000090 bb b3 10 be e7 f2 c1 3e c7 58 40 3f 39 7f cb be
       -0.14131062 0.37880632 0.75135463 -0.397455
0000a0 7d f2 1d 3f 79 40 29 bf 8d 09 c2 3e 3e 14 45 3e
       0.6169813 -0.66114 0.37897912 0.19246003
0000b0 37 a9 40 3e 31 87 08 3f ca ef 0f 3f 99 b5 36 bf
       0.1881455 0.53331286 0.56225264 -0.71370846
0000c0 d5 ed 3f 3e cd 34 bb 3e ce 1f df 3e 35 95 cc 3e
       0.1874307 0.3656372 0.43578953 0.39957586
0000d0 5b 46 7b be e5 b1 66 3f 2a 10 4c bf 1b 40 11 bf
       -0.24538557 0.90115196 -0.79712164 -0.5673844
0000e0 53 a4 8e be d1 02 d0 be 7e ca e9 be 3b 96 d9 3e
       -0.27859744 -0.4062715 -0.45662302 0.4249743
0000f0 75 da d5 3e 4f d1 5d bf 59 89 a7 be 36 87 35 bf
       0.41768232 -0.86647505 -0.32721975 -0.7090944
000100 15 c5 d3 3c 4b 7f 19 3f 72 64 d4 3e ee 9c 3a bf
       0.025850812 0.5995986 0.41482884 -0.72895706
000110 86 c8 c9 be e3 c1 6c 3e a9 26 3a 3c 68 c5 e0 3e
       -0.394108 0.23120837 0.011361756 0.4390061
000120 be 81 87 bf 18 08 87 bf a6 52 2b be e8 e7 11 be
       -1.0586469 -1.0549345 -0.16730747 -0.14248621
000130 9e 64 8b be 4d 95 f0 3e ec 29 aa be 60 6f 24 3f
       -0.27225202 0.46988907 -0.3323511 0.64232445
000140 b5 be a6 3e 55 71 4b 3d ba 70 b1 be fb d9 24 3f
       0.32567373 0.04966863 -0.34656316 0.6439511
000150 74 c1 d1 be 13 47 ab 3e ca 98 88 3e ee 2c 88 bf
       -0.40967906 0.33452663 0.2667907 -1.0638711
000160 ec 33 50 bf 84 71 c8 be a9 fc 6f 3e 83 1b 3b bf
       -0.81329226 -0.39149106 0.23436226 -0.73088855
000170 cc 43 56 3e 23 b5 87 3e 68 a9 c9 be 7d a2 89 be
       0.209243 0.26505384 -0.3938706 -0.2688178
000180 01 14 12 bf a0 13 9e be 78 3e 0b 3f ee 88 d0 be
       -0.57061774 -0.30874348 0.54392195 -0.4072947
000190 fb 27 24 bf cc cd 69 3d 2a b4 b1 be 8d 42 81 3e
       -0.64123505 0.05708103 -0.34707767 0.25246087
0001a0 10 35 22 3e ac c2 95 bf ba d0 c3 3e 6a f2 42 be
       0.15840554 -1.1700034 0.38245183 -0.19037786
0001b0 58 4d d3 be 11 f3 b5 be d4 6e 9f be 14 fd 2a be
       -0.41269946 -0.35537007 -0.31139243 -0.16698104
0001c0 e7 f4 09 3f 7a af 3e be 10 0c 11 bf 31 89 19 be
       0.53889316 -0.18621626 -0.5665903 -0.1499374
0001d0 d8 67 cf 3e b5 c2 c7 3e dc 54 92 be 73 99 04 bf
       0.40508914 0.39015737 -0.28580368 -0.51796645
0001e0 09 c6 31 3f a1 cc c4 be 1a 35 fb bd e0 53 47 3e
       0.694428 -0.3843737 -0.12265988 0.1946559
0001f0 33 36 08 3f cf e5 ba be 99 15 bb be 9c 12 be 3e
       0.532077 -0.36503455 -0.36539915 0.37123573
000200 f9 c7 86 be b1 c0 97 be 56 9d 7c 3e 3d 89 c8 3e
       -0.26324442 -0.296392 0.24669394 0.39167204
000210 26 2e de 3e 32 e8 6a 3c 50 0b 50 bf 91 5b b5 3e
       0.43394583 0.014337586 -0.8126726 0.35421422
000220 39 46 83 bf e1 ce d5 be 39 e3 c5 3e b1 82 e8 3e
       -1.0255805 -0.417594 0.3864992 0.4541221
000230 e5 2b 26 3f 1f 4e a6 be 81 7e a1 3e f3 7a 70 3f
       0.6491073 -0.32481477 0.31541827 0.93937606
000240 13 93 30 bf 42 4f 7b 3b 94 35 a3 be 8d 44 d3 be
       -0.6897442 0.0038346802 -0.31876814 -0.41263238
000250 20 c2 6d 3f 78 df bc 3e fb 1f 92 be 96 ca 88 3f
       0.92874336 0.36889243 -0.28540024 1.0686824
000260 2b ef 93 bf 48 84 60 bd 11 d7 1f 3d a3 d1 b0 3e
       -1.1557363 -0.054813653 0.039023463 0.3453494
000270 94 bd 11 3c a9 8e da 3e 4c 04 70 3e 19 41 93 3e
       0.008895297 0.42686966 0.23439139 0.28760603
000280 49 f2 fb 3d 47 b7 a8 be ce a9 cc 3e 42 91 b3 be
       0.123020716 -0.3295233 0.399733 -0.3507176
000290 9d 42 b9 be 61 6e b2 be 28 04 ac 3e 62 78 bb 3e
       -0.36183634 -0.34849837 0.3359692 0.36615282
0002a0 ef 5e 12 3d 8b be 5d bd 7e 37 c7 3e 27 dd 80 bf
       0.035735067 -0.054136794 0.38909525 -1.006749
0002b0 b7 91 71 be 17 d9 be 3f 99 bc 66 bf 4d 98 3b 3f
       -0.23590742 1.491 -0.9013153 0.7327927
0002c0 3a 23 38 bf e9 26 37 3f 83 2a e3 be ce b9 ad 3e
       -0.7192875 0.7154375 -0.4436837 0.3393082
0002d0 35 8d 10 3f e0 60 a7 bf 88 45 72 bf a6 81 2a 3f
       0.56465465 -1.3076439 -0.94637346 0.6660408
0002e0 dd bf 81 3f c2 b8 59 bf 8b ba 26 3f 8d 53 e6 bd
       1.0136677 -0.85047543 0.6512839 -0.11246405
0002f0 14 61 52 bf 2e 35 ab bf 8c 02 5b be 9c f9 aa be
       -0.8217938 -1.3375604 -0.2138769 -0.33393562
000300 76 f4 51 be d2 98 33 bf 0f a4 81 bf 6e d9 88 3e
       -0.2050341 -0.7015506 -1.0128192 0.26728386
000310 59 5d 90 3e c8 36 b1 be 2a 4f b4 3e 73 88 32 3e
       0.2819622 -0.34612107 0.35216647 0.17434864
000320 97 37 48 3f 95 14 f5 be c9 c0 1a bd 80 49 e4 3e
       0.78209823 -0.47867265 -0.03778151 0.44587326
000330 4b 5d b4 3e ff c5 63 3e 79 bb 24 bf 43 46 ba 3e
       0.35227427 0.22243498 -0.6434856 0.3638173
000340 41 30 38 3f 91 1f db 3e 6a 98 dc bc c1 b3 5d bf
       0.7194863 0.4279752 -0.026928145 -0.8660241
000350 93 c3 79 3e f6 05 37 3e a3 c4 0f 3f a0 f3 b5 be
       0.24391012 0.17873368 0.5615942 -0.35537434
000360 02 41 38 be 74 93 ea bc 5a c6 0b bf b1 c0 9e be
       -0.17993549 -0.028634764 -0.54599535 -0.31006387
000370 66 2f a8 bf 63 66 6c bf d4 91 11 3f a7 14 93 3f
       -1.3139465 -0.9234373 0.5686314 1.1490678
000380 8a 63 6b 3e 60 82 18 bf ba 04 e3 be 85 6a 69 bf
       0.2298719 -0.59573936 -0.44339544 -0.9117816
000390 e4 55 8b 3e 7f dc d6 be e6 85 1c bf 9d 90 8d be
       0.27213967 -0.419651 -0.6114181 -0.27649394
0003a0 4a cf 61 be 8d 4e d3 be 65 19 b3 be 13 01 ca be
       -0.22051731 -0.41270867 -0.34980312 -0.39453945
0003b0 4d 28 8e be 23 c0 d6 be 8e f1 a2 3e 89 47 b2 bf
       -0.27765122 -0.41943464 0.31824917 -1.3928081
0003c0 13 64 fd 3e e5 28 bb be 96 02 d7 3e 31 48 dc be
       0.49490413 -0.36554638 0.4199416 -0.43023828
0003d0 70 5c 3d bf fd ad b6 3e 9b c2 b3 3e 98 6c 16 bf
       -0.73969173 0.35679618 0.3510941 -0.5875945
0003e0 9b d6 cc be d3 8f 98 be f2 2b 20 3f c3 49 33 be
       -0.4000748 -0.2979723 0.62567055 -0.17508607
0003f0 c8 96 9d be 8e e5 92 be 3a 58 70 be 43 f2 6d 3f
       -0.307791 -0.2869076 -0.23471156 0.9294779

net.4.bias f4 [4]
000000 a2 b2 34 3b 71 9d 07 3d fd 8a 4f 3d 64 e7 67 bd
       0.0027572294 0.033109132 0.05066966 -0.056617156
