drafts/draft_rk/runs_lunarlander/dqn_trial12_seed42.pth (torch, 279705 bytes, 6 tensors)

net.0.weight f4 [256, 8]
00000000: 942b 1f3b f6b5 7bbe 3d06 34be 8dec e03f
00000010: 13da 893e 96d7 843e 96b7 16be f213 91bc
00000020: 2241 b73e c268 95be 30ee 493f e187 ce3c
00000030: 9e8c c93e bfc8 003e 5193 263e 6e0b 87bd
00000040: 0693 c6bc 9f2d b3be 0eab d1be 4ac0 863f
00000050: c17f 043d 6efd 0bbd 3493 8d3e cd97 203f
00000060: 83de 26bf 0085 31be 8518 12be c77b fdbe
00000070: 34c3 b63e 658a 63be 9a3e b03e 7bb3 dfbe
00000080: bab1 8bbc 9624 c93d 2a1f 25be 91bc a83e
00000090: 3305 c13e 3f8a da3e 1d51 ff3e e68b b1be
000000a0: 6a58 413e 9f02 67bf 1c3b 09be dbf3 86bf
000000b0: 1e00 a33e 955c 06bf 9a74 2f3d 6dac 443f
000000c0: a3aa 1dbd 55e8 0abd 3dbf cabd dc56 20bf
000000d0: f6df 9fbe 31f7 953e 8376 a03e 6ce3 b83e
000000e0: a1ef e238 6174 203c 9ff5 d53f 728a 0dbf
000000f0: 30ad 4fba 0531 0fbe 156d 8aba 70a1 92b9
00000100: 4c7b 8bbe c435 f1bd 235a 3c3f 8a6a d7be
00000110: e9b0 32bf b1a6 0fbe b0bb dabb 6130 843c
00000120: 7e75 fe3e 98ac 19be 7edb ecbe 624b e4be
00000130: 99b9 07bf 60fa 0c3e 360b ac3e 5d70 f23e
00000140: 2e7c 133e e5a7 0e3a 8b56 7a3e d98a 00be
00000150: 0751 a43e cb7d 9d3d a405 1a3f 15ed c3be
00000160: 3079 36be 1ffd 183e 5b70 7e3d 9281 a0bd
00000170: c9d6 c13e a746 503f bd60 b5bf d755 39bf
00000180: b483 8f3b a646 cdbc a6fa efbd 2f7f 35bf
00000190: 88e4 4bbc 1670 07bc 0f26 f0ba 7ad7 dcbe
000001a0: 8b88 003c a075 babe e481 57bd d003 11bf
000001b0: ecf8 9dbb 3244 babe 975d 203f b792 033e
000001c0: 34bb 123f 5231 fbbe 2b22 8b3e f7a1 1abf
000001d0: 17b5 7e3e 4502 33bf 55b2 6dbe 7d86 acbe
000001e0: cf45 f93d edee b0be 4add a4bd 3d13 07bf
000001f0: 7b47 7abe 85db ecbe fd2b 40bf 3035 863e
00000200: 2ddd 41bd cdc2 f5bd 5c72 7b3e 0e6d 123e
00000210: 8454 e6bf ab49 5abe 675d 71be eb03 9cbf
00000220: 59d1 f8be e9e1 90be 48d7 6dbe 7529 dabe
00000230: 261e b13e 0e78 4dbf 3e3b d03e dbaa e0bd
00000240: e586 b0be 601c a73d 5019 de3e caa0 7a3e
00000250: d3a8 533f 6be0 dfbe f692 0b3f 134f 82be
00000260: 3bd2 013f 4754 fabe 0085 3a3f bd3d fcbe
00000270: 9b96 c5bd 37b3 acbc 6b63 a93d c850 adbe
00000280: 5da2 bb3e 19d2 f83d bb8d f23d 3a11 ccbe
00000290: 0fa4 af3c 8d87 89be f078 03bf 0b11 f73e
000002a0: 404b 9dbd acb6 85be 2ba1 a4be aad0 883d
000002b0: 0d1e 783f f0d4 7e3e 55d7 a83d 22bd e2be
000002c0: 9caa fdbe cdcc b63e a396 a53e d3d1 e7be
000002d0: 4953 dabe 0a0d 173f f5c5 5bbd a110 ddbe
000002e0: c780 043e 7a89 c0bd fb1c 9f3e 51ad afbc
000002f0: 176e 42bf e84e 023d b48d 3fbd 027c 4ebe
00000300: 5630 1a3f 1f15 903e f630 053e 810a 90bd
00000310: 4490 39be 99a5 d23d 0c26 4e3e 2fb7 c73e
00000320: f6e2 cbbe b22f d0bd f2dd 713e 1c69 723e
00000330: 5360 0a3f ca03 673c 5f46 9fbe 4abf 463e
00000340: 7844 5a3d 4358 2f3e 5ec4 763e a3fc 603e
00000350: 5e9d cbbe 3003 ecbe 2118 c0be f926 323f
00000360: fced 5dbc 2b21 d4b8 c79c a2bb 5267 583b
00000370: 2de7 babf 7c97 dd3d dbf1 233b dbb2 2dbf
00000380: 5b78 dd3c 226d 4b3e 3709 5c3e d68f ad3e
00000390: 4529 b5be 12bd 1abf a50e cbbe 252e 203f
000003a0: e151 1a3e f092 c03e c19d 523e e7a3 1e3e
000003b0: 7276 fdbc bca3 31bf e395 a9bf b327 b73d
000003c0: 60d2 303f a434 94be 8bdc f9bc 1d7d f1be
000003d0: 56a9 18be 3e87 2abf 5eaf 42bf e5ef a13c
000003e0: 5b02 c63b 60f0 323e 27fe b0be cf5c 82be
000003f0: 393d a4bd 04a1 3dbf e8ad a1be e746 a0be
0.002428745 -0.24581131 -0.17580505 1.757219 0.2692419 0.2594573 -0.1471847 -0.017709706
0.3579188 -0.29181486 0.7887907 0.025211276 0.39365095 0.12576579 0.16267134 -0.06593977
-0.024240028 -0.34995744 -0.40950817 1.0527432 0.032348398 -0.034177236 0.2765137 0.6273163
-0.65183276 -0.17335892 -0.14267166 -0.49508497 0.35695803 -0.22220762 0.3442276 -0.4369162
-0.01705252 0.09821431 -0.1612517 0.32956365 0.3769928 0.42683598 0.49866572 -0.34677047
0.18881384 -0.90238374 -0.13401455 -1.0543169 0.31836027 -0.5248502 0.04283581 0.768256
-0.03849281 -0.033912975 -0.09899757 -0.62632537 -0.31225556 0.29290155 0.31340417 0.3611101
0.00010821154 0.009793372 1.6715583 -0.55289376 -0.000792223 -0.13983543 -0.0010561073 -0.0002796757
-0.27242506 -0.11777833 0.7357504 -0.4207347 -0.69801193 -0.14028431 -0.006675206 0.01613635
0.49699014 -0.15007246 -0.4626121 -0.44588763 -0.53017575 0.13767385 0.33602303 0.4735135
0.1440284 0.00054418884 0.24447076 -0.12552966 0.3209307 0.07690009 0.60164857 -0.38266817
-0.17819667 0.14940308 0.06211887 -0.078372136 0.3785918 0.81357807 -1.4170147 -0.72396606
0.004379714 -0.025058102 -0.11717729 -0.7089719 -0.012444623 -0.008266469 -0.0018321889 -0.43133146
0.007845054 -0.36417866 -0.052614108 -0.5664644 -0.0048209336 -0.36380154 0.62642807 0.12848936
0.573169 -0.49061066 0.27174506 -0.6040339 0.24873768 -0.6992534 -0.2321256 -0.33696356
0.12171518 -0.34557286 -0.0805002 -0.5276373 -0.2444133 -0.4626123 -0.7506712 0.26212454
-0.04733007 -0.12000046 0.24555343 0.14299414 -1.7994542 -0.21317165 -0.23570786 -1.2188696
-0.4859722 -0.28297356 -0.23226655 -0.42609754 0.34593314 -0.80261314 0.40670198 -0.10970088
-0.34477916 0.08159709 0.43378687 0.24475399 0.8267948 -0.43725905 0.5452112 -0.25450954
0.5071141 -0.48892424 0.7285919 -0.49265853 -0.09647866 -0.02108155 0.082709156 -0.33850694
0.3664731 0.12149448 0.11843439 -0.39856893 0.021440534 -0.2686123 -0.5135641 0.4825519
-0.076803684 -0.2611593 -0.3215421 0.066804245 0.96920854 0.24885917 0.08244196 -0.44284922
-0.49544227 0.35703126 0.3234149 -0.4527727 -0.42641667 0.5900427 -0.053655583 -0.4317675
0.1293975 -0.094012216 0.31076798 -0.021444948 -0.75949234 0.031813532 -0.046765998 -0.20164493
0.60230005 0.28141114 0.13006958 -0.070332535 -0.18121439 0.102854915 0.20131701 0.39006945
-0.39821595 -0.10165347 0.23619822 0.23672909 0.5405323 0.0141000245 -0.31108376 0.19408908
0.053287953 0.17123513 0.24098346 0.21971373 -0.397685 -0.46096182 -0.3751841 0.6959072
-0.013545509 -0.00010115126 -0.004962537 0.0033020568 -1.4601799 0.10819909 0.0025015983 -0.67851037
0.027034929 0.1986585 0.2148789 0.338988 -0.3538305 -0.6044475 -0.3965961 0.6257041
0.15070297 0.37612104 0.20567991 0.15492211 -0.030940268 -0.69390464 -1.3248867 0.08943119
0.69071007 -0.28946412 -0.03050067 -0.47165766 -0.14908347 -0.66612613 -0.7604884 0.019767711
0.0060427613 0.17474508 -0.34568903 -0.25461432 -0.0801949 -0.74073815 -0.31577992 -0.31304094

net.0.bias f4 [256]
00000000: 9df1 263e 5950 a03e c2d4 a3bd 3b72 303e
00000010: 7ce7 8c3e 68c5 81be 8277 80bc 804f b53a
00000020: 8f19 b53d ef77 3a3e 0f6c 51be 4260 8dbd
00000030: 08f1 3d3b 3171 9bbe 2ce5 913e e07f 9fbe
00000040: 600e 273e c121 5c3e 67f0 3e3e 8c76 993b
00000050: 1358 243e 12d7 f73d fabe 1fbe de9f e43e
00000060: ef45 d1be e403 cc3e c9b6 2b3e cffc 2f3b
00000070: 5beb 893e c4fe b43d 6fd9 383e dd91 a13e
00000080: d63e 02bf 5272 833e d63c 84bd c718 7ebd
00000090: 8318 8c3d fed0 b03e 5f44 38be 1919 9dbe
000000a0: f4f5 953e f0c6 d0be f265 213e 5dd3 0abe
000000b0: 6621 183e 8261 af3e 1040 65be f0a7 66be
000000c0: e6b5 613e 1cab 0c3e 3633 96bd 4cd7 39be
000000d0: 6573 a73e 65a4 46bd 30f8 94be 3770 44be
000000e0: 35e5 a5be f815 713e 17a0 00bc 1041 a03e
000000f0: 7c4d 33bd 4c5d adbc 4d87 433e eeb9 a13c
00000100: cfb6 edbd 28ab e5bc 1ae3 bc3e e334 80be
00000110: e24e 993e fcc3 7c3e ed41 2f3e 95ce 6d3e
00000120: ca57 3d3e b039 6c3d bc62 cf3e fab8 ec3e
00000130: 8d04 2f3e 1861 333e ab07 ef3e 8d76 c8be
00000140: d988 5f3e 8080 a63e 6b1f b53e b493 ef3c
00000150: e4e7 0ebf 3972 ef3e 59f4 f73c e699 6c3d
00000160: 015f 923e 7c03 dabe 2ae9 9d3d 49cf 94bd
00000170: b511 7b3e a7a6 cfbe 9f05 733e cf7f 9a3e
00000180: c104 933e dbe7 c33e c6a5 a93e 2fa1 2fbe
00000190: 2cba 9a3e 1306 253e ffd1 8b3e bc42 70be
000001a0: c947 8f3d a4c6 c83a 4b13 cb3e 9029 8d3e
000001b0: cb41 813e 0d2a 8e3e 5de2 bfbe 20d7 a7bd
000001c0: 8aad d7bd 6a98 5dbd d45f a43e aa52 593e
000001d0: 725c 6e3e 17cb 46bd 0cfe 29be 70f4 34bb
000001e0: 7d59 493e a674 9c3e c6cb 743e 4fc6 423d
000001f0: 7294 213d ada8 3abf 9273 033e bfff eabd
00000200: e686 493e 9fb4 293d 1047 69be b83e 933d
00000210: 1bd6 27be add8 fc3d 08c1 9fbb 0d65 60be
00000220: a10d c6bc 1208 c1bd b7e5 62be 033f 013e
00000230: 177c 6ebe 4a13 b2be ab5b 15be 3ab0 9dbe
00000240: c288 0c3e e22a 8a3d 18a2 4e3e 48ac b2be
00000250: 3d28 c63d f58f 303e 039c c8bd a98b e33e
00000260: ce94 463e b1c6 acbe 386d a6be cbdf 46bc
00000270: e99f 7fbd 3186 5b3e 6d3f 593d 80a4 c33e
00000280: 7326 543d 2299 c1bd a349 7f3e b8ac 843d
00000290: 3d03 c83b 71f6 563e c952 c6be 9653 9e3b
000002a0: ba47 4ebf fb09 04be 4133 75be bf9b 5f3e
000002b0: fb8b 683e d4e3 c43c 5367 7b3d 438d 8f3e
000002c0: 9e50 87be bb23 6f3e 594d b1bd d38b be3e
000002d0: 9d80 843e 388c 92be 5176 c53c 695f 3f3e
000002e0: 9608 6f3e f025 f7bd bd57 d93d 57c6 28bf
000002f0: 88e0 d63e 5e00 a83e f96a 97bd 037c 4fbf
00000300: 38d3 f63d 37ad aabd bef4 203e b27f a8be
00000310: e3d9 3c3e 993a 73be f171 72be 0806 83bc
00000320: 8651 143e 26ae a53d 899e 0fbe 6679 5dbe
00000330: 0ccc 52bb a9a6 a7be 2413 553e 45a0 873e
00000340: 151d 0dbe a628 fbbd 0117 0fba 21f4 bebd
00000350: 2a96 dcbc 9732 10be aa4a ac3e a7c1 84bd
00000360: a964 c03e 2334 88be abf0 c7bd 51c5 cebe
00000370: 0043 ad3e 2649 af3e 2106 863d 89f2 573e
00000380: 5857 b63e c55a 863e 3e5e 963e 1d50 01bf
00000390: ae35 cbbc b751 51be 9845 d73d 6d68 1abe
000003a0: 8620 9abe 670b ba3c 69f0 3bbf 0788 2d3e
000003b0: b4a7 193e 508c 8ebe aebf db3e 2308 1e3d
000003c0: 6de8 4ebd f774 b93e 9814 cb3e d3bb e33d
000003d0: a93d 4cbe c185 89bd f59e 093e 8e05 b63e
000003e0: 4dd5 0b3e f42e 33be 9763 b5be 3c3b b1be
000003f0: 056f b63d 03de 673d e964 90be 995d b1bd
0.16303106 0.313113 -0.07999565 0.17231075 0.2752036 -0.25345922 -0.015681986 0.0013832897
0.088427655 0.18209814 -0.20451377 -0.06903125 0.0028982777 -0.30359796 0.28495157 -0.31152248
0.16314077 0.21497251 0.18646394 0.0046833213 0.16049223 0.12101568 -0.15600196 0.4465322
-0.40873668 0.39846718 0.16768946 0.0026853567 0.26937374 0.08837655 0.18051694 0.31556597
-0.5087713 0.25673157 -0.06456916 -0.06203535 0.06840613 0.34534448 -0.17994832 -0.3068321
0.2928921 -0.40776777 0.15761545 -0.13557191 0.1485649 0.3425408 -0.22387719 -0.22525
0.22042045 0.13737148 -0.073339865 -0.18148535 0.32705227 -0.048496623 -0.29095602 -0.19183432
-0.32401434 0.23543537 -0.007850668 0.3129964 -0.043775067 -0.021162651 0.19094582 0.019741978
-0.116071336 -0.028035715 0.36892015 -0.2504035 0.29942995 0.24684137 0.17114992 0.23223336
0.1849052 0.057672203 0.40505016 0.46234876 0.1709158 0.17517507 0.46685538 -0.39152947
0.21829547 0.32519913 0.35375533 0.029245235 -0.55822587 0.46766832 0.030267881 0.057763956
0.28588107 -0.42580783 0.07710488 -0.07266099 0.24518473 -0.40556833 0.23732613 0.30175635
0.28714564 0.3826283 0.33134288 -0.1715133 0.30220163 0.16115598 0.27308652 -0.23462957
0.06996114 0.0015317989 0.39663157 0.27570772 0.2524551 0.27766457 -0.3747739 -0.08195329
-0.10531147 -0.05410043 0.3210436 0.2122294 0.23277453 -0.048533525 -0.16600817 -0.0027611516
0.19663043 0.30557746 0.23905858 0.047552403 0.03944821 -0.7291363 0.12837055 -0.11474561
0.19680366 0.04143202 -0.22781014 0.07189697 -0.16390269 0.12346015 -0.004875306 -0.21913548
-0.02417642 -0.094253674 -0.22157942 0.12621693 -0.23289524 -0.3478034 -0.1458575 -0.30798513
0.13724044 0.067464605 0.20179021 -0.34897065 0.096756436 0.17242415 -0.09795382 0.4444249
0.19392702 -0.3374534 -0.32505202 -0.012138317 -0.06240836 0.21437909 0.053039003 0.3821144
0.05179448 -0.09453036 0.24930434 0.06478256 0.0061039017 0.20992447 -0.38735035 0.0048317416
-0.80578196 -0.12894432 -0.23945333 0.21836756 0.22709648 0.024034418 0.061377835 0.28037462
-0.26428694 0.23353474 -0.08657331 0.37216052 0.25879374 -0.28622603 0.02410427 0.1868874
0.23343119 -0.12067783 0.10612438 -0.6592764 0.4196818 0.3281278 -0.0739345 -0.810486
0.120520055 -0.08333819 0.15718362 -0.32909924 0.18442492 -0.23752822 -0.23676278 -0.015994087
0.14484224 0.08089857 -0.1402532 -0.21628341 -0.0032165078 -0.3274434 0.20808083 0.26489463
-0.13780625 -0.122636124 -0.0005458445 -0.09323908 -0.026927073 -0.14081798 0.33650714 -0.06482249
0.37576798 -0.26602277 -0.09762701 -0.40384915 0.3384018 0.34235495 0.06544138 0.21088614
0.35613513 0.26241127 0.29368776 -0.5051287 -0.02480587 -0.20441328 0.10511321 -0.15078898
-0.30102938 0.022710515 -0.7341371 0.16946422 0.1500538 -0.27841425 0.42919677 0.03858198
-0.050514627 0.3622205 0.3966415 0.11119809 -0.19945396 -0.06714965 0.13439544 0.35551113
0.13655587 -0.1749838 -0.35427544 -0.34615505 0.08907894 0.05660821 -0.28201988 -0.086604305

net.2.weight f4 [256, 256]
00000000: 94ad 4cbf 81be 2bbf cb6e b83d 8ebf 253e
00000010: f9f7 843d d53b c33e d6a0 38be b652 3e3f
00000020: 73fa 313e 22c1 0f3d 4b02 7c3f b090 c93d
00000030: fe3c e83e 03c4 8d3d 07c5 473e 6b2f d43e
00000040: 4b6a b13c cbd5 19be 43ac 833c 4a58 23bf
00000050: 6b41 1d3d 1585 4b3f d3a3 c4bd 15e7 003d
00000060: 791a c0be 7bcb 37be 89b4 ce3d 86df da3d
00000070: 2f47 babd 4f39 6bbe 5a6c 7abc f7e7 10be
00000080: 0907 df3e bbd1 1cbd 53a6 673e dc9f 06be
00000090: 5718 053e 3189 01bf df70 31be 3b5a b63e
000000a0: 70e9 b73e 385d ec3e 31cf ff3d 88ba 403e
000000b0: c6f5 a03e 84f2 cd3e 4441 be3e 964a 9cbd
000000c0: 0851 433d 1298 57bd c914 08be 72c9 253f
000000d0: 36f2 273d 8eed 083d 0da9 873f 2189 efbe
000000e0: d189 cd3e fa2b cebd 95cf 7f3e 1ac0 693d
000000f0: f54d 693e 2386 00bf 03e6 17bc 732e f4be
00000100: b3fb a53e d683 5b3e b004 043e 33db e93e
00000110: edd6 99be d13a 38bd b484 10be a49b 60be
00000120: 9167 c0bc cbe6 173e c846 843c cb21 78be
00000130: 77c9 f2bb 85dd 383e d222 39be 4e38 95be
00000140: 61be 553e c1ed 4fbe 0286 f93c e019 f8bd
00000150: d399 3cbe 9ddb c93d 86bb a3be d28b 8dbd
00000160: 59eb df3d 135b 2b3e cd64 8c3d b363 ec3d
00000170: 5be3 edbe 654a b63e ad4f 9e3d 561b 5f3d
00000180: aea8 e6bd 86d5 9fbd c977 973d 19cf 8e3e
00000190: 25d3 f7bd 7dd5 953e 45af 813e 5667 14be
000001a0: 4caf f3bf 580b fb3d 1345 c3bd bdb5 973d
000001b0: 8528 e03c bf7a 2ebd 8a45 afbe 7c00 a7bf
000001c0: 40c2 213e d23f 093f 946c 91bb b06d a5be
000001d0: cd7f 843e 2fef c33e 2371 fdbe c90e 2e3e
000001e0: 79eb 173f f93d 3e3e 0300 d4bb f18f dfbc
000001f0: 77e1 f0be 2608 38bf d843 b9bc a770 273f
00000200: dde0 51be 7efe 33bf 5aa7 54bd ec4c 633e
00000210: f57a 85bb 3a44 293e 02f8 aa3e 4a2c a2bd
00000220: 4d51 303e 7f27 34be 1c58 3f3f ca59 92be
00000230: 5954 ed3d 9c4b 47bf 1769 3abe 94b3 2c3e
00000240: 7665 e23d 83b8 353f 2918 85bd a423 003f
00000250: 4c29 94bd edfa 62be 2db3 31be 09ce 24bd
00000260: 31bc 58bc a37e be3e 1e7c a13e a489 c83d
00000270: 816b 5f3e 620f 5bbd c0aa 5cbc a4f1 433e
00000280: aa9e c23d 1d0d 15be fcb8 80bd fb53 3bbd
00000290: 1347 5b3e ae64 08be a381 343f 9d42 253d
000002a0: 4b66 84bf 12b5 c13e b0cf f2bd b435 4abd
000002b0: 8a51 0cbe 8bf8 d03d fa55 d73d f372 5bbe
000002c0: f986 d13e a2f4 4d3e 6091 b83d 8b50 943b
000002d0: 98f8 863b d579 623f c341 c3bb c3f7 03bd
000002e0: 6c94 8b3d 6873 a7bf 4c7b a5bd 3957 acbd
000002f0: 572a 52be 6bbd 9abd d362 92be 9d26 79bf
00000300: 118b db3d 9cc4 ed3e 4ae1 9f3e a3b1 233e
00000310: d971 313e 2d00 35be 49be efbe be75 da3d
00000320: 3887 953e 56db f13d e111 5f3e ab64 2abe
00000330: 399b 06bf 690c a2be a0b0 59be 0841 2f3e
00000340: a366 653f 4031 2e3d 07f9 af3e d6a8 2b3e
00000350: 1fa4 723e ccc9 c8bd 2d64 2f3d d19c f23c
00000360: 9c61 7dbd 9ab9 823d 2d86 103e 25ba 93bb
00000370: 66f5 e5bd b376 3c3d a956 803e c19c 6f3e
00000380: b320 a9bb 9ab2 6d3c a793 8c3c 689f 253e
00000390: f937 57bd 6d42 b3be 6f71 913d f70e 77be
000003a0: ad65 c43f 8bba 99bc 4ee0 8bbf 0208 b2be
000003b0: aa0b a93e 64ce 60be b4b9 35be b726 c8bd
000003c0: 1e35 633e f566 0f3c 82c5 3abe ccd4 c9bd
000003d0: e395 ab3d bdca d13c fd35 8b3e 4633 0cbd
000003e0: 0832 c73d a802 143f 3143 013f a668 aa3e
000003f0: a540 cfbc 8541 2b3e 4844 673e 2cbd c73d
-0.7995236 -0.6708756 0.09005507 0.16186354 0.064926095 0.38131586 -0.18030104 0.74344957
0.17380695 0.035096295 0.98441 0.0984205 0.45359033 0.06922152 0.19508754 0.41442427
0.02165713 -0.15022962 0.016073352 -0.63806593 0.038392466 0.7949994 -0.096015595 0.031470377
-0.37520197 -0.17948715 0.10093028 0.10687165 -0.090956084 -0.2297108 -0.015284622 -0.14150988
0.43560055 -0.038285952 0.22622041 -0.13146919 0.12997566 -0.5059996 -0.17328213 0.35615715
0.35920286 0.4616487 0.124906905 0.18821156 0.3143751 0.40224087 0.3715917 -0.07631414
0.0476847 -0.05263526 -0.13289179 0.64760506 0.041002475 0.033429675 1.0598465 -0.4678431
0.40144208 -0.100669816 0.2498153 0.057067968 0.22783644 -0.50204676 -0.009271148 -0.47691688
0.32418594 0.2143701 0.12892413 0.45675048 -0.30046788 -0.044977967 -0.14113122 -0.21934372
-0.023486884 0.14834134 0.016147032 -0.24231641 -0.0074092704 0.18053253 -0.18079689 -0.2914452
0.20873405 -0.2030554 0.030459408 -0.1211431 -0.18418054 0.09856341 -0.31979007 -0.06911434
0.10933561 0.16733961 0.06855164 0.115424536 -0.4646252 0.35603634 0.07730041 0.05446943
-0.11262642 -0.07804398 0.07395894 0.27892378 -0.121008195 0.2926444 0.25329033 -0.14492545
-1.9037871 0.12258023 -0.09534659 0.07407711 0.027363071 -0.04259753 -0.34232742 -1.3047023
0.15796757 0.5361301 -0.0044379923 -0.32310247 0.25878754 0.3826842 -0.4950038 0.16997828
0.5934368 0.18578328 -0.006469728 -0.027290316 -0.47047016 -0.71887434 -0.022615358 0.6540627
-0.20495935 -0.703102 -0.05191741 0.22197312 -0.0040734955 0.16529933 0.3339234 -0.07918604
0.17218514 -0.17593192 0.7474382 -0.2858413 0.11588354 -0.77849746 -0.18204151 0.16865379
0.110545084 0.7098467 -0.06498749 0.50054383 -0.07234439 -0.22166033 -0.17353506 -0.040235553
-0.013228462 0.3720599 0.31540006 0.09791878 0.21818353 -0.053481467 -0.013468444 0.19135147
0.09502919 -0.14555784 -0.06285283 -0.045734387 0.21413831 -0.13319656 0.7051031 0.04034673
-1.0343717 0.37833458 -0.118560195 -0.04936762 -0.1370298 0.10203656 0.105144456 -0.21430568
0.40923288 0.20112851 0.09012103 0.004526203 0.00411899 0.8846715 -0.005958767 -0.032218706
0.068154186 -1.3082094 -0.08080158 -0.08415074 -0.20523964 -0.0755566 -0.28591022 -0.97324544
0.10719884 0.46439064 0.3122657 0.15985732 0.17328586 -0.17675848 -0.46824864 0.10666989
0.29204726 0.11809413 0.21784164 -0.16639964 -0.525806 -0.31650093 -0.21258783 0.17114651
0.89609736 0.042527437 0.3436968 0.16763625 0.2369542 -0.09804115 0.042820144 0.029615792
-0.061860666 0.06383057 0.14113684 -0.004508274 -0.11228447 0.046011638 0.25066116 0.2339964
-0.0051613688 0.014507914 0.01716025 0.1617409 -0.052543614 -0.35011616 0.07101714 -0.24126802
1.5343529 -0.018765708 -1.0927827 -0.34771734 0.3301671 -0.21953732 -0.17746621 -0.09773009
0.22188231 0.008752574 -0.18239406 -0.09855041 0.08378198 0.025609368 0.27189627 -0.034228586
0.097263396 0.57816553 0.5049315 0.33282965 -0.02529938 0.16724212 0.22584641 0.097528785

net.2.bias f4 [256]
00000000: cc0f 95bd db74 793b 51c8 e43d b5d8 a5bd
00000010: eb85 c0bd 162c ec3d 65d0 fb3c 8ed7 073e
00000020: 4866 ea3c 246e a33d 394e 8f3c 7fa1 493d
00000030: f8b6 1cbd bd68 f73d 0fae 52bc a416 8fbd
00000040: 7e27 c5bb 3272 f1bc 4e40 723c 2423 f03d
00000050: 1544 fb3c b693 1bbd 8dc7 8abd a9da cebc
00000060: 51c8 343c 6728 c73d 5749 853d 0604 fdbc
00000070: e4d9 023d 2cf5 563d 7934 39bd b5ba 9cbb
00000080: 9352 cf3c 4a4d aa3d 82c2 253d 5090 b83c
00000090: 52ae 97bd 7a91 aabb 683d cc3c a6f9 83bd
000000a0: a85f 47bb 0ee2 1abd d91d b73d a54c 803d
000000b0: 3263 c33d f217 c63d bf5f 7c3d 4724 a7bd
000000c0: 8a45 a2bd c348 ed3c a768 403d 2ad1 bfbd
000000d0: 5cca 7c3d 53e8 643d 2978 ffbd c68c 673d
000000e0: 01e5 df3d 2690 3e3c a3e4 1b3d 9cc8 d13d
000000f0: 7a92 f33c 6605 80bd a851 d43d f37a 8f3d
00000100: c32f aabc 2953 b0bd e2d3 d83b f593 d03d
00000110: c533 fb3c 01d6 c43d 5b08 66bc af24 333d
00000120: 5c23 6fbe 9d05 0bbd d256 043e b09a 9fbc
00000130: 27aa 1dbd 29fc 26bc 69fc 513d c5d2 8f3d
00000140: acdc 133e 9db3 223c ef4c 0bba de2b 233e
00000150: 83c1 aa3c 6245 08bd 4dea a2bd f363 9a3b
00000160: 88f5 8dbd eed8 aebd d67b f43d b043 903d
00000170: e186 023e 8f6d c2bd 8dd8 913d 9988 67bc
00000180: 488e a5bd d704 563d 09ec 8a3d 2e76 1d3d
00000190: eb1f 8e3c ae5b 45bd d31f f7bd a094 313e
000001a0: 7707 1d3e ea2f cdbc 5aba 3b3e 78c6 59bd
000001b0: f10d bd3d 79a9 6bbd 5adb 673b 0460 823d
000001c0: 1362 b23d f82b 663c 5834 2bbb 6a5c 38be
000001d0: c0de dc3c 3670 e33d f8d2 4e3d a318 86be
000001e0: 2229 c33c 1292 6e3c 4179 a2bd 7177 2c3e
000001f0: ee22 a33d d12a 683d 7632 9c3d f64d d63d
00000200: b27d 123d 9369 193e 8f8a 263c 4370 063c
00000210: 360b 403d 8708 373d 2899 ccbc c713 1a3e
00000220: b65d 1fbe 67da 98bd 3def 193d 6116 71bd
00000230: b47e 873d 4325 783d 931a 833c da87 06bd
00000240: ce04 85bd 5aad a2bc a336 b03c fc8a cb3c
00000250: 7312 a5bc ad1b abbd d39a 543d 9795 89bd
00000260: c954 1fbe 11fd d43d d87f 39bd 83bc 0cbd
00000270: c0ed ac3c fd60 433d 80e0 253e c98b 8d3d
00000280: fab0 b23d 78c3 993d bdb9 293c 0c3a b6bc
00000290: f567 78bb b0d4 9a3d 4770 1cba 2c75 3fbb
000002a0: 971d a03d ce2d 74bd 105a c0bd f136 a13b
000002b0: 1106 363d 9685 f9bc 63b9 afbc 5807 e73b
000002c0: 1e3d 3a3d 257b 193e 6c19 8c3d 75f1 503d
000002d0: 48b4 1e36 2da6 55bd 09ce 423d 78e3 5abd
000002e0: 6769 7d3e 6795 9f3d 6095 ddbe 0a2d 26be
000002f0: ded0 a3b9 d917 36ba f940 b4bb cdfa 0d3d
00000300: f720 d2bc 90a8 a439 5fa4 013e 3def 373e
00000310: 0db8 ccbe ffda 58bd df3a 8fbd 7c19 4d3e
00000320: 92ed a03d 9920 70bb 82c0 92bd 5c11 85bb
00000330: 61d4 b33d 1248 0a3e 00d6 a6bc 9a36 9a3d
00000340: 51a0 86bd 7dd2 7d3d 43e9 f8bc 3108 b33d
00000350: 833d fa3d f05e 013e 4e34 fabd aa58 3c3d
00000360: 4709 973d e364 6abd fd21 9ebd 2823 183d
00000370: 1b70 223d 0c9c 1abe 7635 bb3d 413b 77bc
00000380: 6169 e23d c721 8fbb 5c45 d03d 9f46 8cbc
00000390: 2ac7 073d 1497 f4bc c1ed efbb c01d 6f3c
000003a0: fd68 623b a1eb 693d 5c22 eebd edf8 23bd
000003b0: a566 053d d845 a23d 54ed 263e d5ff 3f3d
000003c0: a788 dabd b4f3 593d 6958 ff3d 51c9 9cbb
000003d0: 6e00 553d 6a89 203e bcb5 7dbd ea30 bf3d
000003e0: 0b16 d63d 3b85 12bd b49b 0a3d b7ca b63c
000003f0: a760 b53d e9e4 5ebc a285 843e 72a6 f83d
-0.07278404 0.0038064036 0.1117102 -0.08097974 -0.09400543 0.11531846 0.030739019 0.13265821
0.028613225 0.07979992 0.017493354 0.04922628 -0.03826043 0.12080524 -0.012858882 -0.0698674
-0.0060166707 -0.029473398 0.014785839 0.117254525 0.030672112 -0.037982665 -0.067763425 -0.02525075
0.011034087 0.09724503 0.06508129 -0.030885708 0.031946078 0.052479908 -0.045216057 -0.0047829994
0.02530793 0.08315523 0.0404687 0.022529751 -0.07406296 -0.0052053304 0.024931625 -0.06444101
-0.0030422006 -0.03781324 0.0894124 0.06264619 0.095404044 0.09672536 0.061614748 -0.08161216
-0.0792342 0.02896536 0.046974804 -0.09366067 0.061716422 0.055885624 -0.124740906 0.056530736
0.10932351 0.011631047 0.03805984 0.10243341 0.029732931 -0.0625103 0.10367137 0.070058726
-0.020774728 -0.086096115 0.0066170553 0.101844706 0.030664334 0.096111305 -0.014040078 0.043736156
-0.23353332 -0.0339409 0.12923744 -0.01948294 -0.038492348 -0.010191956 0.051266108 0.07022623
0.14439648 0.009930518 -0.0005313893 0.15934703 0.020844227 -0.033269294 -0.079548456 0.004711622
-0.06931597 -0.0853747 0.11937682 0.0704416 0.12746765 -0.09493553 0.07121382 -0.0141316885
-0.080837786 0.05225071 0.067833014 0.038442783 0.017349204 -0.048183136 -0.12066617 0.17341852
0.15334879 -0.025047261 0.18332806 -0.05316779 0.09231175 -0.05753467 0.0035378546 0.0636597
0.087101124 0.014048569 -0.0026123729 -0.18004003 0.026961684 0.11105387 0.050494164 -0.2619067
0.023823325 0.014561193 -0.079332836 0.16842438 0.07965647 0.056681458 0.07626812 0.104640886
0.035764404 0.1498168 0.010164871 0.008205476 0.04688569 0.044685867 -0.024975374 0.15046607
-0.15563092 -0.07463532 0.03758167 -0.058859233 0.066159636 0.06058241 0.016003883 -0.032844402
-0.06495057 -0.019858051 0.021510428 0.024846546 -0.020150399 -0.08354888 0.051905464 -0.06717985
-0.15559687 0.10399831 -0.045287937 -0.034359466 0.021109462 0.047699917 0.16198921 0.069114275
0.08725162 0.07507986 0.010359225 -0.022244476 -0.003790376 0.07560098 -0.00059676584 -0.0029214127
0.07818144 -0.059613995 -0.09392178 0.0049198796 0.04443938 -0.030459207 -0.021450704 0.007050436
0.045468442 0.14988382 0.06840786 0.05101152 2.3648772e-06 -0.05216043 0.04755977 -0.053439587
0.24747239 0.07792168 -0.43278027 -0.16228119 -0.000312454 -0.00069463026 -0.0055009094 0.03466301
-0.025650484 0.00031406106 0.12660359 0.17962356 -0.3998417 -0.052943226 -0.06993651 0.20029253
0.07857813 -0.0036640523 -0.07165624 -0.0040609073 0.087807424 0.13504055 -0.020365715 0.07529946
-0.06573547 0.061968315 -0.030384665 0.08741797 0.12218764 0.12633872 -0.122170076 0.045982994
0.073748164 -0.05722512 -0.077213265 0.037142903 0.039657693 -0.1509859 0.09141056 -0.015089811
0.11055256 -0.0043680402 0.10169479 -0.017123519 0.033148922 -0.029857196 -0.0073220436 0.014594495
0.0034547441 0.05710948 -0.11627647 -0.040032316 0.032568593 0.07923478 0.16301471 0.04687484
-0.106705956 0.05321093 0.12468035 -0.004784741 0.052002363 0.1567742 -0.061940894 0.093355015
0.10453423 -0.03577159 0.033839896 0.022313459 0.088563256 -0.013604381 0.25883204 0.12141122

net.4.weight f4 [4, 256]
00000000: 3586 9e3f b669 a8be e7c5 70bf 0b51 fabe
00000010: b2e4 a3bf c61f ad3e 01c6 573f 2ebf 973e
00000020: bece 40bd c8a2 143f bd0d efbe ce7e 30bf
00000030: 9f30 a93b 644e 19bf bc9d 05bf 7fd9 6c3d
00000040: d809 803e 2bd7 e3be 5515 b4be 6428 57bf
00000050: 8c4b 103f b363 403f 78fe 21bf 51a2 563e
00000060: f4ea 8fbe 325f 99be 3b9f bc3e 0985 23bf
00000070: e58b 95be d34d 48bf 960b 42bd c99c c4be
00000080: e6c5 dbbe 7d31 a13e 5de0 b6bc 8c21 ce3e
00000090: 623c 8abe 8ca6 673d 113c 0b3f 5314 2dbf
000000a0: 8b3b 5a3f 7dd1 bebd 37b1 103f c265 ef3e
000000b0: 2dfb 8e3e a464 553f fae1 733f 7833 1abf
000000c0: b942 78bb a659 ddbe c2e3 353f 127d 333f
000000d0: 34e8 b0be be65 483f 9483 a6be 3e46 2dbe
000000e0: 30ae 8abe 69f0 fdbe 61fe 02bf af40 053f
000000f0: 80ff 2bbd 703b 04bc 0a39 d9be 5eb4 d3be
00000100: 47e1 c63c 7bee b23f 2eeb da3e 396a 25bf
00000110: 4e0e c4be 9d0c a83e 9fb0 4e3c 0b43 77ba
00000120: 9fc0 88be 754d d3be eed9 dfbe 0c54 0abe
00000130: 1fb7 e0be eae9 e53c f4e6 a7be 7c8a c53e
00000140: f165 103f fb00 3f3d f293 10bf 336f 963e
00000150: af8b 01bf c7ed 8e3c e574 9a3f 3969 f5be
00000160: f481 46bf ecad 09bf 061e 9c3e 823a 09bf
00000170: be4e 9b3e cca4 7c3f df19 edbe 8035 b5be
00000180: 0f96 f4be e85f 15bf 6083 4c3f c922 cabe
00000190: 2fd6 03bf d529 7a3d 6781 0ebf f9b0 a43e
000001a0: bfee 963e b543 1bbf 32b1 df3e 179b 9cbe
000001b0: c85f b0be 845e dcbe 2064 abbe 09ae adbe
000001c0: da96 3d3f bcfb 91bf f540 46bc c8bb 9dbf
000001d0: edee 223f ca7e 063f 0833 90be 8d3b 6fbf
000001e0: 528a 83be da26 c8be 8efe fbbb 15a1 993e
000001f0: 1ca7 193f 6b58 12bf eaaa c8be 3644 1a3f
00000200: 2ffc c7be f423 50be 9a8e 2abd 7b4e 063d
00000210: d2ac bf3e fe82 7f3c 187f 1c3c 0530 d33e
00000220: 1bc1 c8bf ee40 0dbf 4ec6 a6bf bff6 953f
00000230: 66b0 513f 6d64 a8be c483 733f 8214 db3e
00000240: 9c3b f2be 7c82 143c 483c c8be 9d66 d3be
00000250: 5e2b 233d 865b b63f d7cc e9be c208 00bd
00000260: 8833 50bf cc59 273f b8e2 223d 16d3 423d
00000270: 2fd7 5eba 7dd0 483f 31cb d83e 65c6 e43e
00000280: 4a82 a63e ffe1 d4be 562b 3d3f af07 d3be
00000290: 509b f7be cafa ccbe 0acb 333f 7771 59be
000002a0: 8a86 2a3f 1e50 64bd 9c0b 053f 3f07 213f
000002b0: ecaa ea3e 9db2 c53c 93e5 89bf a643 543f
000002c0: a5dd a8be 09e0 d33f 0ed3 65bf fec8 b93e
000002d0: 3a58 cb3e 2944 2fbf d529 2fbf 2847 f4bc
000002e0: 3c10 9a3f 11ac 8ebe e1db 9bbe 3ce7 54bf
000002f0: ef5e d5be c23c f2be 5cf0 4cbe c182 d7be
00000300: 512b 8abe a640 e1be 5535 48bf 7f9c b23e
00000310: e907 da3f a4b6 eabe 51e5 da3f 529e 973d
00000320: d273 b63f 2bb9 24bf bede 2fbd 8b93 e03c
00000330: e9df ee3e 9e75 903e 875d babe 2d12 553f
00000340: fad8 2dbd bc88 003f 086b c2bc a6c4 1fbe
00000350: 392c f6be c8ae a03e a470 ad3e b7d0 c3be
00000360: c658 043f 3db7 9cbc 861f d1be 24e1 a7be
00000370: 207f 04bf 7730 b5be 8017 2a3f 5591 d73e
00000380: de5c 8a3e 53c0 49be ed51 33bf d652 c9be
00000390: 3e80 b33e dac5 f4be ff6f d5be ef71 95be
000003a0: a524 03bf df60 a7be f853 18bf 965f 83be
000003b0: fd11 22bf d819 1fbf b9a5 c73e 15b1 a73b
000003c0: b47a 273f f800 54bf 11fe 223f c432 12bf
000003d0: 2d5e e7be 3679 093f 330c bf3e 2c09 e3be
000003e0: feeb bbbe 892f c2be 1e61 103f 0c09 7e3d
000003f0: 6484 51be 8a34 99be 4ee3 2abe 16f2 a63e
1.2384707 -0.3289315 -0.94051975 -0.48889956 -1.2804167 0.33813304 0.84286505 0.29638046
-0.047072165 0.58060884 -0.4669017 -0.6894349 0.005163267 -0.5988524 -0.5219381 0.057824608
0.2500751 -0.44500098 -0.35172525 -0.84046006 0.56365275 0.7515213 -0.63278913 0.20960356
-0.28108943 -0.2995544 0.36840233 -0.6387487 -0.29208294 -0.7824375 -0.04737433 -0.38400868
-0.42924422 0.3148307 -0.022323782 0.4025997 -0.26999193 0.056555316 0.5438853 -0.6760914
0.85247105 -0.093173005 0.5652041 0.46757323 0.27926007 0.8335669 0.9526669 -0.60234785
-0.0037881567 -0.4323246 0.71050656 0.7011272 -0.34552157 0.78280246 -0.3252226 -0.16921327
-0.2708602 -0.4959748 -0.511694 0.52051824 -0.04199171 -0.008070812 -0.4242633 -0.41348547
0.024277342 1.3979028 0.42757553 -0.6461521 -0.38292164 0.32822123 0.012615352 -0.00094322924
-0.26709458 -0.41270033 -0.43720955 -0.13508624 -0.4388971 0.02806564 -0.3279339 0.38582218
0.5640555 0.046631794 -0.56475747 0.29381713 -0.50603765 0.017447365 1.2066923 -0.4793184
-0.7754204 -0.5378101 0.30491656 -0.536049 0.30333513 0.9868896 -0.463088 -0.3539238
-0.47770736 -0.58349466 0.7988796 -0.39479664 -0.51498693 0.06107505 -0.556662 0.3216627
0.29479024 -0.6065019 0.43689877 -0.30587074 -0.34448075 -0.4304086 -0.33474827 -0.3392184
0.74058306 -1.1404948 -0.012100448 -1.2322931 0.6364582 0.52537215 -0.28163934 -0.9345024
-0.25691468 -0.3909214 -0.0076902574 0.30005708 0.60020614 -0.57166165 -0.39192897 0.6026033
-0.39059588 -0.20326215 -0.0416399 0.03278969 0.3743654 0.015595196 0.009551786 0.41247573
-1.5683931 -0.551772 -1.3029268 1.1715926 0.8190979 -0.3288912 0.95122933 0.42789084
-0.47311103 0.009064313 -0.3910849 -0.41289225 0.03983628 1.4246681 -0.45664093 -0.031258352
-0.8132863 0.65371394 0.039766997 0.04756459 -0.0008500693 0.7844313 0.42342523 0.44682613
0.32521278 -0.4157867 0.7389425 -0.412168 -0.48360682 -0.40035087 0.7023169 -0.2123469
0.6661154 -0.05574047 0.5197084 0.6290168 0.45833528 0.024133021 -1.0773185 0.82915723
-0.329816 1.6552745 -0.8977517 0.36286157 0.3971575 -0.6846338 -0.68423206 -0.029819086
1.2036204 -0.2786565 -0.30441192 -0.83165336 -0.4167399 -0.4731198 -0.20013565 -0.42091945
-0.26986173 -0.43994635 -0.7820638 0.34885022 1.7033664 -0.4584247 1.7101232 0.07403244
1.4254096 -0.64345044 -0.042937033 0.027414104 0.46655205 0.28214735 -0.3639948 0.8323086
-0.042443253 0.5020864 -0.023732677 -0.15602359 -0.48080614 0.31383348 0.33875 -0.38245174
0.5169796 -0.019130344 -0.40844363 -0.32788956 -0.5175648 -0.35388538 0.6644211 0.42103067
0.27023977 -0.19702272 -0.70046884 -0.3932101 0.3505878 -0.478072 -0.4168701 -0.29188487
-0.5122779 -0.32691094 -0.59503126 -0.25658864 -0.633087 -0.6214881 0.38993624 0.0051175454
0.65421605 -0.8281398 0.63668925 -0.5710871 -0.45189038 0.5370058 0.37313995 -0.44342935
-0.36703485 -0.3792689 0.5639819 0.062020347 -0.2046066 -0.29922897 -0.16688272 0.32606572

net.4.bias f4 [4]
00000000: d92d 80bd 0a3b 093d 686c 223d 28b0 f1bc
-0.06258745 0.03350357 0.039654166 -0.029502943
